KartSCBIO/results/circuitoA-2/ArcadeDriver.onnx (onnx, 96494 bytes, 9 tensors)

discrete_action_output_shape f4 [1, 2]
0	0x40400000	3.0
1	0x40000000	2.0

network_body._body_endoder.seq_layers.0.weight f4 [128, 48]
0	0xbce0f433	-0.027460193
1	0x3df0cda7	0.11757975
2	0x3ea0cf5b	0.314082
3	0xbb49c0d9	-0.0030785112
4	0xbdba7dbb	-0.091060124
5	0xbe905d4f	-0.2819619
6	0x3db6dbaa	0.08928616
7	0x3df31f02	0.11871149
8	0x3d260e75	0.04054113
9	0xbe19936d	-0.14997645
10	0xbe575c5e	-0.21031329
11	0xbd82f4ac	-0.06394324
12	0x3d84496b	0.06459316
13	0xbd72ec0f	-0.059307154
14	0xbd057ac5	-0.032587785
15	0xbe86e695	-0.26347795
16	0x3d10af99	0.035323713
17	0xbd85d49d	-0.065346934
18	0xbde1111e	-0.10989593
19	0x3c0537f4	0.008131016
20	0xbd14130a	-0.03615097
21	0xbd8bec2d	-0.06832156
22	0x3d802182	0.06256391
23	0xbe2a0623	-0.16603903
24	0x3e0c4530	0.13698268
25	0x3cbde147	0.02317871
26	0xbe2bcdb9	-0.16777696
27	0xbdb2d8f7	-0.08732789
28	0xbe79ae66	-0.24382934
29	0xbd8c8026	-0.0686038
30	0x3dc3c8c8	0.0955978
31	0xbe1e6fe9	-0.15472378
32	0x3e29a940	0.1656847
33	0x3e05f91e	0.13083312
34	0xbeaca656	-0.33720654
35	0x3e563eab	0.20922343
36	0x3e54dd05	0.20787437
37	0x3cdf00e3	0.027222103
38	0x3e7829f7	0.24234758
39	0x3d93f630	0.07224691
40	0x3e4177b8	0.18893325
41	0xbe9cdcde	-0.30637258
42	0x3e1df422	0.1542516
43	0x3e1be65a	0.15224591
44	0x3eaddf9c	0.33959663
45	0xbcf99505	-0.030466566
46	0x3e19bc51	0.15013243
47	0xbe82cc42	-0.2554646
48	0x3d847084	0.06466773
49	0x3e006b18	0.12540853
50	0x3df78d8b	0.12087544
51	0x3d4c7192	0.049912997
52	0xbe927b9d	-0.28609934
53	0xbe660674	-0.22463399
54	0x3d7c0999	0.06153259
55	0x3c600a6d	0.013674361
56	0xbe07df0d	-0.13268681
57	0x3c831a27	0.016003681
58	0xbe455126	-0.19269237
59	0xbe0a2da6	-0.13493976
60	0x3d81594f	0.063158624
61	0x3cbed534	0.023295023
62	0x3c623ca9	0.013808408
63	0xbe1b9d47	-0.15196715
64	0x3cea2e52	0.02858654
65	0x3cf619ca	0.030041594
66	0xbcf68894	-0.030094422
67	0xbc557f03	-0.01303077
68	0x3da2fb8a	0.079581335
69	0x3dbf33f2	0.0933608
70	0xbc50403c	-0.012710627
71	0x3e24e256	0.16101965
72	0xbd21f68a	-0.03954176
73	0xbca17eb8	-0.019713745
74	0x3e005232	0.12531355
75	0xbd93763c	-0.07200286
76	0xbc27bdc1	-0.010238112
77	0x3e26628c	0.1624853
78	0x3d80b88b	0.06285199
79	0x3ddee165	0.10882834
80	0xbcd6af49	-0.02620663
81	0x3d8f85ed	0.07007966
82	0x3c874305	0.01651145
83	0x3bbd0bbf	0.0057692225
84	0x3d467ceb	0.048458975
85	0x3e00ee21	0.12590839
86	0x3d14ddf8	0.0363445
87	0xbe1e253d	-0.15443893
88	0x3eb47e09	0.35252407
89	0x3cbe539f	0.023233233
90	0xbd4befcb	-0.04978923
91	0x3cd69350	0.026193291
92	0xbd6e57b1	-0.058189098
93	0x3df5c476	0.120003626
94	0x3c3bb1fd	0.01145601
95	0xbdfde849	-0.123978205
96	0xbd130133	-0.035889816
97	0xbd03ed71	-0.032208864
98	0xbd1bcb6c	-0.038035795
99	0xbceb3f32	-0.028716657
100	0xbe9c661e	-0.3054666
101	0x3e0a1882	0.13485911
102	0xbd9bbc33	-0.076042555
103	0x3d45529a	0.048174478
104	0xbe3f5c36	-0.1868752
105	0xbbf13d20	-0.007362023
106	0xbd8b07e0	-0.067886114
107	0x3cba7572	0.02276108
108	0xbd83200b	-0.06402596
109	0xbe944bd4	-0.28964102
110	0xbcf8abc7	-0.030355347
111	0xbeae0cce	-0.33994144
112	0xbe2bd378	-0.16779888
113	0x3db5b586	0.088725135
114	0xbe22249f	-0.15834282
115	0x3e5f135b	0.21784727
116	0x3dd644e6	0.1046236
117	0xbc4d8bef	-0.01254557
118	0x3d3befd8	0.04588303
119	0xbd926401	-0.071479805
120	0xbe8f5ae2	-0.27999026
121	0xbde636e4	-0.11240938
122	0xbde773f6	-0.11301415
123	0x3d61bffe	0.05511474
124	0x3ded8fa7	0.11599665
125	0xbe91b43f	-0.2845783
126	0xbe9947b5	-0.2993752
127	0xbd3ba2c5	-0.045809526
128	0xbe476625	-0.19472559
129	0xbcdb9925	-0.026806423
130	0xbdb3c8b4	-0.087785155
131	0xbe2e07fd	-0.16995235
132	0xbec06cc1	-0.37582973
133	0xbd031902	-0.03200627
134	0xbc594672	-0.013261424
135	0xbc71b317	-0.014752171
136	0x3e1a7bec	0.15086335
137	0xbe14d7eb	-0.14535491
138	0xbd492479	-0.04910705
139	0x3da87a4d	0.08226452
140	0x3d8f13a3	0.06986167
141	0xbe5bdeb7	-0.21471678
142	0x3e83b2df	0.25722405
143	0xbe9227df	-0.28546044
144	0x3d0a3399	0.033740614
145	0xbcdec61b	-0.027194073
146	0x3d1f0efc	0.03883265
147	0xbcfa71e8	-0.030571893
148	0x3e216735	0.15762027
149	0xbe564b36	-0.20927128
150	0xbad6e7a1	-0.0016395935
151	0xbd5a082f	-0.05323046
152	0x3d4ab08e	0.049484782
153	0x3e6d9e06	0.23204812
154	0xbe37a5e3	-0.17934375
155	0xbd3b306d	-0.04570048
156	0xbdb7ad7d	-0.08968637
157	0xbdf8cc53	-0.12148347
158	0xbd1e2b30	-0.038615406
159	0x3d921df0	0.071346164
160	0xbd710a8f	-0.05884796
161	0x3dd91c80	0.10601139
162	0xbd3edcb6	-0.046597205
163	0x3d1facaa	0.038983025
164	0x3e337c63	0.17527919
165	0x3bb98ae7	0.0056623104
166	0xbe189105	-0.1489907
167	0x3e9b1d85	0.3029596
168	0xbdbdb89b	-0.09263726
169	0x3e52b2e4	0.20576054
170	0xbd884639	-0.06654019
171	0x3eaeee68	0.34166265
172	0xbc5e1b09	-0.01355625
173	0x3cd9c577	0.026583416
174	0xbe72aac9	-0.23697962
175	0xbe51399e	-0.20432135
176	0xbdd07ee5	-0.10180453
177	0x3decccb4	0.115624815
178	0x3d783e2e	0.060606174
179	0x3db21218	0.08694857
180	0x3dd1ba56	0.10240619
181	0x3da7229b	0.08160897
182	0xbd29e777	-0.041480508
183	0xbe2b35b7	-0.1671971
184	0x3e3a4bf1	0.18193032
185	0xbdbf8e8b	-0.0935336
186	0x3d573c76	0.052547894
187	0x3c8e2a42	0.017354134
188	0xbdf047d5	-0.11732451
189	0xbcc6e610	-0.024279624
190	0xbd5e5989	-0.054284606
191	0xbeb369e2	-0.3504172
192	0x3d058709	0.032599483
193	0x3e190eab	0.14947002
194	0x3db7f9fb	0.08983227
195	0x3d8228e5	0.06355456
196	0x3dbdb1e3	0.09262445
197	0xbcd412e0	-0.025887907
198	0xbd6d114b	-0.05787782
199	0xbe03b961	-0.12863685
200	0x3daf6b1f	0.085653536
201	0xbc80ffe6	-0.015747022
202	0xbe80c598	-0.25150752
203	0x3e40ce7a	0.18828765
204	0xbe7c5b18	-0.24644125
205	0xbc39cd98	-0.011340521
206	0xbe8e46d9	-0.27788427
207	0x3c5bcbcd	0.013415289
208	0xbda7f9ce	-0.08201943
209	0xbcbcc981	-0.023045303
210	0x3df4a754	0.11945978
211	0x3e5d879c	0.21633762
212	0x3d72d506	0.059285186
213	0x3db85588	0.09000689
214	0x3e97cc2b	0.29647955
215	0xbddd9aef	-0.10820567
216	0x3cd3ce16	0.025855105
217	0xbe61e891	-0.22061373
218	0xbcaa1093	-0.020759856
219	0x3e41c5c3	0.18923096
220	0x3e27f244	0.16401011
221	0x3b42122f	0.002961289
222	0x3b79511a	0.0038042725
223	0xbdd97d84	-0.10619643
224	0xbe78a5c9	-0.24281992
225	0xbda6eafc	-0.081502885
226	0xb97290d6	-0.00023132874
227	0x3d1f0534	0.03882332
228	0xbce03414	-0.027368583
229	0xbd7e748f	-0.062122878
230	0x3c08a480	0.008340001
231	0x3c192b4b	0.009348701
232	0xbeded544	-0.43522084
233	0x3d387a2c	0.045038387
234	0x3dc9f51f	0.09861206
235	0xbe12959d	-0.14314885
236	0x3d3a9889	0.045555625
237	0xbe3f3e82	-0.18676189
238	0x3be4e54a	0.006985341
239	0xbbe1e82c	-0.006894132
240	0xbe879686	-0.26482028
241	0x3e36aad1	0.17838599
242	0x3e415501	0.18880083
243	0xbdd4e027	-0.10394316
244	0xbc30f71c	-0.010801103
245	0xbca944ab	-0.020662626
246	0xbe20d65c	-0.15706772
247	0xbd34cf5f	-0.044143077
248	0x3ca35ff0	0.019943208
249	0x3ce68216	0.028138202
250	0xbe39f214	-0.18158752
251	0x3cac5f4b	0.021041533
252	0xbc92c30e	-0.017915275
253	0xbe36c046	-0.17846784
254	0x3d9d704d	0.07687435
255	0x3e18e7ed	0.14932223

network_body._body_endoder.seq_layers.0.bias f4 [128]
0	0x39ea5c75	0.00044700844
1	0x3bcab825	0.0061865025
2	0x3ba7a3e9	0.005115975
3	0xbbdbfdcd	-0.006713605
4	0x3c387546	0.011258429
5	0x3c16b08c	0.0091973655
6	0xbc5eedc3	-0.0136064915
7	0x3c078a19	0.008272671
8	0x3ca80e9f	0.020514784
9	0xbb8d4851	-0.0043115993
10	0xbba29c68	-0.0049624927
11	0xbbf4f4e7	-0.0074754837
12	0xbc68292c	-0.014169972
13	0x3c8f58a3	0.01749832
14	0xbc62f7ba	-0.013853008
15	0x3cc05346	0.023477208
16	0x3caee3cc	0.021348856
17	0x3c2249b2	0.009905266
18	0x3ca133a2	0.01967794
19	0x3c415645	0.011800353
20	0x3a81df0a	0.000990839
21	0xb9d3ad05	-0.00040373966
22	0x3ad0b0c4	0.0015921821
23	0x3c885634	0.016642667
24	0x3c53cb76	0.012926927
25	0x3b95d9dd	0.0045730905
26	0x3cbdae09	0.023154275
27	0x3bbe9a04	0.0058167
28	0xbc0b958f	-0.008519544
29	0xbc65057b	-0.013978357
30	0x3be450a4	0.006967621
31	0xbc9855b2	-0.01859555
32	0xbc2c1327	-0.010502613
33	0x3bf01c30	0.007327579
34	0xbbd7a956	-0.0065814657
35	0xbb53ecfa	-0.0032337294
36	0xbb6679fe	-0.0035167928
37	0xbc2d7f5d	-0.010589448
38	0x39a8e030	0.0003221049
39	0x3c47d6ff	0.012197255
40	0xbb81ff05	-0.0039671683
41	0x3b812199	0.0039407727
42	0x3cdbd224	0.026833601
43	0x3bb3b49c	0.005484177
44	0x3afeabfd	0.0019429919
45	0x3b0aaafe	0.0021159048
46	0xbbb24f79	-0.005441603
47	0xbc0330de	-0.008007256
48	0x3b6d3d4e	0.003619987
49	0x3c9ab2dd	0.018884117
50	0x38845916	6.310844e-05
51	0x3c8e694a	0.01738419
52	0x3cca0beb	0.024663886
53	0xbbf591a3	-0.007494168
54	0x3b86e482	0.0041165957
55	0x3c847598	0.016169354
56	0x3b9a6f4b	0.004712974
57	0x3b0ebff1	0.0021781886
58	0xbb9dadc3	-0.004811974
59	0x3bf7eac4	0.007565828
60	0x3b2b14de	0.0026104967
61	0xbb18a5fb	-0.0023292291
62	0x3c90cfe8	0.017677262
63	0x3c6a140b	0.014287005
64	0xbc709817	-0.014684699
65	0x3d02ad10	0.031903327
66	0x3c666203	0.014061454
67	0x3c7e1f89	0.015510448
68	0x3ba67fb3	0.005081141
69	0xba1e9356	-0.00060491764
70	0x3c0641d1	0.008194403
71	0x3c76816a	0.015045503
72	0xbbf639d0	-0.007514216
73	0xbb4e24cf	-0.0031455045
74	0x3b05e6e4	0.002043181
75	0x3c518860	0.012788862
76	0x3bb79643	0.0056026294
77	0x3c51338f	0.01276864
78	0x3c377b0e	0.011198772
79	0x3abba723	0.0014316778
80	0x3a467c9e	0.000757167
81	0x3d112c12	0.03544242
82	0x3c5b49a8	0.01338426
83	0xbc991985	-0.018688926
84	0x3d07dd8b	0.033170264
85	0xbc85fca2	-0.016355816
86	0x3cdf51d6	0.027260702
87	0x3ccf9a51	0.025342138
88	0xbc918e4d	-0.01776805
89	0x3c2ff019	0.010738396
90	0x3c1d2d72	0.009593355
91	0x3bd898a2	0.006609992
92	0x3baea4ab	0.0053296885
93	0x3c9ecbe9	0.019384341
94	0x3c18f758	0.009336315
95	0xbc270607	-0.010194308
96	0x3cf26c13	0.02959255
97	0x3cabf95d	0.02099293
98	0x3c207c94	0.009795327
99	0xbbe60582	-0.0070196996
100	0x3a2dad0c	0.0006625212
101	0x3ccd4926	0.025059294
102	0x3d12d79c	0.035850152
103	0x3c8720c6	0.01649512
104	0x3ced4db5	0.028967718
105	0x3ca82430	0.020525068
106	0xbbe07f5e	-0.006851121
107	0xbc33e440	-0.010979712
108	0x3ce01190	0.027352124
109	0x3bc32d66	0.0059563396
110	0x3c0425db	0.008065666
111	0x3c93c243	0.018036967
112	0x3c6f1ea4	0.014594708
113	0x3cded918	0.027203128
114	0x3c162012	0.00916292
115	0x3c3022e7	0.010750509
116	0x3c6ca381	0.014443279
117	0x3c3096eb	0.010778169
118	0xbbbecc80	-0.005822718
119	0x3b86d568	0.0041147955
120	0xbcb038b2	-0.02151141
121	0xb9c80459	-0.00038150212
122	0xbae86fe0	-0.0017733537
123	0x3b512939	0.003191544
124	0xbcc586fe	-0.02411222
125	0x3c34290a	0.010996113
126	0xbbc734e8	-0.006079305
127	0xbc429e98	-0.011878632

network_body._body_endoder.seq_layers.2.weight f4 [128, 128]
0	0x3d310bf6	0.043224297
1	0x3d83d4b2	0.06437053
2	0xbd1dc4d1	-0.038517777
3	0x3e0fdd18	0.14049184
4	0xbd716994	-0.058938578
5	0xbcdebbc5	-0.027189145
6	0x3d122393	0.035678457
7	0x3d1f4197	0.03888091
8	0xbcff7ef4	-0.031188466
9	0x3dce0e7e	0.10061358
10	0x3d77a076	0.06045576
11	0xbc646a1b	-0.013941313
12	0xbd5c8b6d	-0.053843904
13	0x3d6a86a0	0.057257295
14	0x3d199202	0.03749276
15	0x3d78860b	0.06067471
16	0xbd867b7f	-0.06566524
17	0xbbb6ba2d	-0.005576393
18	0x3c993b72	0.018705104
19	0x3d80cb3f	0.06288766
20	0xbe3ed568	-0.18636096
21	0x3d0745f4	0.033025697
22	0x3e249146	0.16071042
23	0x3c4c29c6	0.012461131
24	0xbe4b3f6e	-0.19848415
25	0xbd72a63f	-0.059240576
26	0x3d3adf6a	0.04562322
27	0x3d83a747	0.0642839
28	0x3cc3b572	0.02389023
29	0xbd99e109	-0.07513625
30	0x3e069480	0.13142586
31	0x3cbee4d9	0.023302482
32	0xbdc15153	-0.094393395
33	0xbd88089f	-0.06642269
34	0x3d43e603	0.04782678
35	0x3dac5317	0.08414286
36	0xbd7ae104	-0.061249748
37	0x3c7dfd99	0.015502357
38	0xbe1245d5	-0.14284451
39	0x3d6229d9	0.05521569
40	0x3db09b6b	0.086233936
41	0x3d70ed98	0.058820337
42	0xbde955fa	-0.11393352
43	0xbd9b3e28	-0.07580215
44	0x3dff76ed	0.12473855
45	0xbd16a7f5	-0.03678127
46	0x3bec3387	0.007208291
47	0x3b3dcd59	0.0028961508
48	0xbe1653c8	-0.14680398
49	0x3d9296b2	0.07157649
50	0xbdedf30c	-0.11618623
51	0xbda3dc37	-0.08000987
52	0x3d1e9372	0.038714834
53	0xbd83aab1	-0.06429041
54	0xbe0a3f52	-0.13500717
55	0xbdfe152e	-0.124063835
56	0x3dfb4d06	0.122705504
57	0x3dda3c02	0.10655977
58	0xbdb57d1b	-0.088617526
59	0xbd8792c5	-0.06619791
60	0xbd251d18	-0.04031095
61	0xbd68e4c3	-0.05685879
62	0xbcb41b1a	-0.02198558
63	0x3e14607b	0.1448993
64	0xbca90497	-0.020632071
65	0x3d03e934	0.03220482
66	0x3c7cdd09	0.015433558
67	0xbb21e14e	-0.0024700942
68	0x3dd50461	0.10401226
69	0x3d9bcb3f	0.076071255
70	0x3dcc6084	0.099793464
71	0xbe318d07	-0.17338954
72	0xbe23bf71	-0.15990998
73	0x3d317be1	0.04333103
74	0xbdf32754	-0.118727356
75	0xbd56b563	-0.052419078
76	0x3b17ddb5	0.002317292
77	0xbdf6f532	-0.12058486
78	0x3d79c40f	0.06097799
79	0xbcb8118d	-0.022469306
80	0x398abcfd	0.00026462218
81	0x3d5c0e04	0.053724304
82	0x3d2c66bc	0.042090163
83	0xbc8fcb9a	-0.01755314
84	0x3d975e3b	0.0739102
85	0x3b923578	0.0044619404
86	0x3c2b4272	0.0104528535
87	0xbd48635e	-0.04892289
88	0xbdc2b3ba	-0.09506936
89	0xbb82bf84	-0.0039901156
90	0x3d42f8b1	0.04760045
91	0xbe079517	-0.13240467
92	0x3d6b2a85	0.057413597
93	0x3dc3c5d0	0.09559214
94	0x3db4cbfb	0.08827969
95	0xbd8693d9	-0.065711685
96	0xbd3e6b21	-0.046488885
97	0xbac723a8	-0.0015193122
98	0xbe1a5e6c	-0.15075082
99	0x3d2dc9c4	0.042428747
100	0x3d5d22b3	0.05398817
101	0xbdbc4058	-0.0919196
102	0xbded5ba9	-0.115897484
103	0xbcf9c079	-0.030487286
104	0xbda47434	-0.080299765
105	0xbdcd8c34	-0.10036507
106	0x3d8eae68	0.06966859
107	0xbdb4fb21	-0.088369615
108	0x3c852ad2	0.01625577
109	0xbe2ae575	-0.16689093
110	0x3cab4b23	0.020909851
111	0xbdd370b8	-0.10324234
112	0xbdec9afc	-0.115529984
113	0xbcd27cdf	-0.025694309
114	0x3e0e467d	0.13894077
115	0xbde092c1	-0.10965491
116	0xbd260287	-0.040529754
117	0x3df71b3c	0.120657414
118	0x3d8d93a5	0.069129266
119	0xbcb4fdf2	-0.022093747
120	0x3caa6f29	0.020804958
121	0x3d000aff	0.031260487
122	0xbd462779	-0.048377488
123	0xbd98a91f	-0.07454132
124	0x3e18eca8	0.14934027
125	0x3d6f68a5	0.058449406
126	0x3b87c5bc	0.004143445
127	0xbd1d8e2a	-0.038465656
128	0x3d37fc6b	0.04491846
129	0xbe046fb8	-0.12933242
130	0x3cc26929	0.023731785
131	0xbd4f039a	-0.050540544
132	0x3db224db	0.08698436
133	0x3d7f98bd	0.062401522
134	0x3d5c29e4	0.053750888
135	0xbcf0a28f	-0.029374389
136	0xbd14f48a	-0.036366023
137	0x3d687f3b	0.05676196
138	0xbdf2cffb	-0.118560754
139	0xbdba4869	-0.090958424
140	0xbd6235dc	-0.055227146
141	0xbe89f694	-0.26945937
142	0x3e0508a3	0.12991576
143	0x3cf0c947	0.029392852
144	0x3bc51d53	0.0060154586
145	0xbcea8c3a	-0.028631318
146	0xbdd5f154	-0.1044642
147	0xbc6739c8	-0.014112897
148	0x3da6a517	0.08136957
149	0xbd6a0f6a	-0.057143606
150	0x3ce7075e	0.028201755
151	0x3e1ea091	0.15490939
152	0xbd937035	-0.07199136
153	0xbd0c948e	-0.03432136
154	0xbe0585fa	-0.13039389
155	0xbd285551	-0.04109699
156	0xbe076580	-0.13222313
157	0xbc95aefc	-0.018271916
158	0xbc5c2ad0	-0.013437942
159	0x3ddf170b	0.10893067
160	0xbe107b33	-0.14109497
161	0xbdeb74af	-0.11496865
162	0xbe2236fd	-0.15841289
163	0xbc597da0	-0.01327458
164	0x3c9c2a5e	0.019063171
165	0xbdb1e15f	-0.08685564
166	0xbdded0e3	-0.10879686
167	0xbcb3c342	-0.021943692
168	0x3caac523	0.020845955
169	0xbe25b553	-0.16182451
170	0xbd455228	-0.048174053
171	0x3dd3c121	0.10339571
172	0xbbea021f	-0.007141366
173	0xbcf263f1	-0.029588671
174	0xbcaed49f	-0.02134162
175	0xbdbf8843	-0.09352162
176	0x3d4ee5f1	0.050512258
177	0x3de7ace7	0.113122754
178	0xbd87a310	-0.066228986
179	0xbda65991	-0.08122552
180	0xbd47e3e2	-0.04880131
181	0xbd6f6f0c	-0.058455512
182	0x3ad2376f	0.0016038249
183	0xbd12730f	-0.03575426
184	0xbd0d824a	-0.03454808
185	0xbcb9eb0c	-0.022695087
186	0x3d3d7723	0.046256196
187	0x3d6b49c3	0.05744339
188	0x3e46b614	0.19405395
189	0x3a71908b	0.0009214959
190	0x3bda9d17	0.0066715586
191	0x3dd98203	0.10620501
192	0xbceae92b	-0.028675636
193	0xbde6ff35	-0.11279146
194	0xbe3f3059	-0.18670787
195	0x3d6f252e	0.058385067
196	0x3d969536	0.073526785
197	0x3d165c47	0.036709096
198	0x3e1fd229	0.15607513
199	0xbd9f7055	-0.077850975
200	0x3b923b1c	0.004462613
201	0x3e2742d3	0.16334085
202	0x3dac0e41	0.08401156
203	0xbe595bac	-0.21226376
204	0xbd853fb9	-0.06506295
205	0x3e1e0248	0.15430558
206	0x3d9cfc51	0.07665313
207	0x3d3703cf	0.044681367
208	0xbd15b8b0	-0.036553085
209	0x3c73f4eb	0.014889936
210	0x3d3bc0fe	0.04583835
211	0x3bd894f1	0.006609552
212	0xbd3b0bba	-0.04566548
213	0x3d816380	0.06317806
214	0x3d7cc964	0.0617155
215	0x3daa1bc3	0.083060764
216	0xbe8a6fa3	-0.27038297
217	0x3e08b34c	0.13349646
218	0x3d7df9b7	0.062005725
219	0x3d7196e4	0.05898179
220	0xbdc6e56f	-0.0971173
221	0xbe12e82d	-0.1434638
222	0x3d34122c	0.043962643
223	0x3d315928	0.043297917
224	0xbd995813	-0.07487502
225	0xbb8d4985	-0.0043117427
226	0x3c20a232	0.009804295
227	0x3d80cda7	0.06289225
228	0x3e339068	0.17535555
229	0xbe75e342	-0.24012473
230	0xbe6894bb	-0.22712986
231	0xbd5bc982	-0.05365897
232	0xbe0d899f	-0.1382203
233	0xbd636835	-0.0555193
234	0xbd82338e	-0.063574895
235	0xbd839dad	-0.06426559
236	0x3d88adfe	0.066738114
237	0x3d4204bc	0.047367796
238	0x3c14b0c9	0.009075352
239	0x3d8a89da	0.06764574
240	0x3d29c29f	0.04144537
241	0xbc50e042	-0.01274878
242	0x3d61bf68	0.05511418
243	0xbca4fbde	-0.02013963
244	0xbd793fe6	-0.060851954
245	0xbb503ab5	-0.0031773273
246	0xbb9c25c3	-0.0047652437
247	0xbe4d2d9b	-0.20036928
248	0x3d99466f	0.07484137
249	0xbddbdbd1	-0.10735286
250	0x3d18c199	0.037294004
251	0xbcaf606f	-0.021408288
252	0xbdd75527	-0.105142884
253	0xbc9deffb	-0.01927947
254	0xbd36e35e	-0.044650428
255	0xbc652281	-0.013985277

network_body._body_endoder.seq_layers.2.bias f4 [128]
0	0x3ca0993a	0.019604314
1	0x3c29b123	0.010357174
2	0xbbaee826	-0.005337733
3	0xbb0189d1	-0.0019765983
4	0x3b27bff9	0.0025596602
5	0xbade1dc5	-0.0016946128
6	0x3c64d5a5	0.013966952
7	0x3d23f085	0.0400243
8	0x3c8d0dd0	0.0172185
9	0x3c7c1b8c	0.015387427
10	0x3af5bda1	0.001874853
11	0x3c10f006	0.008846289
12	0x3c274d08	0.010211237
13	0x3bad673f	0.005291849
14	0xbaa524b9	-0.0012599445
15	0xbc67f18c	-0.01415671
16	0x3ba3e721	0.005001918
17	0xbb8ce642	-0.00429991
18	0x3cc4beb6	0.02401672
19	0xba9a4c94	-0.001177209
20	0x3d0c4520	0.03424561
21	0xbc5df6a6	-0.013547575
22	0x3c1e0ddf	0.009646862
23	0x3cac6981	0.021046402
24	0x3c19fc9f	0.0093986085
25	0x3c096e67	0.008388138
26	0x3d02f5d7	0.031972732
27	0x3bb063cc	0.0053829905
28	0x3bbaeae9	0.005704273
29	0x3c13295f	0.008982032
30	0x3cc0dd2b	0.023542961
31	0xbc31e13d	-0.010856924
32	0x3ba061e8	0.004894484
33	0xba95e96b	-0.0011437362
34	0x3cac54be	0.021036502
35	0xbc30907c	-0.010776635
36	0x3c7e9c90	0.015540257
37	0x3bb8f9d2	0.0056450153
38	0xbb3ea4c2	-0.0029089903
39	0x3bc6d3b9	0.00606772
40	0xbbe07c5c	-0.0068507623
41	0xbc29beb4	-0.010360409
42	0xbb029e6e	-0.0019930857
43	0x3b0e9586	0.0021756603
44	0x3bdc2416	0.006718169
45	0x3c2ad654	0.010427076
46	0xb8da5b23	-0.000104120256
47	0xbbf17e6d	-0.0073698075
48	0xbbd0de6c	-0.006374171
49	0x3c064e80	0.008197427
50	0x3c21ea2e	0.009882493
51	0xbc44acc5	-0.012004082
52	0x3c127e1a	0.008941198
53	0x3c7aa9e8	0.015299298
54	0x3c18ecfd	0.009333846
55	0x39b7185b	0.00034922626
56	0x3c99f638	0.018794164
57	0x3c147cb8	0.009062938
58	0xba55a6e5	-0.00081501744
59	0x3c8654e6	0.016397905
60	0x3ca24bea	0.01981159
61	0xbb80bc3b	-0.003928689
62	0xbaff4964	-0.0019476828
63	0x3ba899fe	0.0051453104
64	0x3c9f88f8	0.019474491
65	0xbb6b8d6e	-0.0035942453
66	0x3b291447	0.002579944
67	0x3b34d4ae	0.0027592587
68	0x3c069424	0.00821403
69	0x3c956510	0.018236667
70	0x3b98679f	0.0046510245
71	0xbc467ee4	-0.012115214
72	0x3c8f84b7	0.017519338
73	0xbb403343	-0.002932743
74	0x3c200df6	0.009768954
75	0xbc064467	-0.008195019
76	0x3b8f2e22	0.004369513
77	0xbb611266	-0.0034343242
78	0x3ca6b45c	0.020349674
79	0xbb9c4b06	-0.0047696857
80	0xbb4ae83e	-0.003096118
81	0x3bd108ff	0.0063792462
82	0xbc7119c2	-0.014715614
83	0x3c426f04	0.0118672885
84	0xbc0e352f	-0.008679672
85	0x3a5e55ec	0.0008481431
86	0x3a835b24	0.0010021669
87	0x3b4ddb93	0.0031411394
88	0x3a34e7f0	0.00069010165
89	0x3b7dad50	0.0038708039
90	0x3ce7181a	0.028209735
91	0xbbceee97	-0.006315063
92	0x3c406c3e	0.011744557
93	0x3bf2ae14	0.0074060056
94	0xbc105b57	-0.00881084
95	0xbaaaa26d	-0.0013018377
96	0x3d36397e	0.044488423
97	0x3b1628a2	0.0022912403
98	0x3cc1d46e	0.023660865
99	0x3d05e0b1	0.032684986
100	0x3d070d04	0.032971397
101	0x3cd555ab	0.026041826
102	0x3c89dd72	0.016829226
103	0x3c4726e7	0.012155271
104	0x3c7784a1	0.015107305
105	0x3cf61b9c	0.030042462
106	0x3c291404	0.0103197135
107	0x3cab07b4	0.020877697
108	0xbc4b64d8	-0.01241418
109	0x3cb52c8d	0.02211597
110	0x3c848f10	0.016181499
111	0xbad184ad	-0.0015984975
112	0xbbf5865b	-0.007492823
113	0x3c72b094	0.014812607
114	0xbb5ded3e	-0.0033863331
115	0xba28bf13	-0.00064371637
116	0x3c3f330c	0.011669885
117	0xbc4c1b2e	-0.012457652
118	0x3bd631f9	0.006536719
119	0x3c84dd6b	0.016218862
120	0x3c92d021	0.01792151
121	0x3afaed58	0.001914422
122	0x3bca7d86	0.0061795143
123	0x3c7ce866	0.0154362675
124	0x3c6846af	0.0141770085
125	0x3aec6a89	0.0018037121
126	0x3c65179f	0.0139826825
127	0x3c7d0a18	0.015444301

action_model._discrete_distribution.branches.0.weight f4 [3, 128]
0	0xbcefb88f	-0.02926281
1	0x3c6a102d	0.014286083
2	0xbc4bf061	-0.0124474475
3	0xbca1c688	-0.019747987
4	0xbd19deb2	-0.037565894
5	0x3a819c7e	0.0009888557
6	0xbbba36fd	-0.0056828246
7	0x3d4d8eeb	0.050185125
8	0x3d043d19	0.03228483
9	0x3d04a1a5	0.03238072
10	0xbd1cd592	-0.038289614
11	0xbd84ce61	-0.06484676
12	0x3cec8f63	0.028876966
13	0xbcc9dd10	-0.024641544
14	0x3c481dfc	0.01221418
15	0xbb2f2e4e	-0.002673048
16	0x3cb7f256	0.022454422
17	0x3c70f973	0.014707911
18	0x3c7dbfb1	0.015487597
19	0xbbea628e	-0.007152862
20	0x3d733efa	0.05938623
21	0x3ba8736d	0.005140713
22	0x3bb69c89	0.0055728597
23	0x3d603081	0.054733757
24	0xbbec140f	-0.0072045396
25	0x3c62f049	0.013851234
26	0xbc83762d	-0.016047562
27	0xbc4cd281	-0.01250136
28	0x3bb263f7	0.0054440456
29	0x3beb4d5e	0.0071808537
30	0x3cb8c8d0	0.022556692
31	0xbcdbb055	-0.02681748
32	0xbca77684	-0.020442255
33	0xbc1769b8	-0.009241514
34	0x3c9be083	0.019027954
35	0x3b6068ef	0.0034242233
36	0x39f1e83c	0.0004614013
37	0xbc4ad67e	-0.0123802405
38	0x3cb4a445	0.022050986
39	0x3c4e72ea	0.01260064
40	0xbca09c66	-0.019605827
41	0x3c8ff9ed	0.017575229
42	0x3c6ae3b0	0.0143365115
43	0xbc7ed294	-0.015553135
44	0x3cc3c4ea	0.023897607
45	0x3c16b029	0.009197273
46	0x3c1a8452	0.009430962
47	0xbbfc398c	-0.00769729
48	0x3cc1e121	0.02366692
49	0xbd7ecc3c	-0.06220649
50	0x3c14fd40	0.009093583
51	0xbcacc40b	-0.021089574
52	0xbd01947f	-0.031635758
53	0x3d4992df	0.049212333
54	0x3d3e5a5b	0.04647289
55	0xbbb7cbe9	-0.005609025
56	0xbd901b29	-0.070364304
57	0x3d0506e2	0.032477267
58	0x3c9cc49f	0.019136725
59	0x3cb5b588	0.022181287
60	0x3baab770	0.0052098557
61	0xbd1b40bc	-0.037903532
62	0x3cca2b6b	0.024678906
63	0x3c5aa1ca	0.013344238
64	0xbd957014	-0.07296768
65	0xbc3c7c98	-0.011504315
66	0xbd003a6d	-0.03130572
67	0x3b502353	0.0031759336
68	0xbb83b606	-0.0040195016
69	0x3cce9529	0.02521761
70	0xbb97bc1d	-0.004630579
71	0xbc1bedcf	-0.009517147
72	0xbd202980	-0.039102077
73	0x3d041212	0.032243796
74	0x3cd8c475	0.026460866
75	0xbc001971	-0.007818566
76	0x3d040101	0.03222752
77	0x3a58f053	0.0008275557
78	0xbd48b729	-0.0490028
79	0x3b934547	0.0044943425
80	0x3cfdca01	0.030980112
81	0xbd666e84	-0.05625774
82	0x3a3055de	0.00067266624
83	0x3d1efe00	0.038816452
84	0x3c7a2f69	0.0152700925
85	0x3ceb9829	0.028759079
86	0xbbbf31cf	-0.005834795
87	0x3d2404ec	0.040043756
88	0x3af5aab2	0.0018742888
89	0xbd0d5d5e	-0.03451287
90	0x3d80c98e	0.062884435
91	0x3b16ae8e	0.0022992226
92	0x3a303d38	0.00067229895
93	0xbd3baec9	-0.045820985
94	0x3cade76e	0.021228518
95	0xbbc4a0f5	-0.006000633
96	0x3d43c595	0.04779585
97	0x3c96bfa3	0.018401926
98	0x3da89335	0.082312025
99	0x3d290d7f	0.041272637
100	0x3d3ff234	0.046861842
101	0x3cd3fd30	0.025877565
102	0xbc607804	-0.013700489
103	0xbd2b8cd6	-0.04188236
104	0xbcabddfb	-0.020979872
105	0x3da207a5	0.07911614
106	0x3cf9d0f4	0.030495144
107	0xbce83746	-0.028346669
108	0xbd2cf8ab	-0.042229336
109	0xbba51238	-0.0050375722
110	0xbbbe3524	-0.0058046747
111	0xbc58bdd4	-0.013228852
112	0xba8ab72e	-0.0010583156
113	0xbd8116c2	-0.06303169
114	0x3b8ef770	0.004362993
115	0x3b27baba	0.0025593475
116	0x3bb038a7	0.0053778472
117	0xbc0416ed	-0.008062107
118	0x3b7e13ab	0.0038769047
119	0xbcada540	-0.021196961
120	0xbdafdb1e	-0.08586715
121	0xbc0dd66a	-0.008657077
122	0xbcba73eb	-0.022760352
123	0xbcd0a1ec	-0.025467835
124	0xba430e67	-0.0007440806
125	0x3c1abeb6	0.009444883
126	0xbb69c561	-0.0035670626
127	0x3c0c6114	0.008568067
128	0xbbd8713f	-0.006605297
129	0xbc84eef2	-0.01622722
130	0x3c0dac0d	0.008646977
131	0xbc706330	-0.014672086
132	0x3ba6e561	0.005093262
133	0x3c35b749	0.011091062
134	0xbca61d76	-0.02027772
135	0x3c6a848b	0.014313827
136	0x3aad97a2	0.0013244043
137	0x3c308ffb	0.010776515
138	0xbb31cf30	-0.002713155
139	0xbbdb0c7f	-0.0066848393
140	0xbc747ec3	-0.0149228005
141	0xbace64df	-0.0015746615
142	0xbcfbc23e	-0.03073227
143	0x3be3c159	0.006950539
144	0x3b4b3f0b	0.0031012918
145	0x3c8a9553	0.016916906
146	0xbc034e18	-0.0080142245
147	0x3c05793c	0.00814658
148	0xbb9e79e9	-0.00483631
149	0xbc1ff8b1	-0.0097638825
150	0x3c6cf929	0.014463701
151	0xbc8a1c3d	-0.016859168
152	0x3c1c71cc	0.009548616
153	0xba579f6f	-0.00082253566
154	0x3c661085	0.0140420245
155	0x3badea63	0.005307482
156	0x3b83d088	0.0040226616
157	0xbca74895	-0.020420352
158	0x3c312cf8	0.010813944
159	0xbb218e70	-0.002465155
160	0x3c3c0377	0.011475435
161	0x3c98d511	0.018656285
162	0x3cb049d5	0.02151958
163	0xbbeec469	-0.0072865975
164	0xbaeaa3f7	-0.0017901649
165	0xbca1b0be	-0.019737598
166	0xbb92118b	-0.0044576577
167	0xbd33658d	-0.04379802
168	0x3b101a87	0.0021988468
169	0xbc1dca89	-0.009630808
170	0x3c27e9b5	0.010248591
171	0x3ac6d362	0.0015169198
172	0x3acf7a4c	0.0015829294
173	0xbd2264eb	-0.039647024
174	0xbb315658	-0.0027059522
175	0x3c176a3d	0.009241638
176	0xbc341213	-0.010990637
177	0x3cd2ace1	0.0257172
178	0x3c6366cf	0.013879492
179	0xbbdcb922	-0.0067359367
180	0x3aa324e9	0.0012446913
181	0x3c12e009	0.008964547
182	0x3c3d5134	0.011555005
183	0xbd1e6272	-0.038668104
184	0xbc307d89	-0.010772117
185	0xbcb22016	-0.021743815
186	0x3c803859	0.015651869
187	0x3c4bb837	0.012434057
188	0x3aa29009	0.0012402545
189	0xbc839307	-0.016061319
190	0x3b9ec66e	0.004845432
191	0xbba0491a	-0.004891527
192	0xbc8f1db9	-0.017470228
193	0x3b4e9932	0.0031524417
194	0xbac2bafa	-0.0014856749
195	0x3c0b7230	0.008511111
196	0x3ca74cb4	0.020422317
197	0x3c2c3464	0.010510538
198	0x3c3187ab	0.010835568
199	0xbb3ee489	-0.0029127917
200	0xbb6359c8	-0.0034690965
201	0x3c5e37a7	0.013563073
202	0x3c77fccb	0.015135954
203	0x3b803e39	0.0039136675
204	0xbd17eeb7	-0.03709289
205	0xbc642860	-0.013925642
206	0x3c4f4b66	0.012652254
207	0xbbeff32c	-0.0073226895
208	0xbc2caa53	-0.010538655
209	0x3c5a422c	0.013321441
210	0xbb76e51e	-0.0037673186
211	0xbd39c46a	-0.04535333
212	0xbc1b1856	-0.009466251
213	0xbaaa786d	-0.001300586
214	0x3c541281	0.012943865
215	0x3c3ca24b	0.011513303
216	0xbc424839	-0.01185804
217	0x3bab02cb	0.005218839
218	0x3ac1b499	0.0014778554
219	0x3c88e61b	0.016711285
220	0xbc069869	-0.008215048
221	0x3bfa1571	0.0076319505
222	0xbcc85263	-0.024453348
223	0x3cca7ed6	0.024718683
224	0xbc5bdcbc	-0.013419326
225	0xbb3815f2	-0.0028089252
226	0xbc08d1fd	-0.008350846
227	0xbc9fc1e4	-0.019501634
228	0xbc8c41bc	-0.017121188
229	0x3d409e7d	0.047026146
230	0xbb2327a0	-0.0024895445
231	0x3bb0cf4c	0.0053958055
232	0x3b401108	0.0029307026
233	0x3c3645f5	0.0111250775
234	0x3a9d3d2f	0.0011996384
235	0xbba5684a	-0.0050478326
236	0x3c27d731	0.010244177
237	0x3cb75d11	0.022383245
238	0x3c70f737	0.014707378
239	0x3c06ec31	0.008235023
240	0x3bd1e4ac	0.0064054336
241	0x3c95a922	0.018269125
242	0x3b5a9e13	0.003335838
243	0x39a19308	0.0003081786
244	0x3a0704fb	0.00051505835
245	0x388ff274	6.863932e-05
246	0xbb1d024a	-0.0023957663
247	0xbd00485a	-0.031319
248	0xbb52a4c2	-0.003214166
249	0xbb322312	-0.0027181548
250	0xbb74c097	-0.0037346238
251	0xbcec9404	-0.028879173
252	0x3c758dda	0.014987433
253	0xbc94e03d	-0.018173331
254	0x3cbb18c9	0.022838967
255	0x3c8db14d	0.017296458

action_model._discrete_distribution.branches.0.bias f4 [3]
0	0xbb7840cc	-0.0037880419
1	0x3c1553f3	0.009114253
2	0xbba8fb5d	-0.005156918

action_model._discrete_distribution.branches.1.weight f4 [2, 128]
0	0xbcefbb6b	-0.029264173
1	0x3cd54eef	0.026038615
2	0xbbc2ebfe	-0.0059485426
3	0x3cb72d6a	0.022360522
4	0x3c1483b6	0.009064605
5	0xbbc3cbc6	-0.0059752194
6	0x3d2430f0	0.040085733
7	0x3c03d761	0.008046956
8	0xbc085671	-0.0083213905
9	0xbcf5c77f	-0.030002354
10	0x3cabc036	0.020965677
11	0xbb8064ce	-0.003918267
12	0x3cbff532	0.023432348
13	0xbc45d66b	-0.012075047
14	0x3ca7d064	0.02048511
15	0x3c29858c	0.010346781
16	0x3b393c32	0.002826464
17	0x3b4c5261	0.0031177031
18	0xbcb55c0d	-0.02213862
19	0xbc2ae561	-0.010430665
20	0x3d526cc2	0.05137325
21	0xbb82de0d	-0.0039937557
22	0xbbe4bb24	-0.0069803167
23	0x3bbb1e51	0.005710401
24	0xbc8b74cc	-0.017023467
25	0xbba8b9e3	-0.0051491125
26	0xbccc20f3	-0.024918055
27	0xbc4b0d6f	-0.01239334
28	0x3cd2e2c3	0.025742894
29	0xbc88eaa2	-0.016713444
30	0xbca8f51d	-0.020624692
31	0x3baf4043	0.0053482368
32	0xbc7fce0a	-0.015613088
33	0xbb9b4458	-0.004738372
34	0x3cbf332f	0.023339836
35	0xbc1e07fe	-0.00964546
36	0xbc711940	-0.014715493
37	0x3d06081d	0.03272258
38	0x3d5bc9d6	0.053659283
39	0xbc5eb076	-0.013591876
40	0x3d086426	0.033298634
41	0x3cbafb62	0.022824947
42	0x3bbff926	0.005858558
43	0x3c050cb2	0.008120703
44	0x3a6665b1	0.0008788957
45	0x3bcd8216	0.006271611
46	0xbba4901e	-0.005022063
47	0x3c51e495	0.012810846
48	0x3b44b4aa	0.003001491
49	0xbc9866dc	-0.018603735
50	0xbc8eceb8	-0.017432556
51	0x3c2379c3	0.009977761
52	0xbcc02882	-0.023456816
53	0xbcbf951c	-0.02338653
54	0xbc33a5ef	-0.010964855
55	0x3c969d79	0.018385636
56	0x3c009949	0.007849046
57	0x3be1a513	0.0068861335
58	0x3c790b60	0.015200466
59	0xbcd1cc11	-0.025610002
60	0xbcc76841	-0.024341704
61	0x3cb51043	0.02210248
62	0x3c2461a3	0.010033044
63	0xbaf3b345	-0.0018592855
64	0x3cb77417	0.022394223
65	0x3bd68b06	0.0065473346
66	0x3d008100	0.031373024
67	0xbc952d32	-0.018210027
68	0xbcdc7f2d	-0.02691611
69	0xbca5fa1a	-0.02026086
70	0xbc3fcaf7	-0.011706105
71	0x3c8f590e	0.01749852
72	0xbc7dd02d	-0.0154915275
73	0x3b7f7e3a	0.003898515
74	0x3d337192	0.04380948
75	0x3bf840be	0.0075760772
76	0x3c2afabd	0.010435757
77	0x3cebbf9d	0.028777892
78	0x3d267a22	0.04064382
79	0xbc1766fc	-0.009240862
80	0xbc208278	-0.009796731
81	0xbb29e85c	-0.002592585
82	0x3c7b47ff	0.015336989
83	0xbc981a40	-0.018567204
84	0x3d13075a	0.035895683
85	0x3c2cdd72	0.010550844
86	0xbc8edb99	-0.017438697
87	0x3ade1ac2	0.001694523
88	0x3a8e485c	0.0010855305
89	0xbb5e556e	-0.0033925432
90	0xbbd73719	-0.0065678474
91	0xbc6af183	-0.014339807
92	0xbbf29cc5	-0.0074039423
93	0x3cd93b7c	0.026517622
94	0x3aec320b	0.0018020285
95	0x3cd008f9	0.025394903
96	0xbc53b86f	-0.01292239
97	0xbc4f068f	-0.012635841
98	0x3bca023e	0.006164818
99	0x3d05c732	0.03266067
100	0x3cb20e80	0.02173543
101	0xbd5bd483	-0.053669464
102	0xbd2150c4	-0.039383665
103	0xbbe24167	-0.006904769
104	0xbc8d12dc	-0.017220907
105	0x3cf22b65	0.029561708
106	0x3cef151d	0.029184872
107	0xbc94f003	-0.018180853
108	0x3cbb4014	0.022857703
109	0xbd3c993f	-0.046044584
110	0xbd052499	-0.032505605
111	0x3c24b64f	0.010053231
112	0xbb9d1b1f	-0.004794493
113	0xbc1f2b04	-0.009714846
114	0x3cf979b8	0.030453548
115	0xbc31e1c2	-0.0108570475
116	0x3cae882b	0.021305164
117	0x3c0fd323	0.008778366
118	0xbc8ccfd7	-0.01718895
119	0x3d2da4a1	0.04239333
120	0x3c9ade92	0.018904958
121	0xbc33219d	-0.010933307
122	0xbc9806fe	-0.018558022
123	0xbcaab5f9	-0.020838724
124	0xbd0a222b	-0.03372399
125	0xbc735787	-0.014852411
126	0xbcb0a834	-0.02156458
127	0xbc4c5c83	-0.012473228
128	0x3ce3b5a3	0.027796572
129	0xbc6f42bc	-0.014603313
130	0x3af1f54f	0.0018459948
131	0xbcee6a8b	-0.029103538
132	0x3ba5e8dc	0.0050631594
133	0xba213130	-0.0006148992
134	0xbd3d491b	-0.046212297
135	0xbc61a0df	-0.013771265
136	0x3afd1624	0.0019308967
137	0x3c4d1f29	0.012519636
138	0xbb2b296e	-0.0026117223
139	0x3cb3bc03	0.021940237
140	0xbbc45ace	-0.00599227
141	0xbb1f8e93	-0.0024346455
142	0x3aae49b0	0.0013297107
143	0xbb8f5485	-0.004374089
144	0x3befe4ba	0.0073209675
145	0x39d677da	0.00040906557
146	0x3d069eb2	0.032866187
147	0x3b797d59	0.0038069098
148	0xbd4f1c64	-0.050564185
149	0xb9c09df1	-0.0003673877
150	0x3ca0626c	0.019578181
151	0x3c2c3e73	0.010512936
152	0x3cbf87b5	0.02338014
153	0x3c8d7f3c	0.017272584
154	0x3cd51e7e	0.026015516
155	0x3b9bfb8b	0.004760211
156	0xbcafa22c	-0.021439634
157	0x3c851aa0	0.016248047
158	0x3cbb5615	0.022868196
159	0xbc74d7e9	-0.014944055
160	0x3cf0ead5	0.029408852
161	0xb9ba9873	-0.00035590268
162	0xbc9caad1	-0.01912442
163	0x3aa3885d	0.0012476553
164	0xb99e7bcc	-0.00030228344
165	0xbce42b27	-0.027852608
166	0xbd35751d	-0.04430114
167	0x3aa70a36	0.0012744132
168	0xbccb047e	-0.024782415
169	0xbcac3570	-0.021021575
170	0x3b40d7f5	0.0029425595
171	0x3cc08eb4	0.023505546
172	0x39cd212f	0.0003912537
173	0xbd1a8f44	-0.037734285
174	0x3c2e6b41	0.0106456885
175	0xbce781d9	-0.028260158
176	0x3c0d1b24	0.008612428
177	0x3c92b74a	0.017909665
178	0x3c24b3d4	0.01005264
179	0x3b08a77d	0.0020851784
180	0x3b46ad88	0.0030315835
181	0x3b9241a6	0.0044633923
182	0xbbfcb209	-0.007711653
183	0xbd1092b1	-0.035296146
184	0xbcc84b04	-0.024449833
185	0xbb83103c	-0.003999738
186	0x3c19d327	0.009388722
187	0x3c391f94	0.011299033
188	0x3cc118d7	0.023571415
189	0xbd17b94d	-0.03704195
190	0xbc489321	-0.0122421095
191	0x3bd5b36c	0.006521633
192	0xbd0638c3	-0.032768976
193	0xbbe9478d	-0.007119125
194	0xbcd5ab2e	-0.026082601
195	0x3b63e9a7	0.0034776719
196	0x3ce030cf	0.027367024
197	0x3bc7e062	0.0060997466
198	0x3c98eb31	0.018666836
199	0xbc60af4e	-0.013713671
200	0x3baf1ddd	0.005344136
201	0x3c1f39f9	0.009718412
202	0xbd13698b	-0.035989325
203	0xbb89b588	-0.0042025484
204	0x3bbc3e45	0.005744728
205	0xbd1a3d53	-0.03765614
206	0xbd31ef18	-0.04344091
207	0xb9b0d9ce	-0.00033731613
208	0xbb9dc166	-0.0048143147
209	0xbc117673	-0.008878338
210	0xbc8d2f37	-0.017234428
211	0x3cd14e27	0.025549961
212	0xbcb4dfce	-0.022079375
213	0xbc297867	-0.010343648
214	0x3c584d04	0.013201956
215	0x3b900006	0.004394534
216	0xbb8c2130	-0.004276417
217	0x3bef83f5	0.0073094317
218	0xbc2dedca	-0.010615775
219	0xbb8c6e67	-0.004285622
220	0x3ca0ca0b	0.019627592
221	0xbd002b3a	-0.031291224
222	0xbb9189c3	-0.0044414713
223	0xbc475e41	-0.012168468
224	0x3c0f738f	0.008755579
225	0xba6eba4f	-0.00091067416
226	0xbbbc08b1	-0.005738341
227	0xbd4b6fc6	-0.049667142
228	0xbd5293b8	-0.051410407
229	0x3d7b9de9	0.06142989
230	0x3d1d4ac7	0.03840139
231	0x3c8abc71	0.016935559
232	0x3ca319fd	0.019909853
233	0xbcee1135	-0.02906094
234	0xbbd2655c	-0.0064207744
235	0x3cfa8e08	0.030585304
236	0xbcc17b05	-0.02361823
237	0x3ce6f514	0.028193034
238	0x3cbdba6f	0.023160188
239	0x3a551101	0.0008127839
240	0x3ba2806f	0.004959158
241	0x3c6a3e71	0.014297114
242	0xbc61dc82	-0.013785483
243	0x3cb8f05a	0.022575546
244	0xbc3bf2e2	-0.011471482
245	0xbc1507d3	-0.009096104
246	0x3cd65fe6	0.026168775
247	0xbd17b14b	-0.037034314
248	0xbc2f1e0d	-0.010688317
249	0x3c601d49	0.013678857
250	0xbbca561f	-0.006174817
251	0x3c445b82	0.011984708
252	0x3d2d4c6d	0.042309213
253	0x3c8c15a3	0.017100161
254	0x3c9ec73a	0.019382108
255	0x3c9a3d17	0.018827958

action_model._discrete_distribution.branches.1.bias f4 [2]
0	0xbc0e9feb	-0.00870512
1	0x3c0e9ff0	0.008705124
