KartSCBIO/results/circutioA-11/ArcadeDriver/checkpoint.pt (torch, 597879 bytes, 40 tensors)

discrete_act_size_vector f4 [1, 2]
00000000: 0000 4040 0000 0040
3.0 2.0

network_body._body_endoder.seq_layers.0.weight f4 [128, 56]
00000000: acd6 8e3d 111c b2bc 78f7 af3c 309c 89be
00000010: b1ab 32bd 5aaa 73bc 716e febd 2fe4 03bc
00000020: 842c f9bc edac a33d bff1 17bd 2a12 123d
00000030: 865b 483e fcfa 05be 5b4a 2abe 4d45 6b3e
00000040: 2a8a 29bd 6871 9dbd 7b39 b1bd 3bc7 c6bd
00000050: 707d 3dbe eeb2 a3bd 828f 82be 8d92 053e
00000060: fda7 353e d91b 23bd 50eb b1ba 9b56 903d
00000070: 2049 64bd ea0f f63d f2c2 0d3e 7488 60be
00000080: 1d3f d33d 1ec2 59bd 5c78 28be c56c 0fbe
00000090: 872f 2fbe 06f7 2c3c 1738 133e 00d0 893d
000000a0: 0497 22be afe5 033e 2f9a 203e 69af bb3e
000000b0: 034f 3d3e 7a99 0ebe 8dad 43be 6b3e 29bd
000000c0: f2d4 933d e2e3 5e3e 7f98 103e 4e5b 013e
000000d0: ea4b 00bd de0c 493e a047 b63d 0a2b 81bc
000000e0: c451 9abd 3471 463e 707c b8bc 20dc 003e
000000f0: a482 c8bc 85c4 71bd 8eb5 703e 0e3f c33d
00000100: cc2f 11be cdb0 033e 35da c5bd 85d2 14be
00000110: e50a 353e 9066 363e d785 353d 0b7c 273e
00000120: 43ec 673c 10da 1e3e 4a77 e83d 502c f2bd
00000130: d0ba 053e 6b8a 8c3d 0699 523e 0f44 703c
00000140: 787a a8bd 6749 39be 927d 913e c556 1e3e
00000150: fb1c 28bd 0d4e babc 434d 2d3e 1a78 a2bd
00000160: abaf e5bc ee6f 01be dd00 cfbc df13 0e3e
00000170: 693d 75bd faff b0bc 004c 0abe d43e 1fbe
00000180: 7578 673e b1d6 febc 20e7 023e 6c85 823d
00000190: 1a64 903e 48b8 84be 9d8e a13c 09a9 3ebd
000001a0: 5a5c 8fbe 2214 993d 59a5 93be 8f80 72bc
000001b0: 98ee b93d 3075 3a3c 86f5 483d 5cc1 653e
000001c0: c3ca 1a3e ac4a 55be fa1a 823d ca96 1dbc
000001d0: 0d10 29bd 721c b9bd 0b11 3a3e 0709 11be
000001e0: f1ea 22bd 2eed 29be 34ca 89bd 0881 403e
000001f0: 59ad 283e 00bb b4bd 8cc5 533c 0c32 03be
00000200: 82bc 343e a59a c43d 66c5 d9bb 3faf dabb
00000210: c54d bcbd 6490 013d ff15 56be 992e 44be
00000220: 5a5b 46be c89c 5c3e 238a 953d f2c2 72bb
00000230: 0784 3dbd 03f4 e93d b8ea d5bc f6b9 43be
00000240: 4f54 3d3d 316f 24be 4bd6 2abc bea4 a43d
00000250: be14 bdbd 8c9b 4c3c f61b a93d 3e8e 53bd
00000260: a462 b73c c7eb 2bbd 7ea2 59be c766 55be
00000270: b3a2 f2bd 52e8 f2bc 0b2b 033e 69f8 cd3d
00000280: 74fa 993d 89e8 293e fb83 513d 00cb c3bd
00000290: 9872 89bd e0fb 1a3e 1acb 6cbd 8503 3abe
000002a0: 0f2b cabd fa2b 6f3e 663d 733d 247b 133e
000002b0: e27e 25be 5156 24be 2a28 adbd 38ba a4bc
000002c0: 2e46 993e 21d4 3ebd 8b72 483d 1cb7 eb3d
000002d0: 9da1 a0bd c3c6 edbd e3a5 763d 242c 1a3e
000002e0: ad0d 1b3d 63a8 22bd 0282 8fbe d163 1f3e
000002f0: a666 053e f485 d03d ed5b 9dbd 7448 24be
00000300: 16b7 00bd 70d1 a7be 7d57 263e 3e36 083e
00000310: 567f adbd 98c2 8bbe ccaf 91bd 5f6d 883e
00000320: 0d94 b5bc 1e45 283a ad6d 7dbd 2c7e 1dbe
00000330: 4feb 763e 9c09 50be b184 473e 54a2 2cbd
00000340: 97cc f53d 11df abbc 3c2c 383e 2a03 053e
00000350: 3e11 c63c 3727 493e 6b62 013d eea6 3ebe
00000360: 4911 3b3e b47b 83bc 973e 87be 199e c53d
00000370: 3f15 493e a394 37bd 4d41 2dbc ef23 66bc
00000380: 5cd7 343d a592 68bd 5966 b33e f7af 35bd
00000390: 5c30 10be 0efd 023d e927 37be 23ff 0ebe
000003a0: 05cc a3bb 81dd 983d d875 aebe f75f 933d
000003b0: 4638 c23e a615 1abe 3283 5c3c a643 023e
000003c0: 8bd5 983d d5b7 51be c4d8 1abd 7cad b13d
000003d0: e44b a43e fd14 89bd bee3 783b e556 bf3c
000003e0: f223 4a3d 5162 d63e c0d8 5ebd 2cb6 a33d
000003f0: 6c09 083e 0b8f e93c f9b2 debd d787 583d
0.06974539 -0.021741899 0.021480307 -0.26876974 -0.04362077 -0.014872158 -0.12423409 -0.008050009
-0.030416735 0.07991967 -0.03709578 0.035661854 0.19566163 -0.13084024 -0.16629927 0.22975655
-0.04139153 -0.07687646 -0.08653542 -0.09705969 -0.18504882 -0.079931125 -0.25500113 0.13044186
0.17739864 -0.03982148 -0.0013574157 0.07047769 -0.0557338 0.12014754 0.13843897 -0.21927053
0.10314772 -0.05316364 -0.16452163 -0.14006336 -0.17107974 0.010556942 0.14376865 0.06729126
-0.1587792 0.12880586 0.15683816 0.36657265 0.18487172 -0.13925734 -0.19109173 -0.041319292
0.072183505 0.21766618 0.14120673 0.12632486 -0.031322397 0.19633815 0.0890038 -0.015767593
-0.07535127 0.19379121 -0.022520274 0.12583971 -0.024476357 -0.059025306 0.23506758 0.09533511
-0.1417839 0.12860413 -0.0966076 -0.14533432 0.17679937 0.17812562 0.044317093 0.16355912
0.01415545 0.15512872 0.113508776 -0.11824858 0.13059545 0.06862339 0.20566186 0.014664664
-0.08226484 -0.18094407 0.28416115 0.15462787 -0.041043263 -0.022742296 0.16924004 -0.07933064
-0.028037867 -0.12640354 -0.025268966 0.13874768 -0.05987302 -0.021606434 -0.13505554 -0.15551311
0.22604544 -0.031108232 0.1278348 0.063731045 0.2820137 -0.25921845 0.019721324 -0.046547923
-0.28000146 0.07474543 -0.28837088 -0.014801159 0.09078711 0.011380479 0.049062274 0.22437042
0.1511641 -0.20829266 0.063528016 -0.00961847 -0.041275073 -0.09038629 0.18170564 -0.141636
-0.03977484 -0.16594383 -0.0672802 0.18799222 0.16472377 -0.0882473 0.012925517 -0.1281206
0.17650035 0.095998086 -0.006645846 -0.006673723 -0.09194521 0.031631842 -0.20906828 -0.191584
-0.19370785 0.21544182 0.07301738 -0.0037042466 -0.04626849 0.11423495 -0.0261129 -0.19113907
0.04622298 -0.16058041 -0.010427068 0.080392346 -0.09232472 0.012488257 0.08257286 -0.051649325
0.022385903 -0.0419729 -0.21253392 -0.20839988 -0.11847439 -0.029651795 0.12809388 0.10057146
0.07518473 0.16592611 0.051151257 -0.095602036 -0.0671131 0.15135145 -0.05781088 -0.18165405
-0.09871494 0.2335662 0.059384726 0.14402443 -0.16161683 -0.16048552 -0.08454926 -0.020108327
0.29936355 -0.04658902 0.04893736 0.11509535 -0.07843325 -0.116101764 0.060216796 0.15055901
0.03785484 -0.039711367 -0.28028876 0.1556542 0.13027439 0.101817995 -0.07683549 -0.16043264
-0.031424604 -0.32776976 0.16244312 0.13301942 -0.08471553 -0.272969 -0.07113609 0.26645944
-0.022165323 0.00064189907 -0.061872173 -0.15380162 0.241132 -0.20316166 0.19484212 -0.042146996
0.12001913 -0.02098039 0.17985624 0.12989488 0.024178144 0.19643866 0.031588 -0.18618366
0.18268313 -0.016050197 -0.2641494 0.09649295 0.19637011 -0.044819485 -0.010574651 -0.014046653
0.044150695 -0.056780476 0.35039023 -0.044357266 -0.14080948 0.031979613 -0.17886318 -0.13964514
-0.0049986863 0.074641235 -0.34074283 0.07196038 0.37933558 -0.1504732 0.013459014 0.12721118
0.07462605 -0.20480283 -0.03780438 0.08675668 0.3208915 -0.06693456 0.0037977542 0.023356864
0.049350686 0.41871884 -0.054405928 0.07993731 0.13284844 0.028510591 -0.1087398 0.052863922

network_body._body_endoder.seq_layers.0.bias f4 [128]
00000000: 6e21 ea3c 5526 153c f1e4 903c 2e97 703b
00000010: 6ff1 9bbc b7ed bb3b 69ca 8a3a 2826 ff3b
00000020: 80f5 c238 e022 fc3a f47b 0f3c 90a8 093b
00000030: 6b71 023c afd5 c83c 7e9f 733d b0b8 d83b
00000040: f739 463c 2c31 4f3c 9dcd ab3c 26c1 2d3c
00000050: cc1c ea39 a119 18bc b991 043c b028 babc
00000060: 3b1b 06bc 58ad 85bb dca3 ecbb 947d dd3c
00000070: 7f71 6a3c 88d5 923b d1e3 d7bb 9c9f 1d3c
00000080: 6e08 2b3b 976f b939 dfab af3c 552e 993c
00000090: 855f 0a3d 7316 22bc b076 16bc 2a1e 503c
000000a0: 445c 443c 3e7b 843c 1735 383a 1359 2d3b
000000b0: 9c5c a43b 4785 2e3c 06e9 94bc c899 5e3c
000000c0: 88f1 47bc 4db5 6abc 180b b03b d507 513c
000000d0: 3c59 fd3b 725e 8ebc 211c 453b ac08 5fbc
000000e0: f1b8 643c 1bc0 a5bb a63b 233b 2cf7 de3c
000000f0: 1ac4 f53c f47d f5ba 8c0a 3d3d efc0 543c
00000100: 9e66 123d af0e 5dbc 5f91 6f3c a61f c23c
00000110: b774 14bc 2a6d 7d3c 34c6 713d a834 303b
00000120: 5860 5d3a 8eff 15bc 016a cc3c 77a2 313b
00000130: fb5e 4038 2cb9 d8bb bdb6 e6bb 6437 cbba
00000140: 6e9e a93b cb9a ab3a f40d 123d 6f63 0f3b
00000150: 4af0 c63c 4602 953c 623d bb3c 4154 f538
00000160: 5622 883c 7bf6 01bc 8934 1c3c c28a edba
00000170: cc63 17bc 9336 71bc f109 c13c c50f 573c
00000180: b878 1dbb e912 e038 6339 5b3c 26ad 7e3c
00000190: 6ba4 61ba 8ba9 94bb 7c39 3abc 51cd f13a
000001a0: d777 e9bc e111 943b 7381 8a3b 029d 703c
000001b0: d17d 07bb 60ea e339 fc47 e43c 9903 8d3c
000001c0: 5749 853c 23bb fa3b 9ea6 c73c 9fa9 223b
000001d0: 9eec a03b 9a4f ffbb 0fc4 483b 80f4 55bc
000001e0: 9edf 613b 5df8 533c 5bb1 783c 38f4 fb36
000001f0: 78b1 6dbd c49c d4bb e542 1e3c df57 9fbc
0.028580394 0.009103377 0.017687293 0.0036711204 -0.019036023 0.005735125 0.0010588887 0.007786531
9.296369e-05 0.0019236468 0.00875758 0.0021005012 0.007961611 0.024515955 0.059478275 0.0066138133
0.012098781 0.012646001 0.020972067 0.010605132 0.00044653413 -0.009283454 0.008091384 -0.02272448
-0.008185203 -0.004079502 -0.007221682 0.02703742 0.014309286 0.0044810213 -0.006588437 0.009620573
0.0026097554 0.0003536909 0.02144426 0.01869885 0.0337825 -0.009893048 -0.009183571 0.012702504
0.011984888 0.016172048 0.0007026954 0.0026450797 0.0050159227 0.010651893 -0.01817752 0.013586469
-0.012203582 -0.014325452 0.005372416 0.012758215 0.007731585 -0.01737902 0.003007658 -0.013612907
0.013960109 -0.005058301 0.002490738 0.02721747 0.030000735 -0.0018729554 0.046152636 0.012985452
0.035742395 -0.01349227 0.0146220615 0.023696732 -0.00906103 0.015467921 0.05902691 0.0026886854
0.00084448373 -0.009155167 0.02495289 0.0027104893 4.5864825e-05 -0.006613871 -0.007040827 -0.0015504179
0.005176357 0.0013092397 0.035657838 0.0021879335 0.0242845 0.01818956 0.022856418 0.00011698204
0.016617935 -0.007932301 0.00953401 -0.0018123018 -0.009240102 -0.014722484 0.02356431 0.013126318
-0.0024028253 0.000106846746 0.013380381 0.0155442115 -0.0008607569 -0.0045368127 -0.011366244 0.001844803
-0.028499527 0.004518733 0.0042268573 0.014685871 -0.0020674358 0.00043471437 0.027866356 0.01721363
0.016270323 0.007651703 0.024371441 0.002482034 0.0049110195 -0.0077914717 0.0030634438 -0.013058782
0.0034465562 0.012937632 0.015179004 7.5088137e-06 -0.058030576 -0.0064884145 0.009659504 -0.01945108

network_body._body_endoder.seq_layers.2.weight f4 [128, 128]
00000000: b4a1 193d e943 0a3e 70b8 7f3d 6e5b de3d
00000010: 14e5 023d eb53 52be 5be1 c53c 35b9 debd
00000020: df57 fbbd 42d6 a13c f9f0 003d 981e e0bc
00000030: a97f 3d3c f3be e8bd 4715 16bd 7a48 0abd
00000040: 8bab 60be e678 a63c 54bf b93c 1e10 16bd
00000050: 8fd6 7b3e 8f7b 153e da26 69be bf06 003d
00000060: 0fe1 7ebd 6521 6b3d eb88 9cbc f48e 5d3e
00000070: f4e6 233e c26a 7d3b e3ed 2abd b099 52bd
00000080: 2dde 88bd 1b01 65bd b607 13bd f31d 14be
00000090: 0bb5 38bd a12b 01bd 6a22 e4bd 1981 77bd
000000a0: 3f71 213e e6af e83d 4a7f bdbd 484d acbd
000000b0: 3dd3 5cbc 95c9 303c be63 7a3d a91c 203c
000000c0: 1664 15bd a067 133d e865 483d 7a76 29be
000000d0: f435 afbd 7615 233d 8b0a 943d 1e34 31bc
000000e0: 3e15 e9bc 908a b6bd ea00 61be 7f39 803c
000000f0: 0ce0 663b 2b5b 183e 8ec7 52bc 4ac7 f23d
00000100: 6fb2 413e 169c 0f3c cd5a 12bd 8427 ea3c
00000110: 760b 31be 9410 e7bd 561e 043c a82b f23c
00000120: 98aa fc3d 8935 d2bd 1f75 383c fd75 f13d
00000130: e835 603d 3fa7 093e 47bc 44be b675 24be
00000140: 7b06 a73b 0e57 01bb bb66 1d3e d044 213d
00000150: 2636 aa3d c3ec 9bbc 5034 523e da90 b33c
00000160: f43b 6c3c aced bebc c777 a33c 8c60 90bd
00000170: f4d1 4dbd dc1b b03d bc42 ea3d beab 8bbb
00000180: f2e3 ff3d 4005 843d 2901 023c f645 ea3b
00000190: 093e f8bd 8a85 96bd 77e5 c13d b6ba 4d3c
000001a0: c2e2 2ebe e469 843d 2664 f6bd db73 173e
000001b0: ecf6 fabc 1f73 c43c 6dbd 9f3c 66cd ad3d
000001c0: 351c 97bd 6a3f 943d b31f 19be e290 bc3b
000001d0: f1c5 26bd 220a 1c3e 6f31 0e3c 3bbd 593d
000001e0: 97f5 0d3d 847e 50bd 22ed 6a3d c8b1 79bd
000001f0: 988a bcbd 10d9 b9bb 42d5 08bd 9aee 8bbd
00000200: 2633 88bd a60d 92be f9b9 cc3d 9f53 2fbd
00000210: 1b61 03be e6e8 7e3d 618a e2bc ac05 39bd
00000220: 897d 493d fa8b a33c dcb5 77bd 2217 acbd
00000230: 5144 e7bb 164b de3d 0209 0fbc 2bd9 043b
00000240: 1b6f c6bd f09e e5bd e6fc 08be e3fe 06be
00000250: 6b69 72bd 7df5 97bd 888f cdbd 0303 15be
00000260: 256b cfbc 092c 51bb 4afc 61be 322e 11be
00000270: ed66 44bc d9c1 1cbd 997d 48be a893 e23d
00000280: 0f44 6abd 70fa a1bc 3809 053e 82f6 22bc
00000290: fa68 80bd 5877 8c3d f217 f9bd 2cec efbd
000002a0: 1af5 d0bd 6776 cbbd 8cee a13d dc98 76bd
000002b0: 59a2 d6bd 9ab8 22be d885 debd 48a0 93bd
000002c0: 6504 c7bd 6380 cdbd 5517 f5bd 80bd b23d
000002d0: 0b89 63be 3fc4 a0bb 1aca 203b f845 aabb
000002e0: 691b 953c 6c7b c53d a2a6 583b e497 713d
000002f0: 530a 263d 25f3 d23d a262 6abe b265 083e
00000300: a7bd 0e3d a6fc 8a3d d672 e03b ffc7 cd3c
00000310: ac70 80bd d939 5b3e 344d 7a3c f608 1c3d
00000320: e358 01be 8720 46bd 462e cdbc 8aa0 803d
00000330: d1e3 b1bc b47e 563c c8fb 24bd 700f 4e3e
00000340: 9d4b d0bb 603a 43bd f351 4c3e 0b1b 003d
00000350: 727e 55bd 8c50 70be 9e2a 933d 09e6 c43d
00000360: 1074 d3bd ab2a 00be 0f83 1d3e 7384 a9bd
00000370: 11aa b6bd 87b7 743d 1c43 7bbd 50e1 5e3d
00000380: 18b2 cdbd 30fe 423d 9652 fabc c78e c23c
00000390: 853a 95bc 9c60 dfbd 7ba4 bb3c 6e6a b4bd
000003a0: 20ac 8bbb a897 423e f118 be3b bfeb 7abc
000003b0: 07b0 cabc 13a4 1abe d2aa 3b3e 81d7 773c
000003c0: 5e3a b73d 543b 3b3e 1bc8 d6bd 7fdb c3bc
000003d0: c8ee bf3d d269 b3bc 0cac 35be 82ed 883b
000003e0: f3b3 283d ffa3 063e e03c 2b3c 858d 86bd
000003f0: 21d1 8a3d 29e1 d03c 9ede 0fbe ca77 02be
0.037507728 0.13502468 0.062431753 0.108572826 0.031956747 -0.20539825 0.02415531 -0.10875169
-0.122726195 0.019755486 0.03147981 -0.027358338 0.011566081 -0.11364546 -0.036641385 -0.033760525
-0.21940438 0.02032132 0.02267424 -0.036636464 0.24593566 0.14597915 -0.22768727 0.031256434
-0.06222635 0.057404894 -0.019108256 0.21636564 0.1600607 0.003866837 -0.041730773 -0.0514161
-0.06683002 -0.055909257 -0.035896026 -0.1446455 -0.04509453 -0.03153575 -0.111393765 -0.06042585
0.15765856 0.11361675 -0.09252794 -0.08413178 -0.0134780975 0.010790248 0.061130278 0.009772458
-0.036472403 0.035987496 0.04892531 -0.16549101 -0.085552126 0.03981539 0.072285734 -0.010815648
-0.028452512 -0.089131474 -0.21973005 0.015652416 0.0035228757 0.14878528 -0.01286496 0.118544176
0.18915723 0.008765241 -0.035731126 0.028583296 -0.17289528 -0.11282459 0.008063873 0.029561833
0.12337226 -0.10264117 0.011258393 0.117900826 0.05473891 0.13442706 -0.19212447 -0.16060528
0.005097208 -0.0019735727 0.1537122 0.039372265 0.08311109 -0.019033795 0.20527768 0.021919657
0.014418591 -0.02330669 0.019954575 -0.07049665 -0.050249055 0.08599064 0.1143851 -0.0042624166
0.12494649 0.06446314 0.007934847 0.0071494533 -0.12121207 -0.07349689 0.09467595 0.012556722
-0.17078689 0.064655095 -0.120308205 0.14790289 -0.03063532 0.023980675 0.019499505 0.08486442
-0.07378427 0.07238658 -0.14953499 0.005754576 -0.040716115 0.1523824 0.008678778 0.05315898
0.03465804 -0.050901905 0.057355054 -0.06096056 -0.09206122 -0.005671628 -0.033406503 -0.06832619
-0.06650381 -0.28526038 0.09996409 -0.042804357 -0.12830012 0.062233828 -0.027653875 -0.045171425
0.049191985 0.019964207 -0.06047617 -0.0840285 -0.0070577045 0.10854165 -0.008730175 0.0020271044
-0.096891604 -0.112119555 -0.13377723 -0.13183169 -0.059182566 -0.0741987 -0.10037142 -0.1455193
-0.025319645 -0.0031917116 -0.22068897 -0.14177778 -0.01198743 -0.038270805 -0.19579162 0.110633194
-0.057193812 -0.019772738 0.12991798 -0.009946467 -0.06270023 0.068587005 -0.1216277 -0.11714968
-0.102029994 -0.09934693 0.07906827 -0.06020437 -0.10480184 -0.15890732 -0.108653724 -0.072083056
-0.09717635 -0.100342534 -0.11967341 0.087275505 -0.22220246 -0.004906207 0.0024534524 -0.005196329
0.018201547 0.096426815 0.0033058305 0.058982745 0.04053719 0.103002824 -0.22889188 0.13320044
0.034848835 0.0678647 0.006849627 0.02511978 -0.062714905 0.21408786 0.015277196 0.038094483
-0.12631564 -0.048370864 -0.025046479 0.062806204 -0.021715077 0.013091732 -0.04027918 0.20123076
-0.00635667 -0.047663093 0.19953136 0.03127579 -0.05212254 -0.23468226 0.07185863 0.09614188
-0.103248715 -0.12516277 0.15382026 -0.08277216 -0.08919156 0.059745338 -0.061343297 0.054414093
-0.10043734 0.047605693 -0.030556958 0.023749722 -0.01821638 -0.10907099 0.022905579 -0.08809362
-0.0042624623 0.19003165 0.005801313 -0.015314995 -0.02474214 -0.15101652 0.18326882 0.015127064
0.089466795 0.1828435 -0.10487386 -0.023908375 0.09371716 -0.021901045 -0.17741412 0.0041787038
0.041187238 0.13148497 0.010451525 -0.065699615 0.067781694 0.02549799 -0.14049765 -0.12741008

network_body._body_endoder.seq_layers.2.bias f4 [128]
00000000: 245f 913c bfa5 903c 1e2e f23b 7ce4 a83c
00000010: 6bef cebb 0c75 c5bb b318 893c af90 07bb
00000020: 780f 11bc 17b0 83bc 5bcf df3b f80b 50bc
00000030: 85d7 f939 e6f4 503c 6420 523c e4fa 813c
00000040: 9071 bc3b da62 763c 701c b03c 4c28 0f3c
00000050: 3d0e 353b b0e0 4a3c f6e2 213b 7799 83bc
00000060: ad35 5ebb aedf 4ebb fafb 92b9 b6de f43b
00000070: 859f 973c e0be da3b f53c 0c3c e14a d0bb
00000080: c264 1a3c 6639 543c c87a 28bb ed7a 023c
00000090: f4d4 443c 17ef 413c d493 143c e48a c13c
000000a0: 97b8 3b3c fc83 2c3c 165f 753b 5269 e1bb
000000b0: c12c a63c 4f1d 9d39 b7ff 063c dd2e 433c
000000c0: 8530 d53c 377e 1a3c 4983 043c a52c c1bb
000000d0: 326a b23b b0fc f33c f232 22bb 3f05 09bc
000000e0: e550 87ba 4225 833c 72ea 42bc 988b 1e3d
000000f0: f782 583c 0007 d6bb f66a e53b 84b9 d8bb
00000100: b566 363c 05c3 a3bb da07 173c 33b8 e4b8
00000110: 7d4f 1b3c f8d9 803c 0840 373c 6925 30ba
00000120: 8c59 893b 4467 2ebc 663b 47bc 9932 b3bb
00000130: 89d3 e43c f1b8 1f3c 6d8b 66bc 6582 c7ba
00000140: 509b 64bc 6c2b e03b 8280 ef3c d066 3a3c
00000150: 767a 3bbb ba7e 7c3b a46f e83b 724f c13c
00000160: c321 903c 7186 47bb 2c94 bebb 5be6 e4bb
00000170: dc72 34bc 987d ee3b a19e 633c 95a9 693c
00000180: 1d63 f7bb 44f5 77bc ebb1 3f3b 8092 763c
00000190: 03a7 f53b fc30 ccb9 e15f b93c ecad fc3b
000001a0: cc54 80bb 1dc4 68bb c55d 593c f840 a63c
000001b0: d1fd 8c3c a959 5d3a adce 1cbc d591 203b
000001c0: 1aca 9bbc a347 b63c 5300 07bb 42bd 7d3c
000001d0: c1a7 873c 4895 9c3c bc53 17bb 113a 653b
000001e0: 3fce e13b 0a72 b83b 7fa3 483c 7820 e4bb
000001f0: 0c53 0bbc 0bca 0dbc a50e 743b aff3 4b3b
0.017745562 0.017657159 0.0073907515 0.020616762 -0.006315162 -0.006025916 0.01673541 -0.0020685603
-0.008853786 -0.016075177 0.0068301386 -0.012698166 0.00047653556 0.012753701 0.012825105 0.015866704
0.0057508424 0.0150382165 0.021497935 0.008737635 0.0027626895 0.012382671 0.002470193 -0.016064389
-0.0033906505 -0.003156643 -0.00028035027 0.0074728383 0.018508682 0.006675586 0.008559455 -0.0063565825
0.009423437 0.012953138 -0.002570795 0.007963878 0.012013663 0.011836789 0.009068448 0.023625799
0.011457584 0.010529514 0.003744071 -0.0068790102 0.020285012 0.0002996721 0.008239678 0.011913029
0.026024112 0.009429506 0.008087941 -0.0058952146 0.0054447884 0.029783577 -0.0024749604 -0.008363067
-0.0010323791 0.016008977 -0.011896716 0.038707346 0.013214818 -0.006531596 0.007001276 -0.006613912
0.011132886 -0.0049976134 0.009218181 -0.00010906197 0.009479401 0.015728936 0.0111847 -0.0006719442
0.004191583 -0.010644738 -0.012160158 -0.005468678 0.0279329 0.009748683 -0.014071328 -0.0015221356
-0.013953045 0.006841114 0.029236082 0.0113770515 -0.0028606928 0.0038527683 0.0070933867 0.023597453
0.017594224 -0.0030445124 -0.0058160033 -0.0069854683 -0.011013713 0.0072781555 0.013892801 0.014261623
-0.007549657 -0.0151341595 0.0029250334 0.015049577 0.007496716 -0.00038946408 0.022628726 0.007711163
-0.0039163586 -0.0035517283 0.013266985 0.020294651 0.017210873 0.00084438414 -0.00957076 0.0024500985
-0.019017268 0.022250956 -0.0020599558 0.015487017 0.016559483 0.019114152 -0.002309068 0.0034977237
0.0068910415 0.005628829 0.012246012 -0.0069618784 -0.008503687 -0.008654128 0.0037240174 0.0031120589

action_model._discrete_distribution.branches.0.weight f4 [3, 128]
00000000: dd82 463d 1e20 0d3d f06c 1c3c 0328 193d
00000010: b9b2 95bc 0cec 23bb 3dc4 f6bc 5176 26bd
00000020: d020 abbc 83a9 4cbc 6579 aebd 2f72 a5bc
00000030: 1cc8 3d3b 4c24 143d 4505 9abc 11ef 7f3c
00000040: bac1 6bbc 088d 89bd 535d cd3c b0e3 943c
00000050: e3e0 44bc 7797 99bc 3281 443c 72db 283b
00000060: 215c 4aba d2a5 f4bc aa95 19bd fc9b e23c
00000070: 2d15 36bd 9254 b6bc fbbe b43c bf64 ccbc
00000080: 3006 dc3a a085 f63b 691f 23bd 7ac5 88bc
00000090: 0caa 36bd 7bd3 74bb 1165 b5bc f8f5 af3c
000000a0: 8580 3dbd 3fb6 15bd bce4 a83c d136 c0ba
000000b0: fc18 063d 7616 c43c ea8c 75bc b375 19bc
000000c0: 8205 f23c f258 20bd 744b 3dbd cf1f b0bc
000000d0: cccb 1b3b cced 893d e28e a63c a416 283b
000000e0: 32cd 323c 1783 5abd 10ba 233a 52c8 953c
000000f0: 4ece 823d 2194 eb39 6fd0 df3b ed22 67bc
00000100: 19bc 1abc 2e8d 993c 60fc 19bd 4177 ff3c
00000110: 04e7 1f3c 79e6 08bd 614f 8f3a d0bf e93b
00000120: b749 123c 65d8 32bc 633b 95bc 6122 343b
00000130: 6185 5e3d 5b2e 933c 7d44 b3bb a833 ad38
00000140: e6b5 b0bb 82b4 11bd 90ce 92bd dfd6 1a3d
00000150: c37d 0bbd 189e 153c 1a0e b63c 6de8 42bd
00000160: 9a60 0e3d 501f b5bd 4d0d 203d 67c2 e43b
00000170: 5cdf 02bd d64f 113d 94c0 823c b3f6 973c
00000180: c8b7 4cbb 4646 65bc 0b58 443b 05ac 1b3d
00000190: cb53 33bd 9b02 8c3b 6ed9 003d aaea 1a3d
000001a0: 0a68 c13c 4a47 543c 3d82 0c3d 12f2 a13c
000001b0: a532 1fbb 1242 933b 7189 f03a 2c50 683c
000001c0: 982a c93c 8360 e93c 9f6c 773d 5fa8 a93c
000001d0: 1aad fcbc 28b4 66bd 1ee6 b4bb 0b73 b53c
000001e0: 27aa eebc bb8c 51bd 9ee1 3b3d fdd0 8bbb
000001f0: 68fd fabb 882c 483c 508c 3bbb f776 bf3b
00000200: 31b5 32bc 9883 b93b 09d6 c639 deba c1bc
00000210: 4bf0 2b3b 01f1 ab3c 4b68 ef3b 14c8 733c
00000220: 55f3 913c b72b bc3c 74bc 3cbc 44e6 513c
00000230: 8c5b c2bc 915b 023c 5408 a33c 50e8 0abd
00000240: 72a8 323c 87a4 0dbc 2091 f93b 3329 f6bb
00000250: 45d1 2a3c 3920 1d3b c9af 1e3b a7d0 e73b
00000260: 478b 3e3c 5c94 b63c 0a9a 903c 9a7b f23a
00000270: eb8a 863c a4d6 ccb8 552b 6c3b 794a 67bc
00000280: 89de 81bb bb97 443c 3ecd f0bb 51c0 b5bb
00000290: d728 bbbc 15cc df3b 2cbf b33c 420d 97bb
000002a0: 9235 473c 50c4 603c ef10 c13b bbc7 6b3c
000002b0: 8c12 7d3b 5ef7 44ba a821 843b aa4b 5d3c
000002c0: e2f3 cabc 9015 e93c 39a7 e23b 8819 e7bb
000002d0: 936e 9c3c 2852 e0bc 4ea0 3c39 ab6b 5abc
000002e0: 69fc ebbc 56d8 77bc 2ead e0bb 9c7e 52bb
000002f0: 5841 50bb a033 86bc 565c 6cbc 6725 b2bb
00000300: 777b db3b 1701 3bbc 2352 dfbb 6a9d 8bbb
00000310: 4b06 fabb 1f97 0f3c b1ae 193c f10b 1bbc
00000320: df0c 44bd 7e12 f93a c60e 26bc 0cea 35bc
00000330: dc48 3d3c 6088 5dbb 9f72 3d3c fa3f 233b
00000340: 1c16 153c 85e9 e6ba a141 e43c 7549 0c3c
00000350: 693b 3e3c 1708 563c 6880 82bc b382 01bc
00000360: f613 8a3c a914 f63c 6809 a9bc 69a9 d3bb
00000370: c82b 3a3c 5aef 0d3b 9b46 1b3c 1737 7e3b
00000380: 3c18 b0bb 2b08 46bb 65fd 23bc ed8f d7bc
00000390: dcf2 e93c 99f4 babb 4271 33bc 5950 30bc
000003a0: 63a7 1c3c 2d36 c03a 41f2 493c 3af5 1dbb
000003b0: 9c73 a7bb a463 933c 1f8f 7c3b 3432 a0bb
000003c0: 5986 32bc 35a4 b4b9 7bf1 003d 1eb4 cd3b
000003d0: 8d4e 41bc fc36 713c 8b4e 2c3d 6142 73bc
000003e0: 0437 9cbc fae4 a13c ee35 2ebc f548 aebb
000003f0: e68b a239 a6f1 1b3c dc5a bb3b ccf8 f33b
0.048464645 0.034454457 0.009547457 0.037391674 -0.018273698 -0.002501252 -0.03012287 -0.04064018
-0.02088967 -0.012491587 -0.08519248 -0.020196049 0.0028958386 0.036167428 -0.01880134 0.015620963
-0.01438945 -0.06716353 0.025068915 0.018174976 -0.012016508 -0.018748982 0.011993693 0.0025765565
-0.0007719417 -0.029864226 -0.037496246 0.02766227 -0.04445379 -0.022257123 0.022063723 -0.024950383
0.0016786512 0.0075232536 -0.039824877 -0.016695727 -0.044595763 -0.0037357497 -0.022142919 0.021479592
-0.046265144 -0.036550757 0.020616882 -0.0014664774 0.03273867 0.023936491 -0.01498721 -0.009366441
0.029543642 -0.039147325 -0.046214536 -0.021499543 0.0023772595 0.06734809 0.020331804 0.002564826
0.01091318 -0.053347673 0.0006245682 0.018283997 0.06387006 0.00044933058 0.006830267 -0.014107448
-0.00944426 0.018744078 -0.0375942 0.031184794 0.009759668 -0.03342292 0.0010933691 0.0071334615
0.008928708 -0.01091585 -0.018216794 0.0027486312 0.05432642 0.01796644 -0.005470811 8.2589046e-05
-0.0053927777 -0.035572536 -0.07168305 0.037802573 -0.034055483 0.009131931 0.022223521 -0.04758494
0.034760095 -0.08843863 0.039075185 0.0069811824 -0.031951293 0.035476528 0.015960969 0.018550253
-0.0031237472 -0.013993805 0.0029959704 0.038005847 -0.043781083 0.0042727715 0.031457357 0.03782145
0.02360918 0.01295645 0.034303892 0.019768748 -0.002429166 0.00449396 0.0018351508 0.014179271
0.024556443 0.028488403 0.060406324 0.020710168 -0.03084426 -0.056324154 -0.005520596 0.022149583
-0.02913387 -0.0511596 0.045869462 -0.0042668567 -0.007659603 0.012217648 -0.0028617568 0.005843039
-0.010907457 0.005661439 0.00037924972 -0.023648676 0.0026235755 0.020988943 0.007306134 0.014879245
0.017816225 0.022970064 -0.01151954 0.012811247 -0.023725294 0.007956401 0.019901432 -0.033912957
0.010904418 -0.008645183 0.007616177 -0.0075122355 0.01042587 0.0023975505 0.0024213663 0.007074434
0.011629886 0.02228754 0.017651577 0.0018499971 0.016423663 -9.767458e-05 0.003603657 -0.014116877
-0.003963296 0.011999066 -0.0073486855 -0.0055466075 -0.022846622 0.0068297484 0.021941744 -0.0046097348
0.012158768 0.01371868 0.005891911 0.014390881 0.003861579 -0.0007513667 0.0040323325 0.013506809
-0.024774496 0.028452665 0.006916907 -0.007052604 0.019095695 -0.027382925 0.00017988795 -0.013331334
-0.028806882 -0.015127262 -0.006856582 -0.0032118922 -0.003177723 -0.016382039 -0.0144263115 -0.0054365876
0.0066980678 -0.011413834 -0.0068152114 -0.0042607086 -0.0076301447 0.008764057 0.009380029 -0.009463296
-0.047863837 0.0019002703 -0.010135358 -0.011103164 0.011553016 -0.003380321 0.011562972 0.002490996
0.00909951 -0.0017617202 0.027863326 0.008562435 0.011610844 0.013063452 -0.01593037 -0.007904696
0.016855221 0.030039148 -0.020634368 -0.0064594042 0.011362977 0.0021657557 0.009477283 0.003879016
-0.0053739827 -0.003021727 -0.010009144 -0.026313746 0.028558187 -0.005705428 -0.010952296 -0.010761344
0.0095613925 0.0014664583 0.012325824 -0.0024102465 -0.0051102173 0.017991848 0.0038537455 -0.004888797
-0.010896289 -0.0003445462 0.031480294 0.006277575 -0.011798513 0.014722582 0.042067092 -0.014847369
-0.019069202 0.019762505 -0.010632975 -0.0053187557 0.0003100328 0.009518063 0.0057176184 0.0074454304

action_model._discrete_distribution.branches.0.bias f4 [3]
00000000: 61de 593b 037f 583b a3de e1bb
0.003324412 0.003303469 -0.0068929954

action_model._discrete_distribution.branches.1.weight f4 [2, 128]
00000000: 4144 ae3c 6182 8d3c 1f61 4cbc b6f2 6dbb
00000010: 29d8 1ebc 9ffe 44bc 405a 00bc 05f4 8bbb
00000020: bd11 153c 39ae 4abc 66cb 173b 0173 993c
00000030: 6504 fe3c 05b0 09bc d7d8 873c 72b5 8838
00000040: 4d05 36bc 78b3 7fbb 685c fabc b4aa babb
00000050: ea04 ca3c 6cb3 ce3c 1354 ddbb 6a68 433c
00000060: 5fc1 12bc 807b 2a3c af3d 7fbb 4476 ec3c
00000070: 16b8 c0bc f44d a3bc ad61 b83b 599c 0b3c
00000080: a477 35bc 054c 48bb e248 b63c ab14 a4bb
00000090: 0788 dd3c c230 6ebc 3fb7 1bba 5965 00bd
000000a0: cc2e 203d 3082 e0bb ad87 efbc f6c0 9d3c
000000b0: aeb5 86bc 6f81 2d3d 888d dcbc f67d 13bc
000000c0: 0ba8 863c a8c3 a8bb 9ee7 583c 3df0 08bc
000000d0: e6b6 b43b d72e 253d b552 2f3c 6104 6d3c
000000e0: b099 843d bf05 db3c 7b1b ab3b 54da fbbc
000000f0: 044f 533c bc2d 4bbb 1bbf ca3c 23fb 6cbb
00000100: 5ae7 82bc 1a53 f03c 6986 2f3c dd1b cf3b
00000110: e663 6dbc 8a7b b6bc b9af d23b 3e54 953a
00000120: 38a2 40bc e3c4 123c cdd8 883c 4178 973c
00000130: 465f b8bc 376e 7cbc baf2 423c fcd5 87bd
00000140: c254 143c c982 5d3b 4bad e6bb bf43 bfbc
00000150: 0ea5 683b fdf9 9bbc bd5c 283c 6c21 59bc
00000160: a786 763c b358 8ebc 394b f83c 45a4 b8bb
00000170: f15d ab3a 7a64 bd3b 6f6b 28bb 2e6a 18bc
00000180: ae19 12bc f3ce 943a 8ec6 ecba 42e2 3abb
00000190: 3bf1 0a3d b1a9 eebb 4a79 23bc 05a6 de3b
000001a0: ab7a c63b 1b7a 653c 2f65 1ebb 8eee 56bd
000001b0: f5cb e2bc f58d 92bb ecca a3bc ba06 40ba
000001c0: 3c43 9d3b efc2 0a39 df1c 2bbb 8b39 03bc
000001d0: 89bf 1a3d b61a 8cbc 9972 bdbb f267 bdbb
000001e0: 0549 883d 02c7 c03b 2812 c23c ab26 033c
000001f0: ca1b c33b 47a7 ca3a 7c93 c5bb fc15 7dbc
00000200: 9f3d ecbc 194d b9bc 9bc1 3d3c 6764 80bc
00000210: bbb1 dd3b 1b30 b03c 47a1 b93b 931c 323b
00000220: e65a 3dbc 48e3 17bc d460 56bb 950c 393c
00000230: 14be 9abc 5b8c a7bb 49b3 873a cc05 fe3a
00000240: f706 233c 0385 cc3b 19e5 0e3d 47dc c43c
00000250: a041 a0bc 6890 edbc e449 6a3c ea4a 2cbc
00000260: 3bff 763c 9471 4ebc 678f 703b a701 1dbd
00000270: ae68 803c e10a 283b 1ef3 163a 757d a7bc
00000280: 6c79 9f3c 8484 193c 6596 ecbc 7e85 893c
00000290: d6d2 01bd 9e14 1b3b fc5d 663b 2a67 223d
000002a0: 6b29 17bd 5d6e 033c 8748 103d 2f58 23bd
000002b0: 25de 173c 51af 56bd 529a a2bb 7bf9 9c3c
000002c0: 4a77 b0bc 14c2 923b 6e03 08bc c815 0e3c
000002d0: 6d8e 343b ba5c dfbc 4d8d 71bc 9840 3bba
000002e0: 8fb4 32bd 6a75 c2bc 0972 4cbb e6f5 273d
000002f0: 83fb 55bc 9790 fa3c cb93 bebc 90f3 2ebc
00000300: e6ee d23c d481 4bbc 6d5b 80bc 8a5f 9abc
00000310: 8e4c 84bc 63c2 403c fc1c d43c 2c16 84bb
00000320: 3df6 c03a c025 583b 9575 b0bc 87a1 cbbc
00000330: 6ca5 953c a0de 603c a249 113c d26e 183d
00000340: d793 843b c205 833c edcf 093c 644e 983c
00000350: 5303 44bb 3ff3 40bc 30ba 3bbc b7e0 a93c
00000360: 19c0 263b 46ad 943c dee7 0dbd 8bff ab3a
00000370: e009 25bc 714e 203c d00c 3f3c 3a8a a83c
00000380: 1844 d5bc a13f a5bc 9733 b93c 125e 603c
00000390: b94d 04bd 5ba0 a4ba b846 2b3c 90f8 303b
000003a0: 2fbd 26bc b7ae 0bbd 3e3d b83b 9f45 833d
000003b0: b3cc fe3b 11ff 413a 361f e0bb 23f9 083c
000003c0: 6eb4 223b 3af1 3c3c 9fbc 823c 668c be3c
000003d0: cb76 08bd 8f7a 21bc c00d 173c d5e4 1f3c
000003e0: 725c 63bd 8704 fd3b 23b8 a4bc 2949 10bc
000003f0: 1c04 96bb d6a2 0a3c f869 243c 6e5f 1cbc
0.02127278 0.017274084 -0.012474327 -0.0036307997 -0.009695091 -0.012023597 -0.007834017 -0.0042710328
0.009098467 -0.0123706395 0.0023162006 0.018731596 0.031007955 -0.008403783 0.01658289 6.518782e-05
-0.011109662 -0.0039016884 -0.03056164 -0.005696619 0.024660546 0.02523204 -0.006754407 0.01192675
-0.008957236 0.010405421 -0.0038946678 0.028864987 -0.023525279 -0.019934632 0.0056268782 0.008521163
-0.011075888 -0.003056289 0.02225155 -0.0050073466 0.027042402 -0.014537992 -0.00059400866 -0.031346653
0.03910713 -0.006851457 -0.0292395 0.01925705 -0.016444054 0.042359766 -0.026922956 -0.009002199
0.016437551 -0.005150277 0.013238816 -0.0083580585 0.0055149673 0.040327873 0.010700871 0.014466376
0.06474626 0.026736138 0.005221782 -0.030743755 0.012897257 -0.0031002602 0.02474933 -0.0036160431
-0.015979458 0.0293365 0.010713198 0.0063204602 -0.01448915 -0.022275705 0.006429639 0.0011392904
-0.011757426 0.008958074 0.016704941 0.018489959 -0.022506367 -0.015407137 0.011898691 -0.06632611
0.009053411 0.0033799878 -0.007039701 -0.023347734 0.003549877 -0.019040102 0.010276017 -0.013252597
0.015046752 -0.01737628 0.030309306 -0.005634817 0.0013074261 0.0057798 -0.00256988 -0.009302659
-0.008917255 0.001135318 -0.0018064545 -0.0028516208 0.03392146 -0.0072834124 -0.009977648 0.0067946934
0.0060571036 0.014006163 -0.0024169197 -0.052473597 -0.027685145 -0.004472489 -0.019994222 -0.0007325221
0.0047992747 0.00013233324 -0.0026109738 -0.008009325 0.03778032 -0.01710258 -0.0057814834 -0.0057802135
0.06654552 0.0058830986 0.023690298 0.008004825 0.0059542404 0.001546123 -0.0060295444 -0.015447136
-0.028837977 -0.02261977 0.011581804 -0.015672876 0.006765572 0.021507313 0.0056649777 0.0027177676
-0.011557316 -0.009270497 -0.0032711523 0.011294504 -0.018889464 -0.005113167 0.0010353114 0.001938039
0.009950391 0.006241442 0.034886453 0.024030818 -0.019562542 -0.028999522 0.014299843 -0.010515908
0.0150755 -0.012600321 0.0036706568 -0.038331654 0.015674915 0.002564125 0.0005758273 -0.020445565
0.019467078 0.009369973 -0.028880307 0.016787287 -0.03169521 0.0023663412 0.0035151234 0.039649166
-0.036904734 0.008021918 0.035225417 -0.03987902 0.009269272 -0.05241329 -0.004962244 0.01916193
-0.021541256 0.0044787023 -0.008301599 0.008672185 0.0027550713 -0.027265895 -0.014743161 -0.0007143109
-0.043629225 -0.023737628 -0.00311959 0.04100599 -0.013060453 0.030586524 -0.023263833 -0.010678187
0.025748681 -0.01242109 -0.015668595 -0.018844385 -0.016149785 0.011765095 0.025892727 -0.0040309634
0.0014721822 0.0032981485 -0.021540442 -0.024857296 0.018267356 0.013724953 0.008867653 0.03721506
0.004045944 0.015993956 0.00841139 0.018592067 -0.0029909208 -0.011776744 -0.011457965 0.020737035
0.002544409 0.01814903 -0.034644954 0.0013122422 -0.010073155 0.009784327 0.01166077 0.020573724
-0.026033446 -0.020171942 0.022607608 0.013694303 -0.032300685 -0.0012559997 0.010453872 0.0027003624
-0.010176941 -0.034102168 0.005622535 0.064097635 0.007775867 0.00074003736 -0.006839658 0.00836018
0.0024826783 0.011532122 0.015959082 0.023260307 -0.033316415 -0.00985588 0.009219587 0.009759148
-0.055508085 0.007721487 -0.020107334 -0.008806505 -0.0045781266 0.008461675 0.010035031 -0.009544237

action_model._discrete_distribution.branches.1.bias f4 [2]
00000000: 30d2 51bc 31d2 513c
-0.01280646 0.012806461

exp_avg f4 [128, 56]
00000000: 24b2 cab3 56ad cbb5 3cb0 80b5 e21e cab6
00000010: f8f7 e134 fe77 56b6 8f67 79b6 02b4 51b6
00000020: 182e 3135 945c a7b6 147e 9bb6 0abd dcb6
00000030: 7e24 fbb5 1995 aa34 884f 8bb4 c84c 0ab6
00000040: 9aa4 92b5 9809 deb6 08cd 93b5 ef14 8db6
00000050: 7a00 b2b6 99fc 87b6 84aa 5ab5 7cb0 c0b6
00000060: 0491 bab6 c49c d9b6 53fe 51b6 85ef deb5
00000070: fdb6 1235 51d3 8eb5 d02a 31b4 4af4 e3b5
00000080: 6233 5b37 d430 b136 2602 1235 dc10 70b5
00000090: 90fd 4a36 70f8 5ab4 6e39 eeb5 a327 f035
000000a0: e41e 49b5 ca34 2835 1efb 1db6 cce0 8eb5
000000b0: d93d 4a37 4ed9 2b38 baf9 68b7 9d23 94b7
000000c0: faa2 2638 c261 4038 cc01 b438 1181 7738
000000d0: 5702 6138 7150 e137 1334 be38 3038 0236
000000e0: dfde b2b8 acbe d6b8 209d 0bb9 90ee caba
000000f0: f190 f0ba 279d 80ba b4b6 7dba 7a7f 27ba
00000100: aa28 92ba 5fd9 1bba d18a 35ba cc1d 8cba
00000110: 862c 70ba e088 dbb8 3721 9ab8 d6ae f6b8
00000120: 5898 08b9 62ec daba 7334 b8ba 208a 98ba
00000130: 5243 75ba 6a5b 30ba 3d34 b2ba ae19 41ba
00000140: a4f4 17ba 80d2 9dba 20a9 83ba 3cd9 59b8
00000150: c428 c3b8 f036 f9b8 26d8 08b9 e4de c7ba
00000160: 9671 b5ba 64b8 99ba 9402 6cba 12e0 32ba
00000170: 964d 67ba cdc6 13ba 28aa f3b9 60a5 86ba
00000180: 574e 12ba 8fbd 51b9 1006 e2b8 399b ddb8
00000190: cf32 0ab9 78e7 a2ba b2eb e0ba 5a9d 5aba
000001a0: d257 5dba fed9 37ba b0bd 48ba c59b 17ba
000001b0: ccd8 10ba 5d52 89ba 96e8 9ab9 36f8 5ab9
000001c0: 548d 3cb8 c369 0db8 b2fc 44b8 235b 03ba
000001d0: 3dbc 08ba 62d8 deb9 3e79 53b9 e928 30b9
000001e0: 21d0 efb9 1b8a b7b9 4806 97b9 ad89 a5b9
000001f0: 9a68 d6b9 b465 6bb8 aef7 4fb8 e8b6 1eb8
00000200: a074 35b8 2a71 d6b9 3631 11ba fae1 d2b9
00000210: f42f 95b9 abe8 2bb9 5237 b4b9 923a a4b9
00000220: 6956 8cb9 55c1 b5b9 24c1 b3b9 8ea6 9ab8
00000230: fef3 23b8 4fe1 fcb7 470a 05b8 5470 84b9
00000240: 5efc b9b9 d882 dcb9 425f 82b9 da31 05b9
00000250: 52cf 16b9 a1cf 6cb9 e90e 53b9 bd85 a8b9
00000260: 4b34 68b9 c8ee 04b8 3642 73b8 0f5a 40b8
00000270: 024c 27b8 6a91 3cba abbd 6aba 4084 f2b9
00000280: d10c 86b9 7ea8 25b9 f3df 9fb9 88ba 8bb9
00000290: 393f 69b9 a4a0 9bb9 a3fa 82b9 aaae aab8
000002a0: 5f63 4236 0c29 d337 80d0 bf36 0253 2039
000002b0: 85a0 0039 0833 9438 2858 0439 ecbe 9938
000002c0: 5269 0938 148d 13b8 90d9 2c37 10df 1739
000002d0: a68c 38b8 9204 dbb6 c941 2a36 3037 4735
000002e0: 44a2 5536 8d81 4939 30c3 2538 58bf 6837
000002f0: d227 e438 8833 9538 1eee 1f38 c656 89b8
00000300: 8881 e7b6 c7b0 8b38 7c98 b1b7 aecf 7637
00000310: c0b3 9d35 7052 9337 787b 1636 6073 3938
00000320: a03f a9b6 3093 09b7 70ee b138 566a a938
00000330: 08e5 7b38 d89f 9ab8 0023 a1b5 495a 8e38
00000340: d82c 7037 c08a 3db5 b063 f136 f45a 8d36
00000350: 025d f536 ec86 cc38 959c 1d39 bb09 8138
00000360: ea09 f838 d3b3 e938 72fa 1e39 a62e 08b8
00000370: 2455 8e37 ad29 8b38 a2e7 c138 4eaf a137
00000380: d970 b0b8 6bbf c0b8 d456 54b8 c7b5 88ba
00000390: e9f8 95b9 b3d0 24ba 3bbd dab9 db7f 40b9
000003a0: 2bcd 8db9 0cc8 90b9 3056 9ab9 5be1 0cba
000003b0: 2603 65b9 46e3 2eb8 3de5 9fb8 c4d8 62b8
000003c0: 6865 4cb8 9807 83ba dfb3 c437 6604 f7b9
000003d0: edef c8b9 496c 3db9 a034 44b9 f710 60b9
000003e0: 0c71 8bb9 e773 f0b9 ea69 52b9 235d 2fb8
000003f0: cc07 a6b8 ea03 81b8 c3e1 59b8 769d 17ba
-9.4387616e-08 -1.5175126e-06 -9.588034e-07 -6.0236644e-06 4.2089937e-07 -3.195833e-06 -3.716417e-06 -3.1248205e-06
6.6004714e-07 -4.9877654e-06 -4.6340374e-06 -6.578518e-06 -1.8711578e-06 3.177345e-07 -2.5948634e-07 -2.0608295e-06
-1.0925753e-06 -6.6172324e-06 -1.1012025e-06 -4.2045644e-06 -5.304869e-06 -4.0527198e-06 -8.145946e-07 -5.7425914e-06
-5.560114e-06 -6.485354e-06 -3.1291463e-06 -1.6609998e-06 5.465552e-07 -1.0641326e-06 -1.6499985e-07 -1.6983915e-06
1.3065381e-05 5.2806954e-06 5.4392365e-07 -8.94315e-07 3.0247938e-06 -2.0393213e-07 -1.7749096e-06 1.7892929e-06
-7.4923287e-07 6.2661695e-07 -2.3540993e-06 -1.0645249e-06 1.2054538e-05 4.0971958e-05 -1.3886422e-05 -1.7659559e-05
3.9729268e-05 4.586741e-05 8.5834035e-05 5.900959e-05 5.364636e-05 2.6859549e-05 9.0696056e-05 1.9404215e-06
-8.5292144e-05 -0.000102398306 -0.00013314607 -0.0015482474 -0.0018353743 -0.000981246 -0.0009678409 -0.000638954
-0.0011151035 -0.00059451716 -0.00069252873 -0.0010690033 -0.0009161908 -0.00010468229 -7.349479e-05 -0.0001176276
-0.00013026723 -0.0016702528 -0.0014053717 -0.0011637844 -0.000935604 -0.0006727489 -0.001359589 -0.00073661923
-0.0005796647 -0.0012040883 -0.001004491 -5.1939147e-05 -9.305918e-05 -0.00011883478 -0.00013050492 -0.0015248922
-0.0013843055 -0.0011727926 -0.000900307 -0.000682355 -0.0008823512 -0.00056372286 -0.00046475348 -0.0010272674
-0.00055811316 -0.0002000241 -0.00010777649 -0.00010567014 -0.00013179633 -0.0012428602 -0.0017160086 -0.0008339487
-0.0008443567 -0.00070133794 -0.000765766 -0.00057834043 -0.00055254693 -0.0010476817 -0.0002954646 -0.00020882566
-4.4954315e-05 -3.3715518e-05 -4.6965382e-05 -0.0005010834 -0.0005216038 -0.00042504357 -0.00020167694 -0.00016799908
-0.000457407 -0.00035007377 -0.00028805644 -0.0003157383 -0.00040895195 -5.6123085e-05 -4.9583316e-05 -3.784048e-05
-4.326238e-05 -0.00040901575 -0.0005538644 -0.00040222687 -0.00028455222 -0.00016394506 -0.00034373492 -0.00031324156
-0.0002676726 -0.00034667054 -0.00034285442 -7.3743155e-05 -3.9089464e-05 -3.0145658e-05 -3.1719243e-05 -0.00025260693
-0.00035473978 -0.00042059156 -0.00024866505 -0.0001270244 -0.00014382348 -0.00022584062 -0.00020128083 -0.000321431
-0.00022144725 -3.1693635e-05 -5.799738e-05 -4.586024e-05 -3.988669e-05 -0.0007193299 -0.00089546543 -0.0004625637
-0.0002556802 -0.00015798394 -0.00030493698 -0.00026651123 -0.00022244164 -0.0002968359 -0.0002498227 -8.1387654e-05
2.8966094e-06 2.5172274e-05 5.716516e-06 0.00015289712 0.0001226683 7.066695e-05 0.00012621342 7.3311705e-05
3.2761433e-05 -3.517892e-05 1.0302654e-05 0.0001448358 -4.4000008e-05 -6.5272407e-06 2.5370266e-06 7.4213585e-07
3.1833924e-06 0.00019217115 3.9520848e-05 1.3872828e-05 0.00010879304 7.114472e-05 3.8130318e-05 -6.548832e-05
-6.899416e-06 6.660964e-05 -2.117105e-05 1.4711097e-05 1.1749726e-06 1.7562154e-05 2.242361e-06 4.421489e-05
-5.0439994e-06 -8.200106e-06 8.48443e-05 8.0783546e-05 6.0056365e-05 -7.3730655e-05 -1.2005621e-06 6.7879046e-05
1.4315556e-05 -7.0609894e-07 7.193965e-06 4.212716e-06 7.3123965e-06 9.752609e-05 0.00015031018 6.153012e-05
0.00011827408 0.00011143801 0.00015161352 -3.246837e-05 1.6967366e-05 6.635799e-05 9.246102e-05 1.9274328e-05
-8.4133535e-05 -9.190928e-05 -5.0625604e-05 -0.001043015 -0.00028604947 -0.0006287202 -0.00041721188 -0.00018358177
-0.00027046478 -0.00027614867 -0.00029437384 -0.0005374157 -0.00021840315 -4.1696498e-05 -7.62441e-05 -5.4084478e-05
-4.8731832e-05 -0.000999677 2.344878e-05 -0.00047114788 -0.0003832573 -0.00018064784 -0.00018711621 -0.00021368625
-0.00026596372 -0.0004586272 -0.00020066617 -4.180999e-05 -7.916949e-05 -6.1519284e-05 -5.194709e-05 -0.00057836564

exp_avg_sq f4 [128, 56]
00000000: dab0 a52d dc00 632e a3cd c62e 9c52 1a31
00000010: ce87 2931 7aeb 1631 74ba f430 30be d330
00000020: d0a2 6c31 a4e0 9431 c1f9 0c31 a9ae 0731
00000030: 8f1b a931 9dc0 722e 2b0f a32d 9e49 5d2e
00000040: be3d cd2e 4931 0f31 9e18 1c31 71c2 0e31
00000050: d59e ef30 4bb4 d430 cfab 5931 242c 9831
00000060: 68e7 1231 201a 0431 573e a031 363e 902e
00000070: 95e4 782e 920a 142f f7a0 6a2f 6da6 ac31
00000080: ed8a 5e32 43e5 0432 a4f4 ad31 0234 8231
00000090: 41c6 5432 a318 2432 b73f 9c31 f511 e031
000000a0: 3970 4832 30d1 312f 2886 1231 2cee 5831
000000b0: 2094 a231 3b69 3135 ea91 a034 01fe 6234
000000c0: 66f1 2134 6101 d533 3269 a834 9aa7 4c34
000000d0: 68ca d733 47d7 4334 5dba 8c34 31bc 8b31
000000e0: 0b53 4034 c358 a934 2799 f234 90ea 7138
000000f0: d06d 3d38 e42f 9f37 bdc3 5637 8305 1537
00000100: 5828 0a38 64b0 9f37 c99a 2337 7c5a 8337
00000110: 6e32 e037 ff36 c934 e018 3f34 550c a234
00000120: 2886 f334 c8ae 5538 6aaa 1e38 fe09 8437
00000130: 23f8 4137 20b1 1137 fce4 0538 9c71 a337
00000140: ad18 2637 af38 6037 a857 e037 3bd8 c634
00000150: 9630 3834 4341 9c34 958b f334 d9b2 3b38
00000160: ca20 f937 8fe5 5f37 e35f 2f37 f73f 0c37
00000170: 2237 fb37 e285 a737 bb8e 2737 7ed8 3a37
00000180: 49a0 df37 7ccf b634 7cd6 3034 6ba9 9934
00000190: 6099 f334 0929 2538 9ea5 d737 8ab7 4737
000001a0: 692f 2137 6b28 0637 ba65 e637 9a76 a537
000001b0: dd96 2637 1056 2d37 37b6 d537 48e1 af34
000001c0: 74b2 be32 c5fa d032 5c75 1f33 7d28 8136
000001d0: 7b09 7d36 1e4e 8d36 902b 2936 7620 5335
000001e0: 2e82 bd35 0a6e 6b35 b28e 3f35 f27e 8436
000001f0: 08af 9735 5bae 0833 9d54 bc32 392f df32
00000200: edbc 2233 0f61 7536 7051 9f36 b46b 8e36
00000210: 6f95 2e36 586e 6235 fedd b035 7aa4 5335
00000220: dbe1 3335 1821 8636 3cea 8435 c23a f132
00000230: 4d24 b532 d2b2 dd32 1728 2333 4190 4a36
00000240: eeff cb36 36ac 8d36 b881 2736 61e9 6835
00000250: 2224 c835 ae8e 4835 98df 2435 2293 7e36
00000260: 8107 8035 aaf3 ed32 3804 c732 d4f1 fe32
00000270: 9eae 4333 2801 a836 c2d6 0537 2b6a a036
00000280: c0ae 3236 91f1 8a35 0404 2a36 ff75 8935
00000290: 6e2f 4235 fc20 8636 d629 d035 67c2 0b33
000002a0: c1dc 1b32 22be a732 d16c e732 6113 d036
000002b0: 3962 3136 7104 b635 033b 5435 5c4c 1535
000002c0: d28b 0a36 26c8 8c35 e911 1f35 1d8f 8a35
000002d0: ba46 cb35 41b4 ba32 7512 2132 143e a332
000002e0: 3fbd eb32 64e5 d436 8c9a 2536 654e a735
000002f0: 198b 4b35 1d70 1535 84db 0436 e9ce 8e35
00000300: 3c55 2335 109b 8035 d6e9 c835 be91 bf32
00000310: d575 2532 f769 a532 2189 ee32 818d e336
00000320: 6576 3136 2c5f 9b35 4f5c 4035 3594 1335
00000330: 8eaf 0136 e709 8e35 1f2f 2735 e9be 6b35
00000340: 80cd c135 d171 c032 fbf1 2a32 5268 a632
00000350: 6b5e f832 930f e436 073a 4436 7911 9635
00000360: c3f4 4035 55b4 1435 2b4f ff35 465a 9135
00000370: 5fc8 2e35 e2e9 6835 a336 c435 e5e8 c732
00000380: 480b 4b33 0623 a533 3bd1 d733 84e8 9837
00000390: fd5a 8d37 ae84 0a37 d82c 6736 638c 0236
000003a0: ea2d f936 3064 7536 8c08 1436 9a46 ba36
000003b0: 1c4f ac36 eaf1 b233 1330 4e33 cc8e a333
000003c0: 12d0 da33 c369 9a37 1119 8937 63b7 0a37
000003d0: 24bc 6f36 83c1 0536 d0e4 e436 a41f 6b36
000003e0: 52fa 1436 a99a bb36 181f a136 9784 b133
000003f0: 8af1 4e33 f49d 9f33 18d9 dc33 8368 9637
1.8836866e-11 5.1614588e-11 9.040526e-11 2.2456907e-09 2.4669933e-09 2.1961726e-09 1.780633e-09 1.5406325e-09
3.4435068e-09 4.3329056e-09 2.051465e-09 1.9744368e-09 4.9216804e-09 5.5195504e-11 1.853769e-11 5.0314967e-11
9.333288e-11 2.0837254e-09 2.271498e-09 2.0774247e-09 1.7434681e-09 1.5476272e-09 3.1675318e-09 4.4288004e-09
2.1377335e-09 1.9223378e-09 4.6637e-09 6.559413e-11 5.6591693e-11 1.3464277e-10 2.1339362e-10 5.0247793e-09
1.2953689e-08 7.735539e-09 5.062775e-09 3.7894106e-09 1.2385102e-08 9.551658e-09 4.547441e-09 6.5212995e-09
1.1667049e-08 1.6172375e-10 2.1322055e-09 3.1567522e-09 4.7316604e-09 6.609077e-07 2.990849e-07 2.1140296e-07
1.5082114e-07 9.918836e-08 3.1368978e-07 1.9059954e-07 1.0048535e-07 1.8239108e-07 2.621263e-07 4.0668273e-09
1.7911604e-07 3.1543286e-07 4.5187446e-07 5.767733e-05 4.5163382e-05 1.8976578e-05 1.2800968e-05 8.882375e-06
3.2939337e-05 1.9036415e-05 9.751596e-06 1.5658552e-05 2.6726364e-05 3.7479182e-07 1.779731e-07 3.0183824e-07
4.535989e-07 5.0945935e-05 3.7828846e-05 1.574028e-05 1.156147e-05 8.683914e-06 3.192293e-05 1.9484018e-05
9.900116e-06 1.3364638e-05 2.6743699e-05 3.7037702e-07 1.7154011e-07 2.9104748e-07 4.5363836e-07 4.475084e-05
2.9698382e-05 1.3345284e-05 1.0453138e-05 8.359543e-06 2.9947205e-05 1.9970295e-05 9.987208e-06 1.113687e-05
2.665831e-05 3.4051106e-07 1.6469306e-07 2.862174e-07 4.5373872e-07 3.9377283e-05 2.5707119e-05 1.1904058e-05
9.607386e-06 7.996433e-06 2.7465507e-05 1.9724761e-05 9.929497e-06 1.03316415e-05 2.5476429e-05 3.2760204e-07
2.2200062e-08 2.4328424e-08 3.712681e-08 3.849213e-06 3.7705456e-06 4.2112215e-06 2.520832e-06 7.865086e-07
1.4119485e-06 8.770445e-07 7.1360694e-07 3.948685e-06 1.1301317e-06 3.1823543e-08 2.1924558e-08 2.5982091e-08
3.789039e-08 3.656434e-06 4.74805e-06 4.244468e-06 2.6015002e-06 8.435213e-07 1.317763e-06 7.884297e-07
6.701136e-07 3.997364e-06 9.902938e-07 2.8082813e-08 2.1087681e-08 2.5809104e-08 3.7987856e-08 3.0184312e-06
6.0796656e-06 4.2221754e-06 2.4960445e-06 8.6766346e-07 1.4911677e-06 7.471343e-07 6.142013e-07 3.7934592e-06
9.538927e-07 2.7701237e-08 2.3168568e-08 2.9679462e-08 4.556079e-08 5.0069248e-06 7.97742e-06 4.780731e-06
2.6625785e-06 1.0352106e-06 2.5334311e-06 1.0241637e-06 7.233965e-07 3.997351e-06 1.5509384e-06 3.2540267e-08
9.072381e-09 1.9527821e-08 2.6941423e-08 6.201139e-06 2.6432228e-06 1.3561349e-06 7.906203e-07 5.5617943e-07
2.0644989e-06 1.0489064e-06 5.925818e-07 1.0323453e-06 1.5145263e-06 2.173522e-08 9.37563e-09 1.9003927e-08
2.744366e-08 6.344797e-06 2.4676874e-06 1.2465285e-06 7.5825807e-07 5.566997e-07 1.9797308e-06 1.0640043e-06
6.0846264e-07 9.581872e-07 1.4969216e-06 2.2301602e-08 9.631056e-09 1.9256715e-08 2.7769206e-08 6.7816004e-06
2.644397e-06 1.1576099e-06 7.16599e-07 5.4977437e-07 1.9324684e-06 1.0582706e-06 6.228092e-07 8.7822133e-07
1.4439429e-06 2.24035e-08 9.950322e-09 1.9372383e-08 2.8913936e-08 6.7967426e-06 2.9240052e-06 1.1180956e-06
7.188175e-07 5.5396714e-07 1.9022021e-06 1.0829615e-06 6.511163e-07 8.676708e-07 1.4619039e-06 2.3272557e-08
4.727488e-08 7.689782e-08 1.00497765e-07 1.8228086e-05 1.685088e-05 8.256333e-06 3.4447785e-06 1.9453225e-06
7.4261234e-06 3.6566162e-06 2.2058694e-06 5.551451e-06 5.135209e-06 8.332775e-08 4.8006836e-08 7.6162536e-08
1.0189264e-07 1.840748e-05 1.6343345e-05 8.268139e-06 3.5723288e-06 1.9931183e-06 6.821567e-06 3.5036146e-06
2.2199424e-06 5.591039e-06 4.8017937e-06 8.266323e-08 4.818279e-08 7.432746e-08 1.02840374e-07 1.793006e-05

exp_avg f4 [128]
00000000: d43d 4a37 d032 0ab9 024c 27b8 d25c f536
00000010: eccf 5ab8 1475 53b7 ecc6 8db7 01cf 22b7
00000020: 4497 ab38 cffe 3037 db36 94b8 3252 f4b8
00000030: c929 d3b6 6884 0039 d818 13b6 b3cc 7e38
00000040: 9f32 f5b6 4b60 67b9 3d16 cdb8 a0c4 59b8
00000050: 48e4 e2b8 eec0 9738 85ad 11b6 18a1 2136
00000060: bd7c 2637 a754 2e39 1c40 7434 1a26 27b8
00000070: bb54 ec37 36a8 4438 e5d8 9f38 509f bd38
00000080: d0ec c0b5 b06e 17b5 fc1f 4939 990c 4439
00000090: 9209 a738 f4d6 0538 a605 7536 f971 9db6
000000a0: ea0f 27b9 c541 a638 4e91 50b8 901a 1938
000000b0: c569 e238 5f59 aa38 96ea 95b8 ceb8 35b5
000000c0: fc49 efb5 9fc8 0c34 46e3 3537 caa1 18b9
000000d0: db80 8138 ec92 a0b8 c651 27b8 589f 5636
000000e0: b560 3638 3886 9f35 b4c9 a138 5f9d 9738
000000f0: 360d d238 7f6d 01b6 90c3 8cb7 9873 70b8
00000100: 18b8 98b9 49e8 33b8 bc9a 22b9 21b9 9bb7
00000110: 9e32 fe38 348c 3e39 4db3 ad37 d9a0 6538
00000120: 66c5 1fb7 5d9a 9836 8bc6 8b37 6219 1636
00000130: 6cba cf36 bc01 d237 33cd 00b8 ca24 8635
00000140: b0b9 68b8 9711 1936 87fe a038 c3d6 3e38
00000150: f453 b6b8 96b3 0239 d748 c1b8 e497 8bb8
00000160: fd29 dcb5 1a46 30b7 a660 1cb8 e458 2fb9
00000170: ca93 f435 fe18 6736 1063 a2b7 0cb4 5b39
00000180: 1c02 0039 05fe edb5 bc8c 3538 4c04 5b38
00000190: 16d9 0f39 0009 7835 9847 9f37 d5c0 0437
000001a0: b107 93b5 f4f0 4ab7 1441 1b39 3cac b637
000001b0: a5ce 91b8 5e39 a136 da28 a3b7 d40f f238
000001c0: 7e1f f837 59ab 56b9 2c69 96b6 5120 e9b7
000001d0: 8c77 2c39 ce78 94b8 6dee e3b5 f60e a2b8
000001e0: 4b56 feb8 a4f9 d936 90b0 83b8 4859 2538
000001f0: 5214 d0b6 022b 40b8 b3a1 9837 def0 2d34
1.2054534e-05 -0.00013179635 -3.988669e-05 7.3123747e-06 -5.2168893e-05 -1.2603839e-05 -1.690114e-05 -9.704149e-06
8.182091e-05 1.0549745e-05 -7.0674076e-05 -0.00011650137 -6.2931545e-06 0.00012256356 -2.1919168e-06 6.074896e-05
-7.307462e-06 -0.00022065749 -9.779304e-05 -5.1919953e-05 -0.000108190405 7.236177e-05 -2.1707685e-06 2.4084638e-06
9.923414e-06 0.00016625469 2.2747594e-07 -3.9851388e-05 2.8172848e-05 4.68867e-05 7.6221106e-05 9.0418966e-05
-1.4374036e-06 -5.6412955e-07 0.00019180769 0.0001869671 7.964963e-05 3.190986e-05 3.6511133e-06 -4.692233e-06
-0.0001593229 7.927747e-05 -4.972639e-05 3.650278e-05 0.00010796221 8.122878e-05 -7.148569e-05 -6.769668e-07
-1.782842e-06 1.3111502e-07 1.0841357e-05 -0.00014556121 6.1752005e-05 -7.656761e-05 -3.989206e-05 3.1981235e-06
4.3482247e-05 1.1885486e-06 7.7146484e-05 7.229554e-05 0.00010016041 -1.9286233e-06 -1.6780366e-05 -5.7328114e-05
-0.0002912886 -4.2893258e-05 -0.00015507167 -1.8563647e-05 0.00012121092 0.00018172042 2.07067e-05 5.4747656e-05
-9.523099e-06 4.5479233e-06 1.6662545e-05 2.2366517e-06 6.190783e-06 2.5034758e-05 -3.0708685e-05 9.994485e-07
-5.5486045e-05 2.2809015e-06 7.676804e-05 4.5499542e-05 -8.694074e-05 0.00012464667 -9.2165246e-05 -6.656328e-05
-1.6403498e-06 -1.0506739e-05 -3.728331e-05 -0.00016722415 1.8222429e-06 3.443623e-06 -1.9358034e-05 0.0002095254
0.00012207817 -1.7731805e-06 4.3284832e-05 5.221767e-05 0.00013718414 9.2400296e-07 1.8987615e-05 7.91271e-06
-1.0954592e-06 -1.20962395e-05 0.00014806195 2.1776294e-05 -6.952629e-05 4.8048523e-06 -1.9450137e-05 0.000115424074
2.9578569e-05 -0.00020472462 -4.482592e-06 -2.7790813e-05 0.00016447733 -7.0796916e-05 -1.6982209e-06 -7.727549e-05
-0.00012127737 6.496166e-06 -6.279454e-05 3.9422215e-05 -6.2012487e-06 -4.581642e-05 1.8195109e-05 1.6199508e-07
