KartSCBIO/results/circuitoA/ArcadeDriver.onnx (onnx, 96494 bytes, 9 tensors)

discrete_action_output_shape f4 [1, 2]
000000 00 00 40 40 00 00 00 40
       3.0 2.0

network_body._body_endoder.seq_layers.0.weight f4 [128, 48]
000000 fe 0a ca bd 2c 50 9f bd 45 79 02 be 7b e5 80 bd
       -0.09865378 -0.077789634 -0.12741573 -0.0629377
000010 9d 72 52 be 64 d2 db 3b 58 18 c7 3d 5d 8b 2d 3d
       -0.20551534 0.00670843 0.0972144 0.042369235
000020 22 9b 30 3e 75 e3 e7 3d a1 7b 32 bd 2f a4 ad bd
       0.17246678 0.11322681 -0.043574933 -0.08478581
000030 22 5b 39 be 93 84 f3 3a 60 8c 2c 3e d4 87 06 3d
       -0.1810117 0.0018578939 0.16850424 0.03284438
000040 4d d2 6f bd 87 c8 f6 bc db b7 00 be fc 9c 8a 3d
       -0.058550168 -0.030124916 -0.12570135 0.06768224
000050 eb 1c 73 3d b3 ec 0f 3e f6 38 02 bf 25 e0 0d 3e
       0.05935375 0.14055137 -0.50868165 0.13855036
000060 71 2b 05 3e 91 7f 9c be cc 09 f2 bc 1b 02 9b 3d
       0.13004853 -0.30566075 -0.029545687 0.07568761
000070 6d ff 56 3e da da 26 3e a2 c8 0a be 3c e7 0d bd
       0.20995875 0.16294423 -0.13553098 -0.03464435
000080 bb 21 46 bd b5 e2 a2 3e 5f 0d fb 3c 4e c9 c2 bc
       -0.04837201 0.3181359 0.030646024 -0.02377763
000090 00 76 8e bd 00 22 9d bc 20 8f 1b 3d a9 df 10 3e
       -0.069561005 -0.019181252 0.03797829 0.1414782
0000a0 10 c8 9e 3c 8d 08 6e 3e e0 01 12 3d 6d 84 2a 3d
       0.019382507 0.2324545 0.03564632 0.041630197
0000b0 fd 17 fe bd af a6 6d 3e 68 d6 fd bd 4a 47 99 bc
       -0.12406919 0.23208116 -0.1239441 -0.018710751
0000c0 a9 ff 9b 3d ae 33 a6 3e e1 0a bd 3d 7e 37 71 be
       0.07617123 0.32461303 0.092305906 -0.23556325
0000d0 e8 da 4d be 33 58 5e 3c 59 1a 31 bd c3 92 fc bb
       -0.20103037 0.013570833 -0.043238018 -0.007707925
0000e0 d3 1d 82 3c b5 16 d3 3d 4e 9c 86 3b 60 c3 9f be
       0.015883362 0.103070654 0.0041079884 -0.31203747
0000f0 cf d7 dc 3d f0 d3 41 3e 21 a7 49 be d5 e1 13 be
       0.1078335 0.18928504 -0.19692661 -0.14441617
000100 34 d5 08 3d 82 01 13 bc 3e 43 1f 3e e6 3a 10 be
       0.03340645 -0.008972527 0.15552995 -0.14084968
000110 a6 ed c4 3c 72 88 fb bd 81 92 97 bd 57 9e c1 bd
       0.0240391 -0.12281884 -0.0740099 -0.09454029
000120 d9 42 c9 3c dc 39 0f be 1a 4d 8f be e2 3e 82 3d
       0.024568008 -0.13986915 -0.2798851 0.0635965
000130 ca c5 db 3c f1 10 24 be a6 81 00 be 9e 72 43 3d
       0.026827712 -0.16022088 -0.12549457 0.04771673
000140 8c bc b2 3d 34 14 e6 bd 11 ec 0d 3c 57 0e ba bd
       0.08727369 -0.11234322 0.00866224 -0.09084766
000150 24 b2 2e be fd a1 ab be 6e d0 59 bd 17 be 76 3e
       -0.17060143 -0.33522025 -0.05317729 0.24095951
000160 a1 fe ca 3d 89 a1 02 3e 86 4a 67 bd a4 15 a3 3d
       0.09911848 0.12756933 -0.056467555 0.07963112
000170 9a 14 88 3d d9 90 06 be 42 ec 19 3e a6 ef 97 3d
       0.066445544 -0.13141192 0.15031531 0.07418756
000180 d1 34 33 3d 63 f7 02 bd 5a 1e 33 3d 6c c2 9c 3d
       0.04375154 -0.031974208 0.043730117 0.076542705
000190 50 c7 07 bd ae f1 28 bd 5c b6 f7 3d e2 4d b5 3c
       -0.033149064 -0.04124611 0.12095329 0.022131864
0001a0 7f 09 f4 bb 4d e2 5e bd 2f 2d 5c 3d 4e 7a db 3d
       -0.007447421 -0.054415036 0.053754028 0.10716687
0001b0 2f 46 62 bd 63 ce ec 3b 0b 1f 55 bc 56 41 bb 3e
       -0.055242714 0.0072267517 -0.0130078895 0.36573285
0001c0 f0 f9 92 bd 05 24 47 3e da cb f3 3c 4f ab 07 be
       -0.07176578 0.19447334 0.02976029 -0.13248943
0001d0 34 86 a9 bd a5 71 8d bd 7d 43 12 3c c4 5f 10 be
       -0.0827755 -0.069064416 0.008927223 -0.14099032
0001e0 fe bf 9c bd b2 3d 30 3d ee 16 11 3e 85 67 44 3e
       -0.07653807 0.043027587 0.14168903 0.19180115
0001f0 cc 59 a6 3d a8 00 2d bd db c1 97 bd 2d 3c 9a 3c
       0.08122596 -0.042236954 -0.07410022 0.018827522
000200 c8 e0 87 3e 7c e5 0e 3e a2 f5 0e be d8 92 07 3e
       0.26538682 0.13954729 -0.13960889 0.1323961
000210 37 b4 85 3d cb b6 2f 3e a1 73 68 3e a3 17 94 bd
       0.06528514 0.17159574 0.22700359 -0.07231071
000220 d4 3f 50 3e 1d d4 80 3e 16 c9 4a be 59 ac 94 bd
       0.20336848 0.2516183 -0.1980327 -0.07259435
000230 ef ff dd bd d4 58 92 be 51 f5 59 bd 69 63 41 bd
       -0.10839831 -0.28583395 -0.053212468 -0.047213946
000240 d8 d6 4b be 21 f0 c0 3d 10 8c 5d bd ce 1f 90 3e
       -0.19906175 0.09420801 -0.054088652 0.28149265
000250 30 65 6b be 43 97 66 bd d1 86 fe bd ec 96 a9 3c
       -0.22987819 -0.0562966 -0.12428058 0.020701848
000260 42 3a 03 bd 61 06 63 be 78 a9 b7 3d 97 02 68 be
       -0.03203798 -0.22170402 0.089678705 -0.22657238
000270 71 d3 54 be a9 9f ab 3d 31 ff 76 3e ce 96 a6 3d
       -0.20783783 0.08380062 0.24120785 0.081342325
000280 0f 75 55 bd 26 19 13 bd 68 22 47 3e 8d ec d9 3d
       -0.05211359 -0.035912655 0.19446719 0.106408216
000290 f4 d6 94 3d 6f 8c e9 bd 47 8d 04 be c4 15 c8 bd
       0.072675616 -0.11403739 -0.12944518 -0.097697765
0002a0 db 26 04 be 99 f2 f5 3d e0 1c 77 be d9 59 e5 bd
       -0.12905447 0.120091625 -0.24132109 -0.11198778
0002b0 b6 30 c5 3d e1 77 e6 bd aa 8c e9 bd fe c6 02 3e
       0.096284315 -0.11253334 -0.11403783 0.12771222
0002c0 17 95 4a bd 74 11 31 3d 3e 39 c6 3d c7 4c d8 bd
       -0.04945859 0.043229535 0.09678887 -0.10561519
0002d0 74 e2 f2 bd 2c d8 cd be a2 89 4e be d6 7a a3 ba
       -0.11859599 -0.4020399 -0.2016969 -0.0012472521
0002e0 a9 aa cb bd fa 26 0b be 9b ea 2f 3e d3 c7 8c 3e
       -0.0994466 -0.13589087 0.17179339 0.27496204
0002f0 26 57 a0 bd 97 c1 1e be 08 8c 65 bd f9 26 ab bd
       -0.07829122 -0.15503536 -0.056041747 -0.08357043
000300 e3 46 d0 3d a3 5d 94 3e fd 06 7e 3e d4 71 d0 3c
       0.101697706 0.2897769 0.24807353 0.025444902
000310 86 d7 8f be 9d bd 0c bd 79 12 be 3d 29 ef e2 3d
       -0.2809412 -0.034360517 0.09280867 0.110807724
000320 af 89 58 3d 0a c8 c6 bd 75 e7 9d bd 5d 7e 6e be
       0.05286568 -0.09706123 -0.077101626 -0.23290391
000330 e3 ea a9 3e 6e 5a c9 3c 66 1e 81 3d c9 8d 4a be
       0.33187017 0.024579253 0.06304626 -0.19780649
000340 3d b0 6c 3e 08 1e a1 3e b2 7b 0a be 7d ee 56 3d
       0.23114105 0.31468225 -0.13523749 0.052473534
000350 59 07 27 3e 84 c1 06 3e af e0 5d be 63 3e 3a be
       0.16311397 0.13159758 -0.21667741 -0.18187861
000360 3a 71 eb 3d 2f 60 ce bd a3 42 f7 3d 42 5b d6 3d
       0.11496206 -0.10076939 0.12073257 0.10466625
000370 71 2d 48 be b9 0d 75 bc e5 1c 1f 3e 70 97 bb bd
       -0.19548585 -0.014956885 0.15538366 -0.09159744
000380 38 6e dc bc a8 b8 bb bd e2 47 bb bc e2 1b b9 3d
       -0.026908025 -0.0916608 -0.022861425 0.09038521
000390 d2 1c af 3d f6 ab d6 bd 52 58 f8 bc 08 fc 91 bd
       0.08550419 -0.10482018 -0.030315552 -0.07128149
0003a0 eb 2f 28 be c0 0c 71 3e 6e b1 6d 3e 0b f9 67 3e
       -0.16424529 0.2354002 0.23212215 0.22653596
0003b0 38 d8 57 be 54 f8 dd bd b9 96 6a 3d 53 90 7d 3e
       -0.21078575 -0.108383805 0.057272647 0.24762087
0003c0 a4 24 67 be c9 f1 b7 bd 04 60 ef bd 37 23 4b be
       -0.22572571 -0.08981664 -0.116882354 -0.19837652
0003d0 39 5b 3b be df 0c 03 be de 23 db bd 43 02 35 3e
       -0.18296517 -0.12797879 -0.107002005 0.17676644
0003e0 14 14 91 3d f5 8d 3a 3e 22 eb ab bd 19 36 19 bd
       0.07083908 0.18218215 -0.083944574 -0.037405107
0003f0 9a 68 be bd 47 64 dd bd b7 63 b9 3d 41 a9 b2 bc
       -0.09297295 -0.10810142 0.09052222 -0.021809222

network_body._body_endoder.seq_layers.0.bias f4 [128]
000000 07 b1 18 3c 6d 4b 39 3c 58 f6 0c 3c 9f 9a 85 3c
       0.00931955 0.011309487 0.008603655 0.01630908
000010 7e c8 8d 3b af cd 4a bc 33 12 e6 3c 41 05 22 3c
       0.004326879 -0.01237814 0.02808485 0.009888948
000020 0a 48 d7 3b cf 3b 9e 3c 6b d1 85 bc ed d8 2b 3c
       0.006569867 0.019315628 -0.01633521 0.010488731
000030 cf 3b 39 bc 57 e9 22 3b 5d 34 51 3c 84 05 b9 39
       -0.011305763 0.002485832 0.012768832 0.0003529006
000040 47 ee 62 3b 31 2c ee 3b af e4 01 3c 5b 2d ba 3a
       0.0034626888 0.0072684516 0.007928058 0.0014204191
000050 5c 89 06 3d 84 2d b8 3b 74 b0 99 3c 90 6c fa ba
       0.03284584 0.0056206603 0.018760897 -0.001910584
000060 1f f8 09 3c ec 79 37 3c 69 32 d1 3b bd 35 4a 3c
       0.008420973 0.011198502 0.006384183 0.012341914
000070 5b 49 f3 bb 22 a4 65 3c 60 ac 1c 3c 2d d0 37 3c
       -0.007424516 0.014016183 0.009562582 0.011219067
000080 8f 59 c8 3c fb 9d 23 bc 93 db 87 3c 9d cc d4 3c
       0.024456767 -0.009986396 0.016584193 0.025976473
000090 ca 9b 21 bb b2 9a fa bb 40 84 aa 3b d3 4a 55 3c
       -0.0024659508 -0.0076478356 0.0052037537 0.013018328
0000a0 76 f6 4b 3b 3a c0 b5 b9 01 06 81 bc 9e 1d b2 3c
       0.0031122244 -0.0003466623 -0.015749933 0.021742638
0000b0 56 a8 6d 3c 48 b8 b4 bb 53 3a f0 3c 2b 52 05 3c
       0.014505466 -0.005515132 0.029324686 0.008137266
0000c0 35 6e 98 3c b8 ee 72 bb bf 92 eb 3b 0c 25 b7 ba
       0.018607238 -0.0037068557 0.0071891244 -0.0013972833
0000d0 a8 ce 32 3c 3a 6c 81 bb d9 eb b3 3b 42 1e b1 bc
       0.0109135285 -0.003949669 0.0054907617 -0.021620873
0000e0 23 c3 a5 3c 01 0d 1a 3b f3 06 0a bc 2c 0f f2 3c
       0.02023465 0.0023506286 -0.008424508 0.02954825
0000f0 a5 79 83 3b 4d 96 a8 ba 63 5c 16 ba 08 a4 3e bb
       0.004012304 -0.0012862176 -0.00057358126 -0.002908947
000100 12 ca 43 3c 26 cf 0e 3b b6 1b 58 3c 6d 57 44 3b
       0.011950033 0.002179095 0.013190201 0.0029959336
000110 fd ca e8 bb e6 8a 8e 3c eb 30 19 3c 37 d1 2e 3c
       -0.007104276 0.017400216 0.009350042 0.010669998
000120 b7 f2 ce 3c e1 63 90 bc 4c f1 03 bc 20 da e8 3b
       0.02526222 -0.017625751 -0.008053135 0.0071060807
000130 55 42 db bb 6d 8d 37 3c 1a 46 d6 bb b1 c3 3f bc
       -0.006691257 0.011203152 -0.0065391185 -0.011704371
000140 ce 75 b4 3b 6e f6 17 bc e5 b4 85 bc 46 8a 07 3d
       0.0055072075 -0.009275062 -0.016321609 0.033090852
000150 ce 47 af 3c a2 ad 4e 3c b6 cf cf 3b 8b 5b d2 bb
       0.021396544 0.0126146395 0.0063418997 -0.006419604
000160 f6 40 0c 3c 6f e3 e9 bb 3d 47 33 ba 4a 7f 00 bc
       0.00856041 -0.007137708 -0.00068389234 -0.007842848
000170 bf 52 63 3b e3 8b 33 3c 28 89 69 bc ea 6f 59 bc
       0.0034686772 0.010958645 -0.014253892 -0.013271311
000180 3a 94 45 3c 07 48 b5 bb ef 8f 1f 3c 6e 37 dd b9
       0.012059266 -0.005532268 0.009738906 -0.00042193703
000190 e6 20 2c 3c 6e b4 cc 3c ee 69 9e 3c ed 69 43 3b
       0.0105058905 0.02498838 0.01933762 0.0029817775
0001a0 7d 59 09 3c 70 d4 1a bc ea 0c 06 3c c7 66 f1 bb
       0.008383152 -0.009450063 0.00818179 -0.0073669883
0001b0 b6 49 9a 3c 7b d5 16 bb 5e e1 9a 3b dd c9 d5 bc
       0.018833976 -0.0023015428 0.004726573 -0.026097232
0001c0 de 9a 36 3c d6 95 f6 3c 39 0d 3c bc ee a3 11 3b
       0.011145322 0.030100744 -0.011477762 0.0022222954
0001d0 05 2b 0f bc 8f 41 c0 bc de 83 30 3c e0 9b ec 3b
       -0.008738284 -0.02346876 0.010773627 0.00722073
0001e0 15 2f 75 3c 07 02 91 3c 24 9d 11 ba 0b dd d3 3b
       0.0149648385 0.017701162 -0.0005554727 0.0064655594
0001f0 d3 58 31 3a c7 ea 84 bc da 49 c8 3b 93 b0 44 bb
       0.000676525 -0.016225232 0.0061123194 -0.0030012473

network_body._body_endoder.seq_layers.2.weight f4 [128, 128]
000000 d8 84 ce 3b 46 c9 dd 3d 87 e0 26 3e 01 5a e2 3a
       0.0063024573 0.108294055 0.16296588 0.0017269255
000010 4c 13 3b 3c da 8b 60 bb c7 e1 8e 3d 9d b5 bd bd
       0.011418175 -0.0034263046 0.06976657 -0.092631556
000020 6b 29 eb 3d a9 8b 4b bd 4e b7 b2 bc 11 35 79 bd
       0.11482509 -0.049693737 -0.021815922 -0.060841624
000030 fd 1d 44 bd c9 65 a3 3d 29 ab 8c bc f5 0c 2c be
       -0.04788016 0.07978398 -0.01717146 -0.16801818
000040 5b f1 af bd cc 93 b9 bd b0 e1 7e bd f1 55 55 3e
       -0.08590957 -0.09061393 -0.06222695 0.20833565
000050 e9 77 0a bd c0 5c 4c 3d 89 69 89 3d c6 06 29 bc
       -0.03380576 0.04989314 0.06709582 -0.010316556
000060 d6 91 56 be 14 7f 8e bd 98 db e3 3d e0 4c 95 3d
       -0.2095407 -0.06957832 0.111258686 0.07290053
000070 89 a9 71 bc 1a 54 0f 3e ab a3 87 3c bf fe 02 3e
       -0.014749893 0.13996926 0.016557535 0.1279249
000080 1e 2f f8 bd 0b 6c 70 3d fd b5 de 3d 54 5f 54 3d
       -0.12118362 0.058696788 0.10874555 0.051848724
000090 18 bd 39 be aa 8c 65 3d 9d 06 d5 bd e3 dd cc 3c
       -0.1813854 0.05604235 -0.10401652 0.025008148
0000a0 9c 58 b2 3b 39 c7 29 3a f6 d1 9b bd 60 e5 0f 3e
       0.005442692 0.0006476525 -0.07608406 0.14052343
0000b0 b7 17 92 3d 78 8a 19 3e 6e 18 84 39 d9 2d df 3d
       0.071334295 0.14994228 0.00025195203 0.108974166
0000c0 28 28 ae 3d 8e 56 cc 3d c1 47 18 3e ac 87 df bd
       0.08503753 0.099774465 0.14871122 -0.10914549
0000d0 f6 74 3c 3c 47 2f 1f 3e 22 f9 bc 3d a6 13 b3 bd
       0.011502495 0.15545379 0.09227206 -0.08743982
0000e0 d1 6d 3d 3d 22 08 ad bc 68 31 91 3c 02 46 76 bc
       0.046247307 -0.021122042 0.017723754 -0.01503134
0000f0 14 60 09 3c 53 7e 89 bc f4 a1 71 bd a2 3c 3a 3d
       0.008384723 -0.016783869 -0.05899234 0.04546798
000100 50 29 d9 3d ac 26 6f bd 65 8a da 3d f8 59 08 be
       0.10603583 -0.05838649 0.10670928 -0.1331557
000110 79 1f 05 3e 97 ff 04 3d 10 0f 8d b9 23 f4 44 bd
       0.13000287 0.032470312 -0.00026904838 -0.04808439
000120 e4 7e 09 bd f7 64 01 3e a7 90 cc 3d 99 20 14 3d
       -0.033568278 0.12636171 0.09988528 0.0361639
000130 6c 3a 3e 3d 60 5e 79 3d 38 cc 13 3d 63 74 a8 bd
       0.046442434 0.06088102 0.03608343 -0.08225324
000140 4d 2c d4 bd 26 f5 be 3d 9b 5c 98 3d c4 c2 1d 3d
       -0.10360012 0.09324102 0.07439538 0.03851582
000150 91 2b 10 bd 41 a6 2a bd 72 0b b6 bd 96 35 4c be
       -0.0351978 -0.04166246 -0.08888902 -0.19942316
000160 14 29 d5 3d b0 9c 8e bd e6 e5 b2 bd aa 2f b0 3c
       0.10408226 -0.069634795 -0.08735256 0.021507103
000170 cd 2c e9 3d 01 c9 8a 3b 88 e7 1a be 97 d4 04 be
       0.11385498 0.0042353873 -0.15127385 -0.12971722
000180 b0 cf dd 3d ee 35 b8 3c 55 1b 40 bd 67 35 57 3d
       0.10830629 0.022486653 -0.046901066 0.052541163
000190 b0 69 12 bd d0 c5 fc bd cb 16 12 3d 43 14 94 bc
       -0.035745323 -0.12342417 0.03566627 -0.018076068
0001a0 d3 9f 80 3d e2 21 87 3c c8 c1 f8 3c 06 46 27 3d
       0.06280484 0.016495649 0.03036584 0.040838264
0001b0 20 f5 8f bd a8 90 c6 bb 5b 47 65 3d 69 52 b1 bc
       -0.07029176 -0.006059725 0.055976253 -0.021645742
0001c0 5b af 6e bd 6b 14 ea bd b0 d7 b4 3c e8 ee ca 3d
       -0.0582727 -0.11429676 0.022075504 0.09908849
0001d0 76 5f f2 3c a2 2b 23 be 91 14 ee bd de ee b2 3c
       0.029586535 -0.15934613 -0.116250165 0.021842416
0001e0 d0 c5 6d bd 56 3e 0f be 5d bb e4 3c 4c 62 01 3e
       -0.058049977 -0.13988623 0.027921373 0.12635154
0001f0 64 6d fa bd 33 c8 d2 3c 29 1d e6 3d 20 15 9f 3c
       -0.12227896 0.025730228 0.112360306 0.019419253
000200 6f f4 82 bd 54 34 80 3c ba fb a0 bd f3 d8 09 be
       -0.06394278 0.015649952 -0.07860513 -0.13461666
000210 1b 27 1d 3e 2d c4 80 bb a5 7e 9c bc 47 8f 0c be
       0.15346949 -0.003929636 -0.019103358 -0.13726531
000220 a5 dc 0d 3e c1 61 39 bc 67 45 16 3e 24 97 ed 3c
       0.138537 -0.01131481 0.14674912 0.029002734
000230 75 c8 49 3c 88 dd 0b 3e 50 ef 39 bd 96 b7 fc 3d
       0.012315859 0.13658726 -0.04539424 0.12339704
000240 7a 5d a5 3d 65 d0 6c 3d 00 94 33 3c e4 1d 39 bd
       0.0807447 0.057815928 0.010960579 -0.04519452
000250 1c 26 94 bd f4 cc 69 bd 50 07 01 3d 53 54 e5 3c
       -0.07233831 -0.057080224 0.031501114 0.02799431
000260 7a 00 08 be ca fe 2e 3d 2b 48 5b 3c 7f 81 c7 3c
       -0.13281432 0.042723455 0.013383905 0.02435374
000270 f9 4c 7a 3d 4e e8 97 3c 11 5a 5c 3e 8b 44 4d bd
       0.061108563 0.018543389 0.21518733 -0.050114196
000280 c7 d0 51 3d 7b 4c 6b 3e e9 f0 5d 3d 11 d2 be 3d
       0.051224496 0.22978394 0.054184828 0.09317411
000290 d6 30 5d 3b 29 7a e9 3c 55 36 36 3c e9 2f 8d bc
       0.0033751032 0.028500633 0.011121352 -0.01723476
0002a0 56 86 af bc 88 a0 14 3d d8 c3 9e 3b 7d aa 92 bd
       -0.021426361 0.036285907 0.0048451237 -0.07161424
0002b0 27 ce 6d be d5 f2 26 3c ad ec 4e 3d 69 a2 72 3b
       -0.23223172 0.010189732 0.05051868 0.0037023074
0002c0 7e b6 91 3c ae 68 26 3d 49 21 34 3e f9 d9 e6 bc
       0.017787214 0.040627174 0.17590822 -0.02818011
0002d0 9f ce c2 bd 5e 84 9e 3e 99 e2 9b bd 7f d2 9d bb
       -0.09512066 0.30960363 -0.076115794 -0.004816353
0002e0 74 9b c5 3d 8d 39 6a 3b 66 16 c1 3c f1 ee b4 3d
       0.09648791 0.003573987 0.02357025 0.08834637
0002f0 13 b7 12 be f5 7e a0 3c 0e 8c 79 3d c0 5c a1 bd
       -0.1432765 0.019591788 0.060924582 -0.07879019
000300 da e9 51 3e 3e 0a c1 bb 81 9a 56 3d 2b 19 a7 3d
       0.20499364 -0.0058911135 0.05239344 0.08159097
000310 61 05 9f 3d 43 65 45 3c 21 e4 2f 3d ed cb b5 3d
       0.07764698 0.012048068 0.04294217 0.088767864
000320 e1 83 4b bd 3f 7b 0d be bc 71 96 3d 85 4a ed bd
       -0.049686316 -0.13816546 0.07345912 -0.11586479
000330 79 a6 e6 bc 7f 66 b0 bd c4 d6 0a be 92 20 9b bd
       -0.028155552 -0.086132996 -0.13558489 -0.07574572
000340 4e 4f b1 3b 0a 92 c1 bc 16 de 33 3d f3 20 08 bd
       0.005411065 -0.023629207 0.04391297 -0.033234548
000350 f8 20 8e bd 12 90 80 3d f7 1a 07 bd 19 91 e9 ba
       -0.06939882 0.06277479 -0.0329847 -0.0017819732
000360 b4 9a 8e 3d 0f de d8 bd 32 25 0c bd 3c 31 98 bd
       0.06963101 -0.10589229 -0.03421516 -0.07431266
000370 0e 2c 3a 3d e0 f9 74 3d a1 cc ab 3b 10 70 cc 3d
       0.04545217 0.059808612 0.0052428995 0.09982312
000380 d4 70 02 be 4e 5c 38 bb 1d d4 54 3c d3 57 8a bd
       -0.12738353 -0.002813119 0.012990025 -0.067550324
000390 26 d9 e0 bd 78 f7 ab 3d 0d 65 82 bc 19 95 7b 3d
       -0.10978918 0.0839681 -0.015917325 0.061421487
0003a0 ea 47 14 3d ce 07 2c 3d 9a e7 8e 3d 1e 9e 69 3e
       0.036201395 0.04199963 0.06977768 0.22814223
0003b0 c5 e9 cb 3d 0c c3 f4 bc 82 c4 4e 3e 7b e1 35 3b
       0.099566974 -0.029878162 0.2019215 0.0027752805
0003c0 58 5a e2 3c 06 6f ed 3d 0a f1 f8 bd 92 04 a4 bd
       0.02763097 0.11593442 -0.121553496 -0.08008684
0003d0 85 f2 dc 3d 10 2a 90 bd 2c 35 18 3c e2 70 af 3c
       0.107884444 -0.07039273 0.009290021 0.021416131
0003e0 7b 5a 3b bd 92 07 0a bd 9d a5 60 3d 11 3f d3 bb
       -0.045740586 -0.033698626 0.05484544 -0.006446727
0003f0 62 30 22 bd 5e 05 8f 3b 85 76 10 3e b4 fd 17 3e
       -0.039596923 0.0043646535 0.14107712 0.14842874

network_body._body_endoder.seq_layers.2.bias f4 [128]
000000 a2 6b 12 bb f4 1f f4 bb d2 b1 45 3c bf a5 fc bb
       -0.0022341986 -0.007450098 0.012066321 -0.007710188
000010 77 8c 25 3c e9 18 82 3c 76 9f 55 3a 51 09 9a 3c
       0.01010429 0.015881019 0.00081490667 0.01880327
000020 14 fd 9b 3c c0 36 14 bb 6f fa 51 bc 04 96 ab ba
       0.019041575 -0.0022615641 -0.012816056 -0.0013090973
000030 d3 80 35 bb 75 59 76 3c ad 64 38 bc 99 b7 80 3a
       -0.0027695193 0.015035977 -0.011254472 0.0009820341
000040 a8 d2 cf 3b 21 e0 ba 3b e4 7f a7 3c 56 86 1c 3c
       0.006342251 0.005702988 0.020446725 0.009553513
000050 ef 3d 97 3c 78 63 9b 3c d5 43 d7 ba 7f 36 1f bc
       0.01846215 0.018968329 -0.0016423414 -0.009717583
000060 d0 10 60 3c d4 d8 00 3d 8b 39 e8 3c a4 5a e1 39
       0.013675883 0.031456783 0.028347751 0.00042982877
000070 b2 61 d0 3b 40 44 3a bb a8 1a 1a 3c 12 e9 7e 3c
       0.0063593024 -0.0028422028 0.009405769 0.015558498
000080 f0 d6 d2 ba 5a 1e dd 3b 87 ac a1 3b 44 09 5a bc
       -0.0016085785 0.006748003 0.004933897 -0.013307873
000090 ea 7f a6 3b c7 66 4c ba 29 75 2e 3c 72 a4 a9 bb
       0.0050811665 -0.00077972974 0.01064805 -0.005177074
0000a0 9e b2 12 3c 20 13 c1 3c 08 93 b7 3b e9 35 7d 3b
       0.0089537185 0.02356869 0.0056022443 0.003863687
0000b0 33 5a 9c ba aa ae fa 3c e2 0d 7b 3c 39 6b f8 3b
       -0.0011928737 0.030600864 0.015323134 0.0075811413
0000c0 60 3d 37 3b 7c 93 be bb 2b 5b 76 bb 7b 88 aa bb
       0.0027960166 -0.0058159214 -0.0037590961 -0.005204258
0000d0 3d b0 e0 3c 10 8b f8 3c a9 69 fd bb 78 e8 aa 3c
       0.027427787 0.030339748 -0.007733543 0.020862803
0000e0 07 50 2e bc 30 9a aa 3c 1c 63 26 bc be 06 45 3c
       -0.010639197 0.020825475 -0.010155465 0.012025533
0000f0 a3 11 7b bb f3 92 45 3c 22 1a a8 3a 9f ea 56 3b
       -0.0038310073 0.012058961 0.0012825171 0.0032793654
000100 57 5c 16 bc 53 d3 b2 3c 1d d9 a8 3b e7 da 4d bc
       -0.009177289 0.021829283 0.005152835 -0.012564397
000110 08 cb 74 ba 18 cb 78 ba dc 64 4a 3c 66 b2 2e bb
       -0.00093381153 -0.00094907125 0.012353148 -0.0026656627
000120 e1 2a dc 3b 36 00 1b 37 a1 ea 14 3c 9f 2d 49 3c
       0.0067189788 9.238769e-06 0.009089143 0.012278943
000130 2b 3e ea bb 6c 50 21 3c a5 62 02 3d da d9 cc 3c
       -0.0071485243 0.009845834 0.031832356 0.025006223
000140 70 20 c3 3c 8a 5f 0f ba 5f 6c 0b 3c 3e 78 33 bc
       0.023819178 -0.00054692535 0.008509724 -0.010953961
000150 b9 9e 2d 3c 95 a3 b0 3b 5b c9 10 ba 9d ee de 3c
       0.010596924 0.0053905942 -0.00055231684 0.027213389
000160 bd 4f bf 3b 1b 51 ea 3b 42 32 21 3b e4 39 40 3b
       0.005838363 0.007150782 0.0024596606 0.002933138
000170 42 99 d9 3b d0 14 28 3b 98 46 39 ba 01 e2 45 39
       0.006640584 0.002564717 -0.0007067709 0.00018871577
000180 be b3 cb 3b 24 71 89 bb 0a d6 73 3a 1f a4 b6 3b
       0.0062164953 -0.0041943956 0.00093016087 0.005573764
000190 93 b8 4f bb ec 8d a5 3c 66 b2 42 3b e0 f0 d6 bb
       -0.0031695708 0.020209275 0.0029708385 -0.0065594763
0001a0 bf e2 1d bb b7 65 f6 3b 71 d0 11 bb 62 4b 1e bc
       -0.002409145 0.0075194496 -0.0022249485 -0.009661527
0001b0 6d 00 a1 3b 1e a9 8b 3c 21 d5 1c bb ca 0d 7f 3b
       0.004913381 0.017048415 -0.0023930746 0.003891813
0001c0 a9 4b 1f 3c 9d d8 96 3c 43 3d 57 bc 14 17 03 bc
       0.009722629 0.018413836 -0.0131371645 -0.008001108
0001d0 70 16 5a 3b 07 54 93 bb a8 7c 23 3c 6a 9e 9a 3c
       0.0033277534 -0.004496101 0.009978451 0.018874366
0001e0 3b 0a 18 bc c6 4f 28 bc 17 6a 3f bc c7 54 60 3b
       -0.009279783 -0.010272926 -0.011683009 0.0034230219
0001f0 36 5a 43 bc db ad 29 bc 84 11 34 b9 8c e3 3a 3c
       -0.011923363 -0.010356392 -0.00017172663 0.01140679

action_model._discrete_distribution.branches.0.weight f4 [3, 128]
000000 98 ba a6 bc f8 39 06 bb fb 42 39 bd 98 04 6c bc
       -0.020352647 -0.002048133 -0.045229893 -0.014405392
000010 20 d3 c7 bc 01 31 38 3d 5e 2e 18 bc 63 b4 0e 3c
       -0.024392664 0.04496861 -0.009288399 0.00871
000020 79 d5 ec 3c 84 93 83 3c fe 4b 8a bc 72 4f 34 bd
       0.028910385 0.016061552 -0.016881939 -0.044021077
000030 57 87 00 bb e5 a2 02 bd ab 7d 14 bc 07 0f af 3a
       -0.0019611919 -0.03189363 -0.009063165 0.0013355919
000040 82 20 c4 bb c5 aa c7 3b d1 69 e8 3c 9d 4a b5 b8
       -0.0059853205 0.0060933554 0.02837077 -8.6446504e-05
000050 fa d4 b3 bc 81 33 ec bc 51 3a 08 3c 23 7c b6 bc
       -0.021952141 -0.028833153 0.008314685 -0.02227599
000060 8b bf 7f 3c 90 21 17 bc b9 2b 4f bd ed 55 6b bc
       0.015609632 -0.0092243105 -0.050578807 -0.014363748
000070 60 ae 4d bc 2d fb 98 bc a8 8e 08 bd 33 42 fc bc
       -0.012553781 -0.018674457 -0.033339173 -0.030793285
000080 1d e1 c1 bb 0c b4 46 3c a7 83 85 bc 69 f3 bc bc
       -0.005916728 0.012127887 -0.016298128 -0.023065286
000090 02 3b b6 3c 22 f8 07 3b ee a1 0f bc e5 8d a4 bc
       0.022244934 0.0020747264 -0.008766634 -0.020087192
0000a0 09 10 23 bd 44 e4 9e bc 73 e2 01 3d cc 48 15 bd
       -0.039810214 -0.019395955 0.0317101 -0.036446378
0000b0 c2 d6 dd 3b ef 0a 48 3d 62 28 8a 3c 79 2f 52 bc
       0.006769986 0.048838552 0.01686496 -0.012828701
0000c0 ef 6b aa 3c a8 31 18 3b b5 c6 77 bb fe 3a 12 bc
       0.02080342 0.0023222957 -0.0037807648 -0.008925198
0000d0 52 2b b7 3c 7d 26 57 3d c5 90 15 3c 65 63 8a bc
       0.022359524 0.05252694 0.009128754 -0.016893098
0000e0 27 e8 5c bb 23 41 ce 3c 38 c0 38 bc bb 15 da bc
       -0.003370771 0.025177544 -0.011276297 -0.02662169
0000f0 96 9c e6 3b 7b 48 27 3b f4 90 3e bc 4a 7f fd bb
       0.0070377095 0.002552538 -0.011631239 -0.0077361213
000100 6b 02 28 bc 4d 13 94 bb 8a f8 21 bd 3c 2b 2c 3b
       -0.010254483 -0.0045189024 -0.039543666 0.0026270887
000110 8d 59 3f bd 71 43 59 bc e2 78 01 3a f3 54 5b 3b
       -0.04671626 -0.013260708 0.00049389724 0.0033467382
000120 d0 4f c3 3c e4 bb db 3c 48 79 3b 3c 55 19 55 bc
       0.023841769 0.026822992 0.01144249 -0.013006528
000130 35 0e 26 3b d9 aa 91 3b 29 0c 2b bc 2b 46 b3 3c
       0.0025338058 0.0044454155 -0.010439911 0.021884045
000140 de a3 a7 bc 7c f1 c1 bc 26 b0 24 bd ef 7e a4 bb
       -0.02046388 -0.023674719 -0.04020705 -0.0050200145
000150 4d 41 ad 3c a3 1e a6 3c 0b 87 8f ba 4d b1 94 3c
       0.021149302 0.02027828 -0.001095028 0.01815095
000160 fb 5a 25 bb 0b ff 50 bc f9 45 02 3b 2c 63 53 3c
       -0.002523123 -0.0127561195 0.0019878133 0.012902062
000170 c2 38 e4 bb 84 18 e3 bb fa d9 74 bb 64 4c c5 bc
       -0.006964774 -0.0069304127 -0.003736137 -0.024084277
000180 ef 3a 80 3c fb 5b 24 bd 30 81 07 3d fa 7c 5b bc
       0.015653102 -0.040126782 0.033082187 -0.013396496
000190 88 fd 7b 3b 62 9c 59 3c 43 36 38 3b 99 fe 0e bc
       0.0038450677 0.0132819135 0.0028108514 -0.008727693
0001a0 81 37 f1 3b 52 3e fd 3b 1f 73 53 b9 55 46 c3 3b
       0.007361353 0.0077283764 -0.00020165414 0.005959312
0001b0 9e ee 11 3c ee ea f0 3c b2 64 36 3d 88 8c a3 3b
       0.008906988 0.029408898 0.044529624 0.004991118
0001c0 c7 f1 b7 3b 8f ae 59 3d 48 0b 3a bc a2 f5 6b bb
       0.005613539 0.053144988 -0.011355229 -0.0036004563
0001d0 e3 ea 7d 3c 5f a7 40 ba 33 ee 33 bd 5f d8 8e 3b
       0.015497896 -0.0007349159 -0.043928336 0.0043592895
0001e0 ce 0a 88 3c 7e d8 91 bb d5 f6 45 bc 90 0f 31 3c
       0.016606715 -0.0044508567 -0.012082775 0.010806933
0001f0 06 0e 76 bb d9 94 9e bc 58 d9 25 bd 27 5d 13 bd
       -0.003754498 -0.019358085 -0.04049048 -0.03597751
000200 cc ef fd bc 1d a1 19 3c 3e ec fe 3a f0 f2 c8 3b
       -0.030998133 0.009376791 0.0019449068 0.006132476
000210 bf 77 99 3c f6 b5 6f 3b b3 e3 52 3c 9f af 2d bc
       0.018733857 0.0036576963 0.012871671 -0.010600953
000220 71 54 e5 3b 7b 44 46 3c a5 59 9a 3a 1e 5e 09 3d
       0.0069985916 0.012101288 0.0011775984 0.033537023
000230 cf ad db bb 97 c7 29 bc d2 43 ba 3c 3c 86 a2 bc
       -0.006704069 -0.010362527 0.022737417 -0.019839399
000240 e8 2b ef b7 4b fe 76 3b 3e 45 1e 3b d6 f6 22 3b
       -2.8511466e-05 0.0037688192 0.0024150158 0.0024866364
000250 65 c7 4e bb 11 40 16 3b 78 c7 28 3c ac 75 94 3c
       -0.0031551954 0.002292637 0.010301463 0.018122517
000260 03 d9 36 3c 72 d9 69 3c f9 f0 62 bc a5 d9 9f 3c
       0.011160138 0.014273034 -0.013851398 0.01951296
000270 47 63 9d bb b7 7f cc 3c 48 47 0f bc c0 8c 07 3d
       -0.0048030945 0.024963243 -0.008745022 0.033093214
000280 7f d8 12 3c e9 b9 52 3c 0d b0 42 ba 7c 77 24 3b
       0.0089627495 0.012861707 -0.00074267463 0.0025095632
000290 fc dc a6 bc 00 79 ef bb d4 86 b8 3a 8c 67 a3 bb
       -0.020369045 -0.0073081255 0.0014078268 -0.004986709
0002a0 23 f1 3e bb bd af 27 bc 2f 51 99 bc 76 db 08 b9
       -0.0029135428 -0.01023477 -0.01871547 -0.00013051726
0002b0 d5 84 33 bc 25 c2 d6 bc 24 fd ab 3b 53 0c 02 bc
       -0.010956963 -0.026215622 0.0052486826 -0.007937509
0002c0 bf d5 5c bc c9 63 55 3c 2e 4f 55 bc 8c 11 85 38
       -0.013478695 0.013024279 -0.013019366 6.3452026e-05
0002d0 f7 73 ff 3c d6 3c 5d bc af be 38 3c 75 aa 69 3a
       0.031183226 -0.013503274 0.011275931 0.00089136447
0002e0 7c 68 0b 3c a3 4d 30 3c cb af 56 bc b4 3c 8a bc
       0.008508798 0.010760698 -0.013103436 -0.016874649
0002f0 2f 70 29 bc 7c 23 e6 3b 33 5b 83 bc bb ce 8a 3c
       -0.010341688 0.007023273 -0.016034698 0.01694428
000300 e7 83 48 bb e2 49 d9 3b 73 3b 5d 3b cb fc 28 3b
       -0.0030596198 0.006631122 0.0033757358 0.0025785442
000310 d7 35 98 bb c2 44 20 bc 07 e6 aa b9 91 b6 85 3a
       -0.00464509 -0.009782018 -0.0003259631 0.0010201504
000320 e1 bf 02 3b 3d 8d 4a bc 07 8b 70 bc ed cc 10 bc
       0.0019950795 -0.012362775 -0.014681584 -0.008837921
000330 b9 0b 36 bc a9 c3 87 3b ad ef f1 bc 61 ab 6c bc
       -0.011111193 0.0041431976 -0.029533232 -0.014445157
000340 a4 66 02 3d fa 3a 8c bc 89 25 02 bc ea 83 e5 3b
       0.031836167 -0.017117966 -0.007943519 0.007004251
000350 8a 6e cf 3a d3 01 2b bb 2f 64 10 3c 39 00 b5 3c
       0.001582579 -0.0026093617 0.008812948 0.022094833
000360 a0 95 91 3c 5c 8f e2 ba 73 8c ba 3b 5d 88 11 3c
       0.017771542 -0.0017285156 0.0056930124 0.008882609
000370 fc 56 b4 3c 90 87 60 ba b2 a0 fb 3b fc 4d 2d 3c
       0.022014134 -0.0008565122 0.0076790685 0.010577675
000380 c1 a0 83 bc 92 c4 86 39 9a 13 49 3c 31 41 54 3c
       -0.016067864 0.00025704928 0.01227274 0.012954996
000390 b6 9f 83 bc 8d 83 08 3b 15 ae 30 bc 8a 4d db 3b
       -0.016067367 0.0020830364 -0.010783692 0.006692593
0003a0 7b e0 d9 bc 7d b0 02 bb ce 81 f3 3b 55 07 38 ba
       -0.026596298 -0.001994162 0.0074312454 -0.00070201355
0003b0 bf ad 18 3c 2a 8c d5 bb b8 a8 9b bc 85 28 31 3c
       0.009318768 -0.006516953 -0.01900135 0.010812883
0003c0 15 56 e0 3b 29 82 a7 bc e3 b7 4c ba 4b aa 2e 3b
       0.0068461993 -0.020447807 -0.00078093837 0.0026651795
0003d0 08 4c f1 3a 25 4c 1d 3c 40 2e 96 3c e2 c9 42 ba
       0.00184095 0.009600674 0.0183326 -0.00074305956
0003e0 b3 25 68 3a 97 06 5c bc a8 81 81 38 a9 26 b6 ba
       0.0008855715 -0.0134293055 6.17535e-05 -0.001389702
0003f0 66 4b 45 bc 18 90 8c 3b 58 a7 b9 bb 67 9e 34 bb
       -0.012041902 0.0042896383 -0.005665701 -0.0027560235

action_model._discrete_distribution.branches.0.bias f4 [3]
000000 c1 f2 17 3c 76 02 c3 ba ad d4 c0 bb
       0.009274186 -0.0014878053 -0.005884728

action_model._discrete_distribution.branches.1.weight f4 [2, 128]
000000 56 9a 2e 3c 85 7a 88 3c bc b0 8c 3c e3 ac fa 3a
       0.010656914 0.016659984 0.017174117 0.0019125011
000010 76 e8 73 bb 1f 4e 92 3c a5 cf 5f bb 6a 9b 07 bc
       -0.0037217415 0.017859517 -0.0034150865 -0.0082768
000020 bc dd 82 bc 95 36 2d bc 87 d5 68 3b 81 8a 08 3b
       -0.015974872 -0.010572095 0.0035527663 0.0020834508
000030 0f ab f6 bb 61 06 7b bc 40 8f bb 3c 94 5a 6f 3c
       -0.007527716 -0.015321345 0.022895455 0.014608998
000040 5c 1a e7 3a 0b d3 5a 3a 27 cf 69 bc ab 36 00 bc
       0.0017631757 0.0008347488 -0.01427058 -0.007825534
000050 46 28 c1 bc 97 41 59 3d ca d0 a2 3b 5f 31 45 bb
       -0.023578774 0.053041067 0.0049687373 -0.0030089242
000060 9b 8b 8b bc 67 06 37 bd 14 8d c0 3c 80 87 ad 3c
       -0.017034343 -0.04468384 0.023504771 0.021182775
000070 cd 1c ab 3c 42 99 7d 3c 69 21 aa bb 9b a8 16 bc
       0.020887757 0.015478434 -0.005191971 -0.009195472
000080 53 14 a1 bc 66 45 be bc c2 3b 67 bb 9b 7e 1c 3c
       -0.019663012 -0.023226451 -0.0035283421 0.0095516695
000090 68 6c db 3c fa 2e 2d 3c 81 67 c2 bc 20 6e c0 ba
       0.02678509 0.010570282 -0.023730995 -0.0014681257
0000a0 c9 03 d3 3a a5 54 5b 3d f3 39 03 3d 6c ca 77 3b
       0.001609915 0.05354752 0.032037687 0.0037809862
0000b0 a5 bf 9f 3b 91 d5 00 bd e0 15 aa bc 72 49 56 bc
       0.0048751407 -0.031453673 -0.020762384 -0.013079034
0000c0 9f 97 a4 bb a7 80 00 3b b9 58 3f 3c 70 4d b8 ba
       -0.0050229575 0.0019607933 0.011678868 -0.0014061164
0000d0 75 cb b9 bc 53 1a 95 bc 66 87 61 3c e9 c1 d9 bc
       -0.022680024 -0.018201029 0.013765192 -0.026581721
0000e0 4f 71 ec ba 75 ec d3 bc d5 54 3a 3c 0c 1e 50 3d
       -0.001803914 -0.025869587 0.011372765 0.050809905
0000f0 b2 e3 a8 3b 1b ce 75 3c d9 b3 31 3d 72 ce ae bb
       0.0051540965 0.015002753 0.043384407 -0.005334669
000100 0b c0 23 3c 09 5b 06 bc 42 d8 c4 3c 6b f7 16 3c
       0.009994517 -0.008200415 0.024028901 0.0092142625
000110 ed 9d f8 bb 29 85 27 3b ad 90 81 bc 57 d3 51 3c
       -0.0075871856 0.0025561547 -0.015816057 0.012806735
000120 0f 94 b6 3a 43 10 94 3c 84 dd 92 3c 74 a9 7f bc
       0.0013929623 0.01807416 0.017927893 -0.015604366
000130 0c f3 af 3b c5 19 b7 bc 5e 88 91 ba d2 bd 0e bd
       0.0053695496 -0.022351155 -0.0011103263 -0.034848996
000140 8b 41 10 3d 15 74 c2 bc c2 80 8a ba ae 39 ff ba
       0.035218757 -0.023736993 -0.0010566937 -0.0019472146
000150 0a ed 4d bc 28 6d 83 bb 8e e3 99 bc fd 61 99 bc
       -0.012568722 -0.004010815 -0.018785264 -0.018723482
000160 5f 1c 07 3d 0d 2a 86 bb 6a 28 8f bc 9c 89 2a bc
       0.03298604 -0.0040943683 -0.017475326 -0.010408785
000170 a8 8d 7a bc 9f c9 45 bc 8c 1d 0c 3d 0a eb 12 bb
       -0.015292563 -0.012071996 0.034207866 -0.0022417926
000180 68 78 43 bc 81 54 ad 3c c8 50 18 ba 59 01 96 bc
       -0.011930563 0.021158459 -0.0005810377 -0.01831119
000190 7c 3e b2 bb 37 d1 62 bc 9a ab a2 bb 42 26 ab b8
       -0.0054395776 -0.013843826 -0.004964304 -8.1610415e-05
0001a0 90 93 21 3d e0 59 90 bc 33 5c 99 bb af 5b 83 bb
       0.039447367 -0.01762098 -0.0046801805 -0.0040087323
0001b0 9b e0 45 bc fa 73 04 bc de 71 14 b9 82 21 06 3a
       -0.012077476 -0.008084292 -0.00014156799 0.00051166874
0001c0 6e d3 04 bc 7b 4e 4c 3c e2 b0 6f ba 17 3b fe 3a
       -0.008107049 0.012469883 -0.0009143484 0.0019396272
0001d0 92 01 77 3a 75 b3 51 3c 9e 0d c5 3b 39 90 93 bc
       0.0009422536 0.012799134 0.006013586 -0.018013107
0001e0 77 5c 17 3c 9c 5b e5 bb 3a 82 c2 ba 03 d8 a3 ba
       0.009238354 -0.006999446 -0.0014839836 -0.001250029
0001f0 b8 42 74 3c 78 45 34 3c cc f7 40 3c f5 1b 2c 3d
       0.014908485 0.011002891 0.011777829 0.04201885
000200 85 69 4c bc 31 4c 0b bb e0 47 8e bc e1 5f 44 bb
       -0.01247633 -0.002125513 -0.017368257 -0.0029964375
000210 77 27 bb 3c 11 15 cc bb 0c 29 96 3b bd 0b 5e 3c
       0.022845967 -0.0062280972 0.00458253 0.013552603
000220 56 cb c9 3c ef 0c a0 bc 4a 3b ed ba 00 f4 98 3b
       0.024633091 -0.019537417 -0.0018099335 0.004667759
000230 19 4f fb 3b 7e 19 ee 39 0e d9 cd bc f2 cb 6a bc
       0.0076693413 0.0004541389 -0.025127914 -0.014330851
000240 ba a1 5e 3c 2c c6 98 3c b2 5e 6d 3c 56 ca b6 3b
       0.013588363 0.018649183 0.014487909 0.0055783195
000250 b7 a1 77 3c c5 08 06 bd d3 47 3c 3b 14 a5 51 3c
       0.015114239 -0.032723207 0.0028729334 0.012795705
000260 36 9c 46 3c 2e 9c fe 3c 14 3e 2f bd 3c 16 6d bc
       0.0121222045 0.031080332 -0.04278381 -0.014470633
000270 a2 20 e3 bc ce 52 9f bc 2a e8 a6 3b a5 de 05 3c
       -0.027725521 -0.019448664 0.005093594 0.008170758
000280 c0 ea e0 3b aa 2e a0 bb 25 03 f5 ba 6e dc 64 3c
       0.006863922 -0.0048883753 -0.0018692954 0.01396857
000290 f3 bc dc bc 9f 27 70 3c a9 fe d9 bb 0e 63 ab 3b
       -0.026945567 0.014657884 -0.0066526723 0.005230314
0002a0 6a a0 be 3a 08 39 30 bd 39 1a dc bc d5 7e 5f 3c
       0.0014543657 -0.04302314 -0.026867973 0.013641079
0002b0 a0 31 1a bc 43 c2 8e 3c 54 12 63 3c 0a 6e 16 ba
       -0.009411246 0.017426616 0.01385935 -0.0005738443
0002c0 84 c9 bf bc ec 39 74 bb 51 e1 e1 bb 30 37 90 ba
       -0.02341152 -0.003726597 -0.006893315 -0.0011002775
0002d0 29 a3 6d 3c f1 76 15 3d a9 69 f5 bb ea 85 5a 3c
       0.014504232 0.036490384 -0.0074894023 0.013337592
0002e0 d0 a7 10 3b 8c 0f be 3c dd a2 c8 ba d9 2b 70 bd
       0.002207268 0.023200773 -0.0015307326 -0.058635566
0002f0 af 59 4d 3a 9b 30 71 bc e9 52 84 bc 4b d7 09 bb
       0.00078334933 -0.014721061 -0.016152816 -0.0021032866
000300 f3 ed 40 3c 88 c3 37 bb be 78 04 bd 6c 7f fe ba
       0.0117754815 -0.002804013 -0.03234171 -0.0019416637
000310 62 1f d0 bb 4d 86 6d bc 1e 4e b7 3c cd 26 4b bc
       -0.0063513974 -0.014497352 0.022376116 -0.012399388
000320 4d 5d 07 bb b5 27 5d 3a 43 d1 92 bc c0 3d 0b 3d
       -0.0020654977 0.0008436398 -0.01792205 0.033994436
000330 38 c8 2e bc b3 7c 62 bc 8e 69 a0 bb e3 7a 19 3d
       -0.010667853 -0.013823676 -0.0048953956 0.03747071
000340 5e 23 aa bc 0c a0 00 bc 6b d4 09 bc 56 20 fe ba
       -0.020768818 -0.007850658 -0.008412461 -0.0019388299
000350 98 47 6e 3c 11 cb 2e bc 8c a2 33 ba 1b 5d cd 3c
       0.0145434365 -0.010668532 -0.00068525295 0.02506881
000360 cc 53 0c bd 5f a5 12 3c 7a a4 2c bc 3e 28 0f ba
       -0.034259602 0.00895056 -0.010537261 -0.00054610136
000370 76 e7 34 3c 9e 82 d8 3b e7 24 fa bc 4e 7a 99 3c
       0.011041513 0.0066073677 -0.030535175 0.018735077
000380 4b da 5e 3b 6a 20 0c bc 4f 5c 7d 3c 2d 31 a1 3b
       0.0034004624 -0.00855265 0.015463903 0.0049191923
000390 72 fe e3 bb 41 24 0b 3c 47 a8 24 bc c9 f5 b8 3b
       -0.0069578225 0.00849253 -0.010049886 0.0056445342
0003a0 a4 64 0a bd ee 01 34 bb 3f 31 73 ba 6e f7 6b bc
       -0.033787385 -0.002746697 -0.00092770526 -0.014402254
0003b0 88 e3 db 3b c1 0f a5 3b 54 34 99 bc de 88 04 3c
       0.0067104734 0.0050372784 -0.01870171 0.008089272
0003c0 b1 24 0d 3c a1 1a 5c bc 61 3e 93 bc c2 c9 06 3c
       0.008614705 -0.013434083 -0.01797408 0.008226814
0003d0 ed e5 94 3a 97 25 18 bc ea 57 35 3c 2a e4 35 3c
       0.0011360027 -0.009286306 0.011068324 0.011101762
0003e0 d7 34 d7 bb 77 68 5c bc 1f 17 04 bc cb c6 f1 bb
       -0.0065675783 -0.013452641 -0.008062153 -0.0073784343
0003f0 3a 2c 86 bc 39 c9 d2 bb e3 13 0e bc 81 93 12 bd
       -0.01637851 -0.006432679 -0.008671734 -0.035785202

action_model._discrete_distribution.branches.1.bias f4 [2]
000000 e8 be 15 bc e8 be 15 3c
       -0.009139754 0.009139754
