KartSCBIO/results/circuitoA-5/ArcadeDriver/ArcadeDriver-414496.onnx (onnx, 98542 bytes, 9 tensors)

discrete_action_output_shape f4 [1, 2]
000000 00 00 40 40 00 00 00 40
       3.0 2.0

network_body._body_endoder.seq_layers.0.weight f4 [128, 52]
000000 79 59 3d 3d b2 c9 7d be 89 01 5e 3e 09 ac 2f bc
       0.046227906 -0.24783972 0.21680273 -0.010722169
000010 ac ec 25 3d a5 f4 dc bc 88 64 b8 bd b4 a0 57 be
       0.04050891 -0.026972124 -0.0900355 -0.21057397
000020 17 1c 5f 3d d6 f9 c0 3d c2 2e 30 3b de 9e 59 bd
       0.054470148 0.094226524 0.0026883339 -0.053130023
000030 c6 39 0c 3e 8f 62 18 bd ce 61 52 3e 1c 9e 22 be
       0.13693914 -0.037203368 0.20545122 -0.15880626
000040 44 be 88 3e 6f f3 a3 be a3 bd 19 be 6b b5 ab 3d
       0.2670766 -0.32021663 -0.15013747 0.08384212
000050 7d 94 92 3d 62 3c 52 be 39 a6 81 3d 2e a7 38 be
       0.07157228 -0.20530847 0.063305326 -0.18032524
000060 6e 96 84 be 50 1b f2 bc be ba 0d 3e fd 0f 0e be
       -0.2589602 -0.02955404 0.13840768 -0.13873287
000070 70 89 c9 3d d7 7a 25 bd f2 a7 53 3d ed cb 9c be
       0.09840667 -0.040400352 0.051673837 -0.30624333
000080 cf c6 f1 bb d1 e6 90 3d a1 81 0d 3e 6b d4 64 3e
       -0.007378436 0.07075275 0.13818981 0.22346656
000090 57 58 a7 3c 31 a0 67 be bb 62 17 be 09 e9 f5 3d
       0.020427866 -0.22619702 -0.14783756 0.120073386
0000a0 5e 87 19 3e 02 a0 82 3d 9a bf ae be a7 55 96 bd
       0.14993045 0.06378175 -0.34130555 -0.07340556
0000b0 75 6d 08 bd 94 09 41 3e 1f ba 52 3d d1 f2 05 be
       -0.03330751 0.1885131 0.05144703 -0.13080908
0000c0 e0 6b be 3d 94 09 a8 be 38 a1 36 be 13 8b 1c 3d
       0.09297919 -0.32819808 -0.17834938 0.03821857
0000d0 43 7a 5d bb 4f 7e 19 3e cc 41 1e 3d cf 49 0a bd
       -0.0033794797 0.14989589 0.038636968 -0.033761796
0000e0 44 b0 12 3d 7a 4c bd bd 6e 98 48 bd 9e 76 09 bd
       0.03581263 -0.09243102 -0.048973493 -0.033560388
0000f0 53 ab 66 bd 6b 13 15 3e de 71 aa bd 4e 6e ef 3c
       -0.05631573 0.14558189 -0.083225 0.029227402
000100 4f 98 13 3e 03 d5 16 be b9 47 26 3e da b4 ff bd
       0.1441357 -0.14729695 0.16238298 -0.124856666
000110 6c 7d 5e be 1f ca 31 3d fe 9c 5f 3d 5f 65 7b be
       -0.21727532 0.04340565 0.05459308 -0.24550389
000120 e0 49 76 be 80 9b 89 3b 2b 55 28 3e 1c 3b ab bd
       -0.24051619 0.0041994452 0.16438739 -0.083608836
000130 4c da 69 be 88 e4 d9 3d cc 50 51 3e 77 b3 85 be
       -0.2283718 0.10639292 0.20440978 -0.26113483
000140 49 dc 91 3d db 2a 9a bd c5 5f 77 be b4 30 b1 bd
       0.07122094 -0.07527705 -0.24157627 -0.086518675
000150 3b fe a0 be 26 bd 1c bc 22 97 c5 be b3 14 68 3e
       -0.31443962 -0.009566581 -0.38591868 0.22664146
000160 13 35 64 3d 5d 67 69 3d 51 12 95 3e d2 f6 57 bd
       0.055714678 0.05698334 0.29115537 -0.05272562
000170 87 a4 db bd 26 96 71 3b 5a 49 85 3d b0 b2 f3 3a
       -0.107247405 0.0036863177 0.06508131 0.0018592682
000180 87 c4 4c bd 2f ea 5b 3e 4f ae eb bc f3 d7 c1 3d
       -0.04999211 0.21476053 -0.02876964 0.09465017
000190 6d 9c 4a be 2d 0b a8 bd 6c 48 04 be 1a fa a3 3b
       -0.19786234 -0.082052566 -0.12918252 0.0050041797
0001a0 ec 9f 92 3c b0 87 c8 bc 90 d6 f8 3c 65 2c 88 bc
       0.017898522 -0.024478763 0.030375749 -0.016622731
0001b0 e0 ff a3 be 12 03 85 3d 0c fb 2a 3d c5 ba 8b 3d
       -0.32031155 0.06494726 0.041743323 0.06822733
0001c0 a6 5c b7 3d 75 cc 95 3d fb 4a 01 3e e7 49 c5 3d
       0.08953218 0.07314388 0.12626259 0.096332364
0001d0 68 ea 79 3d 9b bc 68 3e ec c9 63 3d 8b 02 d8 3d
       0.061014563 0.22728197 0.05561249 0.1054736
0001e0 52 00 93 3b e1 23 81 bc 6a 58 79 3c b9 ba ee bd
       0.004486122 -0.015764179 0.015218833 -0.11656708
0001f0 cc 3e 13 3e bf dd d3 3e 97 4e 9a bc 03 a1 77 3e
       0.14379424 0.41380116 -0.018836303 0.24182515
000200 a0 c1 34 3e f7 5b c0 bd 1e 09 76 3e 66 fc 08 bb
       0.17651987 -0.09392541 0.24026915 -0.0020902394
000210 73 6a 1a bd 5b 8f ab bd c5 4f 21 be d2 58 8f bd
       -0.037699174 -0.08376952 -0.15753086 -0.06999363
000220 4f 20 17 3d 09 36 62 be 42 c4 6e bc 96 83 25 be
       0.036896046 -0.22090925 -0.014573159 -0.16163477
000230 f1 67 fa bd 45 54 8f bc 1f 60 11 bd 7f 05 aa bc
       -0.122268565 -0.017496238 -0.03549206 -0.020754574
000240 ca ec 11 3e 6b fe 35 be cb 04 b7 3d 50 fe 8f bd
       0.14250484 -0.17772834 0.08936461 -0.07030928
000250 09 b4 f1 bd 14 ce 9f bd 07 e4 d8 bd b1 d8 81 3d
       -0.11801917 -0.07802978 -0.10590368 0.06340159
000260 c4 1c c7 3a 75 6e 14 3e 78 92 1c bc b3 be 0b be
       0.0015191068 0.14495261 -0.009556405 -0.13646965
000270 24 63 70 be 17 41 c5 3b 8a a3 21 3d 80 4a 7f bc
       -0.23475319 0.006019722 0.039462604 -0.015581727
000280 f2 53 5d bc b7 58 00 be 87 65 3e bd e3 ff 87 3d
       -0.013508784 -0.12533842 -0.046483543 0.066406034
000290 54 8a ad bd ce 63 c8 3d dc c2 04 3e 24 37 0e be
       -0.084736496 0.09784661 0.12964958 -0.13888222
0002a0 a2 e7 20 bd 9c ef 14 bd a5 06 30 be f2 31 c7 3d
       -0.039283402 -0.03636132 -0.17190035 0.09726323
0002b0 c8 dc 59 3c 82 87 7e 3c ce 88 98 3e 6d 4e c7 3d
       0.013297267 0.015535237 0.29791874 0.097317554
0002c0 81 7a ec 3d b5 c0 80 bd 36 18 38 ba cb bf 1e be
       0.11546803 -0.06286756 -0.00070226507 -0.1550285
0002d0 09 36 4a 3d fb ea 2c bb 91 37 06 be 64 52 ba 3d
       0.04936794 -0.0026385176 -0.13107134 0.09097746
0002e0 c2 92 50 3d e0 fa eb bd 32 1a 63 bd 7d cc 7b bd
       0.05092121 -0.1152246 -0.055444904 -0.061474312
0002f0 fe 3c b5 bb c1 3d 80 bc f6 98 8f bd 62 07 9c 3b
       -0.0055309525 -0.015654447 -0.07011597 0.0047616223
000300 5d ee 12 be d9 a0 62 3e e4 d1 88 3e d4 d2 4a be
       -0.14348741 0.22131671 0.26722634 -0.19806987
000310 7e 4a 64 be fd 29 cc 3c e7 69 91 3e db 34 37 3e
       -0.22294042 0.024922365 0.2840111 0.17891257
000320 0e 44 52 bd 34 8a 14 3d 08 c7 17 be c1 91 d4 bb
       -0.051334433 0.036264613 -0.14822018 -0.006487102
000330 05 4e 4b bd f1 d6 c1 3d ec 0c 1c be 68 f8 76 bd
       -0.049634952 0.09464825 -0.15239304 -0.060295492
000340 13 05 bb 3e 14 1b 69 3e 24 55 83 3d 42 7d be 3d
       0.3652731 0.22764236 0.06412724 0.09301235
000350 7b 16 45 be 79 16 ca bd 95 42 b3 bd 67 e9 e5 bd
       -0.19246857 -0.098675676 -0.08752934 -0.112261586
000360 2a e1 8d bd ec fa 23 3e be da 69 3c 46 72 a1 3d
       -0.06927712 0.16013688 0.014273344 0.07883124
000370 b6 98 e3 3d 21 b9 5a 3e cf fd 99 be 3b 1e 31 3e
       0.11113112 0.21359684 -0.30076453 0.17296688
000380 b4 26 ab 3d 16 41 ed 3c a4 7e 96 3d cc 8c 24 3c
       0.083569914 0.0289617 0.073483735 0.010043334
000390 c0 37 c4 3d 03 08 90 3d 44 b8 94 3d 28 d4 57 3d
       0.09580946 0.07032778 0.072617084 0.052692562
0003a0 ed c1 57 3e 4b 8b 6b 3e ac 06 0c be a2 4f 1b be
       0.2107007 0.23002355 -0.1367442 -0.15167096
0003b0 57 e6 1a be 80 29 52 3d 5d 2f 3d 3e 0d d0 0c 3e
       -0.1512693 0.05130911 0.18475099 0.1375124
0003c0 10 7a f8 bc 2e b5 b8 bd a1 ef fc bd a6 71 6b bc
       -0.030331641 -0.09018932 -0.12350393 -0.014370358
0003d0 d2 4d c7 bc 7f 84 1c 3e 61 6b cd bd f0 9e ba 3d
       -0.0243291 0.15284918 -0.100302465 0.09112346
0003e0 ff 91 04 bb 92 c7 da 3c a3 ef a4 bc 41 c8 0f be
       -0.0020228622 0.02670649 -0.020133799 -0.14041235
0003f0 09 a9 45 3d 0e 26 05 bc ce 9f 33 bd 79 d5 c1 ba
       0.048256908 -0.008126749 -0.043853574 -0.0014788351

network_body._body_endoder.seq_layers.0.bias f4 [128]
000000 02 4a 6b bc 7c 06 b6 bb 12 1f 91 3b 58 8c 4b bb
       -0.014360907 -0.005554972 0.0044287527 -0.0031058993
000010 53 ea a3 bb cb 68 d7 3c 50 02 e0 3b 0d fd ec bb
       -0.005002299 0.026295086 0.006836213 -0.0072323144
000020 23 92 a5 3b 5d e4 98 3c 5f 9e ac 3b 30 46 37 3b
       0.0050528212 0.01866358 0.0052679027 0.002796542
000030 bb b7 a6 bb 1f e1 9a 3c b0 03 51 3c c1 ac 5e 3b
       -0.0050878203 0.018906174 0.012757227 0.003397748
000040 3e bc 67 3c 9e cf fa 3b 32 2c cb 3b d3 d1 de bb
       0.0141440015 0.0076541444 0.006200337 -0.0067999153
000050 da ec 86 3c fb ff ac 3c 04 71 75 bb c7 14 87 3c
       0.016470362 0.021118155 -0.0037451396 0.0164894
000060 3a 0e fb bb 80 13 b4 3c 89 3c 34 bc b7 1c b7 3b
       -0.007661608 0.021981955 -0.011000761 0.00558814
000070 47 14 1a 3b be de 73 bb eb b1 11 3c 5a 73 4f bc
       0.0023510621 -0.0037211622 0.008892517 -0.012661779
000080 26 0f 4b bc 2e 16 16 ba 09 f9 04 bc 18 93 ae ba
       -0.012393748 -0.0005725351 -0.008116015 -0.0013318984
000090 78 f0 40 38 a3 b9 56 bc 4e 1d 2d 3c de 72 7e ba
       4.600032e-05 -0.013105783 0.010566069 -0.00097064476
0000a0 f1 99 09 bb a6 2a 4d 3c 4e 5e 2b 3c c4 3d 9e 3c
       -0.0020996297 0.012522375 0.010459496 0.019316562
0000b0 23 d2 a1 bb b0 6c 8e 3a b6 c1 40 3c 16 2b b3 3b
       -0.0049383803 0.0010866132 0.011764934 0.0054677827
0000c0 b8 ad 5f bb 35 13 22 bc 36 bd 00 3c 64 91 01 3c
       -0.0034130644 -0.009892275 0.007857611 0.007908199
0000d0 30 bb c5 3b be b0 5d bc 42 cd 6d bc 2a 41 93 bc
       0.0060342774 -0.013530908 -0.014514269 -0.017975409
0000e0 3c 4a d6 3a c2 42 a2 3c 4a ad 86 bc 6c 9c 01 3c
       0.0016349028 0.019807223 -0.016440053 0.007910829
0000f0 b8 a3 1c bc 9c df 80 bb 1c 40 7b ba a7 0a ad 3b
       -0.009560518 -0.0039329063 -0.0009584443 0.005280811
000100 50 41 c7 3c 84 65 50 3b 50 10 1f 3c 41 04 0a 3c
       0.024323136 0.003179879 0.009708479 0.008423866
000110 3b e5 af 3b 60 5b c8 3b da 7a ed ba f2 c9 06 bc
       0.0053679026 0.0061144084 -0.0018118278 -0.008226858
000120 7c c6 18 3c a7 de a7 3a 06 df b2 bb cb c5 1b 3c
       0.009324666 0.0012807444 -0.0054587154 0.009507607
000130 56 6f e9 3c ab e9 13 3c 50 c6 12 3c cf 7b 0e bc
       0.028495472 0.009027879 0.008958414 -0.00869651
000140 f0 a3 32 3c 24 89 96 3b e7 eb d2 bb c4 ff 90 3c
       0.010903344 0.004593985 -0.006436813 0.017700084
000150 e2 51 fd 3b 52 a0 3e bb b3 ff 92 3c 3c 3b 92 3c
       0.0077307085 -0.0029087258 0.017944193 0.01785051
000160 38 5e 86 bc fd f8 58 bc 7b 3c 33 bc 49 b1 71 3c
       -0.016402349 -0.013242957 -0.010939713 0.014751741
000170 41 05 75 3c 2e 21 36 3b 47 14 28 3c 63 aa 31 3c
       0.014954866 0.0027790773 0.010258741 0.010843846
000180 11 b1 3f bc 8d d3 2b bb 63 cc cd 3c 52 22 93 bb
       -0.011699931 -0.0026218623 0.025121873 -0.0044901753
000190 1e 0a fb 3b 7b 92 86 ba fd 7c c5 3a be 89 82 3b
       0.007661118 -0.0010267043 0.0015067157 0.0039837053
0001a0 32 a9 ac 3b ce 0d fe 3b a8 64 6a bc b4 95 fb 3c
       0.005269193 0.0077531105 -0.014306225 0.030711032
0001b0 70 15 00 3c 02 bb d5 3c 87 6f 51 3c b5 f8 19 bc
       0.007817611 0.026090149 0.012782938 -0.009397675
0001c0 e8 3a 09 bc a0 ef 1e 3c a6 f6 e8 3b 2a 7e ce 3a
       -0.008375861 0.009700686 0.007109481 0.0015754153
0001d0 98 e3 63 bb bd c4 e1 bb ab f1 13 3c 2b 57 2b 3c
       -0.0034773108 -0.006889908 0.009029786 0.010457794
0001e0 a8 b6 91 bb 11 c6 2d 3c 8c 4b 9e 3b 01 56 52 3c
       -0.004446823 0.010606305 0.0048307832 0.012837888
0001f0 b7 4a 73 bc 74 51 a1 bb f7 e4 3f 3c e2 cc 97 bb
       -0.014849356 -0.00492304 0.011712304 -0.004632578

network_body._body_endoder.seq_layers.2.weight f4 [128, 128]
000000 e8 6c f9 bd 71 3b 9e 3c c1 b0 c6 3c 7f 39 c9 3c
       -0.12178975 0.019315453 0.024254205 0.02456355
000010 cb 7c f0 bc 18 a3 0d 3d 4b 64 0b 3e bd 63 c9 3d
       -0.02935638 0.034579366 0.13612477 0.09833477
000020 10 a4 55 bd 6b 82 ca 3c da b3 e3 3d aa 66 35 be
       -0.052158415 0.024720391 0.11118288 -0.17714944
000030 8b 31 d6 3b d3 c3 1e be 08 79 d4 bd fd fd 81 bd
       0.0065366677 -0.15504389 -0.103746474 -0.063472725
000040 b3 a8 18 3d b9 58 07 3d a4 3c ef 3d 6b 69 db bd
       0.03727026 0.033043597 0.11681488 -0.10713466
000050 4f fa b7 bc 65 51 bf bc e0 16 26 be f0 8e ff 3d
       -0.022458224 -0.023354242 -0.16219664 0.12478435
000060 0d 59 40 be a9 b2 cd bc 51 2b d7 3c e8 0e fb 3c
       -0.1878397 -0.025109606 0.026265772 0.030646756
000070 ba 41 a2 bc 8c 74 ef bd ad bf 45 be 2d 80 57 3d
       -0.019806731 -0.116921514 -0.193114 0.052612472
000080 66 2c 18 bd ba e2 0e 3d e1 4b 04 3d 91 68 44 3d
       -0.037151717 0.034884192 0.032298926 0.047951285
000090 53 b1 05 3e 6a df de bd 65 cb 8e 3d 1b 54 0b 3d
       0.13055925 -0.108824566 0.06972388 0.034015756
0000a0 bd 73 f9 bd 46 ca 55 3d 42 33 3b bd f3 8d 5b 3d
       -0.121802785 0.052194856 -0.04570318 0.05360217
0000b0 aa a6 8a 3c 72 7c bc 3d 79 bf da 3d d0 05 29 bd
       0.016925175 0.092034236 0.10681052 -0.04126531
0000c0 b9 62 ed bd 03 cc 9e bd a1 36 7f bc f2 85 e9 bd
       -0.115910955 -0.07753756 -0.015576989 -0.11402501
0000d0 68 16 13 be ad 7e a9 bd 4d 61 03 bd cc b1 d4 3c
       -0.14364016 -0.082761146 -0.032075215 0.025963686
0000e0 37 4c 1e 3e 53 71 9a 3d 98 70 d3 3d 93 e9 7b 3d
       0.15458761 0.07541146 0.1032421 0.06150205
0000f0 50 59 cf bc 77 88 25 bd b0 45 79 bc 6f 7d 0a be
       -0.025311142 -0.040413346 -0.015214369 -0.13524412
000100 fd 7e 4c bd 4d 37 ea 3d 9d 1b 20 3d 55 27 88 bd
       -0.049925793 0.11436329 0.039088834 -0.06648127
000110 a1 f5 0d 3d 79 9f f9 3b 6f b4 30 bb f9 ee 28 3d
       0.034658078 0.0076178876 -0.0026963016 0.041243527
000120 bf 3a c1 3c d6 19 82 3c 55 2b 07 3d 85 32 a9 bd
       0.023587583 0.01588146 0.03300031 -0.08261589
000130 82 2b f1 bc 1d 1b 34 3b 87 11 3d be b6 c7 21 be
       -0.029439691 0.002748198 -0.18463717 -0.1579884
000140 d8 02 b6 bd b9 21 e6 bb d5 75 01 bd a2 11 11 3e
       -0.08887261 -0.007023063 -0.031606514 0.14166883
000150 ae c2 67 3d 20 04 cf bd d8 c6 c1 bd cd 36 56 bd
       0.056582145 -0.10108209 -0.094617546 -0.052298356
000160 e6 e9 68 3d e5 d2 98 bd 26 a1 35 bc af e6 4b bd
       0.056863688 -0.074621 -0.011085784 -0.049780544
000170 df 48 1a 3e dd dd ae bc 1a 87 91 bc a9 44 45 be
       0.1506686 -0.021346027 -0.017764617 -0.19264473
000180 2b 32 99 bd 54 ba de bc ad 9a ec bc 54 57 48 be
       -0.07480272 -0.027188458 -0.028882349 -0.19564563
000190 f6 6c 80 3e 94 1e 50 bd 29 66 4e 3d df 0a f0 bd
       0.2508313 -0.05081041 0.050390396 -0.117208235
0001a0 4f e1 43 bb 49 6b 73 3d f2 a5 5b 3d 29 2b 03 be
       -0.0029888933 0.059428487 0.053625055 -0.12809433
0001b0 ef 8b e0 bb 40 05 4b be ca 9b c2 3d a8 d1 c0 bc
       -0.006852619 -0.19826221 0.09502371 -0.023537472
0001c0 bf 14 64 3d a2 49 0d 3e 72 95 7e 3d 36 69 6b 3d
       0.055683848 0.1379762 0.06215424 0.057473384
0001d0 9f 72 3d 3d 34 3d b8 3d 93 13 5d bc 7c c2 af 3d
       0.04625189 0.089960486 -0.013493436 0.08582017
0001e0 03 60 7e 3c 3d 40 51 3d 7b 7a d5 bc ae 01 4a be
       0.015525821 0.051086653 -0.02605938 -0.19727203
0001f0 0f 3e 6b bd 68 05 48 b6 ab 57 96 bd 1a a3 2d 3d
       -0.05743223 -2.980547e-06 -0.0734094 0.042391874
000200 64 bd e1 3d 2c 9d 2b bd 90 18 33 3d 99 ed ea 3d
       0.110224515 -0.041897938 0.043724597 0.114710994
000210 b5 60 14 be 54 e7 1c 3d 80 de 17 3d 89 d6 af bd
       -0.14490016 0.03830655 0.037077427 -0.08585841
000220 97 65 84 3d 68 27 b6 bd 5a 3a 15 be ec 26 96 3e
       0.06464689 -0.08894235 -0.1457304 0.2932657
000230 a7 35 8d bb 62 0c dc bb 99 fc a2 bd 8a be d6 bd
       -0.0043093744 -0.0067153433 -0.079583354 -0.10485561
000240 11 8c 47 3d 61 e7 c4 bd 9a 61 d9 bd bc ee fc 3d
       0.048717562 -0.096144445 -0.10614319 0.123502225
000250 f2 65 e6 3d 36 bb 14 3d 13 86 cc 3d 72 82 83 bc
       0.11249913 0.03631135 0.0998651 -0.016053412
000260 b0 bd b2 3d 46 e5 be 3c f7 6b 77 bd ac c2 d9 3c
       0.08727586 0.023302685 -0.060405698 0.026582085
000270 64 3f a8 3d 40 0f 04 be 2b ea 70 bc bc cb e9 bc
       0.08215216 -0.12896442 -0.0147042675 -0.028539531
000280 51 07 f4 3d 9f 97 a6 bd cf c3 e1 bd f5 8e ab 3d
       0.11915458 -0.08134388 -0.11023676 0.08376876
000290 19 49 de 3c 07 89 89 3d 1c bf fa 3c ee dc 08 bd
       0.027134465 0.06715589 0.030608706 -0.03341382
0002a0 b6 ca 1a bd 57 78 10 3d e1 da aa 3b 61 1a 37 be
       -0.037790976 0.035271015 0.0052140807 -0.17881157
0002b0 a9 92 52 3d e6 44 37 3e 1e a6 6e 3e e2 e9 c9 3d
       0.051409397 0.17897376 0.23305556 0.09859063
0002c0 76 d1 b2 bb 20 c5 94 bc e0 f3 2a 3d 32 6a a2 3b
       -0.0054570986 -0.018160403 0.041736484 0.004956507
0002d0 02 e6 b7 bd bc f4 8b 3d 8a f6 e7 bd 7c da 07 be
       -0.089794174 0.06833789 -0.113263205 -0.13266939
0002e0 a0 46 b7 bd ca 41 ae 3c 16 7b b5 bd 07 2d c4 bd
       -0.089490175 0.021271605 -0.088613674 -0.09578901
0002f0 85 ce d3 3c 02 96 14 bd 4a e5 e3 bc 3a c9 47 3d
       0.025855312 -0.03627587 -0.027819294 0.04877589
000300 fb 67 46 bd d6 86 86 3d 24 27 1a 3c b8 2b 82 bd
       -0.048439007 0.06568687 0.009408746 -0.06355995
000310 ac 62 8c 3b 09 00 78 3d 58 a4 13 3e a1 1e 82 bd
       0.0042842235 0.06054691 0.14418161 -0.06353498
000320 14 8f 70 3d f7 d4 71 3b 4b 0f a4 bd 33 82 a3 bd
       0.0587302 0.0036900619 -0.080107294 -0.07983818
000330 88 87 c3 3d e7 69 e9 3c 53 e6 1e 3e 14 50 18 be
       0.09547335 0.028492881 0.15517549 -0.14874297
000340 1b 95 80 bd df a7 92 bc 89 97 cc 3c e8 3f b9 3b
       -0.062784396 -0.017902313 0.024974601 0.00565337
000350 e2 1f 0b 3d da e0 b8 bc b7 35 d7 3c fa e9 29 bd
       0.033965953 -0.022568155 0.02627073 -0.041482903
000360 12 5f be bb 20 33 0a be 02 ea 39 3c b1 9d fa bb
       -0.005809673 -0.13496065 0.011347296 -0.007648193
000370 cd c0 3b 3e 44 84 9a 3a 5a 94 63 3e c8 2b e3 3d
       0.18335266 0.0011788686 0.2222456 0.11092335
000380 5a 58 9e bd 66 76 32 bd 26 e2 e1 3c 4a 26 3b bc
       -0.077316955 -0.043569945 0.027573656 -0.011422703
000390 c8 98 be bd fa a7 75 3b cc 0c 38 be e9 c0 9b 3d
       -0.093064845 0.0037484155 -0.17973632 0.07605154
0003a0 d8 24 55 3e 84 62 7b 3d fd 37 49 bd 2e b3 cc 3c
       0.20814836 0.06137325 -0.04912566 0.024987783
0003b0 b1 20 64 bd 86 63 a0 bc 0f cc be 3c 73 0a 8d bc
       -0.05569524 -0.019578706 0.023290662 -0.017216897
0003c0 7b 88 19 be eb cf 6d 3e 5e fa 23 be 45 4b 2c be
       -0.1499347 0.23223846 -0.16013476 -0.16825588
0003d0 77 a0 2a bd b7 b7 a6 bc 82 17 ad 3d 4a 5b 64 3e
       -0.041656937 -0.020351274 0.084517494 0.22300449
0003e0 b0 88 18 3e 88 0e fc 3c eb 47 1c bd c4 07 8d bd
       0.14895892 0.030768648 -0.038154524 -0.06886247
0003f0 bc e2 e5 3d 01 ee e8 3b 8f f7 3b be 12 15 64 3b
       0.11224887 0.0071084504 -0.18356155 0.0034802598

network_body._body_endoder.seq_layers.2.bias f4 [128]
000000 f1 98 77 3c fe d0 28 bb e3 52 75 3c 6d 11 9c 3a
       0.015112148 -0.0025759335 0.014973375 0.0011907049
000010 93 8a a9 3c 19 93 59 3c ca fe a2 3b 80 fd 81 bc
       0.02069596 0.0132797 0.004974221 -0.015867949
000020 1e 13 75 3c 4d d8 09 bc fd 4b 19 bc 24 4c 0a 3c
       0.014958171 -0.0084133865 -0.009356496 0.008441005
000030 33 51 b6 bb 8e a2 d2 3b b2 f1 1b 3c bf 72 91 3c
       -0.005563879 0.0064280694 0.009518074 0.01775491
000040 db 03 9a bb 63 d0 02 3c f1 bc f8 bb 9d 5d 77 bc
       -0.0047001666 0.007984254 -0.007590883 -0.015098003
000050 c4 c5 d6 3b 8d 12 e0 3b e9 39 79 39 ff c3 59 3c
       0.006554337 0.006838149 0.00023768064 0.013291358
000060 2f 81 a9 3c f7 dd 2d bb 08 7e 3e bc 76 36 0d bc
       0.020691482 -0.0026530006 -0.011626728 -0.0086189415
000070 d6 43 13 3b c1 5c 01 bc 8e 72 d9 3b e3 d7 24 bb
       0.0022470853 -0.007895649 0.0066359704 -0.0025153093
000080 5c 5d 57 39 8f 1b 5c bb bc 79 c9 ba 7f 7c ea bb
       0.00020538777 -0.0033585762 -0.0015371363 -0.0071559544
000090 d0 ea 14 bb a9 21 cb 3a 3d 0b 4c bc a4 4e 03 3c
       -0.0022722967 0.0015497702 -0.012453851 0.008014355
0000a0 74 41 b1 3a 5a 07 e3 bb c4 71 73 3c d3 09 9f bb
       0.0013523535 -0.0069283666 0.014858667 -0.004853466
0000b0 0f a8 15 3c a2 ba 12 3b 87 e2 91 bb 3c 13 9f 3c
       0.009134307 0.0022389074 -0.004452053 0.019418351
0000c0 86 08 a7 bb 02 4e 1a 3b 32 26 aa ba 13 2c f2 3b
       -0.0050974516 0.0023545031 -0.0012981354 0.007390508
0000d0 c6 82 ca 3b 55 b4 b2 3b 70 15 53 3a f2 ce 79 3c
       0.00618014 0.005453626 0.00080522057 0.0152470935
0000e0 97 ad 40 bc 10 53 81 3b 2b 42 e7 bb ea 63 32 bc
       -0.011760137 0.0039466694 -0.0070574484 -0.010888079
0000f0 b6 41 a9 ba 20 2d 4f 3c e8 e6 1d 3c 01 08 a5 ba
       -0.001291326 0.012645036 0.009637572 -0.0012590886
000100 3a dc 94 bb c8 c7 60 3c cd 34 48 3c 92 72 59 3b
       -0.0045428546 0.013719507 0.01221962 0.0033179861
000110 0b d8 08 bc 0e 87 87 3c 26 60 e9 3b 35 7c 61 3b
       -0.00835229 0.016543891 0.0071220575 0.0034406309
000120 b3 a2 2f bc ca f6 3c 3b 65 ba 43 bc cd 63 12 3c
       -0.010719943 0.0028833621 -0.011946295 0.008934927
000130 b2 9c 08 bb 83 d8 e1 3b 7a ae 22 3c 15 60 ae 3c
       -0.002084535 0.0068922653 0.009929294 0.02128605
000140 79 c3 19 3c c5 c7 90 3c 22 e6 47 3b 0f d6 9f 3b
       0.009384983 0.017673383 0.003050216 0.0048778127
000150 9a 2f 6c 3c 1d fc 14 3d 46 93 1b bc 0a 78 7f bc
       0.014415646 0.036373246 -0.009495562 -0.015592584
000160 93 2a a3 bc 59 f9 4e 3c bc 28 2f bc 7d 8a d6 3c
       -0.019917762 0.012632691 -0.010690864 0.026189083
000170 a1 4c 11 3c b2 e7 4b 3b 58 87 80 3b 39 9c d9 3c
       0.008868367 0.0031113443 0.003922384 0.02656375
000180 46 74 15 bc 6f db b5 3c 5d 05 af 3c 7e 51 68 3b
       -0.00912196 0.02219936 0.021364862 0.0035448964
000190 05 49 09 bb 10 9e c7 ba 04 72 04 3b 11 01 d4 3b
       -0.0020948064 -0.0015229601 0.002020956 0.0064698537
0001a0 bf e4 39 3c b8 59 f7 3c de e5 07 3c c0 bb ca 38
       0.011346041 0.030194148 0.008294551 9.667082e-05
0001b0 99 6b 3b 3b 1e 3f 40 3b b5 14 ad 3b 52 03 b5 bb
       0.0028598069 0.0029334496 0.0052820095 -0.0055240775
0001c0 96 54 7b bb 74 8f c5 3b 8e 55 e7 3c 64 69 a2 3b
       -0.0038349978 0.006029064 0.028239038 0.004956411
0001d0 8b 4c d5 3b 94 f7 06 bb c6 2a bf 3c 61 5f 9b 3c
       0.006509369 -0.0020594345 0.023335826 0.018966379
0001e0 0c 7b 8b 3b 16 43 bf bb 7c 33 a9 3c a9 d8 74 3c
       0.0042566117 -0.0058368547 0.020654432 0.014944234
0001f0 dd 57 20 3c 1b 49 4f ba 23 fb 2b bb 07 ed bb 3b
       0.009786573 -0.0007907317 -0.0026242218 0.005735043

action_model._discrete_distribution.branches.0.weight f4 [3, 128]
000000 77 56 27 bc 9c dc d2 3c a5 e9 c3 3c 10 bb bb 3c
       -0.010213486 0.02573996 0.023915121 0.022916347
000010 62 d0 66 3d 2b 76 ac bc cb 8b b4 ba 2a 72 e8 b9
       0.056351073 -0.02105244 -0.0013774572 -0.00044335547
000020 72 a8 ad 3c 80 3c 67 3c ed 24 70 3d ee ca 30 3a
       0.021198485 0.014113545 0.058628965 0.0006744106
000030 ad e4 d2 ba cf 19 0d 3d f5 ec ce 3b 85 cd 7a 3c
       -0.0016089879 0.03444844 0.0063148686 0.015307789
000040 b6 76 51 ba 21 d2 25 bd 51 0c c3 bb 49 4b 3f bb
       -0.00079904066 -0.040483598 -0.005952396 -0.002918916
000050 23 e6 3d bd df 4d 7e bb 11 f0 dc bc c2 04 6c bc
       -0.046362054 -0.003880374 -0.026969941 -0.014405431
000060 64 4b 64 3c 0c ca f3 bc 7f e6 ff bc f1 44 85 bc
       0.01393399 -0.02975943 -0.031237839 -0.016268225
000070 1a c6 b5 3c 6d a6 84 ba 5c 5b 14 3d 57 44 d5 bc
       0.022189189 -0.00101204 0.03621994 -0.026033564
000080 3e 55 42 3c 3c 7c 2f bd 64 0f d5 bb 4b 6e ee 3c
       0.011861144 -0.04284309 -0.006502079 0.029105326
000090 89 42 c6 bc e4 43 34 bd 55 54 aa bb 0c 0f 54 3d
       -0.024201648 -0.044010058 -0.0051980414 0.051772162
0000a0 d6 9e d2 3c 30 b2 47 bb 02 74 70 3c 62 23 1c bb
       0.025710505 -0.0030471198 0.014676096 -0.00238248
0000b0 d5 ec 32 bd 74 ab 25 bd 30 33 9f 3b f7 df d7 bc
       -0.043682892 -0.040446714 0.004858397 -0.026351912
0000c0 95 2c b2 bc 36 05 0d bb f3 cd db 3a 07 96 07 3c
       -0.021749774 -0.0021517999 0.0016769752 0.008275515
0000d0 a1 5c 36 3c 38 7c c7 bc 1e cd 02 3c e2 42 e5 bb
       0.011130483 -0.024351224 0.007983474 -0.0069964984
0000e0 e7 79 c9 3a fa 39 ff 3c ac e0 90 3b 49 05 e5 3a
       0.0015371413 0.031155575 0.004421314 0.0017472889
0000f0 83 5e b3 bc 2f 3d e1 bc 1b a5 06 3d e8 d2 03 bc
       -0.021895653 -0.027494995 0.0328723 -0.008045889
000100 a7 6b 4f bd de d8 1d 3b cd 78 58 3d f2 f9 7b ba
       -0.050639775 0.0024085562 0.05284958 -0.0009612135
000110 da 85 c8 3c ed d2 9e 3c 92 82 8c bb 72 5a 11 bc
       0.024477888 0.019387687 -0.004288026 -0.0088716615
000120 4a c4 e0 bc 81 16 b4 3b 6a a9 f5 3a da 9e dd 3b
       -0.027437348 0.0054958467 0.0018742506 0.0067633213
000130 de d3 29 3d bb a1 99 3c a0 73 c7 3b f8 5d fa bb
       0.041461818 0.018753877 0.0060867816 -0.0076405965
000140 c7 0b 2b 3d 34 63 45 bd 05 51 3a bd af 9b a9 bb
       0.04175928 -0.04819031 -0.045487422 -0.0051760296
000150 5d 1c 1b bb a5 ca de bc c5 95 6f 3c 18 d2 e4 3a
       -0.002366803 -0.027196238 0.01462311 0.0017457632
000160 40 02 9a bb d5 55 8c bd c7 58 2b 3c fe c6 5f bd
       -0.0046999753 -0.06852309 0.010458178 -0.054633133
000170 7c f7 a1 bc 31 fc b8 bc 7b ba e1 bc c7 ec 20 bd
       -0.01977133 -0.022581192 -0.027554741 -0.03928831
000180 5f a0 d2 3b 15 fd 08 3d a9 81 a5 bc 37 cd 64 3c
       0.006427809 0.033444483 -0.020203428 0.013964943
000190 14 7d 12 bc 01 71 13 bd 0b cc 07 bb b7 ed a5 3c
       -0.008940954 -0.03599644 -0.0020720984 0.020254953
0001a0 3e 3e 09 ba f2 3c 4e bd 46 85 7f 3c e8 2e 22 3c
       -0.000523541 -0.05035109 0.01559574 0.009898879
0001b0 9a d2 5d bd ed 67 1a 3d b8 40 76 bb 4a 1b 8e 3c
       -0.054155923 0.037696768 -0.0037575196 0.017346997
0001c0 25 f3 2d bc fd 6b 8d 3b bc e8 d1 bc f3 8f e3 3b
       -0.010617052 0.0043158517 -0.025623672 0.0069446503
0001d0 d5 7b 3c 3c 47 cd 25 3c 0a 8d 05 3b 32 b0 24 3c
       0.011504133 0.010119743 0.0020378255 0.010051774
0001e0 0f d2 5a 3c 3d 97 10 bb 98 0e 9e 3c 8a 8c 01 3c
       0.013355746 -0.0022062801 0.019294068 0.007907042
0001f0 8c 7d c8 3b 17 c9 60 3c 20 54 97 3c 5b d7 7b bd
       0.006118482 0.013719819 0.018472731 -0.061484676
000200 74 f6 ff bb 9c 8b fc b9 44 6d 73 bc 74 00 b6 3a
       -0.007811362 -0.00048169203 -0.014857594 0.0013885633
000210 9b 57 65 bc 10 1b ac 3b 91 d9 0d 3c e9 0f 96 bb
       -0.013997938 0.0052522495 0.008657829 -0.0045795334
000220 a4 37 4f 3c 73 32 8b 3b c5 bf 83 ba 71 66 3d bc
       0.012647543 0.0042479574 -0.0010051659 -0.0115600685
000230 22 14 96 bb e3 7c 98 bc 21 62 30 3c 6b 9f 0d 3c
       -0.0045800367 -0.018614238 0.010765583 0.008643965
000240 56 37 58 bc c4 58 a2 bc be 6c 01 3c c2 23 ed bb
       -0.013196787 -0.019817717 0.007899461 -0.0072369287
000250 cf 28 e5 3b 24 f8 f3 3b 74 ab d9 bb 64 b8 9e 3c
       0.00699339 0.007445352 -0.0066427533 0.019375034
000260 71 bb ae 3c fc 10 78 bb a0 82 e0 bb 37 8c 9b 3c
       0.021329613 -0.003785192 -0.006851509 0.018987758
000270 13 41 42 3c 61 e9 a5 3b 54 e0 12 bd 2d f4 4f 3c
       0.011856335 0.0050632213 -0.035858467 0.012692493
000280 e8 ee 76 bc cd 9b c6 bb 68 71 96 3c 83 1e 39 bc
       -0.015071608 -0.0060610534 0.018364623 -0.0112987785
000290 5b e9 4f 3c 25 b1 4e bc 3c db a2 bb 1e 89 42 bc
       0.012689914 -0.012615477 -0.0049699824 -0.011873512
0002a0 46 c2 48 3c 86 cf 3d bc 76 9c ac 3b 41 d5 a4 bc
       0.01225335 -0.011585122 0.005267675 -0.020121219
0002b0 3b a6 2f 3b 78 e3 7d 3a 03 74 0a 3c ce 53 01 3d
       0.0026801962 0.00096850796 0.008450511 0.031574063
0002c0 18 d2 f8 3c de d0 03 bc a2 cd c5 bb e0 45 08 3c
       0.030373618 -0.008045403 -0.006036476 0.008317441
0002d0 68 38 00 3c 44 e3 8f 3c 72 a8 36 39 b1 fd 77 3c
       0.007825948 0.017564423 0.00017419623 0.015136168
0002e0 eb 7a 12 3c f3 cc 4e bc db 39 9a bc 50 5a c7 3b
       0.008940439 -0.012622106 -0.018826416 0.006083764
0002f0 17 33 0b bc 2f 38 b2 3b 9a f1 bd bc 32 58 b8 ba
       -0.0084960675 0.0054388265 -0.023186494 -0.001406437
000300 ee 45 64 3c 9e f2 b8 bc 4e d3 d9 bc 36 eb a1 3b
       0.013932688 -0.022576626 -0.026590016 0.0049413694
000310 90 ce 31 bb e2 46 7c 3b e1 db 21 bc 92 dc 10 3c
       -0.0027131177 0.0038494398 -0.009879083 0.008841651
000320 3a c3 cc bb a2 ca 33 bb 39 72 8e 3b a4 42 ba 3c
       -0.0062488588 -0.002743401 0.0043471125 0.022736855
000330 0e 16 38 bc 3b 11 a5 3c b1 30 9f bc 2d 2a 14 bd
       -0.011235727 0.020149818 -0.019432398 -0.036173034
000340 84 b6 60 3c a6 92 24 3c bf 03 06 bd 08 d3 30 3c
       0.01371539 0.010044729 -0.032718416 0.010792501
000350 e9 40 02 3d 71 43 e4 3c fe c0 db 3b 1e 07 9f 38
       0.031800184 0.02786419 0.006706356 7.5830365e-05
000360 8d b8 a4 bb f2 cf 70 3c ae 5a 49 bc 8f 05 98 3c
       -0.005026883 0.0146980155 -0.012289686 0.018557338
000370 2b b7 a3 3c d7 5c 92 bc af 34 c8 3c 25 b4 59 bb
       0.019984802 -0.017866535 0.024439184 -0.0033218947
000380 73 0c c8 3b b9 77 b2 3a 2b 16 fa 3c f5 11 93 bc
       0.0061049997 0.0013616002 0.030528149 -0.017952899
000390 5a 74 56 3c ad f9 2d 3b b4 f3 32 bc c4 1e c4 3c
       0.013089264 0.0026546523 -0.010922361 0.023940451
0003a0 47 c0 8f bb f9 f7 8c 3c eb 03 c8 37 ba 48 42 bc
       -0.004386935 0.017208086 2.3843682e-05 -0.01185816
0003b0 47 bd cd ba 1e 3b 95 bc 04 7f 59 3c 67 5c b8 3c
       -0.0015696668 -0.018216666 0.013274912 0.022504998
0003c0 c3 1c a5 bb 43 47 bc b9 2b 27 b1 bc d1 60 70 ba
       -0.005038829 -0.00035911248 -0.021625122 -0.00091697
0003d0 84 55 de 3b 8c 14 8d 3c 27 29 a9 3a 36 ea ae 3b
       0.0067850966 0.017221712 0.0012905941 0.0053379787
0003e0 59 42 c4 3b ea 23 32 bc c8 6c 82 bb 51 0c 60 3c
       0.0059893546 -0.01087282 -0.003980253 0.013674811
0003f0 eb 43 96 bb 14 59 20 3b 39 b6 cf ba 26 42 df 3c
       -0.004585733 0.0024467157 -0.0015847153 0.027253222

action_model._discrete_distribution.branches.0.bias f4 [3]
000000 b5 67 83 3b 85 cb 39 3b 87 02 f5 bb
       0.0040101656 0.0028350067 -0.007477108

action_model._discrete_distribution.branches.1.weight f4 [2, 128]
000000 17 f9 2e bc e9 77 98 3c f5 ed 54 bc 8b 0e e3 3c
       -0.010679505 0.018611865 -0.0129961865 0.027716896
000010 6a 76 a6 3b 35 03 8e bc bc 8a 18 3d c0 ce 0e 3d
       0.005080034 -0.017335514 0.037241682 0.03486514
000020 e9 f7 5d 3b e2 bf c8 3a bf 69 8b 3c 0f f8 1c bc
       0.003386969 0.0015315975 0.017018197 -0.009580626
000030 ea c9 42 3c 5b 27 36 3c 25 da d3 bc 6b 8e 1d 3d
       0.01188896 0.0111177815 -0.025860855 0.0384659
000040 7b be 06 3c 7e 13 32 bb cf f3 90 3a 75 6f 9c 3b
       0.008224125 -0.0027172263 0.0011058989 0.004774029
000050 d1 83 5c 3c 4c cd 86 bc 4c d5 64 3c be d6 02 bc
       0.013459162 -0.016455315 0.01396687 -0.007985769
000060 30 43 19 bc ee c3 7f 3b 6a 7a 90 3c 3a 08 0f bc
       -0.009354398 0.0039026695 0.017636497 -0.008729989
000070 46 d4 29 bc a6 d2 3d bb f0 a1 c0 bc 60 03 b9 3c
       -0.010365551 -0.0028964668 -0.023514718 0.022584617
000080 c4 d8 60 3c 02 30 3c bc 56 43 1b 3c 94 1a f2 3c
       0.013723556 -0.011486055 0.009476503 0.029553689
000090 cc 47 7b bc 54 f5 d1 3c 22 f1 55 3c 41 15 83 bc
       -0.015336942 0.025629677 0.013057979 -0.016001346
0000a0 a3 30 f0 3c f5 4f bd 3b 22 cd bd bc 1b d9 03 3d
       0.029320067 0.005777354 -0.023169104 0.03218947
0000b0 b6 90 47 bc 7a 33 82 38 a9 ba 0a bc ef 94 d5 3c
       -0.012180498 6.208471e-05 -0.008467355 0.026071994
0000c0 b5 f3 5f bc ae 2a 55 bc e2 ce df 3b 9b 79 83 bc
       -0.013668944 -0.013010664 0.0068300823 -0.016049197
0000d0 e2 62 34 3c 8f ec aa bb dd c0 04 bc 0a 07 68 bc
       0.011009904 -0.0052161883 -0.008102623 -0.0141618345
0000e0 7c 27 e3 bb f4 da aa 3c 73 8e 14 bb 5a 9a fd 3b
       -0.006932197 0.020856358 -0.0022667914 0.0077393474
0000f0 3f 6b 0a bc 58 e7 50 3a a3 8b ee 3c 33 a7 9a bb
       -0.008448421 0.0007969043 0.029119318 -0.0047196387
000100 76 be 78 3c 27 f9 0c 3c 02 9a 73 3c 85 a8 bd bc
       0.015182128 0.008604324 0.014868261 -0.023151645
000110 69 f1 5c 3d 1a 9a e7 bc de f2 d3 ba 2d 7d a2 bc
       0.053941164 -0.028271724 -0.0016170403 -0.01983508
000120 bb bf b7 bb d1 ba 3b 3c ce 14 9f 3b 87 ae 8d 3b
       -0.005607573 0.011458115 0.004854775 0.004323784
000130 a6 d9 0a 3c cc 4d 08 3c ed ab 06 bd d6 61 ba bc
       0.008474743 0.0083193295 -0.032878805 -0.02275173
000140 9a 84 ea bc fa b2 39 bc 80 48 8d 3b 40 84 82 bc
       -0.028627682 -0.011334175 0.004311621 -0.015932202
000150 be a3 34 bd 91 90 13 bd ed 41 e4 3b 73 e1 b2 bb
       -0.04410147 -0.03602654 0.006965867 -0.0054590045
000160 a2 45 cd 3c e7 5a 2f bc b6 e7 2f 3c 04 87 05 bd
       0.025057618 -0.010702825 0.010736397 -0.032599464
000170 92 cf c1 b9 c5 eb 42 3c dc b9 eb 3c 68 da ce 3c
       -0.0003696648 0.011897032 0.028775148 0.025250629
000180 98 06 e1 bb 60 86 17 bd 3c c5 02 3d 02 21 f4 bb
       -0.006867241 -0.036993384 0.03192638 -0.007450224
000190 46 1d 66 bc 2e 87 20 bb 47 f9 12 ba 95 95 45 bc
       -0.014045065 -0.0024494636 -0.0005606603 -0.012059589
0001a0 91 b1 af bc af 68 0a 3d bf d3 1f 3b 8f f2 a3 3c
       -0.021446975 0.03379124 0.0024387685 0.020013122
0001b0 7e 2a 0a 3d 29 d0 62 3c 47 fb 31 bc bd 9e ff 3c
       0.03373193 0.013843575 -0.010863132 0.031203622
0001c0 9e 93 c9 3b e5 79 82 bc e0 ff 19 bc c9 71 ae 3b
       0.0061516305 -0.015927264 -0.009399384 0.005323623
0001d0 79 0e 48 bb 26 6b 78 3c 27 31 85 bc 50 23 95 bc
       -0.0030526205 0.015162265 -0.01625879 -0.018205315
0001e0 2f bc 93 bc 42 a0 3c bc 20 53 68 3b ab 2c 0b bc
       -0.018034069 -0.011512818 0.0035449937 -0.008494536
0001f0 d4 b8 80 bc 13 24 c3 bc 20 0c dc 3b bb 9b e6 bb
       -0.015713133 -0.023820912 0.0067153126 -0.0070376075
000200 88 8a e4 ba c6 31 d4 bc 40 f6 6b 3c 02 33 00 bd
       -0.0017436305 -0.02590264 0.014401972 -0.031298645
000210 f1 26 a6 bc fe b1 f5 ba d6 b3 11 bd cc f6 94 bc
       -0.02028224 -0.0018745062 -0.035571896 -0.018184088
000220 75 ed f4 bb 91 c4 21 bb b7 32 02 3c d8 4e ba b8
       -0.007474596 -0.0024683813 0.007946662 -8.883857e-05
000230 9e 3b 6e 3a 52 da 05 bd a4 95 66 3c 70 8f 2f bd
       0.0009087863 -0.03267891 0.014073763 -0.042861402
000240 8a a1 92 bc 19 0f 68 bb 55 eb 44 bb b1 22 68 bc
       -0.017899293 -0.003540939 -0.0030047495 -0.014168427
000250 e7 69 e9 bb 0f f0 6a 3c 3c 07 a2 bc bd 4a f7 bb
       -0.0071232202 0.014339461 -0.01977884 -0.0075467513
000260 ab 00 26 3c 0a 16 6f bc cd 09 24 bd 53 c5 4c 3c
       0.010131995 -0.014592657 -0.04004841 0.012498218
000270 9e 77 99 bb ba 13 e3 3b 70 42 6b 3c a3 0e ce bc
       -0.004683449 0.006929842 0.014359102 -0.025153464
000280 6d eb d8 bb 98 95 a0 bb 31 83 96 bc 55 82 40 bc
       -0.006619862 -0.0049006455 -0.018373104 -0.011749824
000290 cb db d5 bb cf 06 28 bc 28 ab 8e bc c7 b3 9d bb
       -0.0065264455 -0.01025553 -0.017415598 -0.004812691
0002a0 d8 02 eb bc 08 d4 a6 3b 33 bd d7 3b 4f 08 f8 bc
       -0.02868788 0.005091194 0.0065838336 -0.0302774
0002b0 c0 c0 ee bb 07 84 0c 3c 6c 28 d2 bc 2b 1b 1f bd
       -0.007286161 0.0085764 -0.02565404 -0.03884427
0002c0 80 66 2b bc 47 cf ab 3c c8 b7 d0 bc 7c db f6 3b
       -0.01046145 0.020972861 -0.025478259 0.007533489
0002d0 1d b9 7a bb 31 0c b2 38 0d 4b 04 bb 7d 01 9f 3c
       -0.0038257309 8.489972e-05 -0.0020186335 0.01940989
0002e0 7d f9 7a ba 33 13 da bb ee 99 cf ba 93 80 dc 3b
       -0.000957392 -0.0066551208 -0.0015838721 0.0067291944
0002f0 08 c6 c0 3b 5e 53 ed 3c e5 5d 79 bc 4f 25 b1 3b
       0.005882982 0.028970417 -0.01522014 0.005406059
000300 9d a1 cc bc 00 6b f2 bb 35 98 51 bb 59 af 42 39
       -0.024979407 -0.0073980093 -0.0031981592 0.00018566604
000310 25 db 21 bd 2b a3 21 3c a1 ad ae 3c 48 b4 bc 3b
       -0.039515633 0.009865562 0.021323027 0.005758796
000320 d8 94 88 3a 64 c0 8a bc 4b f6 f3 bb 4e 9c 47 3b
       0.0010420335 -0.016937442 -0.007445132 0.0030458155
000330 e4 bf f8 b9 ec 68 b3 bc 16 5c ac 3c 54 b4 ab 3b
       -0.00047445216 -0.021900617 0.021040004 0.0052400026
000340 2d d6 17 3d 5d 19 e0 3a e4 84 1b bd 90 19 15 3c
       0.03706949 0.0017097403 -0.03796853 0.009100333
000350 b4 2e ef 3c 4d d1 31 3d 47 39 a8 bc 41 18 83 bb
       0.029197074 0.043412495 -0.020535124 -0.004000694
000360 bc 13 00 bd 6d a2 c1 3b a0 7f 58 bb f9 b6 2e 3d
       -0.03126882 0.0059092552 -0.0033035055 0.042654965
000370 c0 15 62 3c 8c 20 6a bb 3e 7d 65 bc 10 d3 01 bd
       0.013799131 -0.0035724966 -0.014006911 -0.031695426
000380 03 83 34 bc c1 ac d1 3c f8 14 e7 bc e9 5a 68 ba
       -0.011017564 0.02559507 -0.02820824 -0.00088636443
000390 35 e7 ee 3b 1b 37 4a ba f7 b4 93 bc eb fc d7 3b
       0.0072907456 -0.00077139 -0.018030627 0.0065914295
0003a0 fe d5 4c 3b 1c 0a 1c bd 1b 77 b8 3c b2 34 07 bc
       0.003125548 -0.03809558 0.022517731 -0.00825231
0003b0 0a 8d ab bc dd ab 01 bd 93 e5 73 3c dd f3 0d bd
       -0.020941276 -0.031658042 0.014886278 -0.034656394
0003c0 e0 43 b8 bb c1 10 04 3c 95 54 58 3c 95 06 0c 39
       -0.0056233257 0.008060635 0.01320376 0.00013353892
0003d0 bb 91 44 3c 60 18 cd bc 73 44 08 3c 00 05 bc 3c
       0.0119976355 -0.025036037 0.008317101 0.022951603
0003e0 5a 07 4e 3a a2 1d 2d bc e4 79 ac 3b 28 25 2e 3c
       0.0007859372 -0.010566147 0.005263554 0.010628976
0003f0 b2 60 7a 3b b2 4c 04 3d 4c 6b 0b 3c f9 3b b7 bc
       0.0038204608 0.032299705 0.008509468 -0.022367464

action_model._discrete_distribution.branches.1.bias f4 [2]
000000 0e 2a 18 bc 0b 2a 18 3c
       -0.00928737 0.009287368
