KartSCBIO/results/circuitoA-7/ArcadeDriver/ArcadeDriver-499937.pt (torch, 585591 bytes, 40 tensors)

discrete_act_size_vector f4 [1, 2]
00000000: 0000 4040 0000 0040
3.0 2.0

network_body._body_endoder.seq_layers.0.weight f4 [128, 52]
00000000: 5273 f1bd 3199 dabc 54ee 703e f76f f2bd
00000010: 581a 473e 5550 afbd f8ca 883d 8ef1 7e3e
00000020: 96cf 9c3e b272 9f3c f936 eb3c 0624 2a3e
00000030: 237a a4bd 7f58 fdbd a66f eb3d 6c32 fd3a
00000040: b810 65bd 15ed 253d d633 a0bd 375c fa3d
00000050: e0b7 b93c 8731 50bd 8478 3cbd 489a 413a
00000060: 609d 8fba 8b21 903d 4185 023e 4316 863e
00000070: 9d30 a03d 030a e5bd fc70 50be 4377 3fbe
00000080: af10 b73d 91ba c03d 1e21 6abe ff01 e73e
00000090: feee 3f3e 7fbd 913d bc0b 8cbc fd25 053e
000000a0: 31a7 6bbd 7f58 783c 7eaf 973d 93bd f03c
000000b0: 8a33 263e e309 3b3e c30f a53d 7efc 81be
000000c0: 9d1b 3dbe 115a 523e abc4 9a3d f63b 1c3e
000000d0: 3aa6 debc 097d 12be d9f4 44bd 90b4 613c
000000e0: f6de 14be 666c 10be 3bcb c63d 539e f6bc
000000f0: a917 9a3e 4138 12bc 0884 163e e96c cd3d
00000100: 84c4 95bd b33f 613d 8a05 a43e f65f 04bc
00000110: be04 9f3c aa0d 013c b60e 08bd 4452 f8bd
00000120: 160f 59bd 1465 143e 7af4 943e c1fa 47bd
00000130: c733 33be 6f56 ccbc 7ff8 9abd bfd0 a63d
00000140: 4d0e 34bd 3bd0 c0bd 80ef 403d 1770 663d
00000150: 5f57 a4bd 28e8 97bd 8fbe ed3e 9414 273e
00000160: 9540 babd f693 23be afd8 3cbe d6ea 2fbe
00000170: c398 46bc 36f8 e3bc 2b68 fabd 3b9d 4cbd
00000180: 8a76 3c3e 95e4 b33c eed5 37be 8dc9 a9bd
00000190: 3801 97bd a610 833e 7907 033d 3bc7 4c3e
000001a0: 2f45 79bd f740 5e3c f6a0 50bc 760b f8bc
000001b0: 83ac c4bc 79d2 4e3e 3a1f f43d dfc9 debe
000001c0: 9694 7cbe cb39 05bd e191 75be a039 0dbe
000001d0: 1148 6b3e 00f5 823d c21a 5bbd e356 00be
000001e0: 70cd 933c 8716 863d 85ee 873d 3537 6ebd
000001f0: 5aeb 02be 83fd 793d c33d 7a3b c3ee aa3e
00000200: 72b2 153c 276a f1bd 333f 18bd 4c05 8e3e
00000210: c571 0e3d c529 983d 080a 0e3e 5581 113d
00000220: 40d0 b1bd 374d 7f3c aa26 00be 1dff 4f3e
00000230: 952e 4abe 3001 be3e e04f 42be 43ab 9fbd
00000240: 7fca f2bd 43b0 be3d 1b65 d2bd b96e c6bd
00000250: b247 48bd f648 f13c 6745 793c 5434 1cbe
00000260: 814b 89be d78b 443e 195a 5b3d b185 7c3d
00000270: e62b 9dbe 4ac5 97bd acf0 393d 51ac 843c
00000280: 470d aebd 4960 4cbd 411d 733e d33c 46be
00000290: b034 6abb b159 08be 8a70 e0bd 7794 883c
000002a0: 4b72 1b3e 39f0 713d 753c d53d 86d5 6b3d
000002b0: a010 653c d2af 003e 72f9 5abd 140c 963d
000002c0: a607 d43d df21 c93e 70f8 0abe 53d2 d4be
000002d0: ad60 c7bd e822 d23c a9e0 12be 9404 02be
000002e0: 1362 bebb 0def 63be d825 1fbe f08c e6bd
000002f0: 329a 453e 5e90 9d3d 5bcc abbd ee08 b0be
00000300: a6ac 15be 9147 4cbd c200 033e 6005 b93d
00000310: 39d2 aebb 2a41 07be ecdb 943d 90f2 00bd
00000320: 5aae e9bd 5125 c83d 2e57 213e 0b8c 2d3d
00000330: 10e0 42be 74f4 1f3d 4403 123e 25b6 01bc
00000340: a25f cc3c aed3 9bbd d106 95bd 607b 18be
00000350: b43a 063e 6adc 0cbc 35cd 60bd 2ae0 3b3c
00000360: 1041 5b3e df8e 6f3e c08f e63d 4827 bd3d
00000370: ff27 5bbd 0bb6 2e3e 588b 1dbd 2e6d bc3c
00000380: 8aca 4bbe 19e7 a73d 8ba8 48bd 301d 5fbe
00000390: dcfe 5abd 005f a03d 6f01 d43e aa5c dc3d
000003a0: 5867 e43d 74e7 04be e06a 143e c151 6d3e
000003b0: 73eb 613c 2379 ea3d 347c db3d 888e d73c
000003c0: 04b6 e3bd d803 523e 026d 8ebd 6d44 36be
000003d0: 6e4f eabc d22a 7d3d 42c8 4a3e aac6 e53c
000003e0: a752 583e 026a 653d c18f 3dbe 4a58 24bd
000003f0: 0274 e63d 25d3 3dbe e64e a93d 0504 8ebe
-0.11789574 -0.026684375 0.23528415 -0.11837762 0.19443643 -0.08560244 0.06679338 0.24896833
0.30627126 0.01946387 0.028712736 0.16615304 -0.08031108 -0.12370395 0.114959046 0.0019317395
-0.055924147 0.040509302 -0.07822387 0.1222462 0.022670686 -0.050828483 -0.04601337 0.00073853554
-0.0010956936 0.07037648 0.12746145 0.2618886 0.07821772 -0.1118355 -0.203556 -0.18697838
0.08938729 0.09410585 -0.22864196 0.4511871 0.18743512 0.07116222 -0.01709544 0.13002773
-0.057532493 0.015157818 0.07406519 0.029387271 0.16230598 0.1826549 0.08059647 -0.2538795
-0.18467565 0.2054217 0.07557043 0.15257248 -0.027178872 -0.1430551 -0.048085067 0.01377596
-0.14538178 -0.1410385 0.09706732 -0.030104792 0.30096176 -0.008924545 0.14698803 0.100305386
-0.07312873 0.05499239 0.32035476 -0.0080795195 0.019411441 0.007876793 -0.033217154 -0.12125066
-0.052992903 0.14491683 0.2909277 -0.048823122 -0.1750022 -0.024943558 -0.07566928 0.08145284
-0.04395895 -0.09414717 0.047103405 0.05625924 -0.08024477 -0.07417327 0.46434447 0.16316444
-0.09094349 -0.15974411 -0.18442033 -0.17179427 -0.012121382 -0.027828317 -0.122269 -0.049954634
0.18404594 0.021959582 -0.17952701 -0.08290396 -0.07373279 0.2559864 0.03198955 0.19997875
-0.060856994 0.0135652935 -0.012733689 -0.030278903 -0.024008041 0.20197476 0.119200185 -0.4351339
-0.24666056 -0.03252582 -0.2398143 -0.13791513 0.2297671 0.06394386 -0.053492315 -0.12533145
0.018042296 0.065472655 0.06637291 -0.05815812 -0.12785092 0.061032783 0.0038183786 0.33385286
0.009136783 -0.11787825 -0.037169646 0.27738416 0.034776468 0.07429842 0.13871014 0.03552373
-0.08682299 0.015582374 -0.12514749 0.20312162 -0.19744332 0.3711028 -0.18975782 -0.077963375
-0.11855029 0.09310963 -0.102731906 -0.096890874 -0.0488965 0.029453736 0.015214301 -0.15254337
-0.26815417 0.1919397 0.05355272 0.061650936 -0.30697554 -0.07410677 0.04539554 0.016195448
-0.08498626 -0.049896512 0.23741628 -0.1935914 -0.003573697 -0.13315465 -0.10958965 0.016672356
0.15180318 0.059066985 0.10411922 0.05757668 0.0139810145 0.1256707 -0.053460546 0.073265225
0.10353021 0.39283654 -0.13571334 -0.41566715 -0.09735236 0.02565141 -0.14343514 -0.12697059
-0.005810031 -0.2225916 -0.1554178 -0.112573504 0.19297102 0.076935515 -0.08388587 -0.34381813
-0.14616641 -0.04987294 0.12793258 0.09034228 -0.005335119 -0.13208452 0.07268509 -0.031481326
-0.11410208 0.097727425 0.15755913 0.042369884 -0.19030786 0.039051488 0.14259058 -0.007916962
0.024947945 -0.07608734 -0.07276691 -0.14890814 0.13108331 -0.008597473 -0.0548832 0.011467019
0.21411538 0.23394345 0.11257887 0.09236008 -0.05350494 0.17061631 -0.038462967 0.02300128
-0.19901481 0.08198375 -0.04898886 -0.21788478 -0.05346571 0.0783062 0.41407344 0.10759862
0.11152524 -0.12978917 0.14493895 0.23175718 0.013789046 0.11448886 0.10717049 0.026313081
-0.11118701 0.20509279 -0.06954385 -0.1779954 -0.028602328 0.061808415 0.19802955 0.028048832
0.2112528 0.0560093 -0.18511869 -0.04012326 0.112525955 -0.18537576 0.08267002 -0.27737442

network_body._body_endoder.seq_layers.0.bias f4 [128]
00000000: 3769 d43c a23b b93c b0e9 d93c eb73 72bc
00000010: 21af 11bc 82ac a13c 721b 35bb 67e8 63bc
00000020: b1ea ccbb b20f 033b 79f8 03bc 1f28 b3ba
00000030: a17d 96bb 76f0 f43a 5980 73bb 65d3 513c
00000040: 3c91 c2bc dd2b db3c 5f74 d0bb c494 603c
00000050: fbc4 183b 2906 843c 1a84 b1ba 6deb 7c3b
00000060: 3304 d4ba a5f0 4cbc f3c5 803c 4757 33bc
00000070: 31e6 edbb 26dc 273c d948 9fbc b455 00bc
00000080: 1ac2 38bb fd26 34bc 05af 883c bc2b adbb
00000090: 8d58 8dba 5291 e5bb 16d6 8b3c 6442 31bc
000000a0: 5291 1f3b f41b 38bb 0bd2 d1bc bbb6 8ebb
000000b0: 666e 823b 8817 c53c 5006 e1bb 75b7 30bc
000000c0: 9023 9d3c 76af 203c 48cb e33c d158 9c3c
000000d0: b0ba 9abc b874 c0bc cbe0 0ebc 1b8e 523c
000000e0: 8970 77bb 5e92 293c 81c6 233d 826a f03b
000000f0: 00f5 ad3a 1ca6 253c 8d8e 313c 88c7 a03c
00000100: 01ce 9c3c 7630 223b d025 9d3c b035 1f3c
00000110: 28a4 aa3b 1e38 863c 8fbe f43b f0ec b73b
00000120: 0fc3 af3a 3a0e 143c 7a10 e2b9 5d02 a8bb
00000130: 4593 423c 3704 55bb 58e7 1fbc 9026 c4bb
00000140: cd0e 69bc 2a82 9abb e15c 903b 7d9a cf3c
00000150: 0fbe f63b c363 be3a 7f43 6d3b 8231 6cbc
00000160: 7141 d73b 471b d53c 8bc8 973c a7c9 293c
00000170: a13a 043d 37b1 febb 4efe ab3b ca7d 823c
00000180: 7e44 c73c 66a0 c83b 3d1c 053d eddc 5b3c
00000190: bb2c df3c f3a6 f2bb d1b1 093d afc1 d23b
000001a0: 8ebd b33c 659f 58bc 0f80 27bc 413a d33b
000001b0: faa9 9dbb 12ff 043d 2820 a63b 663e e23c
000001c0: f18a 273d 4a53 9dbb 31b5 563c 45a7 8d3c
000001d0: 9dce fd3b 0d7b ee3c 3e95 a23c ecff a93b
000001e0: 7dbb fe3c 4dda 32bc 14fd 083c ecc5 5f3b
000001f0: ba4a ad3c e61b 25b9 88b9 31bc d85e d93c
0.025929077 0.022611443 0.026600689 -0.014798145 -0.008891852 0.019735578 -0.0027634767 -0.0139103895
-0.0062535633 0.0019998369 -0.008054846 -0.0013668573 -0.004592613 0.0018687386 -0.0037155359 0.012806748
-0.023750894 0.026754314 -0.0063615288 0.0137073435 0.002331077 0.016116219 -0.0013543398 0.0038592473
-0.0016175568 -0.012508546 0.01571939 -0.0109461015 -0.007260107 0.010245359 -0.019443916 -0.007832933
-0.0028191865 -0.010995624 0.016685018 -0.0052847546 -0.0010783836 -0.007005849 0.017069858 -0.010819051
0.0024348092 -0.0028092833 -0.025612852 -0.0043552793 0.0039804457 0.024059072 -0.0068672076 -0.010785927
0.019181997 0.009807458 0.027806893 0.01908532 -0.018887848 -0.023493156 -0.008720587 0.012851263
-0.0037756285 0.010349838 0.03998423 0.0073369155 0.0013271868 0.010110404 0.010837209 0.019626394
0.019141199 0.0024748123 0.01918307 0.00971739 0.005207557 0.01638418 0.0074690054 0.005612962
0.0013409572 0.009036595 -0.00043118355 -0.005127235 0.011875932 -0.0032503733 -0.0097597465 -0.0059860423
-0.01422472 -0.004715224 0.0044056033 0.02534222 0.007529981 0.0014525581 0.003620356 -0.0144161
0.0065690805 0.026013983 0.018528244 0.010363019 0.032282475 -0.0077725905 0.0052488213 0.015929122
0.024324652 0.0061226366 0.032497633 0.013419372 0.027243009 -0.007405156 0.033616845 0.0064317803
0.021940973 -0.013221596 -0.010223403 0.0064461534 -0.0048115226 0.032469817 0.0050697513 0.027617645
0.04090399 -0.0048011886 0.013104723 0.017291674 0.0077455775 0.02911141 0.019846555 0.005187979
0.03109526 -0.010916305 0.00836112 0.003414507 0.021153796 -0.00015746019 -0.010847457 0.026534483

network_body._body_endoder.seq_layers.2.weight f4 [128, 128]
00000000: a9ff 983d f604 1dbd 9442 debc e383 5cbd
00000010: 1a37 1b3d 132f 723c ec7e b13d f3ac 43bd
00000020: deb0 f6bc 220e a13d 66b4 fc3d c5bd e4bd
00000030: f3a4 a7bd 4d50 b63d 99d6 ee3d edeb 99bd
00000040: 5841 c0bd c11f 2a3e 549c afbc 2dee 81be
00000050: a0df b13d 1c11 8e3b c81f 58bc 8c7e febd
00000060: 81ca 9ebb e1ef a43d 52b0 883d d0c7 90bd
00000070: d56e 7abe 968d 55bd bd39 a0bd f674 46be
00000080: 2dc3 7f3d 2bf3 cc3a 35eb e2bc b828 953c
00000090: 1986 dabd 01fc 4fbd deeb ce3d 0e65 2a3d
000000a0: 2013 753d 269e fb3b ccae a1bd b3d5 8a3c
000000b0: 091a 133a 93da e73c eb9e 003d 4cab 63bd
000000c0: d790 cebc a5b1 283d bb4a cfbd d221 bb3d
000000d0: bb7c f6bd 71b3 02bd 9610 e9bc a6f9 913b
000000e0: 4adc 60bd aaf2 ab3c 096d 4cbb b160 823a
000000f0: daa8 1fbd ac31 e2bd 244d 4ebe 8efb cfbd
00000100: bbd3 d93d 10ee 26be fc2d 76bd 8d34 31be
00000110: 5d66 a13c e940 7ebd ec69 153e 169f b43d
00000120: f8cd e13c 07c1 6b3d a3f5 e3bd f595 0a3e
00000130: 695c 783d ea73 18bd fdb0 8abd bb1a 043e
00000140: 561f 153d 748b 72bd a574 943d 6bec 003c
00000150: 40c9 903d 239d bb3b 7955 6f3d 8cc2 cdbd
00000160: 77d6 f2bb 4541 fb3d 0331 c5bc 1cdc 01bc
00000170: e13c 1cbe 4c1e 45be 2dd0 303e 617a 953d
00000180: 1394 053d 688f 2f3c 011a bb3d 015f e2bd
00000190: c9e4 09bc 11cb 7f3d 7f8a 123d 901e babc
000001a0: f820 81bd 71da ef3c 218e 53bd d78f 6bbb
000001b0: a722 17be f7ed 9e3c ac92 d2bb 47d2 f93c
000001c0: 7d6b 35be f14c ecbc b7c4 303d 35ce c83d
000001d0: f08b 813d a277 c5bc 400c db3d e317 403e
000001e0: a9ad 07be 33dc a93d 3df3 fe3d e6c3 d03d
000001f0: 1041 3abd 5432 a9bd 9484 4ebd ccbc 05bd
00000200: 01ec 703b a45c da3c d222 99bd 78dd a53c
00000210: d4d2 f63d 17fd cb3c f8ee be3d af19 393e
00000220: bfc7 433d 35b4 24be bdcb a0bd f618 89be
00000230: 7c58 aa3a e89c 22bd 8a92 98bd e4b8 0c3e
00000240: 8dd0 69bd 37dc 143e be6d 53bd 955d e1bd
00000250: 38e4 4abd bead c13c 3c55 983b e456 123e
00000260: ea33 bc3d 4ee7 b93d 0f7d bd3d c03a 9f3d
00000270: ad09 24be 9ae3 9dbd 07ad b0bc 9770 bfbd
00000280: 8a15 1f3d 72d3 d7bd 2e11 ecbd 7a1b 763d
00000290: 6e6e 51bd fda7 f8bd df63 813b c25c edbd
000002a0: c477 bb3c e320 fc3d 7d98 d73d d3bf d9bd
000002b0: 1f80 483d ec25 343c 9009 b93d c138 e13c
000002c0: 7105 703b a7b3 7d3c 7576 04bc 574e 4bbd
000002d0: f8f8 a83c 8c87 15be 796d 8c3e dbd0 f73c
000002e0: b213 99bd 7736 5c3e e836 93bd a117 abbd
000002f0: 3c5a ec3d 3ca2 c23b 2ae2 91bd 6c26 4a3d
00000300: 4103 cf3b b4d6 793d 699d d2bb aae3 b73d
00000310: e7b7 9c3d bb45 8abd 00da d4bc 22e4 35bc
00000320: 6bb0 473d 2a27 203d dedb 9f3d 2cd4 9dbd
00000330: bdbe 9cbd 512b 48bd b99e 853d 1e05 853d
00000340: 078c 953b cfd8 ddbc f686 f0bd c41c 33bd
00000350: 1731 1e3d 154c b9bd 7cd2 61bd e253 77bd
00000360: 80be 59be 7db4 563d acf2 9fbd b169 8dbc
00000370: 9be5 203e ff2b e3bd 7fda 3fbc 443a e1bd
00000380: b7c2 46bd ad0a ad3d 4412 923c 1bc8 973d
00000390: 8c25 f83d 5478 f0bd 0d28 783e 9bb8 84bd
000003a0: 5b0f babd 2e39 bcbc 5800 6d3c f691 9bbd
000003b0: a91f 093e ffc2 7aba 54b3 603d 5971 803d
000003c0: e44d 143e 7ec4 15bb 3935 14be 67e0 39be
000003d0: cb18 eb3d f771 3c3e 08d7 c1bd 8dd4 243c
000003e0: 101c e83d 1d98 a23d 6245 023d b9c2 68bc
000003f0: 9b60 8f3d 3b9a 1fbe db17 01bd 1c7d 963c
0.07470638 -0.03833481 -0.027131356 -0.053836714 0.037894346 0.014781731 0.086667866 -0.04777236
-0.030113634 0.07864024 0.12339096 -0.11169008 -0.081857584 0.08902035 0.11662025 -0.075157024
-0.09387463 0.16613676 -0.021436848 -0.25377026 0.08685231 0.0043355357 -0.013191171 -0.12426481
-0.0048459177 0.08053566 0.066742554 -0.07069361 -0.24456342 -0.05213698 -0.07823513 -0.19380555
0.062441994 0.0015636435 -0.027700046 0.018207893 -0.10670108 -0.05077744 0.10103582 0.04160028
0.059832692 0.007678765 -0.07894668 0.016947603 0.00056114845 0.028302466 0.031401556 -0.055583283
-0.02521555 0.04118504 -0.101216756 0.0913731 -0.12035509 -0.03190941 -0.028450292 0.0044548092
-0.054897584 0.020989735 -0.003119292 0.0009947029 -0.03897939 -0.110446304 -0.20146614 -0.10155402
0.106360875 -0.16301751 -0.060102448 -0.17305203 0.01970213 -0.062073622 0.14591187 0.08819406
0.027564034 0.057557132 -0.11130836 0.13533767 0.060635004 -0.03721992 -0.06772039 0.12900822
0.036406837 -0.059215024 0.07248811 0.007868866 0.070696354 0.0057255193 0.058431122 -0.100468725
-0.00741082 0.122683086 -0.024071222 -0.007926013 -0.15257598 -0.19249839 0.17266913 0.072987325
0.032611918 0.010715343 0.09135819 -0.11053277 -0.008416363 0.06244952 0.03577661 -0.022719651
-0.063051164 0.029278966 -0.051649217 -0.003594389 -0.14759313 0.01940058 -0.006426176 0.030495776
-0.17716785 -0.028845282 0.043156352 0.09804956 0.06325519 -0.024104897 0.10695696 0.18759112
-0.1324984 0.08293953 0.12448738 0.10193615 -0.045472205 -0.082615525 -0.050419405 -0.032650754
0.0036761763 0.026655503 -0.074773446 0.020247206 0.12051931 0.024900956 0.093229234 0.18076204
0.047797915 -0.16084369 -0.0785136 -0.26776856 0.0012996341 -0.03970042 -0.07449825 0.13742405
-0.057083655 0.1453713 -0.05161833 -0.110041775 -0.049534053 0.023642417 0.0046488326 0.14290959
0.09189589 0.09077321 0.09252369 0.077748775 -0.16019316 -0.07709427 -0.02156688 -0.09347647
0.0388389 -0.10538377 -0.11526714 0.060084797 -0.051130705 -0.12141416 0.003948673 -0.11589958
0.022884257 0.1231096 0.10527132 -0.10632291 0.04895031 0.010995369 0.09035027 0.027492883
0.0036624337 0.015484727 -0.008084883 -0.049635258 0.02062653 -0.14602488 0.2742727 0.030250957
-0.0747446 0.21505152 -0.07188207 -0.08354116 0.11540648 0.00593975 -0.071232155 0.04935305
0.0063175266 0.060995772 -0.006427456 0.0897897 0.07652264 -0.06751581 -0.025982857 -0.011101754
0.04875223 0.03909985 0.07805608 -0.07706484 -0.07653568 -0.048869435 0.065244146 0.06495117
0.0045638117 -0.027080921 -0.11744492 -0.043728605 0.038621034 -0.090477146 -0.055132374 -0.06038273
-0.21264076 0.05241822 -0.07809958 -0.017262312 0.15712588 -0.11092376 -0.011709808 -0.109974414
-0.04852554 0.08449302 0.017830975 0.07411214 0.121165365 -0.11741701 0.24234028 -0.06480523
-0.0908496 -0.022976484 0.014465414 -0.07596199 0.13390984 -0.00095658 0.05485852 0.06271619
0.14482838 -0.0022852714 -0.14473428 -0.18152009 0.11479338 0.18402849 -0.09464842 0.010060442
0.113334775 0.079391696 0.03180445 -0.014206582 0.07000848 -0.15586178 -0.03151689 0.018370204

network_body._body_endoder.seq_layers.2.bias f4 [128]
00000000: 9869 a03c 6bcd 2bbc 3659 b0bb f924 f9ba
00000010: d930 c1bb 1087 fb3b fb76 cc3c c4ae 1a3c
00000020: 7f50 233c a216 0f3a 8a82 dfba d8ce 333c
00000030: ea2a e63b d37e 603b dac6 87bb f9c5 963b
00000040: 0cc3 a3bb b45b 61b9 d829 773c 6ceb 80bc
00000050: fdd4 ec3c bb09 2d3c 2c94 793c f392 863c
00000060: 311a c8bb 4a8c 6fbb 3832 8fbb 7046 b83c
00000070: 36a2 063b b50e 053d 4d61 93bb 1dfe 85bb
00000080: 329d 2e3b 18c0 f13b 5756 183c 9343 c03c
00000090: a58a c03c 630c abbb bb98 5a3c 8f80 263c
000000a0: fb1f 8abb 52fe 06bc 0b7a 2bbc 1d00 5fbc
000000b0: f09f 81ba 4c08 52bc 7466 efbb 499d 303c
000000c0: 0b4e 69bc b105 663c 0c5f f6bb f999 7b3c
000000d0: ba16 a6bb 0b36 943c 4de2 263d b56b cc3c
000000e0: 6767 02bc d629 2abc 3d6d ff39 f9bc 8e3c
000000f0: 218a 53ba b6f7 22bc 2679 803b 3697 53bc
00000100: 3e1b 48bb 3116 a43c c5e0 623b 0e02 ca3c
00000110: f788 f8bb ab9c 7abc 33f3 b7bc dd5e 033b
00000120: c582 413c 9fbb 353c 610d 023b 1fa8 e33c
00000130: 68bb 533c b7d0 ac3c e555 f33c 6138 cc3a
00000140: f778 243c 7213 b23c cdba b23c 0a37 cdbb
00000150: 27fd 48bc 946a 5d3c 1ae5 373c 6bff 203a
00000160: 4971 ab3a 64e9 aabb 374e 783c fd60 063d
00000170: 9536 39ba 4077 32bc e924 eaba 8d6a 043c
00000180: 8ba8 703c f64a cc3c 7d9b a9b9 ce28 5abb
00000190: c701 903b b6b7 423c 7aee a83c 19cc 29bc
000001a0: e4de e7bb 230b b93c 5323 013a 07e4 ad3c
000001b0: 7eda 88bc 9d60 1f3c d1a6 723b 7f3e 943b
000001c0: a40a 20bc 4f15 a9bc 158c eebb 23d8 a9bb
000001d0: 6481 3cbb f985 ec3b d57f 3e3c c791 1abb
000001e0: 736a dd3b 4db3 293c 827c 3b3c ec56 9f3c
000001f0: e467 c8bb 3898 433c 11ac a2bb a352 c43c
0.019581601 -0.010485987 -0.0053817285 -0.0019008211 -0.0058957157 0.007676013 0.024959078 0.009441081
0.009967922 0.00054583896 -0.0017052453 0.010974608 0.0070241587 0.003425528 -0.004143578 0.004601237
-0.0049976166 -0.00021491834 0.01508566 -0.015737258 0.028910154 0.010561402 0.015233081 0.016427493
-0.006106638 -0.0036552125 -0.00437 0.022494525 0.0020543463 0.03248473 -0.004497683 -0.0040891306
0.0026643989 0.0073776357 0.009297929 0.023469722 0.02350361 -0.0052199825 0.013342078 0.010162487
-0.004215238 -0.008239346 -0.010466109 -0.013610867 -0.0009889584 -0.012819361 -0.0073059145 0.010779687
-0.014239798 0.014039443 -0.0075186547 0.015356534 -0.005068627 0.018092176 0.04074316 0.024953702
-0.007959223 -0.010385951 0.0004871878 0.017424094 -0.0008069594 -0.009946754 0.003920692 -0.012914469
-0.0030533816 0.020030113 0.0034618836 0.024659183 -0.007584687 -0.015296142 -0.022454834 0.0020045557
0.011810963 0.011092096 0.00198444 0.027790127 0.012923099 0.021095617 0.029704044 0.0015580767
0.010038606 0.021737788 0.02181759 -0.0062626647 -0.0122673875 0.01351418 0.011224056 0.0006141576
0.0013080026 -0.0052158106 0.015155367 0.03280734 -0.00070653233 -0.010892689 -0.0017863783 0.008082044
0.014688621 0.024938088 -0.0003235004 -0.0033288482 0.004394743 0.01188462 0.020621527 -0.010363602
-0.007076131 0.022588318 0.0004926223 0.021226896 -0.016705748 0.009727624 0.00370257 0.0045240517
-0.009768162 -0.020640044 -0.0072798827 -0.005183236 -0.0028763646 0.007218119 0.011627157 -0.0023585425
0.0067570745 0.01035769 0.011443259 0.019450627 -0.0061159004 0.011938147 -0.0049643596 0.023965186

action_model._discrete_distribution.branches.0.weight f4 [3, 128]
00000000: 43a0 3cbd 2f37 243d 8956 25bc 0842 133c
00000010: 2900 08bd 2a19 d4bc c597 423d f29d 233d
00000020: d0b6 133d 8eeb 6ebd 21ca 6d3c 1f0f a6bc
00000030: 9ecd 10b8 21c2 10bb e996 7fbd aa18 5dbc
00000040: 46e7 513d 49cf 81bd ba1d dc3c 5044 1dbc
00000050: 3019 cb3c 428e 843a 9782 c03c dfed 1cba
00000060: f2e3 11bd a8b4 a3bd 3608 83bc 239d 273d
00000070: 8f2f ffba f0c6 0c3c ad80 243c 9081 92bc
00000080: 3713 353d 50b7 9fbd 37df df3b 05ab 473b
00000090: 319e 58bd 588c 06bc af12 afbc a09e 09bc
000000a0: 181d 0b3d f101 9abb 56b3 6e3c 8635 393b
000000b0: 3c97 04bd fd28 24bd 0aa6 543b 2e2d d8bd
000000c0: b4a0 9dbc 771e b4bc 2dc9 bbbc a58f 00bd
000000d0: abb3 4bbd 9d46 353d 6d97 81bd 14c1 01bd
000000e0: fa2f 6ebc c8ad deba fa83 71bd d9a2 19bc
000000f0: 58e6 823c b1f2 9b3c e76d e93c 0105 8a3b
00000100: 52c0 81bc d1d6 f8bc 8fef 163d e479 84bd
00000110: f729 7b3c e0ba 83bb 060d 8a3c 41e7 06bd
00000120: b71c 8cbc 73c0 4eba 4b18 e43b 5250 883d
00000130: c05a 7cbd 3988 ac3c f8d8 ffbc 8297 01bc
00000140: b840 32bc 886b 01bd 715d afbd 97a9 74bd
00000150: cb0c 9bbd 766f 853c dff0 6939 0490 43bd
00000160: af91 013c c40e 12bd 8b73 3f3c e5b1 ff3c
00000170: 348b c9bc 6c23 b43b f64c 61bc d84e 49bc
00000180: 7137 633d 8fd0 c0bd 1943 1b3d 3a35 0c3d
00000190: 363d 9fbd 68f4 433c e77f 6f3c 7d66 70bc
000001a0: ea15 6a3c 4da5 bbbd ae0c d33b 880a 1c3b
000001b0: bbba 663c 1ae6 76bb 2796 82bd c250 753c
000001c0: 6684 52bc 476d f5ba 3ef3 89bb c219 493c
000001d0: 60c0 50bb cf6e 31bd 4f66 61bd 50ec af3c
000001e0: e33d 1dbd c907 4c3d 1f1f 973d b79b 63bd
000001f0: d331 163d cd7a 5dbc cb65 993b 4cd0 da3c
00000200: 997d 95bb cfc7 b9bc 3a35 0b3c 3c36 993c
00000210: 8ddf 32bb 9843 68bb a1ff 2a3c 508e 013d
00000220: dc77 843b c23c 80bd b58c 483b 31df fcba
00000230: c538 0dbd a0b2 44ba 0d86 5cbc 4c07 7f3c
00000240: e2d0 17bd ea2b 87bb 12bd 303a 961f ca39
00000250: 9aa4 72bb 1030 993b 0992 893b 37ce a5bb
00000260: f9fa 613c edfe 92bc 6ac6 d3ba bdb8 50b8
00000270: 0d0f f5bb 5d60 ecbc 95bd 9bb9 f630 dd3c
00000280: 04a7 05bb 3802 5c3c 6d9c 683c 0fa2 853c
00000290: 4548 b13c 0e35 8e3c 91d0 bc3c 3c04 f23a
000002a0: 5d99 0fbd 8a0b a8bb cb08 873b e9f5 64bc
000002b0: 699d 443c 93fe ce3c 743e fe3b 7e1b 383c
000002c0: ca9d 6b3c 2fda 743b a447 3fbb 66c2 bdbc
000002d0: 0479 023d e146 233b fe0c 4d3c 3fed 623c
000002e0: 5ec9 96bc 6a3d 1bbd a287 223c 3388 48bd
000002f0: 0c7d ae3b 48a8 a33b c6a3 d8bc d664 21bc
00000300: 1661 723c 7d0c 953c 9eb0 4439 c09d 493c
00000310: 3700 16bc bf66 0cbc d772 05bd 0e5d c23b
00000320: 4a92 07bc 1a53 afbb 53e0 8fbc e590 ccbc
00000330: 300d 693c 8030 ebbb e42d ea3b ded4 4cbc
00000340: e8ce fbbb e049 bd3b 7999 dcba 8233 bfba
00000350: fb58 213d 1927 29bd d009 023d 6231 d53c
00000360: ea59 95bb d852 e9bc 2399 893b b59a f5bc
00000370: 750b 5a3c e4b6 47bc e0b7 983c b13e 32bc
00000380: d0ff 5dba 61c0 3c3d f02d 2abc 5387 44bc
00000390: 8792 3f3d a103 5c3b 8472 16bc efa6 c53b
000003a0: e882 9abb a2a1 613c 5dc5 0abc 9978 ce3b
000003b0: c4b5 083c 2d0f 92ba bf1e 3cbc d173 aebc
000003c0: f051 68bc c7cb d7bb 72ea 2ebc 5961 aeba
000003d0: fb5c 423c cdf2 d23b abc2 203b 7b42 273b
000003e0: 1f96 943b bde6 32bd 4d26 873b 8e09 693d
000003f0: 3cff 05bd 8e78 a03c 17c0 2f3b 81ab 29bb
-0.046051275 0.04009169 -0.010091432 0.008987911 -0.033203278 -0.025890905 0.04750802 0.03994555
0.036063015 -0.05833011 0.014513523 -0.020270882 -3.452377e-05 -0.0022088366 -0.06239978 -0.01349465
0.05124595 -0.06338365 0.026869643 -0.0095988065 0.024792284 0.0010113197 0.02349977 -0.0005986373
-0.035617776 -0.07993442 -0.015995126 0.04092134 -0.001946913 0.008592352 0.010040444 -0.017884046
0.044207778 -0.07798636 0.006832029 0.0030466926 -0.052885238 -0.0082121715 -0.021371214 -0.008399636
0.033963293 -0.0046999385 0.014569124 0.0028260662 -0.03237079 -0.040078152 0.00324476 -0.10555492
-0.019241668 -0.021987183 -0.022923077 -0.03138699 -0.04973189 0.044256795 -0.0632771 -0.031678274
-0.014537806 -0.0016989047 -0.058963753 -0.009377205 0.015978977 0.019036623 0.028494788 0.0042120223
-0.015838776 -0.03037587 0.036849555 -0.06468561 0.015329829 -0.00402008 0.016851913 -0.032935385
-0.017103536 -0.00078869535 0.0069609038 0.06655945 -0.061609983 0.02106105 -0.031231388 -0.007909657
-0.010879688 -0.03159669 -0.085627444 -0.059732046 -0.075707994 0.0162885 0.00022310343 -0.047744766
0.007908269 -0.035658613 0.011685262 0.031212756 -0.02460251 0.0054973867 -0.013751259 -0.012286864
0.055472795 -0.094147794 0.037905786 0.03423045 -0.07775347 0.011960126 0.014617897 -0.014672873
0.014287451 -0.09162388 0.0064407205 0.0023809988 0.014082606 -0.0037673772 -0.063762955 0.014972867
-0.012848949 -0.0018724584 -0.004209905 0.012274208 -0.0031852946 -0.043318566 -0.05502921 0.021474987
-0.038389098 0.049812112 0.07378983 -0.055568423 0.03666861 -0.0135180475 0.004681324 0.026710652
-0.0045620915 -0.022678284 0.008496577 0.018702619 -0.0027293891 -0.003544068 0.010436923 0.03162986
0.0040426087 -0.06261589 0.0030601446 -0.001929259 -0.034477968 -0.0007503424 -0.013459695 0.015565705
-0.03706444 -0.004125108 0.0006742041 0.00038551976 -0.003702438 0.004674919 0.004198317 -0.005059983
0.013792747 -0.017943824 -0.0016157154 -4.9763115e-05 -0.007478601 -0.028854543 -0.00029705153 0.027000885
-0.0020393739 0.013428263 0.014197451 0.016312627 0.021640906 0.017359283 0.023048671 0.0018464397
-0.035058368 -0.0051283287 0.0041209213 -0.013974645 0.01200042 0.025267875 0.00775891 0.011237023
0.014380882 0.0037361493 -0.0029186988 -0.023163985 0.03185369 0.0024914073 0.012515305 0.013850509
-0.018406566 -0.037900366 0.009920033 -0.048958015 0.0053249653 0.004994426 -0.02644528 -0.009850701
0.014793655 0.018194431 0.00018757812 0.012305677 -0.009155325 -0.008569418 -0.032580223 0.005931503
-0.008274624 -0.0053504827 -0.01756302 -0.024971435 0.014224336 -0.0071774125 0.007146584 -0.012501923
-0.0076845773 0.005776629 -0.0016830406 -0.0014587494 0.0393915 -0.041297052 0.03174764 0.026024524
-0.0045578377 -0.028481886 0.0041991635 -0.029980997 0.013308396 -0.012189601 0.018642366 -0.010879205
-0.00084686 0.046081904 -0.010386929 -0.011995154 0.0467706 0.00335715 -0.009182576 0.006031863
-0.0047153123 0.013771446 -0.008469907 0.0063009975 0.008344118 -0.0011143439 -0.01148194 -0.02129546
-0.014179692 -0.0065855714 -0.010676013 -0.0013304158 0.011862989 0.0064376355 0.0024530094 0.0025521803
0.0045344974 -0.04367708 0.004124439 0.056893878 -0.032714114 0.019588735 0.0026817375 -0.0025889578

action_model._discrete_distribution.branches.0.bias f4 [3]
00000000: 8857 f73b bd26 853b b321 37bc
0.0075482763 0.004063456 -0.011177468

action_model._discrete_distribution.branches.1.weight f4 [2, 128]
00000000: 750e 20bd c659 d53c a4d5 45ba b89f cfbb
00000010: 1bdc a9bb 1b2f 423d 572f d2bc 073b 4bba
00000020: 405b 713c ae65 6e3d 9afa ed3c d2b0 eabb
00000030: af2c 783d b117 80bc 3594 253c 2169 89bc
00000040: de0c 5f3d 163d 323d 0dcd b7bb 6996 be3c
00000050: 5596 eabb ded7 803d 2732 cfbb 8879 a4bc
00000060: 4420 2fbc b6aa 933b fc0f 66bb a797 35bc
00000070: 1ca8 493d 323a 12bd 26c8 8dbc 9a78 e53c
00000080: d26e 2d3d da00 a9bc 9d8e 88bc e39a d0bc
00000090: 2cea 2e3d 5143 bfbc 7733 a5bc 1ecc 02bd
000000a0: 193a 003d 5951 ecba e30d 8e3c 9b7c 003c
000000b0: de78 c33c 6f71 ad3c adc1 1f3c 6a66 cf3c
000000c0: 1562 22bc 9f6f d1bb 5314 bc3c f860 893d
000000d0: e452 bbbc da47 a4ba c147 debc 1926 973c
000000e0: 8ba1 f03c 9f11 f73b 7abe c2bb ec56 1f3d
000000f0: 764e 49bc e8ef 373c 0ae1 023d 4ad4 6b3c
00000100: 0373 a83a 08ef c4bc 995a 243d 1685 df3c
00000110: b623 08bc c73d af3c af19 3e3d a950 1f3c
00000120: f007 603c e43c 2abc e050 66bc 70cc 703c
00000130: 4b64 913c 2e51 5ebc 5647 52bd 2272 4c3d
00000140: ffb1 4b3d 3429 03bd 08d7 1abc ea37 613c
00000150: 267d d9bc 30f3 90bb 0fa0 943c b747 07bd
00000160: b494 36bc a87b d13c 0d70 bcbc 820a 9f3c
00000170: dda7 0dbc 4ad2 0c3d b364 1539 71f6 38bc
00000180: f622 b83a 1523 31bd 139a 0f3c 530b b03b
00000190: 0db7 f5bc a188 37bc 5f88 81bb 61fc 76bb
000001a0: 9112 963c 0ae2 78bc 39b4 823d 0d0a c0bc
000001b0: 2860 9a3c 4b8d 7cbc 27c0 aa3b de28 b03d
000001c0: 887d e33b 7356 7b3c 1f2b 40bc 726b 833c
000001d0: f0d3 18bc 0c43 6abc 33c2 0c3c 71c3 383d
000001e0: e0ac c3ba cfc1 113d cba3 6e3c f994 44bb
000001f0: abc3 e43c 18d9 69bc d1b9 0bbb 4a48 3cbc
00000200: 8350 ac3c 44c0 d1bc 3581 1d3c 2b79 9e3c
00000210: 0fef 1f3c a761 17bd d3e3 d7ba 6c76 9fba
00000220: 5c47 a2bc 1670 4fbd 7f71 94bc 351f be3c
00000230: 8dee aebd a67f 8a3c 57b4 aebc 7769 643b
00000240: 5b43 32bd 9ca1 46bd c57a f23b c391 78bc
00000250: b35d 9c3b 8332 57bd 8d03 583b cd91 b23c
00000260: 00f5 c63a c406 ebbc 70c8 c6bc aa7d ef3c
00000270: 32fc 41bd f035 963c d0b2 c83c d10f 6cbd
00000280: 8193 ecbc 32f4 8c3c ce6a 3d3c 57c3 0b3d
00000290: aab6 dbbc edf0 813c 0ae1 a23c 90d3 963c
000002a0: 987a 31bd 6579 7c3b 48a5 26bc 6c37 4fbc
000002b0: 00e1 f9bc b746 f8bc 8170 ce3b c9cc f9bb
000002c0: 2268 ec3b ac6c d13c a5d7 65bd 4ba2 72bd
000002d0: fd43 403c d8d7 d83b aa42 223d e452 ffbc
000002e0: 07d3 04bd 8b20 68bc b1d3 d23b c0b7 afbc
000002f0: 56ec 0dbc 65fa 1fbd 37bc 5cbc 0a1b ccbc
00000300: b738 e1ba 030d 553c 4236 85bd 2018 e4bc
00000310: ac6c 4ebc f021 55bc 50e1 6cbd a804 98bc
00000320: 69b5 e7bb f58e bc3c 41e1 b93a 1eec 7cbb
00000330: d56e 6e3b bd11 56bb 400d 963c 37e7 9ebd
00000340: c3a0 1bbd 2b01 903c 7f41 2e3c 6544 88b9
00000350: f291 493c 4d74 6d3c 0c30 0dbc dcdb 063d
00000360: c156 f1bb 6cc4 89bc 60f7 d639 473d e5bc
00000370: 6c41 24bc f31c 27bd c51e 143b 9dac 7d3c
00000380: 35e0 6f3c 312b 9d3c 6285 93bc f844 d0bc
00000390: 401e a03c 1cc2 643a fd52 383c f9ee a53b
000003a0: 26b9 fcbc 3ae1 823b ef16 69bd 6111 de3c
000003b0: c867 31bc e40c 433c bdb3 98bb 1666 88bd
000003c0: 408e 00bc 68f0 39bc 6889 30bc f73b b3bc
000003d0: f575 b2ba 22b0 ea3b b576 03bc 151c 66bd
000003e0: eae2 f03c d855 3fbd ef85 b1bc f708 8abc
000003f0: e1f7 e5bc e411 023d f831 2abc 64b3 b23c
-0.039076287 0.026043784 -0.00075467885 -0.0063361786 -0.0051837093 0.047408205 -0.025657339 -0.0007752631
0.014731228 0.058202438 0.02905016 -0.007162192 0.06058949 -0.015636297 0.010106136 -0.016773762
0.05445563 0.043515287 -0.0056091608 0.02326508 -0.0071590343 0.062911734 -0.0063231173 -0.020077482
-0.010688845 0.0045064343 -0.0035104742 -0.01108352 0.049232587 -0.03570003 -0.017307352 0.028011609
0.042342015 -0.020630289 -0.016669566 -0.02546448 0.042703792 -0.023347529 -0.020166142 -0.031932943
0.031305406 -0.0018029615 0.017340606 0.007842208 0.023861345 0.021172253 0.009750766 0.02531739
-0.00991108 -0.00639148 0.02295891 0.067079484 -0.022866674 -0.001253362 -0.027133824 0.018450784
0.029373905 0.0075399424 -0.0059431167 0.038901255 -0.012286773 0.011226632 0.031952895 0.014393875
0.0012851659 -0.02403976 0.040125463 0.02728514 -0.008309295 0.021391762 0.046411213 0.009723821
0.013673767 -0.010390494 -0.014057368 0.014697179 0.017748019 -0.013569159 -0.051337563 0.049913533
0.049730297 -0.032021716 -0.0094506815 0.013746241 -0.026548933 -0.0044235215 0.018142728 -0.033027377
-0.011143852 0.02557166 -0.023002649 0.01941419 -0.008645979 0.034380235 0.0001424726 -0.011289225
0.0014048505 -0.043246347 0.0087647615 0.0053724437 -0.029994512 -0.011202008 -0.0039530243 -0.003768705
0.0183194 -0.015190611 0.06382031 -0.023442293 0.018844679 -0.015414546 0.0052108946 0.08601545
0.0069424547 0.015340435 -0.011729031 0.016042445 -0.009327874 -0.014298212 0.008591223 0.045108262
-0.001492884 0.03558522 0.0145654185 -0.0029996021 0.027925333 -0.014272951 -0.0021320472 -0.011491844
0.021034485 -0.025604375 0.009613325 0.019344887 0.009761586 -0.036958363 -0.0016471095 -0.001216603
-0.019809417 -0.050644003 -0.018120525 0.02320824 -0.08541594 0.01690657 -0.021326227 0.00348529
-0.043521266 -0.048493966 0.007399889 -0.015171471 0.004771912 -0.052538406 0.00329611 0.021798039
0.0015179217 -0.02868975 -0.024265498 0.029234726 -0.047359653 0.018336266 0.024499327 -0.05763227
-0.02887893 0.017206285 0.011561109 0.034121837 -0.0268205 0.015861953 0.019882698 0.018411428
-0.043329805 0.0038524505 -0.010171242 -0.012647491 -0.030502796 -0.030307157 0.0063000326 -0.0076232892
0.007214562 0.025564514 -0.056113858 -0.059236806 0.01173496 0.0066175275 0.039614357 -0.031167455
-0.032427814 -0.014167915 0.006433927 -0.021449924 -0.008662304 -0.039057154 -0.013472608 -0.024915237
-0.001718304 0.0130035905 -0.065044895 -0.027843535 -0.012599152 -0.01300858 -0.057832062 -0.018556908
-0.0070711863 0.023017386 0.0014181511 -0.0038592885 0.003638198 -0.0032664381 0.018316865 -0.077589445
-0.03799511 0.017578682 0.010635733 -0.000259909 0.0123028625 0.01449306 -0.008617412 0.032924518
-0.007365078 -0.016817294 0.0004100157 -0.02798332 -0.010025363 -0.040799093 0.0022601348 0.015483049
0.014640857 0.019185634 -0.018007938 -0.025423512 0.019545674 0.00087264343 0.011250255 0.005063888
-0.030850004 0.0039941343 -0.056906637 0.027107896 -0.010827966 0.011904929 -0.0046600983 -0.06660096
-0.007846415 -0.011348821 -0.010774948 -0.02187918 -0.0013615476 0.00716211 -0.008023907 -0.056179125
0.029405076 -0.046712726 -0.02167031 -0.016849978 -0.0280723 0.031755343 -0.01038789 0.021814056

action_model._discrete_distribution.branches.1.bias f4 [2]
00000000: 996b 71bc 9d6b 713c
-0.014735126 0.01473513

exp_avg f4 [128, 52]
00000000: e78f ac37 a862 b836 15f5 b939 a8a0 0939
00000010: 09f4 2939 9457 5539 545d c638 e0fd 53b8
00000020: 2094 6cb8 48d0 9937 6969 8639 a01e feb7
00000030: e0f1 dcb6 b905 cd37 2841 b836 39f9 8739
00000040: e475 2fb9 aeb2 8e39 ea7c 8039 9cf7 e738
00000050: ac28 d0b8 e8d5 91b8 4800 b037 724a aa39
00000060: 78ae 4ab8 6ce0 3938 bba7 d937 00fd 9a36
00000070: 36ce a239 b88d 1d39 1b69 ad39 94c8 ab39
00000080: 1595 1739 586c 5ab9 e4b9 0038 7cef 0738
00000090: a277 e339 904f fab7 ca04 fb37 1d7c ee37
000000a0: e0e9 b535 a924 9739 6ce2 6eb9 bd8e ce39
000000b0: ceb3 a339 cffc 0839 22e5 94b9 7454 0eb8
000000c0: 002d 2537 410d c239 46fe 2bb9 2456 1a38
000000d0: 2339 04b9 7ed5 c7b8 0674 04bb e00e 3dba
000000e0: fa91 54ba 1d92 13ba ff0c 04ba b2e6 4fba
000000f0: 14fe 7bba ed8e 36ba ce8c 38ba 7619 76ba
00000100: 9eae 1eb9 dfd0 f0b8 c6dd cbb8 e5e9 0abb
00000110: 6f22 32ba 80f2 5aba e2a2 16ba 3831 f6b9
00000120: e486 4bba 14d4 81ba 9775 34ba 7cac 34ba
00000130: 682b 87ba 1c84 acb8 6c21 edb8 e868 dab8
00000140: e9c3 e2ba 295f 1eba 9d0b 65ba 2561 18ba
00000150: 64fa f8b9 7583 62ba d5f6 74ba d0bd 2fba
00000160: 11eb 46ba 8458 8bba 9073 04b9 b0c1 deb8
00000170: 592c f4b8 d28e f1ba 1cd6 a4ba 388d 64ba
00000180: 7094 38ba 11e8 00ba 1f02 75ba 8910 65ba
00000190: eaa0 22ba ac95 56ba 4280 85ba 08a4 cbb8
000001a0: 5725 2238 1428 1138 f8ef f739 eb94 ca39
000001b0: c109 f839 bcf4 d739 ccc4 7a39 3d2b 7039
000001c0: 7536 4539 924c 5239 b664 043a 1b4a 4c39
000001d0: 165d 5938 2ecb 2038 6e23 fd37 48ef d938
000001e0: a0bf 4938 55bf 8439 5b4a b039 c815 2a39
000001f0: 914b 8338 a8f4 6137 d2eb cd38 8e8a b439
00000200: 7e54 5f38 e3a8 4438 c0e5 1438 58f5 0438
00000210: 367e 213a 70ab 2c38 bbb6 ee39 b56a c539
00000220: 075d 3c39 9a6e 2f39 c618 1938 a108 c138
00000230: dd39 033a c3d4 eb38 2887 e837 9d67 1938
00000240: dfd3 2738 4f0b 0d3a a414 4c38 9b51 0b3a
00000250: c329 d839 f82c 4039 b2f5 e738 9716 9d38
00000260: f8f6 a438 4ee8 0c3a 7278 2339 3f9d 3f38
00000270: d7bc 3db6 206b 25b6 3a52 a1b8 0fec 34b8
00000280: 635d 32b7 7900 06b7 5204 39b7 604c 28b8
00000290: d4e7 42b8 140e d2b7 beb7 f9b6 5c4b 76b8
000002a0: 22e6 0ab6 36de 1db6 ecbe 6ab6 51a2 8bb8
000002b0: 038a 19b8 9842 9ab6 d275 adb6 70c1 f9b6
000002c0: 1afc 77b8 40a0 76b8 f65f cfb7 ece6 acb6
000002d0: 1124 95b8 09ee 07b6 17e1 02b6 b7a3 8eb6
000002e0: a226 4bb8 d1e0 34b7 e8a5 ceb5 ccec 33b6
000002f0: 6a20 a8b6 1d31 a4b8 34c0 7cb8 aad0 d3b7
00000300: 00ac 00b6 ee77 96b8 ff53 14b6 ce29 29b6
00000310: 34b9 a9b6 2ae6 8935 604e 9337 fed9 df37
00000320: e9cb 9437 fe14 e136 ec37 5ab8 a407 27b8
00000330: 64d5 85b7 d467 a837 a56d 64b8 f151 e4b6
00000340: 355f 19b9 0d5d 14b9 18ed 3cbb 5220 83ba
00000350: 411b b0ba b3cb 0cba 7c20 0eba 6af2 b8ba
00000360: 928c 96ba 87cb 57ba 6ee7 8eba 5aa7 8eba
00000370: b78c 29b9 57d8 09b9 b116 19b9 547d 4abb
00000380: 067e 1bbb d675 c5ba 9529 3eba f1ab 1cba
00000390: 8407 c3ba fe7c 9cba 10a3 61ba 5d84 92ba
000003a0: e202 a1ba f612 d1b8 64ab 0fb9 e467 f8b8
000003b0: cc6a 07bb fb29 09bb 5d72 a0ba 0ec2 39ba
000003c0: 8787 2eba 1988 c7ba db73 71ba a2a0 58ba
000003d0: 9878 5bba 7223 9bba f60e 2eb9 8084 0bb9
000003e0: 6af4 17b9 3133 1abb 7427 28bb 86ba aeba
000003f0: 8c30 76ba 5c70 44ba 2e28 caba 3edd 3fba
2.0571008e-05 5.4951124e-06 0.0003546855 0.00013125187 0.00016208006 0.00020345888 9.4587595e-05 -5.054276e-05
-5.6404737e-05 1.833601e-05 0.00025637008 -3.029342e-05 -6.584669e-06 2.444057e-05 5.4912125e-06 0.00025934892
-0.00016733218 0.00027217477 0.0002450713 0.00011061059 -9.9257886e-05 -6.953982e-05 2.0980966e-05 0.00032480393
-4.832304e-05 4.4316446e-05 2.5946521e-05 4.6190107e-06 0.00031052687 0.00015025481 0.0003307544 0.00032765104
0.0001445602 -0.00020830461 3.0690702e-05 3.2409545e-05 0.00043385947 -2.9839372e-05 2.9923762e-05 2.8429606e-05
1.3553617e-06 0.00028828278 -0.00022781797 0.0003939773 0.00031223748 0.00013064149 -0.00028399477 -3.393409e-05
9.845244e-06 0.00037012438 -0.00016402555 3.6796686e-05 -0.00012609786 -9.5288255e-05 -0.0020210757 -0.00072119944
-0.00081089104 -0.00056293776 -0.0005037337 -0.00079307996 -0.0009612751 -0.00069640466 -0.00070400245 -0.0009387949
-0.00015133104 -0.00011482997 -9.721103e-05 -0.002119654 -0.0006795292 -0.00083521754 -0.00057463173 -0.00046957447
-0.0007763936 -0.0009905123 -0.00068839773 -0.0006892157 -0.0010312619 -8.2262064e-05 -0.00011307266 -0.0001041459
-0.0017300817 -0.00060414016 -0.0008737387 -0.00058128155 -0.00047488802 -0.00086408044 -0.0009344642 -0.00067040045
-0.0007588128 -0.0010631238 -0.00012631551 -0.00010621862 -0.00011643087 -0.0018429405 -0.0012576017 -0.0008718553
-0.0007041162 -0.0004917393 -0.00093463244 -0.00087381207 -0.00062037876 -0.0008185755 -0.0010185319 -9.7103475e-05
3.8658585e-05 3.460802e-05 0.00047290302 0.00038639395 0.00047309513 0.00041190337 0.0002391517 0.00022904291
0.00018807671 0.00020055685 0.00050504075 0.00019482562 5.1823525e-05 3.83362e-05 3.0176448e-05 0.00010391936
4.81006e-05 0.00025319555 0.00033624735 0.00016220578 6.260642e-05 1.3468009e-05 9.819087e-05 0.00034435507
5.3246033e-05 4.688733e-05 3.549992e-05 3.1699747e-05 0.00061604695 4.116766e-05 0.00045531042 0.0003765427
0.00017963733 0.00016730503 3.6501115e-05 9.2045644e-05 0.0005005876 0.00011245303 2.7719492e-05 3.657454e-05
4.0013223e-05 0.0005380408 4.8656613e-05 0.00053145894 0.00041229845 0.00018327299 0.00011060703 7.490551e-05
7.866131e-05 0.0005375192 0.00015589761 4.5684395e-05 -2.8273114e-06 -2.464927e-06 -7.692394e-05 -4.313519e-05
-1.063137e-05 -7.987132e-06 -1.1027865e-05 -4.012545e-05 -4.646911e-05 -2.5040506e-05 -7.4421687e-06 -5.8721154e-05
-2.0697557e-06 -2.3524167e-06 -3.4979848e-06 -6.65827e-05 -3.6606576e-05 -4.59731e-06 -5.169518e-06 -7.4432974e-06
-5.9124177e-05 -5.8800215e-05 -2.4721008e-05 -5.1528823e-06 -7.1115915e-05 -2.0255122e-06 -1.950253e-06 -4.2509887e-06
-4.843495e-05 -1.078118e-05 -1.5396481e-06 -2.6810912e-06 -5.0105637e-06 -7.8292775e-05 -6.0260485e-05 -2.5250327e-05
-1.9173604e-06 -7.174896e-05 -2.210261e-06 -2.5207296e-06 -5.058153e-06 1.0274282e-06 1.7560262e-05 2.6685182e-05
1.7737928e-05 6.7079663e-06 -5.202733e-05 -3.982302e-05 -1.5954203e-05 2.007551e-05 -5.446155e-05 -6.8044687e-06
-0.00014626684 -0.00014149044 -0.0028827842 -0.0010004139 -0.0013435857 -0.000537093 -0.00054217107 -0.0014110331
-0.0011485985 -0.0008231927 -0.0010902712 -0.0010883615 -0.00016169516 -0.00013145931 -0.0001459967 -0.0030897455
-0.002372624 -0.0015065025 -0.0007254121 -0.0005976549 -0.0014879559 -0.0011939106 -0.0008607367 -0.0011178363
-0.0012284184 -9.969428e-05 -0.0001370139 -0.00011844913 -0.002066302 -0.0020929563 -0.0012241114 -0.00070861063
-0.00066577684 -0.0015223055 -0.0009210684 -0.0008263682 -0.0008372157 -0.0011836125 -0.00016599506 -0.00013305433
-0.00014491534 -0.0023529048 -0.0025658282 -0.0013330735 -0.00093913893 -0.00074935495 -0.0015423351 -0.00073190394

exp_avg_sq f4 [128, 52]
00000000: ff96 be33 0ca0 f833 db25 dc37 7190 cd37
00000010: 371e 1f37 9364 ab36 b5fe 5836 6f01 6e37
00000020: 4c09 dc36 536a 5736 8d9c eb36 1dbb 2337
00000030: a4e8 1034 6e47 be33 9df7 f633 bb55 cf37
00000040: 5811 c637 1024 1337 ebc3 a136 81f5 5a36
00000050: 0a9b 6f37 cc32 dc36 aa87 5936 1259 da36
00000060: 541e 2437 a690 1234 a357 bd33 cec6 ee33
00000070: f689 de37 202c d237 51ff 1037 2855 9c36
00000080: c471 5c36 c887 7c37 a2b5 e036 b8b6 6036
00000090: db3c cd36 cbdc 2737 b293 1234 27fc bd33
000000a0: c04e ed33 6481 ec37 efaa d137 76b2 1037
000000b0: a532 9636 9ca3 5b36 0837 7537 258a e236
000000c0: e85e 6736 1911 c136 dc27 2937 2897 1534
000000d0: efdd fc33 f84e 0334 adb8 be37 7e85 5c37
000000e0: 7ebd da36 3d47 9f36 950b 6136 975d 5237
000000f0: b5bf 2b37 5aa2 9336 cde1 cb36 cbfc 4737
00000100: cbab 2e34 43c8 f533 fd8d 0434 a474 b337
00000110: 2427 1c37 a36d c836 38e5 9736 20ab 5a36
00000120: 48e8 4637 8a30 2637 c79a 9436 78ae bc36
00000130: e34b 3f37 f6a8 2a34 090f ee33 610c 0034
00000140: f327 ba37 bf65 d736 0e6e bf36 17ff 9536
00000150: 81b2 5736 165f 3937 4d54 1e37 d25a 9436
00000160: 05c4 b136 ff74 3a37 6549 2e34 aeee e533
00000170: c10f f933 a1f4 eb37 1fa6 d236 685a ba36
00000180: bfb6 9136 4e3b 5736 bab9 3837 12ce 1537
00000190: 4420 9236 b041 b236 4326 3537 5f19 2734
000001a0: 6ab0 7732 4e9e 8c32 d41f 2a36 8ca3 ba36
000001b0: 0cc9 2d36 f1a5 a835 4df4 0835 0544 3735
000001c0: 0094 f234 a032 c734 436f 0636 2200 2e35
000001d0: 31fe b332 65ec 7332 52a2 8832 570c 4c36
000001e0: 3c5b ff36 786d 5036 f9c7 aa35 b9e4 1535
000001f0: 4df6 c135 f3be 2435 c8db d134 a145 1136
00000200: ca32 6935 46dc ab32 47ec 7232 5cf0 8b32
00000210: c478 c336 b87e 1537 f966 4b36 0f52 a535
00000220: 0076 2035 2231 2e36 55af 6135 5c7d e134
00000230: f428 0236 cf7f d135 ec94 b932 9be1 7132
00000240: 3ae1 8a32 a1b9 ea36 5004 0437 fbc8 2836
00000250: 6ff5 9235 cc86 1f35 c545 5436 7bac 6d35
00000260: 237e e934 c24c e135 8adb f435 3e72 bd32
00000270: 1408 eb31 ae24 a831 0e6a 9135 5c3c 5a36
00000280: 27c2 8c34 3d83 4234 ebf5 4734 323e 0536
00000290: 25fc 6e35 b6d6 8c34 dfe0 5b34 37e6 ca35
000002a0: 9ed9 2032 611a e331 392c 9731 e9f5 7e35
000002b0: 6e5d e035 c383 4934 a180 1234 a198 1e34
000002c0: 3a4a 1236 e0c5 8935 cb6d 9034 7ed9 2134
000002d0: 2913 d535 bc4f 2432 f3ef d531 2371 8731
000002e0: 9b22 5e35 b4d6 ae34 cbb5 1434 6b1c da33
000002f0: 8920 f033 7d82 1436 367a 8f35 6eb2 9134
00000300: d536 f033 236e e235 c3a6 1632 699b ac31
00000310: 3cf4 7831 e0d4 7c35 5595 3535 c893 5a34
00000320: a8e2 0034 6c84 d133 0690 2036 d424 9935
00000330: 3526 9a34 3620 2234 a8f5 f035 ce17 a331
00000340: c4b3 2535 6ced 5e35 e087 4939 b95e e038
00000350: ccb6 9438 24f4 1a38 62cb b737 745c 9b38
00000360: 23b6 2e38 2dba c737 9efc 6238 cf8d 6a38
00000370: 72ff 7935 bf32 2535 318f 5f35 84df 3f39
00000380: 0318 d138 9cbb 8e38 d1e3 1638 3a10 bd37
00000390: a2e1 8f38 f1f5 2538 7155 c637 8934 5a38
000003a0: a614 5e38 afa2 7d35 9f13 2535 ec65 5735
000003b0: fd67 3f39 f393 ef38 f04b 8838 2b9b 1238
000003c0: 49f2 c037 354b 8a38 fd71 1c38 e505 c537
000003d0: a0b9 4d38 e26c 5038 713a 8135 086b 2535
000003e0: eef9 4b35 0e22 4d39 3995 eb38 aee0 7e38
000003f0: ed9e 0c38 4504 c337 9936 8538 9982 1338
8.8750305e-08 1.1577512e-07 2.6243672e-05 2.4505165e-05 9.4841735e-06 5.1079055e-06 3.2334767e-06 1.4186239e-05
6.557593e-06 3.2099385e-06 7.0217707e-06 9.759123e-06 1.3495679e-07 8.8605574e-08 1.1500308e-07 2.4716244e-05
2.3611516e-05 8.770279e-06 4.8209818e-06 3.2627433e-06 1.4281608e-05 6.5624245e-06 3.2414487e-06 6.5072754e-06
9.782223e-06 1.3649932e-07 8.8169394e-08 1.1118901e-07 2.6528705e-05 2.5054498e-05 8.642514e-06 4.659076e-06
3.2848775e-06 1.50519845e-05 6.696865e-06 3.3484957e-06 6.1165606e-06 1.0005383e-05 1.3651041e-07 8.8468646e-08
1.1050497e-07 2.8193645e-05 2.4994339e-05 8.62462e-06 4.476244e-06 3.2728776e-06 1.4615951e-05 6.751407e-06
3.4476925e-06 5.7538386e-06 1.0082465e-05 1.3931697e-07 1.1775034e-07 1.2229054e-07 2.2735761e-05 1.3144103e-05
6.518966e-06 4.7468625e-06 3.3534354e-06 1.2538766e-05 1.02370295e-05 4.3998416e-06 6.076158e-06 1.1920182e-05
1.6267511e-07 1.1445129e-07 1.2345113e-07 2.1392778e-05 9.307438e-06 5.973228e-06 4.5268353e-06 3.258414e-06
1.1855802e-05 9.905672e-06 4.428762e-06 5.6231474e-06 1.1402156e-05 1.5893951e-07 1.10854735e-07 1.1925432e-07
2.219153e-05 6.419344e-06 5.7050556e-06 4.4702424e-06 3.21414e-06 1.1048998e-05 9.437162e-06 4.4213166e-06
5.2978307e-06 1.1113704e-05 1.6231714e-07 1.0707059e-07 1.1597832e-07 2.8128097e-05 6.2778267e-06 5.5537566e-06
4.342611e-06 3.2072016e-06 1.10104975e-05 8.929072e-06 4.3548953e-06 5.3124604e-06 1.0797349e-05 1.5562317e-07
1.4417404e-08 1.6370134e-08 2.53505e-06 5.5622713e-06 2.5896034e-06 1.2565271e-06 5.101945e-07 6.8271794e-07
4.5183697e-07 3.7103473e-07 2.0032319e-06 6.4820244e-07 2.0953935e-08 1.41982115e-08 1.5906299e-08 3.0405552e-06
7.6102133e-06 3.1058134e-06 1.2724187e-06 5.583966e-07 1.4451304e-06 6.137263e-07 3.9089196e-07 2.1647213e-06
8.687317e-07 2.0007189e-08 1.4139977e-08 1.6291033e-08 5.825512e-06 8.910596e-06 3.0309295e-06 1.231734e-06
5.977636e-07 2.595662e-06 8.4074173e-07 4.2000727e-07 1.9395347e-06 1.5608911e-06 2.1604556e-08 1.4079343e-08
1.6167736e-08 6.9953535e-06 7.868817e-06 2.5150937e-06 1.0949278e-06 5.942827e-07 3.1631073e-06 8.854037e-07
4.3491409e-07 1.6786146e-06 1.8243311e-06 2.2054447e-08 6.8403185e-09 4.8936135e-09 1.0834208e-06 3.2519665e-06
2.6218297e-07 1.8115402e-07 1.8622784e-07 1.9854747e-06 8.902883e-07 2.6233255e-07 2.0477772e-07 1.5117174e-06
9.362706e-09 6.6095684e-09 4.399706e-09 9.498022e-07 1.6716492e-06 1.8767518e-07 1.3644105e-07 1.4770423e-07
2.17989e-06 1.0264885e-06 2.6901975e-07 1.5073417e-07 1.5875313e-06 9.564186e-09 6.226395e-09 3.9418793e-09
8.27518e-07 3.2566243e-07 1.384971e-07 1.0156585e-07 1.1181789e-07 2.2129673e-06 1.0689898e-06 2.713818e-07
1.1185845e-07 1.6870366e-06 8.769066e-09 5.023527e-09 3.622758e-09 9.418709e-07 6.764506e-07 2.0356595e-07
1.2003386e-07 9.756408e-08 2.392569e-06 1.1410107e-06 2.8712535e-07 1.5099144e-07 1.7952889e-06 4.7466306e-09
6.1728883e-07 8.304694e-07 0.00019219471 0.00010698796 7.0912385e-05 3.6943835e-05 2.1910007e-05 7.408197e-05
4.165446e-05 2.3809343e-05 5.4117867e-05 5.5922017e-05 9.313145e-07 6.1541135e-07 8.3282345e-07 0.00018298446
9.970369e-05 6.8060326e-05 3.5974957e-05 2.2538112e-05 6.860799e-05 3.9568116e-05 2.3643226e-05 5.2024177e-05
5.2948155e-05 9.448658e-07 6.149584e-07 8.024206e-07 0.00018253918 0.00011423966 6.49913e-05 3.4953624e-05
2.3001006e-05 6.594361e-05 3.729946e-05 2.3486975e-05 4.9048685e-05 4.969247e-05 9.628258e-07 6.162304e-07
7.598709e-07 0.0001956301 0.00011233468 6.076757e-05 3.3526612e-05 2.32478e-05 6.352104e-05 3.516916e-05

exp_avg f4 [128]
00000000: 4ae4 8037 3a33 0eb9 9718 1938 0aeb 4cb6
00000010: 6875 20b9 a8cd 72b8 d7a9 bb35 4612 3db8
00000020: f75d 8d38 1906 5537 2c12 3bb9 6c33 85b5
00000030: 76e0 1939 92a6 4338 0513 0838 4554 e333
00000040: da57 3db8 d046 8e38 f820 3437 5582 1739
00000050: a492 d0b7 177b 7437 3534 90b8 e3f3 a6b7
00000060: 6f66 9638 403d 7db8 206e a3b5 a15d 78b5
00000070: 8d8c 9536 4e70 9e36 ed5d ab35 569b ff36
00000080: e055 7ab7 16d9 e836 cad1 c4b7 509e f438
00000090: 0ae0 70b7 472b 3d38 16d8 1ab8 f794 8f36
000000a0: a1b0 9237 0e95 bcb8 554b 5eb7 6abc f1b7
000000b0: e747 9eb7 40dd 5c37 ca73 d338 20b1 3cb8
000000c0: e850 2438 f1be 42b8 1d03 d4b8 e0ad c035
000000d0: 1862 7238 bef3 45b8 0c29 6e34 63cd 8db8
000000e0: 8655 9638 a0ac 21b6 10a8 75b7 45c6 5d36
000000f0: fecd cab5 ed12 1a39 ba62 0fb8 b657 9d36
00000100: 110b 88b8 4699 2636 cb9d b9b8 69f0 1937
00000110: bc76 5ab5 eac6 ccb6 e358 a6b8 24e8 f8b5
00000120: e030 c935 3edc 3fb7 4a27 dc37 5576 4f38
00000130: da83 8338 709a d137 144a a836 238d 8b35
00000140: f682 7936 7a3c a6b7 9d0b b6b7 2826 d338
00000150: ce2c 37b8 32d7 5037 b44d bb38 00fb b8b7
00000160: 1391 84b8 764d 35b8 5179 9f36 8362 b738
00000170: c5a1 b4b8 be90 8d37 53ad 0eb8 0bf0 09b8
00000180: 00a8 c6b3 1e47 fdb7 a3a8 99b8 40ab c1b7
00000190: 50e8 c436 a7d1 9d37 5cbf 05b9 766b ad37
000001a0: d857 b0b6 0dc0 22b8 9c74 1d37 68d8 0237
000001b0: 8de3 d1b6 3c8f aeb7 3410 5537 441f c0b7
000001c0: c0e9 9d38 1edb 0337 1a67 f038 ad46 68b6
000001d0: ad35 35b8 fe00 59b5 032d 1eb8 1382 2e38
000001e0: 18b6 d938 78cf 1537 bc6c 0537 c05b c1b3
000001f0: f465 6eb8 7e63 d7b6 174e 4137 0822 8a36
1.5365094e-05 -0.00013561259 3.6500944e-05 -3.053518e-06 -0.00015302526 -5.788883e-05 1.3982016e-06 -4.507813e-05
6.740906e-05 1.2697209e-05 -0.00017840479 -9.924238e-07 0.00014674835 4.6646754e-05 3.244264e-05 1.058584e-07
-4.514293e-05 6.7842775e-05 1.0736512e-05 0.00014449035 -2.4863817e-05 1.4572192e-05 -6.8761794e-05 -1.990231e-05
7.171637e-05 -6.0376944e-05 -1.2176497e-06 -9.252345e-07 4.4569083e-06 4.721841e-06 1.2767829e-06 7.6176757e-06
-1.49211555e-05 6.939411e-06 -2.3462711e-05 0.00011664315 -1.4357278e-05 4.5101417e-05 -3.6917707e-05 4.279074e-06
1.7486806e-05 -8.992302e-05 -1.3249771e-05 -2.8817176e-05 -1.886855e-05 1.3164536e-05 0.000100828314 -4.4987653e-05
3.9175997e-05 -4.6431032e-05 -0.00010109528 1.4355719e-06 5.7788653e-05 -4.7195463e-05 2.218041e-07 -6.76166e-05
7.168487e-05 -2.409135e-06 -1.4642268e-05 3.3046974e-06 -1.5110124e-06 0.00014693635 -3.4185803e-05 4.6891755e-06
-6.4870466e-05 2.4825144e-06 -8.850879e-05 9.1754855e-06 -8.138411e-07 -6.1028304e-06 -7.932053e-05 -1.8545002e-06
1.4989891e-06 -1.1435766e-05 2.624434e-05 4.946285e-05 6.271126e-05 2.4986657e-05 5.015414e-06 1.0397383e-06
3.718012e-06 -1.9816904e-05 -2.1701499e-05 0.00010068371 -4.3672328e-05 1.244787e-05 8.931328e-05 -2.205139e-05
-6.321273e-05 -4.3225904e-05 4.7526923e-06 8.744469e-05 -8.613201e-05 1.687591e-05 -3.401686e-05 -3.2886903e-05
-9.2506525e-08 -3.0193067e-05 -7.3270196e-05 -2.3087137e-05 5.8683e-06 1.8813485e-05 -0.00012755155 2.0673247e-05
-5.255435e-06 -3.880267e-05 9.3850795e-06 7.79899e-06 -6.255176e-06 -2.0809115e-05 1.2699562e-05 -2.2902743e-05
7.529883e-05 7.859226e-06 0.00011463296 -3.4611833e-06 -4.3203752e-05 -8.0840243e-07 -3.7712056e-05 4.1605974e-05
0.00010381284 8.929397e-06 7.952734e-06 -9.003952e-08 -5.6838573e-05 -6.4190817e-06 1.1521878e-05 4.1166822e-06
