KartSCBIO/results/circuitoA-7/ArcadeDriver/checkpoint.pt (torch, 585591 bytes, 40 tensors)

discrete_act_size_vector f4 [1, 2]
3.0 2.0
00000000: 0000 4040 0000 0040

network_body._body_endoder.seq_layers.0.weight f4 [128, 52]
-0.12027571 -0.02244098 0.23090918 -0.11815283 0.1932765 -0.088066384 0.06484856 0.24689414
0.30713636 0.022228735 0.028231421 0.16351005 -0.08041438 -0.12586755 0.11961233 -0.0014710765
-0.054262992 0.041722123 -0.08114628 0.12037036 0.025082126 -0.05003848 -0.04251228 -0.00011896623
6.8060166e-05 0.073378354 0.124835216 0.26905686 0.07751217 -0.11219291 -0.2042452 -0.18945543
0.08781003 0.0963164 -0.22878325 0.4534473 0.18544197 0.07320545 -0.018410914 0.1276417
-0.046488866 0.015565408 0.07163988 0.03718593 0.1620131 0.18251075 0.081269614 -0.25984582
-0.18538062 0.20559639 0.07536049 0.15439636 -0.02174027 -0.13518077 -0.034679297 0.0268055
-0.13048537 -0.14147548 0.093400136 -0.027642386 0.30342668 0.0023023293 0.15321396 0.10039228
-0.072301805 0.061331052 0.32930464 0.0044413256 0.029909432 0.018922891 -0.03274192 -0.12529074
-0.046154402 0.14838785 0.30270186 -0.04469435 -0.17291899 -0.013516305 -0.06922283 0.095121734
-0.0331887 -0.08789073 0.053084042 0.058587715 -0.08314777 -0.06608076 0.4662174 0.17369655
-0.08504258 -0.15863623 -0.17774567 -0.16516404 0.0067860004 -0.01879964 -0.12341732 -0.042202532
0.19901694 0.023256034 -0.16900608 -0.08394823 -0.06650526 0.2747925 0.035480905 0.20942149
-0.06034698 0.011518783 -0.010203927 -0.04197011 -0.03244791 0.20545791 0.12214723 -0.44043761
-0.2489474 -0.034751147 -0.24369214 -0.14006715 0.23012924 0.06479268 -0.05613544 -0.11540271
0.01511051 0.0651812 0.073757894 -0.05209004 -0.12487834 0.06480937 0.0064586666 0.33628002
0.01246696 -0.11280312 -0.035597336 0.2797633 0.03458298 0.06991573 0.13255301 0.037303474
-0.086428225 0.007127868 -0.13167188 0.19866326 -0.19900127 0.3667463 -0.18522607 -0.07558422
-0.111997336 0.08920477 -0.10847691 -0.10109317 -0.048061136 0.029624103 0.007639229 -0.15893175
-0.2727388 0.18891881 0.044693638 0.06694678 -0.29799533 -0.061659012 0.056129064 0.023879087
-0.08029126 -0.043579806 0.24500614 -0.17919001 0.013988908 -0.118922085 -0.10401141 0.03279986
0.1579144 0.06856111 0.118430994 0.06937238 0.02464714 0.1325176 -0.0465271 0.08119565
0.11777381 0.40958896 -0.1215517 -0.409259 -0.081702694 0.040118773 -0.13465519 -0.11190287
0.008182205 -0.2130207 -0.14740327 -0.10527379 0.20057403 0.0926023 -0.06936139 -0.3299479
-0.13874424 -0.03639895 0.13411838 0.09947774 0.011716827 -0.11953703 0.08203983 -0.029666862
-0.11208453 0.10255641 0.17152524 0.05408789 -0.17806113 0.040053766 0.15501495 0.0033413323
0.025829721 -0.07574033 -0.069921724 -0.14476797 0.13251461 -0.013836001 -0.060634237 0.013329706
0.2134392 0.23620565 0.11078793 0.091932446 -0.056843553 0.17142133 -0.038765825 0.024647018
-0.19218193 0.08350392 -0.05323549 -0.22357681 -0.047885623 0.07968644 0.41727644 0.10502679
0.11494181 -0.128106 0.14578667 0.23446526 0.015317636 0.117964126 0.1052822 0.024881031
-0.11638605 0.208983 -0.069574244 -0.17637676 -0.028188838 0.06410007 0.19942142 0.029610844
0.21782464 0.057305887 -0.18566838 -0.035736065 0.1200809 -0.18742885 0.08415659 -0.28537318
00000000: 1d53 f6bd 25d6 b7bc 7573 6c3e 1cfa f1bd
00000010: 46ea 453e 265c b4bd 52cf 843d d1d1 7c3e
00000020: fa40 9d3e 0919 b63c 9545 e73c 2e6f 273e
00000030: 4bb0 a4bd 6ce3 00be 4ff7 f43d 23d1 c0ba
00000040: df42 5ebd d1e4 2a3d 0530 a6bd bc84 f63d
00000050: 0879 cd3c 26f5 4cbd 5b21 2ebd 827d f9b8
00000060: 86bb 8e38 6447 963d 9ba9 ff3d d2c1 893e
00000070: b3be 9e3d 65c5 e5bd a725 51be 9b00 42be
00000080: bfd5 b33d 8841 c53d 2846 6abe 3f2a e83e
00000090: 80e4 3d3e bdec 953d 7cd2 96bc 81b4 023e
000000a0: 1c6b 3ebd 0e06 7f3c eeb7 923d 4650 183d
000000b0: c3e6 253e 19e4 3a3e af70 a63d 830a 85be
000000c0: 6bd4 3dbe dc87 523e 9a56 9a3d 141a 1e3e
000000d0: a718 b2bc d46c 0abe e10b 0ebd 3597 db3c
000000e0: f59d 05be f3de 10be 9248 bf3d 4972 e2bc
000000f0: be5a 9b3e ade2 163b 1fe4 1c3e 789a cd3d
00000100: f812 94bd 4536 7b3d 9e9a a83e 8a88 913b
00000110: a004 f53c 2e04 9b3c 641c 06bd 374c 00be
00000120: 660c 3dbd fcf2 173e bdfb 9a3e 6c11 37bd
00000130: ad11 31be 7e73 5dbc b3c4 8dbd 2fcf c23d
00000140: e0f0 07bd 0e00 b4bd a76e 593d acf9 6f3d
00000150: 6149 aabd 5955 87bd 0cb4 ee3e 82dd 313e
00000160: ce2a aebd 8971 22be f602 36be c320 29be
00000170: 195d de3b b401 9abc 38c2 fcbd 90dc 2cbd
00000180: 19cb 4b3e 7083 be3c ee0f 2dbe 0ded abbd
00000190: e933 88bd 9ab1 8c3e 6d54 113d 9672 563e
000001a0: 652e 77bd 47b9 3c3c 5f2e 27bc dae8 2bbd
000001b0: 1ae8 04bd 8f63 523e 5428 fa3d 0a81 e1be
000001c0: 11ec 7ebe 3857 0ebd 6f8a 79be c36d 0fbe
000001d0: 00a7 6b3e 06b2 843d 46ee 65bd 4258 ecbd
000001e0: 1392 773c b97d 853d 610e 973d 5e5c 55bd
000001f0: 37c0 ffbd c6ba 843d 39a3 d33b e52c ac3e
00000200: 3842 4c3c 5205 e7bd 83ce 11bd 233d 8f3e
00000210: e2a6 0d3d fa2f 8f3d fabb 073e 87cb 183d
00000220: 4801 b1bd e490 e93b fed4 06be 626e 4b3e
00000230: fdc6 4bbe 2cc6 bb3e e7ab 3dbe e6cb 9abd
00000240: dc5e e5bd feb0 b63d 2429 debd f009 cfbd
00000250: c1db 44bd 3fae f23c 7f52 fa3b 01bf 22be
00000260: 6ca4 8bbe ef73 413e ad10 373d 651b 893d
00000270: d892 98be 298e 7cbd 97e7 653d 139e c33c
00000280: be6f a4bd bd80 32bd e4e2 7a3e 967d 37be
00000290: bc31 653c 6c8d f3bd ef03 d5bd 2559 063d
000002a0: 50b4 213e c469 8c3d f38b f23d 1b13 8e3d
000002b0: cde8 c93c b2b2 073e 3393 3ebd e849 a63d
000002c0: 6533 f13d a5b5 d13e 19f0 f8bd 658a d1be
000002d0: be53 a7bd 9553 243d 0de3 09be 552d e5bd
000002e0: a80e 063c 1922 5abe e2f0 16be c999 d7bd
000002f0: 4763 4d3e 46a6 bd3d 580d 8ebd eeee a8be
00000300: f812 0ebe 1117 15bd 5456 093e fcba cb3d
00000310: eff7 3f3c d5cf f4bd 8004 a83d eb07 f3bc
00000320: 938c e5bd 1809 d23d 50a4 2f3e 438b 5d3d
00000330: a855 36be 6b0f 243d 3dbc 1e3e 41fa 5a3b
00000340: da98 d33c bf1d 9bbd 1f33 8fbd 0e3e 14be
00000350: e9b1 073e 65b0 62bc 9b5b 78bd d764 5a3c
00000360: ce8f 5a3e e5df 713e c8e4 e23d 1447 bc3d
00000370: c9d4 68bd 1389 2f3e eac8 1ebd 8be8 c93c
00000380: 57cb 44be 1a04 ab3d 750d 5abd 52f1 64be
00000390: b723 44bd a532 a33d 42a5 d53e 4918 d73d
000003a0: 9d66 eb3d 382e 03be 1a49 153e a917 703e
000003b0: d2f6 7a3c 2d97 f13d 329e d73d 4ed3 cb3c
000003c0: cf5b eebd a4ff 553e f17c 8ebd 1c9c 34be
000003d0: 47ec e6bc e646 833d 2135 4c3e 7192 f23c
000003e0: 6c0d 5f3e 94b9 6a3d da1f 3ebe fb5f 12bd
000003f0: faec f53d 59ed 3fbe 4a5a ac3d 6f1c 92be

network_body._body_endoder.seq_layers.0.bias f4 [128]
0.027167415 0.028225867 0.0253569 -0.0028780124 -0.01001687 0.020439692 0.0134819215 -0.010479429
-0.009883705 0.0019995375 -0.013014324 -0.0016147364 -0.002982907 0.0021690514 9.702236e-05 0.009520192
-0.026832879 0.029008873 -0.014629645 0.016983833 0.0047248304 0.014161302 -0.004315334 0.0043413597
0.0015912908 -0.013947603 0.014573841 -0.007331677 0.005725577 0.012217526 -0.024228944 -0.0049308445
-0.0046007545 -0.012835213 0.018947512 -0.006951173 -0.0039017505 -0.00800005 0.013416949 -0.0030498717
0.002378697 -0.0056882864 -0.030806944 -0.0076339967 0.0046644295 0.020322448 -0.013331202 -0.007059972
0.021569159 0.012647836 0.01922781 0.021919306 -0.017145336 -0.02073907 -0.0058933375 0.017782448
-0.0042371843 0.010548656 0.043888103 0.0011085649 0.00616418 0.01283013 0.0161118 0.014005013
0.020114271 8.963887e-05 0.021749893 0.0072194654 0.010044782 0.024978155 0.015743773 0.0063003083
-0.002882191 0.008904634 -0.0034222535 -0.006153799 0.010223826 -0.0044673695 -0.008785263 -0.0026849727
-0.013848611 -0.008798877 0.0057822284 0.026789503 0.0076519535 0.0047472254 -0.0007975404 -0.016980164
0.003473217 0.020892672 0.012792393 0.00973688 0.03629778 -0.011666544 0.008550727 0.01489087
0.024685115 0.0037645325 0.032279804 0.017999139 0.028499063 -0.007643132 0.03226774 0.004637286
0.022044023 -0.015238137 -0.013758936 0.0058955527 -0.0010562121 0.03307951 0.007945848 0.031462785
0.042690396 -0.0042709573 0.014471522 0.025115369 0.006924332 0.042663574 0.019850133 0.0040104333
0.03275553 -0.014897337 0.011051902 0.002218675 0.024556756 -0.009540835 -0.013777567 0.031304598
00000000: 338e de3c ef39 e73c 46b9 cf3c 099d 3cbb
00000010: cc1d 24bc 2471 a73c 47e3 5c3c e9b1 2bbc
00000020: 43ef 21bc ac0a 033b 083a 55bc 90a5 d3ba
00000030: e07c 43bb a526 0e3b 7c78 cb38 94fa 1b3c
00000040: a0d0 dbbc 04a4 ed3c 2eb1 6fbc ae21 8b3c
00000050: c0d2 9a3b ce04 683c a567 8dbb f741 8e3b
00000060: dc92 d03a 7d84 64bc 1fc7 6e3c 903e f0bb
00000070: 9f9d bb3b 052c 483c c77b c6bc ec92 a1bb
00000080: edc1 96bb c94a 52bc d037 9b3c aac6 e3bb
00000090: 83b4 7fbb a412 03bc c3d2 5b3c 5be0 47bb
000000a0: eae3 1b3b ce64 babb d85e fcbc 9b26 fabb
000000b0: 12d8 983b 437b a63c 1d6b 5abc 5657 e7bb
000000c0: ceb1 b03c de38 4f3c a483 9d3c 1e90 b33c
000000d0: 6074 8cbc fbe4 a9bc e61c c1bb 7fac 913c
000000e0: 14d8 8abb 45d4 2c3c 03c4 333d 444d 913a
000000f0: e4fc c93b 7735 523c e5fc 833c 4875 653c
00000100: afc6 a43c 80fc bb38 d52c b23c 4491 ec3b
00000110: df92 243c fd9e cc3c 16f9 803c d172 ce3b
00000120: 24e3 3cbb bee4 113c e347 60bb cfa5 c9bb
00000130: d681 273c 0363 92bb 10f0 0fbc 5ef6 2fbb
00000140: 49e5 62bc 2a29 10bc d978 bd3b a975 db3c
00000150: 3dbd fa3b 9d8e 9b3b 0812 51ba fc19 8bbc
00000160: e99e 633b 1c27 ab3c 2f97 513c 6f87 1f3c
00000170: fbac 143d 0825 3fbc 5918 0c3c d6f8 733c
00000180: 7038 ca3c 60b6 763b d437 043d ee72 933c
00000190: de76 e93c 3d73 fabb 2e2b 043d 60f4 973b
000001a0: ab95 b43c 61a9 79bc 296d 61bc 7b2f c13b
000001b0: 9970 8aba 617e 073d 4d2f 023c 1fdf 003d
000001c0: 20dc 2e3d 63f3 8bbb f619 6d3c bfbe cd3c
000001d0: 82e5 e23b 00c0 2e3d bf9c a23c f469 833b
000001e0: aa2a 063d f613 74bc 0913 353c 3167 113b
000001f0: 402b c93c 2a51 1cbc 4ebb 61bc 4039 003d

network_body._body_endoder.seq_layers.2.weight f4 [128, 128]
0.0776392 -0.029092737 -0.016915428 -0.037092045 0.043433595 0.021643143 0.0774546 -0.054485414
-0.03144938 0.08230776 0.12259106 -0.11620314 -0.08366475 0.09005714 0.12712812 -0.07843206
-0.09136743 0.16387402 -0.015831634 -0.25192463 0.08989709 -0.00052049133 -0.014043806 -0.117721416
-0.018361088 0.081682354 0.06851009 -0.060450613 -0.25397867 -0.04953271 -0.07534907 -0.19635127
0.07074371 0.0063237958 -0.02608421 0.021305734 -0.10629357 -0.0576753 0.10288287 0.042452347
0.06257796 0.0077999677 -0.0793741 0.019816596 0.0033160357 0.024266148 0.02716277 -0.05567051
-0.024239942 0.04484808 -0.10437118 0.09365399 -0.117777884 -0.027475562 -0.03240258 0.020046001
-0.052709926 0.024828829 -0.0054655857 -0.0053902315 -0.03540457 -0.10840652 -0.16989148 -0.09795043
0.111262225 -0.16752954 -0.06092984 -0.16437209 0.025048362 -0.0760987 0.16083887 0.090768375
0.031140892 0.059072558 -0.114045486 0.13677104 0.05700694 -0.03189738 -0.06781846 0.12983006
0.03510117 -0.06063057 0.07409408 0.014038104 0.07449629 0.0057098377 0.06186725 -0.0982142
-4.6930305e-05 0.12675446 -0.030002529 -0.00742526 -0.16011767 -0.19069824 0.17829694 0.07566396
0.034778584 0.012989084 0.09483957 -0.10794638 -0.004489207 0.06719291 0.041151997 -0.0262974
-0.07646857 0.026625296 -0.048050124 -0.0045628217 -0.16147177 0.018592443 -0.005666112 0.051630642
-0.17582145 -0.030298904 0.044471774 0.10102457 0.06850717 -0.051928513 0.12174962 0.19091845
-0.13146895 0.08019384 0.12919973 0.107817814 -0.04297647 -0.086124174 -0.04875718 -0.028753195
-0.0034989135 0.018804247 -0.0640354 0.025161538 0.11210877 0.017450325 0.089943744 0.18017857
0.040610403 -0.16698208 -0.07548544 -0.26371926 -0.006130822 -0.04710359 -0.0790716 0.13858978
-0.055398908 0.13690993 -0.05815072 -0.11454563 -0.046960913 0.016811335 -0.005168994 0.13590108
0.0814493 0.088062614 0.09439941 0.07342358 -0.16538791 -0.08433179 -0.02596516 -0.09326743
0.044141956 -0.10595513 -0.12076113 0.052922744 -0.057700746 -0.1309179 0.0022139242 -0.11394971
0.017362924 0.12296775 0.09991642 -0.11100378 0.049233362 0.0025762343 0.08655015 0.025778877
-0.005895463 0.014355893 -0.013859812 -0.05599482 0.013463079 -0.14928214 0.26991004 0.032677554
-0.08064915 0.20963845 -0.07553666 -0.07976322 0.12056377 2.074238e-05 -0.069156006 0.04879339
0.009143843 0.06438815 -0.0147573305 0.08400752 0.078554355 -0.08508265 -0.032542046 -0.015459118
0.050016146 0.032558 0.08040542 -0.08036226 -0.08474762 -0.05327877 0.06069829 0.06613544
0.004168109 -0.031896584 -0.12264162 -0.049473554 0.03764863 -0.09690144 -0.059774995 -0.06460197
-0.2168279 0.05260326 -0.076969154 -0.024592228 0.16015527 -0.113295995 -0.007284659 -0.110439
-0.053586494 0.07847829 0.009515924 0.06658156 0.11657703 -0.118323885 0.24167942 -0.07424412
-0.09356282 -0.022499874 0.018706521 -0.07839843 0.12924428 -0.0038044418 0.048761077 0.0708951
0.13650618 -0.010227136 -0.14638767 -0.18076661 0.108074315 0.16995119 -0.104798526 0.011234914
0.1050846 0.06727488 0.03212813 -0.005375227 0.066038534 -0.16223666 -0.03147618 0.012374643
00000000: 4d01 9f3d e453 eebc 3992 8abc d4ed 17bd
00000010: 6de7 313d f64c b13c 84a0 9e3d 192c 5fbd
00000020: 11d1 00bd f990 a83d 0611 fb3d e9fb edbd
00000030: 6d58 abbd e16f b83d e02d 023e fda0 a0bd
00000040: d91e bbbd 97ce 273e 58b1 81bc 44fc 80be
00000050: f71b b83d 9571 08ba fe17 66bc ed17 f1bd
00000060: fe69 96bc 1449 a73d 054f 8c3d 109b 77bd
00000070: 7e09 82be d0e2 4abd 9d50 9abd 4f10 49be
00000080: 14e2 903d d837 cf3b 8eae d5bc 5d89 ae3c
00000090: 71b0 d9bd ef3c 6cbd 41b4 d23d 83e2 2d3d
000000a0: e028 803d df96 ff3b e38e a2bd 6a56 a23c
000000b0: d951 593b cdc9 c63c 7584 de3c c306 64bd
000000c0: d892 c6bc 9fb2 373d 8fc0 d5bd aacd bf3d
000000d0: 8835 f1bd 6e14 e1bc 91b8 04bd 8337 a43c
000000e0: 5de6 57bd d465 cb3c a818 b3bb 8aa0 b0bb
000000f0: 6204 11bd 3d04 debd 08f8 2dbe 3c9a c8bd
00000100: 73dd e33d dd8c 2bbe 9191 79bd 2851 28be
00000110: 3932 cd3c a3d9 9bbd f2b2 243e c5e4 b93d
00000120: 2f1b ff3c 11f6 713d ae90 e9bd b50d 0c3e
00000130: 1c80 693d d4a6 02bd 68e4 8abd 2cf2 043e
00000140: 3fc6 0f3d c357 78bd a3be 973d 1300 663c
00000150: 8391 983d 9719 bb3b 8368 7d3d 8724 c9bd
00000160: 08d7 44b8 eccb 013e ddc7 f5bc 984f f3bb
00000170: e3f5 23be 6646 43be 7993 363e b5f5 9a3d
00000180: fd73 0e3d 2bd0 543c 403b c23d fe12 ddbd
00000190: 331a 93bb 709c 893d ff8e 283d a56d d7bc
000001a0: 8e9b 9cbd 4b1d da3c 35d0 44bd b983 95bb
000001b0: db58 25be 2e4f 983c cbaa b9bb a77a 533d
000001c0: 8a0a 34be 6835 f8bc 0928 363d f8e5 ce3d
000001d0: 7d4d 8c3d feb2 54bd dd57 f93d 2080 433e
000001e0: cc9f 06be ab3c a43d ef4c 043e 96cf dc3d
000001f0: 1808 30bd df61 b0bd 9cb5 47bd d28b ebbc
00000200: 074e 65bb 5d0b 9a3c fe24 83bd 921f ce3c
00000210: 4899 e53d fcf3 8e3c 6d34 b83d bb80 383e
00000220: 1857 263d 5afd 2abe 1c98 9abd 3606 87be
00000230: 10e5 c8bb b2ef 40bd 4bf0 a1bd 7bea 0d3e
00000240: f7e9 62bd 1e32 0c3e 732f 6ebd e696 eabd
00000250: 165a 40bd edb7 893c aa60 a9bb a729 0b3e
00000260: e4ce a63d 2c5a b43d 7a54 c13d 1a5f 963d
00000270: 735b 29be 25b6 acbd e3b4 d4bc ff02 bfbd
00000280: 32ce 343d 01ff d8bd 9c51 f7bd 85c5 583d
00000290: 9e57 6cbd 580f 06be 7c17 113b 775e e9bd
000002a0: b13c 8e3c 84d6 fb3d fba0 cc3d f355 e3bd
000002b0: eca8 493d 0ad6 283b 3441 b13d 392e d33c
000002c0: ba2e c1bb fb34 6b3c 4414 63bc d35a 65bd
000002d0: 3f94 5c3c 6bdd 18be a631 8a3e e6d8 053d
000002e0: 622b a5bd 76ab 563e f7b2 9abd e65a a3bd
000002f0: 23ea f63d ecff ad37 aaa1 8dbd 94db 473d
00000300: 0fd0 153c efdd 833d bbc8 71bc 220c ac3d
00000310: 1be1 a03d d03f aebd cf4a 05bd 3e48 7dbc
00000320: bbdd 4c3d 8a5b 053d 99ab a43d f894 a4bd
00000330: 2990 adbd d73a 5abd c59e 783d 0472 873d
00000340: a294 883b fea5 02bd 882b fbbd c8a4 4abd
00000350: 7335 1a3d 4374 c6bd a0d6 74bd 0a4e 84bd
00000360: 2208 5ebe 8476 573d 01a2 9dbd a475 c9bc
00000370: beff 233e bb07 e8bd 26b4 eebb d82d e2bd
00000380: 837d 5bbd 3ab9 a03d aee8 1b3c ea5b 883d
00000390: f0bf ee3d cb53 f2bd cf7a 773e 4d0d 98bd
000003a0: dd9d bfbd a851 b8bc 6b3e 993c 5b8f a0bd
000003b0: 9d58 043e f153 79bb b2b9 473d 7331 913d
000003c0: 47c8 0b3e b88f 27bc a6e6 15be e21a 39be
000003d0: 1156 dd3d af07 2e3e 9ca0 d6bd a512 383c
000003e0: 9836 d73d 6ac7 893d c998 033d ac22 b0bb
000003f0: 363f 873d 5e21 26be 2bed 00bd 04bf 4a3c

network_body._body_endoder.seq_layers.2.bias f4 [128]
0.023834117 -0.015519416 -0.002997275 -0.0044533163 -0.0050970376 0.0066025387 0.027486136 0.0069682025
0.012045827 -0.0034331374 -0.005510675 0.014670061 0.004812784 0.0056543127 -0.0056973104 0.0041813287
-0.008921531 -0.0068565817 0.016731225 -0.009333937 0.03295139 0.009573449 0.017287517 0.02054612
-0.004311475 -0.0076323305 0.008019066 0.026104812 -0.0007146846 0.036261804 0.0041415174 -0.0006095479
-0.005196178 0.008595398 0.013459717 0.029381834 0.01989315 -0.009033639 0.016899796 0.0125785135
-0.005060468 -0.0071240105 -0.009771287 -0.01979824 -0.0041306172 -0.015999177 -0.008784727 0.008860447
-0.013744269 0.018858332 -0.005311234 0.013790603 -0.007083191 0.020131312 0.0450578 0.026308876
-0.0007895746 -0.010646911 0.00028035627 0.012387258 0.0004750782 -0.009001229 0.0035109604 -0.018115647
-0.00096184894 0.019842 -0.0005132142 0.022280369 -0.009179583 -0.0112840375 -0.022508148 -0.0003497079
0.029495161 0.016571954 0.0061805937 0.027169377 0.01333986 0.02449529 0.03396014 -0.0005761626
0.0024546778 0.025477719 0.02183543 -0.010069159 -0.011525693 0.015372516 0.015978316 0.0010106568
0.0044714767 -0.0075169317 0.020071398 0.029437853 0.005418842 -0.009260195 -0.0013523677 0.009097998
0.017265284 0.029746756 -0.00281173 -0.004810282 -0.0004996334 0.014130987 0.023840679 -0.012846218
-0.011384048 0.023122268 -0.001119129 0.021569533 -0.020969452 0.012857635 0.0005087541 0.0012330074
-0.011118494 -0.023678962 -0.008491347 -0.005325899 -0.0069485293 0.007740551 0.010397736 -0.0019279873
0.005950014 0.00737962 0.010688152 0.021041615 -0.005335502 0.014592614 0.0010649901 0.029892363
00000000: c43f c33c 2645 7ebc ee6d 44bb 20ed 91bb
00000010: 0d05 a7bb 1c5a d83b 9b2a e13c 8555 e43b
00000020: dc5b 453c 7dfe 60bb e492 b4bb b25a 703c
00000030: 8fb4 9d3b d047 b93b 81b0 babb 8703 893b
00000040: 9d2b 12bc 2dad e0bb ec0f 893c 5fed 18bc
00000050: 09f8 063d f5d9 1c3c 8d9e 8d3c 5650 a83c
00000060: 4647 8dbb a118 fabb 6762 033c c2d9 d53c
00000070: ac59 3bba 4287 143d 91b5 873b 11ca 1fba
00000080: b344 aabb b6d3 0c3c 2586 5c3c 2cb2 f03c
00000090: f6f6 a23c d401 14bc 7171 8a3c 1c16 4e3c
000000a0: 48d2 a5bb 8870 e9bb c017 20bc eb2f a2bc
000000b0: 215a 87bb b510 83bc d1ed 0fbc 692b 113c
000000c0: a42f 61bc ca7c 9a3c dc09 aebb fbf1 613c
000000d0: 1d1a e8bb 6cea a43c 878e 383d b685 d73c
000000e0: 74fb 4eba 6270 2ebc c8fc 9239 edf3 4a3c
000000f0: eb13 f939 e479 13bc 2418 663b 4467 94bc
00000100: 9724 7cba b18b a23c 3989 06ba 5285 b63c
00000110: f665 16bc afe0 38bc 0263 b8bc 0059 b7b9
00000120: d69f f13c e8c1 873c 9486 ca3b 5092 de3c
00000130: 6e8f 5a3c 59aa c83c ca19 0b3d 9e09 17ba
00000140: a9de 203b a6b6 d03c 37e0 b23c 1df9 24bc
00000150: 43d6 3cbc 01dd 7b3c f5e4 823c 0478 843a
00000160: 7785 923b 9850 f6bb c66c a43c a727 f13c
00000170: 8b90 b13b 13b8 17bc ee41 b1ba c50f 153c
00000180: ed6f 8d3c 78af f33c 0045 38bb 929f 9dbb
00000190: d4f9 02ba a885 673c 874d c33c f278 52bc
000001a0: 2884 3abc e96a bd3c bdaf 92ba 97b2 b03c
000001b0: 21c8 abbc d4a8 523c e95d 053a dd9c a13a
000001c0: 582a 36bc 62fa c1bc 4a1f 0bbc e184 aebb
000001d0: 7db0 e3bb 73a4 fd3b 445b 2a3c 85b4 fcba
000001e0: 56f8 c23b bdd0 f13b 5c1d 2f3c 775f ac3c
000001f0: 6fd5 aebb dc15 6f3c 2397 8b3a d4e0 f43c

action_model._discrete_distribution.branches.0.weight f4 [3, 128]
-0.049113646 0.041267246 -0.008745453 0.0101035405 -0.02916045 -0.03213471 0.046759956 0.03486575
0.04454673 -0.07250422 0.024301084 -0.021740498 -0.0075212116 -0.00433292 -0.069165684 -0.016845828
0.062310673 -0.062763244 0.026681697 -0.014058758 0.02587576 0.010588291 0.023850748 -0.0011763112
-0.04380487 -0.08908663 -0.03277795 0.042368248 0.0013522083 0.005127664 0.0142008485 -0.00929538
0.050159484 -0.08325593 0.00481744 0.00070614176 -0.075706765 0.0014292718 -0.030344754 -0.016260883
0.042098127 -0.004900773 0.015771091 0.0076026637 -0.02772399 -0.044268057 0.0038748973 -0.116443776
-0.022338979 -0.023438366 -0.014765241 -0.012719745 -0.048569255 0.045885835 -0.07036743 -0.020667356
-0.021197926 -0.004259101 -0.06804272 -0.008316819 0.01742265 0.020703698 0.042988744 0.008151157
-0.021987794 -0.037967406 0.04458452 -0.06652088 0.017315382 0.007732914 0.01665935 -0.032643337
-0.011759582 -0.00079366035 0.011757659 0.07120064 -0.06104067 0.023631848 -0.037495166 0.0036764636
-0.002273693 -0.033175822 -0.09215576 -0.068937115 -0.07423055 0.025033697 0.005202061 -0.050064333
0.011801742 -0.04733627 0.0120525565 0.03138499 -0.03308295 0.009714577 -0.014446708 -0.011805375
0.05790149 -0.11035378 0.04025442 0.041546375 -0.08376017 0.015024366 0.018551862 -0.01850471
0.020410797 -0.10166998 0.0112682255 0.0024933058 0.013184907 -0.006775886 -0.07442016 0.017084042
-0.017590186 -0.0005082886 -0.0026083316 0.020613905 -0.0070135444 -0.044901695 -0.062216114 0.021536008
-0.043101728 0.04882378 0.08242683 -0.057470046 0.05163361 -0.01707766 0.005614721 0.026125198
-0.005254345 -0.025610376 0.0045406995 0.018619616 -0.009241371 -0.011644173 0.01485597 0.03552325
0.00032886304 -0.075732864 -0.011202513 -0.0036963734 -0.05077584 0.0018836947 -0.01821807 0.015567186
-0.046761822 -0.0069566895 0.0064151664 -0.007712494 0.00048117165 -0.0021951303 0.007573701 -0.003602991
0.015633488 -0.021814419 0.008866925 0.00022102124 -0.009087731 -0.036024358 -0.013782684 0.018793514
0.0003866503 0.009056153 0.017535916 0.017645717 0.051424313 0.004983417 0.0273454 0.0065716645
-0.049855456 -0.0035965107 0.0016128997 -0.02137879 0.016920835 0.02615336 0.0077963998 0.006661678
0.015917568 0.0016322683 -0.012125804 -0.031950388 0.03180922 0.0056556 0.006917363 -0.00091426686
-0.016835958 -0.05276178 0.006236949 -0.055482272 0.005694248 0.013577906 -0.037516605 -0.014354015
0.019120032 0.021397792 -0.003972042 0.012310149 -0.009459972 -0.024172675 -0.033390734 0.0025571974
-0.014542456 -0.0040803184 -0.022684382 -0.02366082 0.009929479 -0.0042487574 0.010656882 -0.027318656
-0.016957214 0.005638405 -0.0018360091 -0.0072955866 0.038683686 -0.05022034 0.04264415 0.025337571
-0.00577592 -0.0352053 0.0039952393 -0.044153377 0.015617788 -0.0172964 0.018983832 -0.01700986
-0.0007691678 0.057669677 -0.006924823 -0.016649477 0.04933764 0.0033278768 -0.009077387 0.006172772
-0.007827601 0.012752616 -0.015617215 0.0032248597 0.013265238 0.0005439219 -0.014799969 -0.024329605
-0.015318651 -0.016591841 -0.010942856 -0.005429307 0.012487254 0.0023507243 0.0006952802 3.7564627e-05
0.0022990603 -0.040127408 0.001352357 0.05445034 -0.05498467 0.023786617 -0.0013489451 -0.00054170296
00000000: 642b 49bd d807 293d 1749 0fbc 5289 253c
00000010: e5e1 eebc b09f 03bd 5e87 3f3d 64cf 0e3d
00000020: a276 363d 187d 94bd 1113 c73c 2119 b2bc
00000030: 7f74 f6bb 2bfb 8dbb bda6 8dbd 4300 8abc
00000040: 7a39 7f3d 048a 80bd 9393 da3c b456 66bc
00000050: 67f9 d33c 837a 2d3c a562 c33c 742e 9aba
00000060: bc6c 33bd 0d73 b6bd 2c42 06bd 548a 2d3d
00000070: 953c b13a f705 a83b adaa 683c a64b 18bc
00000080: 0874 4d3d 1682 aabd 9edb 9d3b 5f1c 393a
00000090: 260c 9bbd 6756 bb3a 9095 f8bc 8b35 85bc
000000a0: 166f 2c3d aa96 a0bb 6032 813c c41f f93b
000000b0: 6c1d e3bc 6c52 35bd fdf1 7d3b 137a eebd
000000c0: 3c00 b7bc d101 c0bc e9e9 71bc 7a66 50bc
000000d0: 8ef0 46bd c9f2 3b3d cd1c 90bd 964e a9bc
000000e0: 46a7 adbc ee8f 8bbb fb59 8bbd 4443 08bc
000000f0: f2b9 8e3c cd9a a93c f714 303d 6e8c 053c
00000100: bf1f b4bc b683 1bbd 429e 363d 193c 88bd
00000110: fdd8 8d3c 6264 fd3b 3079 883c 05b5 05bd
00000120: 43ab 40bc a50d 50ba 32a3 403c a4d1 913d
00000130: c805 7abd 9497 c13c 8894 19bd d3f0 703b
00000140: 3d02 15bb 5fe3 07bd 29bc bcbd e72e 8dbd
00000150: 3006 98bd 7813 cd3c 0d76 aa3b 4210 4dbd
00000160: 185c 413c ade3 41bd 1678 453c 8c8d 003d
00000170: fd81 07bd e429 1f3c e3b1 6cbc 556b 41bc
00000180: 1d2a 6d3d 2a01 e2bd d2e1 243d 882c 2a3d
00000190: 748a abbd c228 763c 13fa 973c 3197 97bc
000001a0: 8b34 a73c 5a38 d0bd 5d9e 383c bb66 233b
000001b0: 8205 583c 4008 debb 9969 98bd d5f3 8b3c
000001c0: 4b19 90bc ac3e 05ba 8bf0 2abb 7ede a83c
000001d0: e0d1 e5bb d7ea 37bd 53d6 7ebd 486c b03c
000001e0: 708b 30bd 72fb 473d 66cf a83d b665 6bbd
000001f0: c47d 533d 73e6 8bbc b2fb b73b 8304 d63c
00000200: a42c acbb dacc d1bc 26ca 943b 2a88 983c
00000210: 1f69 17bc 34c7 3ebc 7466 733c d480 113d
00000220: 406b ac39 d519 9bbd bf8a 37bc db3e 72bb
00000230: 54fa 4fbd 4ee6 f63a 103e 95bc 830d 7f3c
00000240: 5389 3fbd f1f4 e3bb 5136 d23b 17b9 fcbb
00000250: c445 fc39 2ddc 0fbb cf2c f83b 2920 6cbb
00000260: cd11 803c 27b4 b2bc 9446 113c f0c1 6739
00000270: b5e4 14bc 478e 13bd c4d0 61bc dbf4 993c
00000280: 53b7 ca39 4260 143c 7ba7 8f3c c08d 903c
00000290: 4da2 523d ef4b a33b 7603 e03c 1e57 d73b
000002a0: 3c35 4cbd 70b3 6bbb ef67 d33a 9222 afbc
000002b0: 909d 8a3c 923f d63c f178 ff3b 354a da3b
000002c0: 8f65 823c d6f1 d53a 4fab 46bc 69de 02bd
000002d0: 624a 023d 9d52 b93b 0cab e23b 69ab 6fba
000002e0: 90eb 89bc bc1c 58bd 525f cc3b 6141 63bd
000002f0: d096 ba3b de75 5e3c 03ab 19bd 1a2d 6bbc
00000300: 9da1 9c3c 6c4a af3c e727 82bb 82b0 493c
00000310: 00fe 1abc c605 c6bc b9c4 08bd a796 273b
00000320: 7b43 6ebc 31b4 85bb 99d4 b9bc 56d4 c1bc
00000330: 41af 223c 2939 8bbb 349a 2e3c 60cb dfbc
00000340: dbe9 8abc 5fc2 b83b 3ea6 f0ba d10f efbb
00000350: c972 1e3d d8b3 4dbd a2ab 2e3d bd90 cf3c
00000360: ee43 bdbb 6f33 10bd 7fea 823b 2cda 34bd
00000370: c0e1 7f3c 2eb1 8dbc fb83 9b3c 4358 8bbc
00000380: faa1 49ba 0a37 6c3d a0e9 e2bb 7c64 88bc
00000390: 4416 4a3d 8218 5a3b 52b9 14bc f744 ca3b
000003a0: 573f 00bc 59f0 503c 59df 7fbc 2b58 533b
000003b0: 7156 593c fb95 0e3a 927b 72bc e14e c7bc
000003c0: 14fb 7abc 9deb 87bc aa49 33bc 54e8 b1bb
000003d0: 5797 4c3c 9c0e 1a3b 7743 363a b68e 1d38
000003e0: d5ab 163b a35c 24bd 9241 b13a 5207 5f3d
000003f0: 9b37 61bd 27dc c23c 16cf b0ba 1201 0eba

action_model._discrete_distribution.branches.0.bias f4 [3]
0.008004044 0.00513062 -0.01298714
00000000: 6523 033c c31e a83b 03c8 54bc

action_model._discrete_distribution.branches.1.weight f4 [2, 128]
-0.04196122 0.02693089 -0.004543558 -0.01085719 -0.0134419575 0.044222437 -0.026343796 0.0036699292
0.006740751 0.06573011 0.027732989 -0.024948707 0.06902611 -0.01928879 0.0133074 -0.01802131
0.0536249 0.04974155 -0.007441841 0.02036986 -0.009240931 0.07263701 -0.0050126645 -0.022308398
-0.011191679 0.0034442814 0.019219436 -0.015724493 0.04816823 -0.03899331 -0.02674737 0.033183396
0.04882442 -0.021177124 -0.018787833 -0.025516134 0.04613901 -0.01856767 -0.022863612 -0.042069223
0.038535383 -0.003889266 0.023663474 0.010127501 0.049623176 0.019615876 0.0074141757 0.025351707
-0.0017955641 -0.0105885435 0.02717549 0.08358366 -0.024086818 -0.0036698475 -0.030233782 0.017140435
0.03806567 0.014116571 -0.008278527 0.03867048 -0.015136021 0.00961983 0.037103865 0.014688417
0.0012783892 -0.025294703 0.04178579 0.029153727 -0.010738201 0.022630328 0.057223994 0.01967512
0.034332335 -0.013860884 -0.013506353 0.014948424 0.028605992 -0.016592797 -0.05388103 0.06375627
0.052915633 -0.03399044 -0.010246014 0.010530676 -0.035645656 0.0031940017 0.013929062 -0.02970113
-0.015201966 0.028851997 -0.026211897 0.032453727 0.0011307846 0.036088105 -0.0012552312 -0.012385011
-0.00041152516 -0.047765817 0.010380889 0.0009885918 -0.016311545 -0.0136170555 -0.00808019 -0.003769172
0.023773914 -0.016318046 0.07589006 -0.027596254 0.02420945 -0.01571972 0.004559369 0.103339225
0.003696628 0.017307593 -0.010566587 0.016056875 -0.008939925 -0.018026795 0.0095965685 0.051574744
-0.0017825055 0.03649277 0.015285374 -0.0035976456 0.03369148 -0.021997461 0.003391096 -0.016980128
0.023919424 -0.026491478 0.013402217 0.02386588 0.018019833 -0.0337726 -0.0009606638 -0.005661784
-0.011818934 -0.058171604 -0.016803363 0.04099474 -0.093852535 0.020559061 -0.024527466 0.004732836
-0.042690534 -0.054720227 0.009232563 -0.012276245 0.0068538077 -0.062263913 0.0019856591 0.024028948
0.0020207458 -0.027627572 -0.04699536 0.033875752 -0.0462953 0.021629594 0.033939406 -0.062804066
-0.035361353 0.017753119 0.013679397 0.034173515 -0.030255722 0.011082084 0.022580165 0.028547633
-0.05055979 0.0059387702 -0.016494129 -0.014932776 -0.05626464 -0.028750792 0.008636623 -0.007657619
-0.00090095133 0.029761575 -0.060330454 -0.07574097 0.012955114 0.009034013 0.04271435 -0.029857142
-0.04111958 -0.020744516 0.008769329 -0.021219172 -0.0058130473 -0.037450377 -0.018623626 -0.025209833
-0.0017115253 0.014258519 -0.06670523 -0.029712109 -0.010170245 -0.014247128 -0.06864483 -0.028508214
-0.027729727 0.026487777 0.00086713594 -0.004110533 -0.0072197933 -0.00024278752 0.0208603 -0.09143214
-0.041180447 0.019547338 0.011431068 0.002955662 0.02139956 0.0068755355 -0.004403737 0.029598268
-0.003306965 -0.020097638 0.0036192765 -0.04102286 -0.019802134 -0.04250696 0.0036578348 0.016578857
0.016457204 0.02370507 -0.01962407 -0.021039633 0.00586271 0.0032876811 0.015377421 0.0050643557
-0.036304496 0.005121548 -0.06897635 0.031261843 -0.016192736 0.012210124 -0.0040085753 -0.08392474
-0.0046005878 -0.013316 -0.011937396 -0.021893619 -0.0017494846 0.01089068 -0.009029257 -0.06264561
0.029694673 -0.047620274 -0.022390246 -0.016251974 -0.03383845 0.039479826 -0.015911035 0.027302321
00000000: 87df 2bbd 2b9e dc3c 21e2 94bb 5be2 31bc
00000010: a83b 5cbc 9622 353d f2ce d7bc 3283 703b
00000020: 85e1 dc3b 829d 863d 4b30 e33c 3b61 ccbc
00000030: 905d 8d3d 8603 9ebc 4807 5a3c 6da1 93bc
00000040: c8a5 5b3d ccbd 4b3d b0da f3bb b1de a63c
00000050: 4667 17bc b6c2 943d 4741 a4bb 1ac0 b6bc
00000060: 4e5d 37bc 74b9 613b 1472 9d3c a7d0 80bc
00000070: 0d4c 453d 73b7 1fbd 4d1d dbbc 50eb 073d
00000080: 1dfc 473d a67b adbc f1e8 99bc 3607 d1bc
00000090: 42fc 3c3d 3a1b 98bc 784c bbbc c750 2cbd
000000a0: 47d7 1d3d 0ee3 7ebb e7d9 c13c d1ed 253c
000000b0: ac41 4b3d 79b1 a03c 9df2 f23b 62ae cf3c
000000c0: 2259 ebba 927b 2dbc 229f de3c e92d ab3d
000000d0: b851 c5bc d381 70bb d6ac f7bc 196a 8c3c
000000e0: bfea 1b3d 3149 673c a9a2 07bc f064 1e3d
000000f0: 13fd 77bc 7e9c 1d3c 39fa 173d b0a7 703c
00000100: a08f a73a d636 cfbc 9427 2b3d ccd3 ee3c
00000110: 48ef 2fbc 3d63 b93c b563 6a3d b82d a13c
00000120: 10a0 0c3d c318 63bc c049 5dbc 3cea 743c
00000130: 1d57 ea3c 9eed 87bc 5bb2 5cbd a692 823d
00000140: 10be 583d 8f39 0bbd e6de 27bc db88 2c3c
00000150: 2e01 12bd 7552 513b b836 643c c94f f3bc
00000160: ab11 79bc 065b ec3c 55ba d6bc 33ee 043d
00000170: d636 943a 1fd1 133d 9286 a4ba 80ea 4abc
00000180: f9c1 d7b9 17a6 43bd 9b14 2a3c a393 813a
00000190: ca9f 85bc 121a 5fbc c662 04bc 3604 77bb
000001a0: 83c1 c23c 6cad 85bc 3f6c 9b3d 8a11 e2bc
000001b0: e652 c63c a4c6 80bc c266 953b 84a3 d33d
000001c0: 2043 723b a7c8 8d3c 7a1f 2dbc b589 833c
000001d0: c378 12bc eeac 93bc ed3a 1d3c 0a40 533d
000001e0: f6a2 e9ba 7179 153d 816f 7a3c 7ac6 6bbb
000001f0: 1400 0a3d 0534 b4bc 263d 5e3b e919 8bbc
00000200: abf2 c33c a804 d9bc f994 5b3c 6182 c33c
00000210: 549e 933c 2355 0abd 0ed5 7bba 7d86 b9bb
00000220: 34a4 41bc 5945 6ebd 35a7 89bc 1aea 273d
00000230: c235 c0bd 7a6b a83c d3ed c8bc e815 9b3b
00000240: 45dc 2ebd 5122 60bd 2d44 173c 4e22 49bc
00000250: e895 e03b 7208 7fbd d521 023b 5bd8 c43c
00000260: 7d6e 043b 3853 e2bc 357e 40bd 4dc1 0a3d
00000270: 24a0 3dbd 8c30 b13c 0c04 0b3d 6b9f 80bd
00000280: 11d7 10bd fd6e 913c 8d1f 603c 87f9 0b3d
00000290: d9da f7bc a191 353c 0afa b83c badc e93c
000002a0: c817 4fbd 049a c23b b21e 87bc 9aa8 74bc
000002b0: c075 66bd c886 ebbc 9f80 0d3c c4ec fabb
000002c0: d22d 6cba 8cce f33c 111d 77bd 151e 9bbd
000002d0: b041 543c 6603 143c 3ef5 2e3d f796 f4bc
000002e0: 016d 28bd 67f0 a9bc 3bad 0f3c d4d3 adbc
000002f0: 607b bebb 9165 19bd 9390 98bc da84 cebc
00000300: 4255 e0ba 909c 693c c09c 88bd cf66 f3bc
00000310: 19a1 26bc c96c 69bc a995 8cbd 0f8a e9bc
00000320: 7429 e3bc e5fc d83c 8250 633a a6b1 86bb
00000330: 0494 ecbb c794 7eb9 38e3 aa3c c640 bbbd
00000340: d4ac 28bd bd21 a03c 6049 3b3c c8b3 413b
00000350: 214e af3c 2c4c e13b 394d 90bb 1178 f23c
00000360: abb9 58bb cda3 a4bc 6231 6d3b 9607 28bd
00000370: 1638 a2bc c71b 2ebd 49b8 6f3b 62d0 873c
00000380: 42d1 863c 2331 c23c a8c2 a0bc 4f5b acbc
00000390: fa1b c03b 2376 573b 94f1 7b3c e5f2 a53b
000003a0: 06b4 14bd a9d2 a73b 7943 8dbd 6b0c 003d
000003b0: a1a6 84bc f90c 483c 5e5a 83bb bce0 abbd
000003c0: 87c0 96bb 5a2b 5abc 1195 43bc 3f5a b3bc
000003d0: f64e e5ba d36e 323c 73ef 13bc 574c 80bd
000003e0: 3e42 f33c 7a0d 43bd c06b b7bc dc22 85bc
000003f0: 309a 0abd 99b5 213d dc57 82bc 1ea9 df3c

action_model._discrete_distribution.branches.1.bias f4 [2]
-0.020377552 0.020377548
00000000: d3ee a6bc d1ee a63c

exp_avg f4 [128, 52]
9.946613e-05 8.720564e-05 0.0014529695 0.0018613999 0.00096255436 0.00061465276 0.00047618215 0.0012215142
0.0007082234 0.0005069901 0.0007960527 0.0009429209 0.00011771494 9.8029916e-05 7.924766e-05 0.00069510256
0.0015404011 0.000767641 0.00053370756 0.00044995622 0.0013587363 0.0006096797 0.0004781045 0.0006392089
0.00092707266 0.000101066624 9.699954e-05 8.908012e-05 0.0007152123 0.0014401674 0.00067818334 0.00042985234
0.00041679313 0.0013955053 0.000593982 0.00048415663 0.00048769178 0.0010571252 0.00010100288 9.9420475e-05
8.9163615e-05 0.00093836995 0.0015562794 0.0007053248 0.00041759096 0.00040842246 0.0013678524 0.0007338152
0.00052265736 0.0004698051 0.0010398944 0.00011014082 6.035692e-05 3.905801e-05 0.00033684817 8.629577e-05
-0.00029774947 0.00023477516 0.0002928484 0.00092617143 0.0003103983 0.00012512624 0.00017574354 0.00072226545
7.386759e-05 5.2843487e-05 2.8747756e-05 1.0290125e-05 0.0001234603 -0.00013108904 0.0003334907 0.00025932203
0.0007165572 0.00026161707 3.5017263e-05 0.000104756546 0.00054643163 5.4693402e-05 4.4321823e-05 2.5817002e-05
-4.979511e-05 0.00046291147 0.00032219748 0.00036972662 0.00025095386 0.00069212425 0.00015773173 5.48776e-05
0.00010720728 0.00044735777 6.436676e-06 5.0153583e-05 6.145316e-05 -3.0326744e-05 0.00018681433 1.3295496e-05
0.00019830547 0.00019876429 0.00037488344 0.00029725803 8.207129e-05 -3.5210556e-05 0.00029424467 7.831723e-05
2.8131774e-07 5.486279e-06 7.1436007e-06 0.00016843481 3.2006752e-05 -3.2545566e-05 -3.4025186e-06 3.1105916e-05
1.7128836e-05 1.6827285e-05 -1.5701653e-05 1.00034185e-05 8.801328e-07 1.4869795e-06 6.638076e-06 -0.000102739985
0.00043078404 3.4837605e-05 -6.9142094e-05 -8.011082e-06 -1.360593e-05 9.0903295e-06 7.483244e-06 -6.401368e-05
-3.4043906e-06 2.0852501e-06 1.584855e-06 6.7294786e-06 0.000432042 0.00028333784 -6.8174544e-05 -9.033571e-05
-1.1003869e-05 6.238386e-05 -5.0913713e-06 9.663253e-06 -0.000103148064 -2.1903294e-05 1.1096745e-05 1.9553581e-06
-1.8544041e-06 0.00028755906 0.00016899747 -0.00022275806 -0.00013156561 -2.0295518e-05 0.00015149474 1.1768298e-06
1.0291162e-05 -0.00016916436 1.3286157e-05 3.2680186e-06 6.373733e-05 4.9875576e-05 0.00062243664 0.00030468096
0.00031717547 0.00022458006 0.00022855304 0.0009190976 0.00048226066 0.00035622125 0.00025954208 0.00044177135
6.578195e-05 6.201316e-05 4.3767875e-05 0.00048948545 0.00011485071 0.00026659924 0.0001914668 0.00020906625
0.00090844353 0.00032181275 0.00035529464 0.0002138826 0.0006834538 6.267718e-05 5.9297483e-05 4.051403e-05
0.00038093363 0.00033636537 0.00020124161 0.00015572185 0.00016958002 0.0010342929 0.00057096255 0.00034182824
0.00017257566 0.0008081519 5.103408e-05 6.1000537e-05 3.2832362e-05 0.00046131114 0.00022503095 0.0002839885
0.00019699828 0.00016801593 0.0011610079 0.0007159066 0.00036566908 0.00022816283 0.0009065665 8.13251e-05
0.00014872561 0.0001288394 0.0020660143 0.001900557 0.00065926823 0.00095432106 0.00079324713 0.001636184
0.00090899295 0.0005971103 0.0010787225 0.001414652 0.0001861873 0.00013814807 0.000111665715 0.0010645456
0.002437968 0.000757848 0.000949596 0.00076045236 0.0018890789 0.00078794674 0.00056454836 0.00085409515
0.0013086041 0.00014250375 0.00013010627 9.3999355e-05 0.0010771933 0.0023098956 0.00096123735 0.0007527481
0.0006988404 0.0020956844 0.00065518287 0.00056217273 0.0005998819 0.0015022972 0.00014099314 0.00014355009
0.00018547502 0.0013509596 0.0016451715 0.0006824966 0.00052633474 0.0006107534 0.0018055714 0.0008600741
00000000: 7998 d038 2ce2 b638 9171 be3a 37fa f33a
00000010: ee53 7c3a a620 213a 16a8 f939 371b a03a
00000020: 11a8 393a 88e7 043a 31ae 503a 5a2e 773a
00000030: badd f638 6995 cd38 c331 a638 8b37 363a
00000040: 49e7 c93a 843b 493a 82e8 0b3a 1ae8 eb39
00000050: a017 b23a e9d2 1f3a 1aaa fa39 9590 273a
00000060: cb06 733a bbf3 d338 3b6c cb38 86d0 ba38
00000070: 167d 3b3a 00c4 bc3a 1dc8 313a ce5d e139
00000080: 0785 da39 63e9 b63a 75b5 1b3a 67d6 fd39
00000090: e2b0 ff39 3c8f 8a3a 82d1 d338 f67f d038
000000a0: 5afd ba38 f1fc 753a 12fc cb3a 8ce5 383a
000000b0: 1cf0 da39 8921 d639 8349 b33a 815d 403a
000000c0: f102 093a 2c50 f639 114d 883a 67fb e638
000000d0: c027 7d38 38d2 2338 ff9a b039 b0f9 b438
000000e0: 421b 9cb9 fa2d 7639 7289 9939 50ca 723a
000000f0: f4bc a239 5234 0339 cc47 3839 6a56 3d3a
00000100: 5ce9 9a38 43a4 5d38 5627 f137 c0a3 2c37
00000110: 1f75 0139 f274 09b9 5dd8 ae39 9df5 8739
00000120: 57d7 3b3a a629 8939 80df 1238 beb0 db38
00000130: 683e 0f3a 9866 6538 32e6 3938 9791 d837
00000140: 18db 50b8 edb2 f239 9dec a839 ded7 c139
00000150: 7592 8339 ac6f 353a ca64 2539 602c 6638
00000160: 78d4 e038 588b ea39 a0fa d736 005c 5238
00000170: 6ae0 8038 3066 feb7 97e3 4339 b80f 5f37
00000180: 38f0 4f39 626b 5039 018c c439 4cd9 9b39
00000190: b01d ac38 0caf 13b8 da44 9a39 3e3e a438
000001a0: 0408 9734 c716 b836 10b3 ef36 e09d 3039
000001b0: fd3e 0638 8981 08b8 d356 64b6 b977 0238
000001c0: e5af 8f37 5228 8d37 0bb7 83b7 5bd4 2737
000001d0: 4442 6c35 3a94 c735 a3bc de36 1c76 d7b8
000001e0: dbda e139 981e 1238 6100 91b8 5667 06b7
000001f0: 0645 64b7 ab82 1837 9418 fb36 153f 86b8
00000200: fc76 64b6 53f0 0b36 34b7 d435 c8cd e136
00000210: b283 e239 f68c 9439 eef8 8eb8 9d72 bdb8
00000220: 429d 38b7 14d4 8238 8cd6 aab6 5b1f 2237
00000230: 3251 d8b8 f7bc b7b7 282c 3a37 cc38 0336
00000240: d7e4 f8b5 86c3 9639 ea34 3139 2994 69b9
00000250: e0f4 09b9 4b40 aab7 8fda 1e39 90f3 9d35
00000260: 34a8 2c37 b661 31b9 9ce7 5e37 2250 5b36
00000270: b8aa 8538 7e31 5138 042b 233a 96bd 9f39
00000280: 924a a639 407d 6b39 bda7 6f39 99ef 703a
00000290: eed7 fc39 35c3 ba39 2613 8839 8c9d e739
000002a0: 6af4 8938 100d 8238 6693 3738 d050 003a
000002b0: 01dc f038 58c6 8b39 7ac4 4839 cb38 5b39
000002c0: 9d24 6e3a fab8 a839 d746 ba39 ac45 6039
000002d0: cf29 333a 8e71 8338 30b6 7838 9ced 2938
000002e0: 0cb8 c739 325a b039 6204 5339 4449 2339
000002f0: 4ad1 3139 1c91 873a a6ac 153a 6937 b339
00000300: 6df5 3439 28da 533a 6d0d 5638 d4da 7f38
00000310: 7bb5 0938 22dc f139 49f6 6b39 4be4 9439
00000320: 5391 4e39 6f2d 3039 f62c 983a aeab 3b3a
00000330: 46b7 bf39 fe3e 6f39 a6a6 6d3a 158d aa38
00000340: 3af3 1b39 1019 0739 f865 073b 1c1c f93a
00000350: bed2 2c3a 672b 7a3a eaf1 4f3a 3a75 d63a
00000360: 7c49 6e3a 6587 1c3a ec63 8d3a d86b b93a
00000370: 463b 4339 d7db 1039 132e ea38 3988 8b3a
00000380: 51c6 1f3b 52aa 463a 4fee 783a 1859 473a
00000390: f89a f73a 368e 4e3a 33fe 133a 5be5 5f3a
000003a0: 7885 ab3a 0f6d 1539 236d 0839 8521 c538
000003b0: 9c30 8d3a 9e61 173b 8cfb 7b3a 1254 453a
000003c0: 6332 373a c057 093b 94c0 2b3a c65e 133a
000003d0: 6541 1d3a bbe8 c43a 8fd7 1339 ef85 1639
000003e0: 127c 4239 af12 b13a cca2 d73a 92e9 323a
000003f0: baf9 093a f81a 203a eca8 ec3a 9976 613a

exp_avg_sq f4 [128, 52]
1.2975454e-07 1.4917586e-07 3.717225e-05 4.3687676e-05 1.4558888e-05 6.5486997e-06 3.947751e-06 2.1676584e-05
8.816197e-06 4.193375e-06 9.709267e-06 1.4236867e-05 1.8414329e-07 1.3115122e-07 1.4940449e-07 3.4933724e-05
4.1884792e-05 1.3246218e-05 6.192732e-06 3.9641427e-06 2.1749871e-05 8.844392e-06 4.198449e-06 8.937286e-06
1.4383745e-05 1.873785e-07 1.322267e-07 1.4876419e-07 3.493261e-05 4.200037e-05 1.1873389e-05 5.8572437e-06
3.949064e-06 2.2403528e-05 8.786907e-06 4.2832216e-06 8.053825e-06 1.4574387e-05 1.8425801e-07 1.3288906e-07
1.4511669e-07 3.5911886e-05 4.2985976e-05 1.2099714e-05 5.64582e-06 3.91924e-06 2.2326418e-05 9.086225e-06
4.4263525e-06 7.5077087e-06 1.4838922e-05 1.856641e-07 3.2910114e-07 3.2109904e-07 9.86982e-05 4.68247e-05
2.430051e-05 1.30007065e-05 8.487267e-06 3.6331254e-05 2.4756939e-05 1.0816634e-05 2.0337015e-05 3.347323e-05
4.489134e-07 3.2969783e-07 3.164848e-07 8.8511166e-05 3.20214e-05 2.4085339e-05 1.1846793e-05 8.179112e-06
3.0154137e-05 2.3734066e-05 1.09258135e-05 1.8410668e-05 2.9553343e-05 4.3874738e-07 3.2847598e-07 3.0783812e-07
8.137419e-05 2.469373e-05 2.4512688e-05 1.106542e-05 7.8458515e-06 2.7046668e-05 2.2945733e-05 1.1066042e-05
1.7193135e-05 2.7165503e-05 4.3642453e-07 3.241475e-07 2.9721613e-07 7.711031e-05 2.4142408e-05 2.206593e-05
1.0522708e-05 7.381192e-06 2.5998585e-05 2.1898377e-05 1.1155736e-05 1.7546517e-05 2.5832964e-05 4.2759137e-07
1.5447263e-08 1.4427504e-08 2.1978342e-06 3.5495473e-06 2.9257824e-06 1.6234301e-06 5.280777e-07 4.8932117e-07
3.4144944e-07 3.1382646e-07 2.542703e-06 4.2788128e-07 2.1312182e-08 1.5348967e-08 1.4303218e-08 3.7076666e-06
7.158043e-06 4.5827733e-06 1.918954e-06 6.3970026e-07 1.4415525e-06 7.0935107e-07 3.6571072e-07 3.193333e-06
9.05425e-07 2.078041e-08 1.5246894e-08 1.7972852e-08 1.005741e-05 1.39886115e-05 6.1441838e-06 2.5933386e-06
8.7145565e-07 3.8839617e-06 1.6005362e-06 5.449085e-07 4.062596e-06 2.4406902e-06 2.2942453e-08 1.4516113e-08
2.0958554e-08 1.1164243e-05 1.3551242e-05 5.481782e-06 2.4030835e-06 8.691416e-07 4.262012e-06 1.5405732e-06
5.4715076e-07 3.7604534e-06 2.6178643e-06 2.744934e-08 3.2888583e-08 1.8333e-08 6.0682714e-06 3.695564e-06
1.0144255e-06 6.8213154e-07 6.8923464e-07 6.517495e-06 3.1792329e-06 1.0482594e-06 7.871166e-07 5.4438337e-06
4.1379455e-08 3.1781514e-08 1.766908e-08 5.25247e-06 2.359004e-06 7.2098834e-07 5.092211e-07 5.58423e-07
7.60795e-06 3.9657466e-06 1.0856055e-06 5.679584e-07 6.2561894e-06 4.0201442e-08 2.9286648e-08 1.8396594e-08
4.38319e-06 1.2351055e-06 5.3242366e-07 3.819889e-07 4.246773e-07 8.207224e-06 4.2992e-06 1.094699e-06
4.2589187e-07 6.706601e-06 3.3897912e-08 2.5697428e-08 1.9403696e-08 3.7903528e-06 1.5702284e-06 4.975659e-07
3.2385407e-07 3.2444063e-07 9.09529e-06 4.4041685e-06 1.1051433e-06 3.7939012e-07 6.9361577e-06 2.8393725e-08
9.920306e-07 1.1884277e-06 0.00034076525 0.00030861536 0.00013313927 5.64682e-05 3.0553387e-05 0.00015003532
6.9250455e-05 3.4462228e-05 9.140561e-05 0.00010575789 1.4485641e-06 1.0052744e-06 1.1935773e-06 0.0003227917
0.0002929435 0.00013241835 5.416837e-05 3.0946103e-05 0.00013903501 6.717255e-05 3.435284e-05 8.7921726e-05
9.900311e-05 1.4866658e-06 1.0187957e-06 1.1713986e-06 0.00031417428 0.00029963668 0.0001264721 5.1360876e-05
3.10381e-05 0.00013249448 6.0847196e-05 3.4352375e-05 8.184499e-05 9.292439e-05 1.4917955e-06 1.0283179e-06
1.1433644e-06 0.0003124861 0.0002863747 0.00011873384 4.915973e-05 3.0540486e-05 0.00012950739 5.9613507e-05
00000000: a852 0b34 262d 2034 66e9 1b38 493d 3738
00000010: f341 7437 e7bc db36 ec76 8436 1cd6 b537
00000020: 47e9 1337 d1b4 8c36 fce4 2237 e1da 6e37
00000030: ecb8 4534 93d2 0c34 fe6b 2034 cd85 1238
00000040: 74ad 2f38 133c 5e37 2acb cf36 ba03 8536
00000050: 7e73 b637 6062 1437 67e0 8c36 5af1 1537
00000060: b751 7137 3632 4934 33fa 0d34 fdbb 1f34
00000070: 9b84 1238 8e29 3038 d133 4737 5789 c436
00000080: 3482 8436 36ef bb37 7a6b 1337 98b8 8f36
00000090: ea1e 0737 8484 7437 75d8 4534 44b0 0e34
000000a0: 5fd1 1b34 18a0 1638 d74b 3438 e0ff 4a37
000000b0: 3971 bd36 0482 8336 9e49 bb37 0a71 1837
000000c0: 1486 9436 baea fb36 aff4 7837 f65a 4734
000000d0: 51af b034 8463 ac34 31fc ce38 a465 4438
000000e0: f3d8 cb37 9c1d 5a37 8964 0e37 6362 1838
000000f0: 1fad cf37 1779 3537 6899 aa37 9b65 0c38
00000100: 3002 f134 5301 b134 57e9 a934 129f b938
00000110: b74e 0638 df0a ca37 97c1 4637 0539 0937
00000120: 84f3 fc37 8518 c737 034e 3737 9c70 9a37
00000130: 52e9 f737 fb8c eb34 6559 b034 f344 a534
00000140: 70a7 aa38 6225 cf37 99a0 cd37 9ea5 3937
00000150: ada1 0337 47e2 e237 967b c037 4aa8 3937
00000160: fa39 9037 79e1 e337 bb4d ea34 7e06 ae34
00000170: 1391 9f34 48b6 a138 6d85 ca37 391a b937
00000180: b08a 3037 f5ab f736 8917 da37 68b2 b737
00000190: 8529 3b37 dc30 9337 deb3 d837 b68f e534
000001a0: e4b0 8432 d5dc 7732 817e 1336 c234 6e36
000001b0: 8f58 4436 a2e4 d935 39c1 0d35 e559 0335
000001c0: 7450 b734 fb7b a834 4ea3 2a36 8eb7 e534
000001d0: fc11 b732 bcd8 8332 38ba 7532 3ad1 7836
000001e0: 1f2f f036 b9c5 9936 61c7 0036 deb7 2b35
000001f0: 5e7b c135 3c6a 3e35 e656 c434 0b4d 5636
00000200: 550c 7335 9b80 b232 46f8 8232 b862 9a32
00000210: 3fbc 2837 a1b0 6a37 232a ce36 3809 2e36
00000220: faed 6935 fa52 8236 01d2 d635 d445 1235
00000230: 6f51 8836 bdca 2336 fd12 c532 8a62 7932
00000240: 5908 b432 0f4e 3b37 245a 6337 26f0 b736
00000250: a944 2136 f54e 6935 6802 8f36 b1c5 ce35
00000260: eadf 1235 195c 7c36 91ae 2f36 bdc9 eb32
00000270: 6141 0d33 b17a 9d32 0e9e cb36 4e01 7836
00000280: 6527 8835 b91b 3735 d803 3935 dbb0 da36
00000290: ce5a 5536 ebb1 8c35 3e4a 5335 2daa b636
000002a0: 31b9 3133 2580 0833 b8c6 9732 603e b036
000002b0: 614f 1e36 f189 4135 68b1 0835 89e6 1535
000002c0: cb47 ff36 8111 8536 1fb5 9135 ce75 1835
000002d0: 42ec d136 f4a9 2c33 0592 fb32 8a06 9e32
000002e0: 5113 9336 e7c5 a535 e0eb 0e35 2814 cd34
000002f0: 34ff e334 c2b1 0937 d941 9036 92ed 9235
00000300: 22a6 e434 4409 e136 2697 1133 3ebd dc32
00000310: 2ead a632 c45d 7e36 a3c0 d235 7890 0535
00000320: 2ade ad34 c82e ae34 f997 1837 85c7 9336
00000330: 6f54 9435 fbae cb34 24bd e836 76e6 f332
00000340: e925 8535 1182 9f35 bda8 b239 a7cd a139
00000350: 4d9b 0b39 45d8 6c38 7326 0038 cd52 1d39
00000360: 8e3a 9138 898b 1038 03b1 bf38 56ca dd38
00000370: 496c c235 f7ec 8635 0133 a035 5e3c a939
00000380: 3696 9939 c8d9 0a39 d832 6338 20cc 0138
00000390: edc9 1139 fdde 8c38 1516 1038 9e62 b838
000003a0: e49f cf38 7389 c735 8ebd 8835 f338 9d35
000003b0: c2b7 a439 8e18 9d39 999d 0439 526c 5738
000003c0: e82e 0238 37ee 0a39 2e36 7f38 9515 1038
000003d0: 32a4 ab38 67e0 c238 b439 c835 bc04 8a35
000003e0: b475 9935 2dd5 a339 9024 9639 bf00 f938
000003f0: dc30 4e38 9918 0038 60cc 0739 8409 7a38

exp_avg f4 [128]
0.00010809889 4.353071e-05 -3.5978705e-06 7.5093616e-05 0.00013914796 2.211791e-05 -1.8550605e-06 -4.286465e-06
-8.012965e-05 4.7117155e-06 9.526654e-05 4.4230387e-06 -0.00017967171 5.403549e-07 7.10224e-05 -1.457144e-07
9.749306e-05 -0.00014094208 2.3435197e-05 -9.306424e-05 1.994101e-05 9.6233416e-05 -5.092694e-05 3.131553e-05
-0.0001310698 4.153504e-05 0.000115673305 -2.4406247e-06 6.7547717e-06 -1.7883604e-05 5.351456e-08 -2.8055896e-05
3.1914864e-05 4.5319648e-05 3.505135e-05 -5.2706047e-05 -8.528907e-06 -0.00012253923 3.0503623e-05 -3.8293306e-06
-4.759366e-06 -2.4466925e-05 -9.337045e-06 -4.621494e-05 -3.5231893e-05 2.3605999e-05 5.0110975e-05 2.1658232e-05
0.00016367511 0.00010791258 -4.0644977e-06 -1.4754016e-05 1.7264925e-05 4.0844126e-05 -1.08025415e-05 9.994631e-05
-3.4366712e-05 0.00011023612 -5.8970698e-05 -2.6612781e-06 -1.0519288e-05 -8.9616035e-05 5.214068e-05 -3.747895e-06
3.259889e-05 -9.3321455e-07 1.7303792e-06 0.00015476884 -2.069859e-05 6.176487e-06 9.289275e-05 -1.4697556e-06
6.403375e-05 0.00014931522 1.6545173e-06 -7.933078e-05 0.0001286889 -7.596123e-05 -4.3049428e-07 -2.5674658e-06
-2.2917916e-06 9.662179e-06 0.00010366666 5.7895486e-05 0.0001342787 1.24982835e-05 1.0377362e-05 5.4091957e-05
4.6562025e-05 0.00018347763 -4.6248324e-06 -0.00018888919 -6.052782e-05 -8.919067e-05 5.8449757e-05 -4.9100483e-05
4.720856e-06 7.905309e-05 0.00011476276 -3.6852904e-05 -4.42557e-05 2.4357018e-05 4.1176532e-05 -0.0002652254
3.6280096e-06 -3.413263e-05 -4.095728e-06 -0.00013485429 8.220309e-08 -1.8054967e-05 -0.00011041886 -6.7700576e-06
-0.000107385444 -0.00010969371 -0.00021083391 -3.6830348e-05 -0.00013682965 -7.806059e-06 5.9789672e-05 9.82727e-05
-8.864987e-05 -2.1259345e-06 5.92474e-05 8.624215e-08 -8.384186e-05 2.5390132e-06 5.085278e-06 4.3990294e-06
00000000: 26b3 e238 be94 3638 f272 71b6 947b 9d38
00000010: 3fe8 1139 da89 b937 65fb f8b5 74d4 8fb6
00000020: 470b a8b8 5419 9e36 d6c9 c738 9d69 9436
00000030: 4266 3cb9 e80c 1135 dcf1 9438 ab75 1cb4
00000040: 3075 cc38 dac9 13b9 b496 c437 7c2b c3b8
00000050: fe46 a737 ecd0 c938 639a 55b8 cb58 0338
00000060: c86f 09b9 e935 2e38 a295 f238 9dc9 23b6
00000070: 0ca7 e236 bf04 96b7 e2d7 6533 9459 ebb7
00000080: 53dc 0538 9a15 3e38 1a04 1338 b010 5db8
00000090: 6017 0fb7 e07d 00b9 08e2 ff37 b37d 80b6
000000a0: a5b2 9fb6 523e cdb7 4ea6 1cb7 ead6 41b8
000000b0: f5c5 13b8 7f05 c637 402e 5238 b3ae b537
000000c0: 34a0 2b39 204f e238 c561 88b6 0488 77b7
000000d0: 25d4 9037 0c50 2b38 903c 35b7 449a d138
000000e0: fa24 10b8 912e e738 4e57 77b8 6998 32b6
000000f0: ff7b 30b7 3ef0 bbb8 a1b1 5a38 5984 7bb6
00000100: cbba 0838 0482 7ab5 603f e835 7249 2239
00000110: e2a1 adb7 9f3f cf36 6acf c238 6b44 c5b5
00000120: dc49 8638 8091 1c39 c810 de35 635e a6b8
00000130: aaf0 0639 604d 9fb8 af1e e7b4 ba4c 2cb6
00000140: aecc 19b6 be1a 2237 9d67 d938 ced4 7238
00000150: 2acd 0c39 b8af 5137 6e1a 2e37 cce0 6238
00000160: 984b 4338 e763 4039 022f 9bb6 8e10 46b9
00000170: 40df 7db8 e00b bbb8 f327 7538 3ef1 4db8
00000180: d867 9e36 4ec9 a538 caac f038 8192 1ab8
00000190: 329f 39b8 4c52 cc37 f7b4 2c38 f30d 8bb9
000001a0: bb78 7336 a229 0fb8 096e 89b6 ac67 0db9
000001b0: a087 b033 bf74 97b7 ad90 e7b8 5a2a e3b6
000001c0: 1f34 e1b8 5d0b e6b8 4c13 5db9 497a 1ab8
000001d0: ee79 0fb9 c5f6 02b7 acc6 7a38 c117 ce38
000001e0: 89e9 b9b8 47ab 0eb6 6980 7838 2034 b933
000001f0: 41d4 afb8 ea63 2a36 35a2 aa36 609b 9336
