KartSCBIO/results/circutioA-9/ArcadeDriver/ArcadeDriver-223232.onnx (onnx, 98542 bytes, 9 tensors)

discrete_action_output_shape f4 [1, 2]
3.0 2.0
00000000: 0000 4040 0000 0040

network_body._body_endoder.seq_layers.0.weight f4 [128, 52]
-0.1489357 0.14026572 0.029105155 0.014952869 -0.047011886 -0.19733338 0.2266527 -0.08626645
0.4192302 0.07639575 0.07066147 0.110413134 -0.008976696 0.02831487 0.21920517 0.08599082
0.0060754376 0.08379415 -0.049356703 -0.096478425 -0.25223464 0.03259482 0.10531551 0.022780318
-0.0125204595 0.22957413 0.2012691 -0.073817395 -0.10088584 0.090343565 0.04779881 -0.053128142
0.05589464 0.04044129 0.30671576 0.055828203 -0.079527736 0.014219957 -0.08504894 -0.052112613
0.033579435 -0.020130893 -0.012969508 -0.13249949 -0.1284237 0.17150576 -0.002236403 0.020121861
0.063155025 0.12724109 -0.07458669 0.09988146 -0.010152628 -0.25023568 0.047931064 -0.09887276
-0.1460199 -0.0648667 0.15238714 -0.21464369 -0.18814355 -0.00695013 0.1312432 0.06629239
0.13625896 0.068984404 0.035080142 0.15785274 -0.046118498 0.21890406 -0.15788049 0.2026291
0.035393585 0.046430163 0.11794019 0.1145785 0.12839639 -0.24245821 -0.084531285 0.122025535
-0.26409715 -0.12467118 -0.067786425 -0.01733456 0.04223813 0.11045973 0.061917372 0.031111568
0.18928607 0.12025534 0.11533213 0.1480538 0.068612345 0.03502879 0.19381729 -0.1389796
0.0052345865 -0.31377587 0.071736634 0.17971162 -0.23163989 0.035837896 -0.12666377 0.186297
0.33459282 0.10907297 -0.13655154 -0.10163824 0.16514155 0.12444233 -0.065813415 0.037154756
0.17268886 0.041893244 -0.11957928 -0.075434774 0.024584983 -0.06055212 -0.010839453 -0.0052570696
-0.19015099 0.018606178 -0.13876085 0.2213179 0.17755607 -0.32615092 0.017293695 0.033898987
-0.07001217 0.0982908 0.24885431 -0.07012878 0.23268794 -0.08758358 0.17167377 -0.05431024
0.11095302 0.036342062 0.15737838 0.15100068 -0.15224382 0.24063985 0.10017929 0.12495759
-0.20124096 -0.0075097815 0.041151483 -0.09702628 -0.1910708 -0.014844044 -0.061668653 0.3352861
0.040679887 -0.051185198 0.015410277 0.12485131 -0.1427354 0.17608082 -0.0681672 -0.03309837
0.20836033 -0.09839791 0.0027726374 0.06166844 -0.042232074 -0.02663758 -0.045463104 0.1614257
0.32275578 0.28206566 -0.13557258 -0.06392819 -0.08808913 0.04678833 -0.050007697 -0.06502592
0.15248407 0.06740455 -0.02248207 -0.31312492 -0.0725223 -0.27603188 0.13105011 -0.040753227
0.06355345 0.097543456 -0.000215959 0.13168535 0.029113775 -0.14574215 0.20537995 -0.061323147
0.14676546 0.268616 -0.08635908 -0.007172429 -0.06840147 -0.1432538 0.22936946 -0.052564695
-0.1106714 -0.016947458 -0.10096481 0.012361463 0.12650213 -0.09798045 -0.19389658 0.14500092
-0.053524144 -0.0199705 -0.012140674 0.13311057 -0.041331474 0.07923634 -0.27255678 0.06769929
-0.021191156 -0.038153872 0.0071729072 0.09616973 0.001899443 -0.12768416 -0.012681897 0.10946458
-0.13811313 0.23157054 -0.117721796 0.3577135 0.29231915 -0.107714124 0.3235693 0.053599283
-0.10237091 -0.07019827 0.09413013 0.19342597 0.017145993 -0.12965196 0.15503207 0.048946958
-0.25186116 0.016370423 -0.15444921 -0.10650711 -0.21290758 0.3379361 0.114749074 0.05160926
-0.16525291 -0.15278721 -0.19843376 0.22883186 -0.17229758 -0.2572543 -0.18543452 0.13394852
00000000: 9a82 18be d1a1 0f3e ef6d ee3c e1fc 743c
00000010: 898f 40bd c311 4abe a517 683e 77ac b0bd
00000020: 57a5 d63e 6075 9c3d f6b6 903d 4820 e23d
00000030: fe12 13bc 96f4 e73c 5277 603e f41b b03d
00000040: 7714 c73b 449c ab3d 412a 4abd 7b96 c5bd
00000050: e624 81be 2582 053d a8af d73d ca9d ba3c
00000060: 9d22 4dbc 7b15 6b3e 7d19 4e3e 932d 97bd
00000070: 3c9d cebd 0c06 b93d afc8 433d e59c 59bd
00000080: c7f1 643d c4a5 253d d909 9d3e 1dac 643d
00000090: 70df a2bd d3fa 683c 232e aebd 0974 55bd
000000a0: 978a 093d 8be9 a4bc 0f7e 54bc f2ad 07be
000000b0: 8181 03be 359f 2f3e 9e90 12bb 9ad6 a43c
000000c0: 6c57 813d 7d4b 023e e8c0 98bd a78e cc3d
000000d0: 3557 26bc e41e 80be 5d53 443d cd7d cabd
000000e0: 3e86 15be d5d8 84bd 600b 1c3e 8ecb 5bbe
000000f0: b4a8 40be ebbd e3bb 9e64 063e 4ec4 873d
00000100: 7887 0b3e b247 8d3d 32b0 0f3d 26a4 213e
00000110: c0e6 3cbd 6328 603e 6cab 21be 017e 4f3e
00000120: ddf8 103d 8e2d 3e3d a08a f13d 22a8 ea3d
00000130: 587a 033e f746 78be bd1e adbd 86e8 f93d
00000140: be37 87be 9b53 ffbd 9cd3 8abd 3501 8ebc
00000150: e401 2d3d b638 e23d 129d 7d3d b0dd fe3c
00000160: 35d4 413e 6f48 f63d 4033 ec3d 6a9b 173e
00000170: a184 8c3d 597a 0f3d 0a78 463e ab50 0ebe
00000180: e586 ab3b 3ba7 a0be a8ea 923d 5306 383e
00000190: 0233 6dbe c2ca 123d 26b4 01be a4c4 3e3e
000001a0: c04f ab3e a661 df3d 2bd4 0bbe b627 d0bd
000001b0: de1a 293e 9fdb fe3d 2fc9 86bd 962f 183d
000001c0: 59d5 303e 4098 2b3d fbe5 f4bd 8c7d 9abd
000001d0: 7266 c93c 8005 78bd f697 31bc 7f43 acbb
000001e0: f1b6 42be fc6b 983c 5317 0ebe 29a1 623e
000001f0: 42d1 353e 41fd a6be 82ab 8d3c aad9 0a3d
00000200: 8a62 8fbd b04c c93d aad3 7e3e ae9f 8fbd
00000210: bf45 6e3e 055f b3bd 40cb 2f3e 6a74 5ebd
00000220: 563b e33d 6adb 143d cc27 213e ec9f 1a3e
00000230: cee5 1bbe 4b6a 763e cd2a cd3d c4e9 ff3d
00000240: 1c12 4ebe 9d14 f6bb 758e 283d b7b5 c6bd
00000250: 10a8 43be 6f34 73bc 4598 7cbd 9faa ab3e
00000260: f49f 263d 92a7 51bd 637b 7c3c 0bb2 ff3d
00000270: 3b29 12be 884e 343e 3f9b 8bbd 2892 07bd
00000280: 695c 553e d884 c9bd 23b5 353b 0c98 7c3d
00000290: 8afb 2cbd 0e37 dabc 8537 3abd c74c 253e
000002a0: 3f40 a53e e96a 903e 8ad3 0abe c8ec 82bd
000002b0: 1368 b4bd 1fa5 3f3d dfd4 4cbd 4f2c 85bd
000002c0: c924 1c3e 660b 8a3d 512c b8bc e951 a0be
000002d0: 9286 94bd 0d54 8dbe 0032 063e dbec 26bd
000002e0: 5028 823d ddc4 c73d 0d73 62b9 86d8 063e
000002f0: 0380 ee3c 6e3d 15be 1f4f 523e fb2d 7bbd
00000300: af49 163e 0988 893e 08dd b0bd b206 ebbb
00000310: 1216 8cbd 20b1 12be d4df 6a3e 144e 57bd
00000320: b0a7 e2bd 65d5 8abc a3c6 cebd bc87 4a3c
00000330: c689 013e f9a9 c8bd d38c 46be 1f7b 143e
00000340: 223c 5bbd 2d99 a3bc ade9 46bc 234e 083e
00000350: 314b 29bd aa46 a23d 908c 8bbe eda5 8a3d
00000360: 1399 adbc 3c47 1cbd b50a eb3b a3f4 c43d
00000370: bbf6 f83a a3bf 02be bbc7 4fbc f72e e03d
00000380: 876d 0dbe d420 6d3e 2018 f1bd 3926 b73e
00000390: dbaa 953e 3999 dcbd e0aa a53e ec8a 5b3d
000003a0: d7a7 d1bd 1cc4 8fbd 4cc7 c03d 7511 463e
000003b0: c175 8c3c 7cc3 04be bac0 1e3e 9b7c 483d
000003c0: f2f3 80be 441b 863c ef27 1ebe 6620 dabd
000003d0: 7204 5abe f605 ad3e 9001 eb3d 3b64 533d
000003e0: 0f38 29be 4074 1cbe 3832 4bbe e652 6a3e
000003f0: c76e 30be d6b6 83be 8ce2 3dbe cd29 093e

network_body._body_endoder.seq_layers.0.bias f4 [128]
-0.00796521 -0.002325593 -0.0025836804 0.0047294633 -0.013404184 0.032947924 -0.0008835824 0.0071625262
0.0028229025 -0.015791649 -0.02103167 0.009009177 -0.019766357 -0.011832364 0.052380092 0.004353761
0.019249307 0.015367279 0.00036338202 0.012821273 0.027242722 0.009958012 0.015624633 0.008722851
0.008521241 -0.008089286 0.0072469776 0.0076887296 -0.0076388326 0.0066146017 -0.008542479 0.022980262
-0.01122443 0.0024302788 0.0052005923 0.01634728 -0.0031072726 0.002000995 -0.0042268727 0.0056372494
0.0037639919 -0.03243551 0.0018165817 0.010450307 -0.008911435 0.020180035 -0.0055638314 0.0014342538
0.020702744 0.029164715 0.007362361 0.0059904894 -0.0003834386 0.0012775945 0.027011832 0.038522348
0.014228702 0.009157994 -0.0075108623 0.053774424 0.0062694373 0.02613693 0.007854625 -0.009732854
-0.007916484 -0.0029258432 0.02141153 0.02216475 0.013353213 0.009093001 0.009372921 0.026924472
-0.012061124 -0.02155249 0.0032402575 3.263574e-05 -0.016812712 0.011739779 0.014748776 0.033540696
-0.0020152424 0.0015084881 -0.012474174 -0.0019643959 -0.002623984 -0.025718803 -0.013239895 0.026382586
-0.008850268 -0.0057940553 -0.00019909826 0.0029561121 0.0034919356 0.0018063461 -0.013017492 0.018242707
-0.0073613203 0.02741124 -0.0053322148 0.03136001 0.03333399 0.0043419152 -0.022896847 -0.0032034104
-0.0010268524 -0.0023507082 0.009274305 -0.003198221 0.013453952 -0.0093730865 -0.0016196822 0.012678563
0.0005801593 0.0014061444 -0.002191844 0.0007537333 9.877992e-05 0.029671028 -0.024749579 0.039479833
0.02438927 0.012615456 -0.015482317 -0.017062875 -0.017868701 0.011964949 0.0038454814 0.011144591
00000000: 8380 02bc fa68 18bb f752 29bb 9df9 9a3b
00000010: 399d 5bbc 67f4 063d 36a0 67ba a0b3 ea3b
00000020: 7200 393b 7d5d 81bc 9c4a acbc 3a9b 133c
00000030: 0eed a1bc 88dc 41bc 828c 563d ffa9 8e3b
00000040: b9b0 9d3c 0ac7 7b3c 4f84 be39 5110 523c
00000050: 212c df3c ee26 233c 76fe 7f3c 4aea 0e3c
00000060: ad9c 0b3c ed88 04bc 0e78 ed3b bdf1 fb3b
00000070: 2c4f fabb 4dbf d83b c1f5 0bbc 1a41 bc3c
00000080: ace6 37bc 5045 1f3b bb69 aa3b bbea 853c
00000090: 62a3 4bbb 2023 033b 9481 8abb adb8 b83b
000000a0: 4ead 763b 19db 04bd 5e1a ee3a c437 2b3c
000000b0: 4401 12bc 9a50 a53c cd50 b6bb 92fd bb3a
000000c0: cd98 a93c d7ea ee3c f63f f13b de4b c43b
000000d0: 4208 c9b9 f574 a73a eb47 dd3c 9cc9 1d3d
000000e0: 801f 693c 690b 163c ae1d f6bb 9242 5c3d
000000f0: da6f cd3b 1d1d d63c afb0 003c 8c76 1fbc
00000100: 24b4 01bc 81bf 3fbb 3c67 af3c da92 b53c
00000110: 6fc7 5a3c cffa 143c e190 193c b690 dc3c
00000120: 059c 45bc d98e b0bc 805a 543b 5ce2 0838
00000130: d0ba 89bc 3458 403c daa4 713c f861 093d
00000140: 2812 04bb 76b8 c53a 7a60 4cbc 18bd 00bb
00000150: 25f7 2bbb 3db0 d2bc 25ec 58bc 4b20 d83c
00000160: b700 11bc 0fdc bdbb 08c5 50b9 55bb 413b
00000170: f5d8 643b ebc2 ec3a 5247 55bc bb71 953c
00000180: 3b37 f1bb 898d e03c dcb9 aebb 5b73 003d
00000190: 3989 083d a046 8e3b 2b92 bbbc 4ff0 51bb
000001a0: 7397 86ba 570e 1abb 41f3 173c 3f99 51bb
000001b0: f76d 5c3c 9391 19bc 844b d4ba bfb9 4f3c
000001c0: d515 183a 604e b83a 0aa5 0fbb 2f96 453a
000001d0: 1128 cf38 a810 f33c a1bf cabc 9bb5 213d
000001e0: 02cc c73c 0fb1 4e3c 8ba9 7dbc 71c7 8bbc
000001f0: 6261 92bc a208 443c 7904 7c3b cd97 363c

network_body._body_endoder.seq_layers.2.weight f4 [128, 128]
-0.11217846 -0.0019590147 -0.10207523 0.018515185 -0.058907684 -0.025034167 0.028986553 0.07345176
0.11866362 0.0879147 -0.045746595 -0.008988978 -0.09066026 0.033702396 0.071459204 0.0011084742
0.079688 0.15805355 -0.02166004 0.012210886 0.049831107 -0.20215088 0.08838042 0.035227664
-0.078352116 -0.21179928 0.060291313 -0.17510547 -0.073306896 -0.06887425 -0.0025720822 0.16577737
-0.077678345 0.08130801 0.06690147 0.09561567 0.13771017 -0.08050519 -0.06283719 -0.09189326
-0.050552085 0.09936103 -0.105111465 0.03137061 0.08004902 -0.041640446 -0.059612945 0.09255472
-0.16439363 0.058378834 0.0941314 -0.009358999 0.030662932 -0.008363511 -0.026526805 -0.018240111
-0.007375524 0.025019364 0.012458675 0.07920775 0.119793326 0.15198964 0.12204927 -0.059582252
-0.010629288 0.042267267 -0.010992908 -0.010251328 0.11250179 -0.021061515 -0.05845581 -0.021652643
0.26948187 0.040694732 0.0024962926 0.020267203 0.199683 -0.07874857 -0.11852966 -0.023269083
0.21312046 0.02454075 -0.038643457 0.1780468 0.027377594 -0.053077053 -0.05033296 -0.023240998
0.07275816 0.020493222 0.08430229 0.064808644 0.041555934 -0.15010333 0.063095614 0.014503683
-0.116481885 -0.14306428 0.07133222 0.01841028 -0.047830045 0.124043584 0.08025616 -0.094167665
-0.005596906 0.093929835 0.050391175 0.028848607 0.006222121 0.16272399 -0.05816543 -0.08974456
0.056744076 0.0936589 0.016167754 0.007126324 0.041216627 0.024945589 0.035127 -0.012175598
-0.00027219774 -0.035269186 -0.015636873 -0.1094746 -0.05450339 0.036187433 -0.02873779 0.095688134
-0.099300176 -0.11944528 0.09058229 -0.09353368 0.15711498 0.037310924 -0.065777056 0.013981481
0.029161109 0.029321421 0.0062061176 -0.01177235 -0.018374888 0.15284108 -0.017867714 0.01642351
-0.007165187 0.06541595 -0.06188466 -0.0052613234 0.1720617 -0.029350288 -0.033080913 0.06875697
0.014623294 0.008173391 0.07349138 -0.05565257 0.21787943 -0.10567889 0.0065998416 -0.08330918
0.070238 -0.06862314 -0.035658192 -0.034419857 0.07634106 0.06712091 -0.13011013 0.0032837642
-0.1740288 -0.097938165 0.065526254 0.0082640285 -0.09280952 -0.080801375 0.016037306 -0.14830372
0.02314409 0.06865856 -0.06917006 -0.06009269 0.058268186 -0.08498269 -0.102744006 0.098729745
-0.03806021 -0.16951524 0.18696785 0.15667251 0.08092085 -0.07889671 -0.030052315 0.044854265
-0.07436119 0.086557284 0.018805377 0.016432129 0.0733085 0.07180579 -0.005115295 0.14249961
0.12211287 0.1667364 0.124826945 -0.004924138 -0.033542916 0.034346536 -0.040504295 0.11017202
0.059051663 -0.06760856 0.048199955 0.15375355 0.037822857 -0.003684944 -0.02404398 0.022460435
0.12580071 -0.13287053 -0.0029171102 -0.07489849 0.15116695 -0.084435 -0.030345682 -0.096304335
0.083761446 -0.019833082 0.0088532865 -0.028659035 -0.11984744 0.17824478 0.23254244 -0.18513864
0.1584534 0.008270198 -0.07625235 -0.042532854 0.03619738 0.11322215 -0.055588 0.023358786
-0.1215682 0.017720379 -0.041196473 -0.15226394 0.006875767 0.080521025 0.10255984 0.035874527
-0.070531815 -0.0818543 -0.045352206 -0.0739656 -0.08825864 0.13912287 -0.004794017 -0.07894131
00000000: d2bd e5bd d062 00bb d10c d1bd 28ad 973c
00000010: 2f49 71bd 7414 cdbc 3575 ed3c e06d 963d
00000020: e905 f33d 9f0c b43d c860 3bbd 8246 13bc
00000030: 16ac b9bd 860b 0a3d 3459 923d 394a 913a
00000040: 7633 a33d cad8 213e 6570 b1bc 2b10 483c
00000050: b41b 4c3d a400 4fbe cb00 b53d e24a 103d
00000060: 1377 a0bd e9e1 58be 06f4 763d d94e 33be
00000070: ed21 96bd f10d 8dbd 6190 28bb 8bc1 293e
00000080: d315 9fbd d084 a63d a303 893d 26d2 c33d
00000090: e503 0d3e e8df a4bd c9b0 80bd 8932 bcbd
000000a0: b40f 4fbd cc7d cb3d ae44 d7bd 787e 003d
000000b0: bef0 a33d 2c8f 2abd b42c 74bd 548d bd3d
000000c0: ce56 28be a51e 6f3d f7c7 c03d 7d56 19bc
000000d0: d430 fb3c 1c07 09bc be4e d9bc 496c 95bc
000000e0: 61ae f1bb 69f5 cc3c 781f 4c3c ac37 a23d
000000f0: 3456 f53d 2ca3 1b3e f8f4 f93d 850c 74bd
00000100: 7726 2ebc 7120 2d3d 991b 34bc 30f5 27bc
00000110: 5767 e63d 3389 acbc 5c6f 6fbd e260 b1bc
00000120: 87f9 893e 85af 263d d798 233b 6807 a63c
00000130: b379 4c3e ee46 a1bd aebf f2bd ce9e bebc
00000140: 403c 5a3e af09 c93c 9a48 1ebd e651 363e
00000150: fa46 e03c 5367 59bd ef29 4ebd e863 bebc
00000160: 3b02 953d 67e1 a73c aea6 ac3d 65ba 843d
00000170: 8e36 2a3d b0b4 19be 4638 813d dba0 6d3c
00000180: 0e8e eebd 717f 12be a116 923d 28d1 963c
00000190: 70e9 43bd 900a fe3d 575d a43d fada c0bd
000001a0: 4066 b7bb 495e c03d fa66 4e3d ea53 ec3c
000001b0: efe2 cb3b 1ea1 263e e03e 6ebd ffcb b7bd
000001c0: 7a6c 683d 3dd0 bf3d 3d72 843c f083 e93b
000001d0: c4d2 283d b15a cc3c 54e1 0f3d 297c 47bc
000001e0: c3b5 8eb9 6c76 10bd e618 80bc 3834 e0bd
000001f0: f23e 5fbd 4639 143d 846b ebbc 24f8 c33d
00000200: e45d cbbd ba9f f4bd 3583 b93d 968e bfbd
00000210: c0e2 203e 57d3 183d 1fb6 86bd 9512 653c
00000220: 47e3 ee3c 7a33 f03c b05c cb3b d1e0 40bc
00000230: ef86 96bc 5f82 1c3e 505f 92bc 998a 863c
00000240: f2c9 eabb ccf8 853d c57a 7dbd 2e67 acbb
00000250: f130 303e 0470 f0bc da7f 07bd 74d0 8c3d
00000260: 8a96 6f3c b0e9 053c a682 963d f3f3 63bd
00000270: c91b 5f3e 2d6e d8bd 7c43 d83b 019e aabd
00000280: f1d8 8f3d 4a8a 8cbd 530e 12bd d6fb 0cbd
00000290: b458 9c3d b076 893d 973b 05be 6c34 573b
000002a0: 9b34 32be ce93 c8bd a132 863d d965 073c
000002b0: eb12 bebd 317b a5bd ab60 833c eedc 17be
000002c0: ad98 bd3c dc9c 8c3d 08a9 8dbd c123 76bd
000002d0: 9faa 6e3d 680b aebd 736b d2bd d232 ca3d
000002e0: 06e5 1bbd 6795 2dbe 8074 3f3e c26e 203e
000002f0: d5b9 a53d 9994 a1bd 4630 f6bc 1bb9 373d
00000300: ae4a 98bd f244 b13d bc0d 9a3c ac9c 863c
00000310: c422 963d ea0e 933d 349e a7bb 6beb 113e
00000320: 5016 fa3d f2bc 2a3e 45a5 ff3d aa5a a1bb
00000330: 4c64 09bd f4ae 0c3d d5e7 25bd dea1 e13d
00000340: 28e0 713d 5b76 8abd 516d 453d 9271 1d3e
00000350: 24ec 1a3d 1a7f 71bb e1f7 c4bc f2fe b73c
00000360: e7d1 003e 360f 08be fd2c 3fbb 6164 99bd
00000370: 82cb 1a3e 42ec acbd 8297 f8bc 353b c5bd
00000380: 1f8b ab3d fd78 a2bc 600d 113c 5ac6 eabc
00000390: 9372 f5bd cd85 363e 9b1f 6e3e fc94 3dbe
000003a0: 9c41 223e b97f 073c 312a 9cbd ee36 2ebd
000003b0: b443 143d 04e1 e73d 3eb0 63bd ed5a bf3c
000003c0: c0f8 f8bd 542a 913c a2bd 28bd 14eb 1bbe
000003d0: 1d4e e13b 35e8 a43d e50a d23d 2bf1 123d
000003e0: fc72 90bd 3aa3 a7bd 3cc3 39bd 477b 97bd
000003f0: f2c0 b4bd 3a76 0e3e 2117 9dbb fbab a1bd

network_body._body_endoder.seq_layers.2.bias f4 [128]
-0.013444281 -0.0075469287 0.0071310718 -0.004531243 0.016716298 -0.0118526975 0.0067500817 -0.008023878
-0.0007357813 0.010839974 -0.0192935 -0.0029036049 0.00093619537 0.010804191 -0.014409821 0.0004762216
-0.011279271 0.0116803935 0.01681625 0.014843173 -0.0075782076 0.007340299 0.015713183 -0.01055256
0.012100966 -0.0114635145 -0.012705083 0.02304945 0.007645414 -0.018800344 -0.007032129 -0.018614758
0.0022453968 0.017078876 0.014516641 -0.00908353 -0.001981412 0.00876995 0.0025904253 0.040102478
-0.014230868 -0.0053490186 0.03627981 0.02226011 0.02828581 -0.009256474 -0.0080605075 0.004537563
0.0054705795 0.002197278 -0.0053685987 -0.0064763087 -0.0020265845 -0.0054354942 -0.00242401 -0.00961316
0.011444352 -0.01450592 0.028677594 0.027007714 -0.0067742188 0.016708175 0.018007105 0.0031092938
-0.0036794192 -0.014772878 -0.015916105 0.0065878313 0.0016259915 -0.010073253 -0.004148725 0.0015944714
0.007938828 0.001028609 0.0022178462 -0.023400223 0.015264317 -0.020095149 0.0062212744 0.009924127
0.027465919 0.013859121 -0.01720895 0.0064529153 0.01540472 -0.009264198 0.0009454855 -0.009094336
0.015900556 -0.0005693261 0.020781899 -0.0055858823 0.009940725 0.031221334 0.0017570382 -0.0037075055
0.012191611 0.016021468 -0.015694413 -0.009247833 0.01393392 0.027599476 0.020597976 0.015428997
0.008303916 -0.0030447885 -0.0006204942 0.009522013 -0.0075019468 0.0011373135 -0.00252571 0.008235833
0.016025042 0.0029840448 0.036893703 -0.013622573 0.008040759 -0.008610234 0.01366788 -0.010282252
0.015234718 -0.0035494915 -0.0046051154 0.026725125 0.0101484 0.0049003926 -0.0041290126 0.0015345038
00000000: 6745 5cbc 3a4c f7bb c4ab e93b d27a 94bb
00000010: 9ef0 883c d131 42bc ca2f dd3b 9576 03bc
00000020: 72e1 40ba 259a 313c 670d 9ebc 684a 3ebb
00000030: 026b 753a 1004 313c 2b17 6cbc 62ad f939
00000040: b1cc 38bc 1f5f 3f3c 3bc2 893c c830 733c
00000050: 9d52 f8bb e486 f03b efb8 803c a5e4 2cbc
00000060: 2143 463c 77d1 3bbc fb28 50bc 33d2 bc3c
00000070: 6286 fa3b 2e03 9abc c66d e6bb fa7d 98bc
00000080: 8227 133b 00e9 8b3c 35d7 6d3c 16d3 14bc
00000090: 94da 01bb d6af 0f3c 20c4 293b 7f42 243d
000000a0: 9628 69bc d246 afbb 239a 143d d65a b63c
000000b0: a5b7 e73c 77a8 17bc 3810 04bc d6af 943b
000000c0: 8c42 b33b 3500 103b 12eb afbb 3737 d4bb
000000d0: 72d0 04bb 3b1c b2bb 24dc 1ebb 8480 1dbc
000000e0: 1781 3b3c 3daa 6dbc 46ed ea3c 483f dd3c
000000f0: 44fa ddbb 95df 883c a383 933c 4bc5 4b3b
00000100: 6922 71bb f109 72bc 7e62 82bc bcde d73b
00000110: 391f d53a 490a 25bc 07f2 87bb 95fd d03a
00000120: dc11 023c 64d2 863a 4959 113b d3b1 bfbc
00000130: 3017 7a3c 959e a4bc d5db cb3b ce98 223c
00000140: 3500 e13c 5e11 633c c9f9 8cbc fa72 d33b
00000150: 1464 7c3c ddc8 17bc 75da 773a 6900 15bc
00000160: e241 823c d43e 15ba cd3e aa3c c709 b7bb
00000170: 6cde 223c e2c3 ff3c 6b4c e63a 9ff9 72bb
00000180: 53bf 473c 743f 833c 9291 80bc 3984 17bc
00000190: 194b 643c 4c18 e23c 16bd a83c e7c9 7c3c
000001a0: 260d 083c 138b 47bb a9a8 22ba 3802 1c3c
000001b0: e4d2 f5bb e911 953a 6286 25bb 96ef 063c
000001c0: f346 833c f78f 433b da1d 173d 3631 5fbc
000001d0: 63bd 033c f011 0dbc 3eef 5f3c e476 28bc
000001e0: 0a9b 793c 969e 68bb 82e6 96bb a6ee da3c
000001f0: 7a45 263c 7993 a03b ab4c 87bb 6721 c93a

action_model._discrete_distribution.branches.0.weight f4 [3, 128]
0.014435188 -0.0002787296 -0.010233554 0.014177254 -0.013188625 -0.009694725 0.011452691 -0.023027273
-0.0026491948 0.006818193 -0.02128727 0.016758118 0.015811032 0.027473161 -0.012000216 0.02828543
0.004030038 0.0016154582 -0.0018721201 0.0067555974 -0.02574256 -0.009638834 0.0076665445 -0.004770595
-0.03211502 0.003645703 0.0008033161 -0.054901864 -0.037854437 0.0076256725 0.010610877 -0.007433771
-0.028663436 -0.022359595 0.014514608 0.02893301 0.019588597 0.012067216 0.04205713 -0.0022992527
0.03202573 0.0026873134 0.004654372 -0.014849016 0.018447297 -0.022086972 -0.01687396 0.010933932
-0.016655048 0.04732709 -0.0017204891 -0.001756562 -0.023117613 0.003832505 -0.029967355 0.0068964297
-0.014925415 -0.00033314803 -0.06144315 -0.010883878 0.01808266 0.020621622 -0.031838186 -0.024604388
0.02314331 -0.009804895 -0.0019683333 -0.012517088 0.004960207 0.003796307 -0.014555696 0.024613576
0.007898149 0.025052024 -0.026787044 -0.0024824291 -0.042462982 -0.0052308673 0.021953225 0.078796096
-0.0011991492 -0.0012434934 -0.018473644 0.01484544 0.0012787683 -0.011945793 0.023072235 0.005007938
-0.034362707 0.002961862 0.0047132443 -0.000976577 0.027875664 0.0012536563 -0.0064792195 0.015087847
0.026705809 -0.010812339 -0.00063881243 -0.021130474 -0.013768926 0.013458898 0.028792681 0.02886371
-0.023974154 -0.032427013 0.02699886 -0.036155116 -0.0050007114 0.0028660132 0.014374713 0.029655345
0.021061994 0.005610644 0.036737982 0.00310753 -0.01012515 -0.023610093 -0.041784156 -0.025945816
-0.00042494028 0.005048676 -0.031299934 0.022312908 -0.015644727 0.013511714 0.038901284 -0.0034620033
-0.011604408 -0.0032199027 0.0075215637 -0.015293423 -0.018011995 0.0021503754 -0.011154294 0.0022803263
0.012058832 -0.018876405 0.0073820585 0.0039449884 0.0010160473 -0.025751617 -0.020436788 -0.00066345534
0.0042181714 0.007844847 0.00951639 0.019794207 -0.00096440775 -0.012628528 -0.015977688 0.010080103
-0.00063280266 -0.006556973 0.011362425 0.012468514 0.027995644 0.0028155134 -0.0010409049 -0.0060291635
0.011549413 0.0013219122 0.0028748065 0.014126663 -0.007373577 0.014218085 -0.016009403 -0.035617415
-0.024369283 -0.0043290234 -0.0015879247 0.036508217 -0.02928202 0.0030774875 -0.013165008 0.026342956
-0.0068760323 -0.00353889 0.012712897 -0.012886632 0.01355351 0.01892935 0.013408402 -0.009025021
-0.0006644195 0.007199443 -0.009539674 -0.011397802 -0.0014821931 -0.009020533 -0.01951572 0.0075637964
0.00390737 0.00285693 -0.0029440874 -0.0027563754 -0.012442094 0.0038716719 -0.004909691 -0.019872226
0.0015985292 -0.013173581 -0.0032044726 0.009527674 0.009047561 -0.004107347 -0.029928727 -0.0103528155
-0.0145364115 0.016237304 -0.003913945 -0.014056878 0.0010120481 -0.001678618 -0.021932084 0.019457594
-0.019703299 0.0027482235 -0.005615682 -0.011695696 -0.036299985 -0.017425207 -0.014661715 0.008666931
-0.032887887 -0.008176416 -0.001568906 -0.0013942189 -0.01262817 0.007777953 0.010252216 -0.015733693
0.0052537736 -0.0032441418 0.027555345 -0.0061679264 0.0041293823 -0.016023107 0.011065079 -0.020904167
-0.022652121 -0.029755177 -0.0037640866 -0.010906025 0.011324289 0.0005238578 -0.014347229 0.01165824
0.002308383 -0.006159478 0.02975013 0.0021023408 0.0064897425 -0.0024574217 -0.011182738 0.0039512254
00000000: 9181 6c3c 7422 92b9 a3aa 27bc b747 683c
00000010: 1a15 58bc a0d6 1ebc 11a4 3b3c b1a3 bcbc
00000020: 1d9e 2dbb 266b df3b a462 aebc 5248 893c
00000030: 2386 813c 650f e13c 8e9c 44bc d9b6 e73c
00000040: 690e 843b c8bd d33a ed61 f5ba 0f5e dd3b
00000050: 10e2 d2bc 33ec 1dbc a337 fb3b a752 9cbb
00000060: 0a8b 03bd bfec 6e3b a295 523a c7e0 60bd
00000070: 410d 1bbd c7e0 f93b 3ed9 2d3c fe96 f3bb
00000080: 95cf eabc 782b b7bc aece 6d3c eb04 ed3c
00000090: 4478 a03c 93b5 453c 1944 2c3d 0faf 16bb
000000a0: 692d 033d a31d 303b b483 983b 4a49 73bc
000000b0: c91e 973c bdef b4bc 423b 8abc 3c24 333c
000000c0: 2b70 88bc 0dda 413d 0982 e1ba 713c e6ba
000000d0: 2661 bdbc c42a 7b3b 197e f5bc 72fb e13b
000000e0: ba89 74bc 5faa aeb9 d0ab 7bbd 4b52 32bc
000000f0: 1622 943c adee a83c c268 02bd 248f c9bc
00000100: 0a97 bd3c b6a4 20bc 27ff 00bb 7914 4dbc
00000110: 3b89 a23b 76cb 783b 047b 6ebc 69a2 c93c
00000120: 3d67 013c e739 cd3c 8170 dbbc 40b0 22bb
00000130: aaed 2dbd b267 abbb 40d7 b33c d95f a13d
00000140: c52c 9dba b7fc a2ba 0a56 97bc 4a3a 733c
00000150: 589c a73a 4ab8 43bc fc01 bd3c a119 a43b
00000160: e9bf 0cbd cc1b 423b 8f71 9a3b 7d00 80ba
00000170: 815b e43c ba51 a43a a24f d4bb 0433 773c
00000180: 24c6 da3c 3d26 31bc fa75 27ba d119 adbc
00000190: 1097 61bc b682 5c3c a1de eb3c 9673 ec3c
000001a0: 7265 c4bc 30d2 04bd b72c dd3c 6317 14bd
000001b0: 02dd a3bb b9d3 3b3b eb83 6b3c c4ef f23c
000001c0: 348a ac3c 7ed9 b73b 917a 163d b4a7 4b3b
000001d0: f5e3 25bc f469 c1bc dd25 2bbd 528c d4bc
000001e0: 85ca deb9 5d6f a53b 5c34 00bd 8fc9 b63c
000001f0: 5f29 80bc 3c60 5d3c f456 1f3d c7e2 62bb
00000200: 6a20 3ebc 0105 53bb 7377 f63b 4491 7abc
00000210: e48d 93bc 50ed 0c3b 80c0 36bc 8771 153b
00000220: 6892 453c b1a2 9abc 32e5 f13b f644 813b
00000230: e42c 853a 0ef5 d2bc 0d6b a7bc bceb 2dba
00000240: 9638 8a3b ac87 003c a2ea 1b3c 7627 a23c
00000250: 4fd0 7cba e3e7 4ebc a4e3 82bc 0427 253c
00000260: abe2 25ba e0db d6bb 7729 3a3c bd48 4c3c
00000270: 1f57 e53c 7a84 383b f96e 88ba 4a90 c5bb
00000280: c039 3d3c 0344 ad3a 4067 3c3b 8573 673c
00000290: 0c9e f1bb f9f2 683c 2726 83bc 91e3 11bd
000002a0: 17a2 c7bc 7bda 8dbb e921 d0ba a489 153d
000002b0: d9e0 efbc acaf 493b 0cb2 57bc 2fcd d73c
000002c0: 5750 e1bb b9ec 67bb c149 503c 7422 53bc
000002d0: 8b0f 5e3c b911 9b3c eaae 5b3c afdd 13bc
000002e0: 702c 2eba 4ee9 eb3b 4b4c 1cbc d9bd 3abc
000002f0: 2646 c2ba dcca 13bc 6edf 9fbc b9d9 f73b
00000300: 6509 803b 553b 3b3b 97f1 40bb 4ea4 34bb
00000310: edd9 4bbc e0bb 7d3b 79e1 a0bb 14cb a2bc
00000320: bd85 d13a 01d6 57bc 2102 52bb f619 1c3c
00000330: 393c 143c ed96 86bb 172d f5bc db9e 29bc
00000340: 212a 6ebc 1804 853c 8d40 80bb d24e 66bc
00000350: b3a6 843a 1305 dcba eaaa b3bc 8865 9f3c
00000360: d068 a1bc 8a1b 343b c103 b8bb 4e9f 3fbc
00000370: 4baf 14bd 4fbf 8ebc b137 70bc beff 0d3c
00000380: 73b5 06bd 60f6 05bc c0a3 cdba 39be b6ba
00000390: 62e6 4ebc 33de fe3b e9f8 273c f2e3 80bc
000003a0: d927 ac3b ab9b 54bb bfbb e13c 511c cabb
000003b0: c54f 873b e442 83bc 4e4a 353c 373f abbc
000003c0: f190 b9bc 21c1 f3bc e5ae 76bb 2faf 32bc
000003d0: 8389 393c 8053 093a a410 6bbc 3402 3f3c
000003e0: 3d48 173b 72d5 c9bb 8bb6 f33c 6dc7 093b
000003f0: e8a7 d43b b20c 21bb cd37 37bc 4879 813b

action_model._discrete_distribution.branches.0.bias f4 [3]
0.00049619924 0.0009914255 -0.0018402699
00000000: 5e13 023a b8f2 813a 3635 f1ba

action_model._discrete_distribution.branches.1.weight f4 [2, 128]
0.006845819 0.00024662563 0.0025794343 0.03180725 -0.024956657 0.012097185 -0.01017274 0.0056590163
-0.012141841 0.051574375 0.036076378 0.0025003531 0.012141535 0.01251254 0.0226401 0.050258543
0.00802547 0.040396888 -0.019994566 -0.008215226 0.0071053454 0.02026792 0.0017853084 0.02860628
0.019725975 0.01859024 0.011585693 0.03102693 0.026123319 0.029349405 0.044018164 0.009756256
0.015770534 -0.016322564 -0.0019592687 0.026827754 0.01404561 0.014803083 0.035236586 -0.035136178
0.034605052 0.050505653 0.049441073 -0.017612593 -0.023780271 0.016235596 0.0299165 0.05946983
0.02561114 0.0034418022 0.014537238 0.010211183 0.033752207 0.008594303 0.009662484 0.0117859095
-0.017873298 0.012845995 -0.024309073 0.054766964 0.018271493 -0.015998531 0.0162318 -0.003909539
0.0014545504 0.011925954 -0.005918444 -0.004372073 0.014053759 -0.0011102797 0.003075047 0.04401797
0.021911442 0.007159662 0.007089813 0.007745821 0.037735928 0.00035817997 0.03055682 0.011409189
-0.018608898 0.00037641122 0.0166554 0.01740098 -0.017888956 -0.0066014025 0.010770635 0.0029179074
0.0031031216 -0.000109611305 -0.023056798 0.016212525 0.0036585194 -0.022021733 0.032294404 -0.007660196
0.01033483 0.012498469 0.008485497 0.022176752 -0.012701208 -0.018540183 -0.01592559 -0.009492265
0.008414522 0.0148684345 0.025324594 0.061759394 0.0028726533 0.031658966 0.013906123 0.011288323
-0.00647234 -0.004142862 -0.0075416085 -0.0023168854 0.0036290525 0.0022510348 0.0027438132 0.024367956
-0.014413619 0.021939076 0.021117525 -0.029704731 -0.015694093 -0.01028601 0.012048076 7.108749e-05
-0.006597491 -0.0146776885 0.011362712 -0.033498306 0.005211044 -0.009148272 0.0005134233 0.01388897
-0.0021544357 -0.045330007 -0.038811326 -0.008934904 -0.017948817 -0.012656943 -0.02493814 -0.052286737
0.0036066428 -0.04398586 0.0097305365 0.011990014 0.0043077185 -0.0064357906 0.011121714 -0.020458387
-0.031193601 -0.025863886 -0.025367862 -0.0062632 -0.02082659 -0.024321968 -0.05120317 0.007568969
0.017611729 0.014592127 0.015210377 -0.01835892 0.007610063 -0.007528258 -0.046451043 0.03645006
-0.011245991 -0.040747046 -0.05848676 -0.00038513078 0.022169318 0.01983774 -0.025982976 -0.041779146
-0.03289486 -0.008131338 -0.0066598924 -0.014577 -0.034557432 -0.020529335 -0.022624819 -0.0073455325
-0.0012694064 -0.022946082 0.029520102 -0.058478657 0.013627581 -0.006361735 -0.024425296 0.00698142
-0.006171464 -0.0005980628 -0.009062269 0.015702425 0.0055130636 0.00028129638 -0.009053424 -0.045865424
-0.03879186 -0.007237758 -0.005186491 -0.017069267 -0.04853397 -0.006976852 -0.02738578 -0.022738565
0.033487353 0.017291171 -0.0022611772 -0.010046331 0.012236144 -0.012546314 -0.0056637847 0.0052064094
0.004296349 -0.017667517 0.014440557 0.013347552 0.017617334 0.02501281 -0.02182406 -0.005628229
-0.0024904662 -2.8169774e-05 -0.024817718 -0.0192926 0.0035856995 0.0051352447 0.0102365315 0.020705251
0.0070162117 0.016441485 -0.03049568 -0.056948807 -0.009392773 -0.025946038 -0.012019209 -0.0029714264
-0.00029826618 -0.0026955775 0.0073402384 -0.003680093 0.008576201 0.0032433246 0.012193331 -0.024536699
0.0009037882 -0.028473001 -0.01833754 0.021756079 -0.0012541711 -0.0073611797 -0.022193942 -0.01200621
00000000: e452 e03b 884d 8139 ba0b 293b 5248 023d
00000010: e771 ccbc 4533 463c 90ab 26bc 456f b93b
00000020: 93ee 46bc a73f 533d d3c4 133d f7dc 233b
00000030: 4aed 463c 6601 4d3c bb77 b93c e7db 4d3d
00000040: 437d 033c 3577 253d a5cb a3bc 2899 06bc
00000050: f5d3 e83b e908 a63c 0201 ea3a b857 ea3c
00000060: 5e98 a13c 8f4a 983c ebd1 3d3c 302c fe3c
00000070: 9200 d63c 2a6e f03c 644c 343d b4d8 1f3c
00000080: 3531 813c e6b6 85bc 1367 00bb e1c5 db3c
00000090: 8f1f 663c a188 723c 3d54 103d f4ea 0fbd
000000a0: 07be 0d3d 04df 4e3d b982 4a3d 4948 90bc
000000b0: d8ce c2bc 8300 853c 7313 f53c a396 733d
000000c0: 74ce d13c dc8f 613b 982d 6e3c ce4c 273c
000000d0: c13f 0a3d 1fcf 0c3c 654f 1e3c b019 413c
000000e0: 066b 92bc 0278 523c d223 c7bc 5353 603d
000000f0: 19ae 953c 5a0f 83bc 8df8 843c 971b 80bb
00000100: 9da6 be3a 1465 433c 82ef c1bb 9b43 8fbb
00000110: bd41 663c ce86 91ba ba86 493b 304c 343d
00000120: a07f b33c 999b ea3b a951 e83b a8d0 fd3b
00000130: fd90 1a3d 1aca bb39 4c52 fa3c 9bed 3a3c
00000140: b071 98bc 0f59 c539 e870 883c 808c 8e3c
00000150: dc8b 92bc 9450 d8bb 5177 303c 5d3a 3f3b
00000160: be5d 4b3b 1fdf e5b8 9ce1 bcbc 21d0 843c
00000170: c5c3 6f3b ec66 b4bc 2347 043d 6202 fbbb
00000180: 6b53 293c 61c6 4c3c c106 0b3c 05ac b53c
00000190: ba18 50bc 95e1 97bc 6276 82bc 7285 1bbc
000001a0: 10dd 093c bc9a 733c 8675 cf3c 6bf7 7c3d
000001b0: 2043 3c3b d5ac 013d 82d6 633c a9f2 383c
000001c0: ec15 d4bb d8c0 87bb 991f f7bb e3d6 17bb
000001d0: 66d5 6d3b 1986 133b 8cd1 333b 4f9f c73c
000001e0: 1a27 6cbc 94b9 b33c a9fe ac3c 5657 f3bc
000001f0: e690 80bc a786 28bc 4b65 453c ce14 9538
00000200: c42f d8bb b07a 70bc ab2a 3a3c 8535 09bd
00000210: 68c1 aa3b a2e2 15bc 4197 063a 908e 633c
00000220: 6f31 0dbb f5ab 39bd a0f8 1ebd b463 12bc
00000230: 6609 93bc 115f 4fbc 124b ccbc 9e2a 56bd
00000240: 6d5d 6c3b 842a 34bd d46c 1f3c c471 443c
00000250: c327 8d3b 53e3 d2bb d937 363c 5998 a7bc
00000260: b989 ffbc 80e0 d3bc 43d0 cfbc 883b cdbb
00000270: 869c aabc dd3e c7bc 6aba 51bd 1d05 f83b
00000280: 7946 903c d113 6f3c f234 793c 7265 96bc
00000290: d65d f93b 9baf f6bb 7343 3ebd a84c 153d
000002a0: 1b41 38bc 60e6 26bd d08f 6fbd 61eb c9b9
000002b0: 6e9c b53c c282 a23c 40da d4bc 9c20 2bbd
000002c0: c3bc 06bd 4e39 05bc 3a3b dabb 5fd4 6ebc
000002d0: 188c 0dbd 232d a8bc af57 b9bc cbb2 f0bb
000002e0: 3662 a6ba 6cf9 bbbc 24d4 f13c 5187 6fbd
000002f0: 3846 5f3c 1a76 d0bb 8f17 c8bc 65c4 e43b
00000300: fe39 cabb 51c7 1cba e979 14bc 5fa2 803c
00000310: eea6 b43b f67a 9339 d054 14bc 62dd 3bbd
00000320: 37e4 1ebd b72a edbb 71f3 a9bb d9d4 8bbc
00000330: 8ecb 46bd 149e e4bb 2558 e0bc 3a46 babc
00000340: 092a 093d 37a6 8d3c 4230 14bb 5e99 24bc
00000350: 1c7a 483c 0e8f 4dbc 4597 b9bb 879a aa3b
00000360: 63c8 8c3b 78bb 90bc 1698 6c3c b1af 5a3c
00000370: 3a52 903c aae7 cc3c 5fc8 b2bc 026d b8bb
00000380: 1737 23bb 214e ecb7 874e cbbc 840b 9ebc
00000390: 0efe 6a3b 8e45 a83b 20b7 273c 0f9e a93c
000003a0: 40e8 e53b 4bb0 863c 14d2 f9bc 2743 69bd
000003b0: 25e4 19bc c98c d4bc 37ec 44bc 43bc 42bb
000003c0: 9c60 9cb9 49a8 30bb 6286 f03b b72d 71bb
000003d0: 3283 0c3c f58d 543b 89c6 473c 3001 c9bc
000003e0: 33ec 6c3a 3640 e9bc 9c38 96bc ce39 b23c
000003f0: 0063 a4ba 0d36 f1bb 12d0 b5bc b2b5 44bc

action_model._discrete_distribution.branches.1.bias f4 [2]
-0.020573156 0.020573156
00000000: 0989 a8bc 0989 a83c
