KartSCBIO/results/circuitoA-6/ArcadeDriver/checkpoint.pt (torch, 585591 bytes, 40 tensors)

discrete_act_size_vector f4 [1, 2]
000000 00 00 40 40 00 00 00 40
       3.0 2.0

network_body._body_endoder.seq_layers.0.weight f4 [128, 52]
000000 73 67 cb bd d1 0f f2 bd 04 8b 1e be b5 ed 57 be
       -0.09931841 -0.11819423 -0.15482718 -0.21086772
000010 1b a6 9b bd 50 e7 87 bd 17 e9 00 bc 41 36 93 be
       -0.076000415 -0.06635916 -0.007868073 -0.2875233
000020 64 d6 1e be 6e f6 ab 3d 8e 61 10 3e e0 bf 93 be
       -0.15511471 0.08396612 0.14099714 -0.28857327
000030 ca b1 8e bc bb 60 0f 3e fc 7d 96 3d cc 83 fa b9
       -0.01741876 0.14001743 0.07348248 -0.00047781912
000040 a5 fc b8 3d 1b 89 34 be ea 91 89 be 38 52 18 bc
       0.09032563 -0.17630427 -0.26869136 -0.009296946
000050 c0 15 26 3e ed c9 d0 be 8c fc de 3d a6 53 4f 3e
       0.16219234 -0.40779057 0.10888013 0.20246753
000060 15 35 62 3c 65 7a 76 3e ae c2 d3 3e 35 da 62 bd
       0.013806601 0.24070127 0.41359466 -0.05538388
000070 ba 77 02 be 70 81 e9 3d c0 50 13 bd 62 5d 61 bd
       -0.12740985 0.11401641 -0.03596568 -0.055020697
000080 47 9a 1e be 43 8f c8 3d a0 cc 42 3d 2d 09 71 3d
       -0.1548854 0.0979295 0.047558427 0.05884664
000090 e1 3f 9f 3d 8f ad 01 bd 43 55 87 3e 6c 02 dd 3d
       0.07775856 -0.03165966 0.26432237 0.107914776
0000a0 0b d9 53 be 21 fc 43 3d fa ca b6 3d 0a d7 01 be
       -0.20688264 0.04784787 0.089254335 -0.12679687
0000b0 5d 2a f1 3c 09 b5 7b be c1 24 9c bc a7 4a 5a 3e
       0.029439146 -0.24580778 -0.019060494 0.2131754
0000c0 e7 0d a1 3d 3c fc 18 be 93 dd 35 be fd ca 8a be
       0.0786398 -0.1493997 -0.17760305 -0.27107993
0000d0 e8 38 ac bc 12 ef aa 3d 3f fb d5 3b 11 04 f0 bd
       -0.021023229 0.0834638 0.006530195 -0.117195256
0000e0 f8 57 1e bc db 2c 65 be 53 dc c1 bc 94 9c 08 be
       -0.009664528 -0.22380392 -0.02366463 -0.1334098
0000f0 b3 a4 d6 3c 54 ec 02 3e e2 4b bd bd ed 25 81 3d
       0.026201582 0.12785465 -0.09242989 0.06306062
000100 a5 d1 89 bc 97 b0 b2 bd 25 85 d7 3c 3a 3d 88 bd
       -0.0168236 -0.08725088 0.026308605 -0.06652303
000110 ed 06 96 bd c2 59 04 be 64 8e 93 3d 55 65 1a 3d
       -0.0732554 -0.12924865 0.07204893 0.037694294
000120 90 b7 80 3e 46 11 55 3c b3 10 c6 bd f0 d9 ed b9
       0.25140047 0.013004607 -0.09671154 -0.0004536654
000130 92 9b 46 bc d2 9a a0 bd ac 1b 03 3e 56 15 5d bd
       -0.012122052 -0.0784203 0.12803525 -0.053975426
000140 54 64 d8 3d 01 f3 df 3d 02 ba 81 3d a3 b3 b6 3d
       0.10566011 0.10935021 0.06334306 0.08920982
000150 d0 51 53 bc 50 fe 61 bc 01 b2 55 3d fd 1a 27 3e
       -0.012897924 -0.013793543 0.05217171 0.16318889
000160 ea e2 4b 3e 95 48 ad 3d 74 87 b7 3d 66 aa 85 bd
       0.1991078 0.084611095 0.089613825 -0.065266415
000170 eb 95 5c 3c e1 60 9a bd 40 d2 0b 3e 29 dc 30 be
       0.013463478 -0.075380094 0.13654423 -0.17271484
000180 e4 fc ef 3d 26 be 43 3d 08 3a 70 3e 1b 77 08 3d
       0.11718157 0.04778876 0.23459637 0.033316713
000190 3f 1c b8 bd 83 f5 31 be ac 93 0f 3b 31 ec d1 bd
       -0.089897625 -0.17378812 0.0021908088 -0.10250128
0001a0 5e 9f 37 3b b4 06 ae bd 26 98 88 3d 1e a0 1c bd
       0.0028018574 -0.08497372 0.06669645 -0.038238637
0001b0 e7 3b 9e bd 1d f0 2c 3e 0e d0 2f be 7b 31 5d 3d
       -0.07726269 0.16888471 -0.1716921 0.054002266
0001c0 48 0e 49 be 79 e0 4d 3d f6 3b 5f be 8f 9e 0b ba
       -0.19634354 0.050262902 -0.21800217 -0.0005326056
0001d0 75 30 d6 bd 4a 23 23 3e 98 eb 60 be 37 64 48 3e
       -0.10458461 0.1593143 -0.21964872 0.19569479
0001e0 68 ca 97 bb 20 ca a6 3c 4b 6a 0d 3e f5 52 b6 bd
       -0.004632283 0.020360053 0.13810079 -0.089025415
0001f0 bd 2d 79 be 90 d4 40 3e 47 52 c2 bd 1c fe 34 be
       -0.24333854 0.18831086 -0.094883494 -0.1767506
000200 d0 87 6a 3d e2 f3 61 be a3 a6 23 3d de 61 2a 3e
       0.057258427 -0.2206569 0.03995384 0.16638896
000210 51 6e 5c be 48 91 6e 3d f6 7b e2 3b ab 83 69 be
       -0.21526457 0.05824402 0.00691175 -0.22804134
000220 fa 0d 8d bc 41 0b 50 be df f9 08 3c 01 6f 98 bd
       -0.017218579 -0.20316793 0.008360355 -0.07443047
000230 ff b9 91 3d 01 cd 59 be df f1 ee bd 64 40 64 be
       0.07115554 -0.21269609 -0.11667227 -0.22290188
000240 65 ae 8c be d5 d8 92 be d9 42 83 bd 2c 9e 52 bd
       -0.27476802 -0.28681055 -0.064092346 -0.051420376
000250 58 e5 c4 3d a6 9f e6 bd ad 80 1d bd a7 6f 14 be
       0.09614056 -0.11260919 -0.038452793 -0.14495717
000260 c2 77 f7 bd 91 46 c6 3d 71 f6 a3 bc bc 03 02 be
       -0.12083389 0.09681428 -0.020014973 -0.12696737
000270 50 c9 81 3e 47 f9 f5 bd f3 d2 80 3e bd 55 4d 3d
       0.25348902 -0.120104365 0.2516094 0.050130595
000280 16 ea 29 3d 2f a4 c8 bd 58 95 58 bc 05 0a e1 ba
       0.041483007 -0.097969405 -0.0132192 -0.0017169124
000290 f2 da 52 3d c5 90 17 3c 47 c2 52 bb ae 89 45 bc
       0.051478334 0.009250824 -0.0032159255 -0.012056751
0002a0 28 3d 2e 3c 7e e7 41 bd d7 61 81 3d 00 22 e7 bc
       0.010634698 -0.04733991 0.063174896 -0.028214455
0002b0 30 5b a7 bd ca 44 b4 bd df 84 e3 3d 1b d4 c4 b9
       -0.081716895 -0.08802183 0.111093275 -0.00037542064
0002c0 fb 05 5b bc a9 bf 8a bd 0d 2a 2b bc 99 e3 da bd
       -0.013368125 -0.067748375 -0.010447037 -0.10687942
0002d0 7c 33 3b be 0a df 0e be ab 81 63 bd 9d 2d 1e 3b
       -0.18281358 -0.1395227 -0.055543583 0.0024136074
0002e0 6c 4a 8f 3d 28 46 2e bd cc 0a a5 bd e6 00 ea bc
       0.06996617 -0.042547375 -0.080587 -0.028564882
0002f0 04 df ba 3d 28 e3 c4 bd c8 7c 87 bc 0f dc e5 bd
       0.09124568 -0.09613639 -0.016538993 -0.112236135
000300 25 63 1f be 11 d5 04 3e 79 7a de 3d fd d7 14 bd
       -0.15565164 0.12971903 0.108632036 -0.036338795
000310 50 b1 74 bd 6a 89 e0 bd 49 e2 a0 bd b3 9c 68 be
       -0.05973941 -0.1096371 -0.078556605 -0.22716026
000320 87 6d e4 bc 02 1d 48 be 32 e5 85 3d ca 7c 8b bd
       -0.027884258 -0.19542316 0.06537856 -0.06810911
000330 3b 62 11 3e 3b 1d 2e 3e 9f 1c 38 be 1e a7 84 3d
       0.14197628 0.17003338 -0.17979668 0.064771876
000340 2a ee f8 3d 0d 83 f2 3d 77 c1 37 3e 99 05 a1 3b
       0.12154801 0.11841402 0.17944895 0.0049139974
000350 4d 19 e5 bc 55 e4 50 3d d6 41 f6 b9 ad 1e 8d 3d
       -0.027966166 0.050999004 -0.00046969828 0.068906166
000360 3b b7 c3 bc 1c cf da bc 63 6a d4 3d 42 9d f4 3d
       -0.023891082 -0.026710086 0.10371854 0.11944057
000370 c6 bc bb bd 97 6a 3b 3e ce b2 3b 3d 0f 44 2f be
       -0.09166865 0.1830238 0.04582482 -0.17115806
000380 9e 7b a4 bd c5 77 c0 bd 2e 78 9c bc c7 f5 22 3e
       -0.080313906 -0.09397844 -0.019100275 0.15914069
000390 5d 95 0a 3e f5 9c d0 bd 03 b6 87 bd 25 b0 94 be
       0.1353354 -0.10186187 -0.06626513 -0.29040638
0003a0 56 86 96 3d 2d d0 c7 3e d7 6b 87 bd 16 ee dc 3b
       0.07349841 0.39026013 -0.06612366 0.0067422492
0003b0 56 4d 7b be ab aa 76 be e6 fc d1 3c 9b bc c1 bc
       -0.2454122 -0.24088542 0.025633287 -0.023649504
0003c0 99 73 32 be eb 6f ec 3c 97 c7 32 bd 78 dc c1 3d
       -0.1742691 0.02886196 -0.043647375 0.09465879
0003d0 b7 70 68 be bb fa 9d bd a3 4b 97 3c 5a 03 b2 3d
       -0.22699247 -0.07713839 0.018468684 0.086920455
0003e0 44 8f ff bd 42 93 de 3c 74 b1 06 be 3f 28 ab bc
       -0.124784976 0.027169827 -0.1315363 -0.020893214
0003f0 00 99 b9 3d 16 4b 59 be fe 90 85 bc 34 ff 38 3d
       0.090623856 -0.2122005 -0.01630449 0.045165256

network_body._body_endoder.seq_layers.0.bias f4 [128]
000000 22 c4 45 bc 6d 44 a6 bb 20 20 71 3c 46 c9 68 3c
       -0.0120706875 -0.005074075 0.014717132 0.014208144
000010 1b 0c ab bc 57 c2 33 3b 76 b4 6b 39 9d 6c 65 bc
       -0.020879796 0.0027429068 0.00022478573 -0.014002946
000020 28 32 9b ba 16 93 9f 3c 96 af c7 bb 27 80 56 bc
       -0.0011840509 0.019479316 -0.0060939295 -0.013092077
000030 4b b7 b0 3c 0a a1 65 bc 78 55 3a bb 9e f6 31 3c
       0.021571776 -0.0140154455 -0.002843229 0.010862021
000040 8c 17 7b bc 12 1d 7c bc 6e 65 d3 3c fd 0d 5b 3c
       -0.015325438 -0.01538779 0.025805201 0.013370034
000050 69 a4 c6 3c 34 66 99 3c 7a cf cd 3c 72 68 d0 3b
       0.024248319 0.018725492 0.025123347 0.006360107
000060 5a f6 55 bc ac b6 5f bb b5 39 42 bc d0 46 6e b9
       -0.013059223 -0.003413598 -0.011854579 -0.00022723828
000070 dc 05 9a bc 12 e7 30 3c 02 c4 84 bc e0 0c 71 3c
       -0.018801622 0.010797279 -0.016206745 0.014712542
000080 0c ea 80 bb 6e 15 45 3c 8f f7 7a bb 0f ac 07 3d
       -0.0039341506 0.012029035 -0.003829453 0.033123072
000090 9f e1 e4 3b 50 c2 4a 3b fb 07 32 bc b6 c8 09 bb
       0.006984904 0.0030938573 -0.0108661605 -0.0021024174
0000a0 a6 85 8d bc 88 39 a0 38 13 6d 5d 3b ed c5 39 3c
       -0.017275643 7.6401106e-05 0.0033786937 0.011338693
0000b0 9a 7b a6 3b 84 bf 97 ba e6 b1 44 bb 58 6b 73 3c
       0.0050806524 -0.0011577462 -0.0030013262 0.014857136
0000c0 a3 3a 3a 3d e3 90 28 3b aa cd a7 3b 8d c1 27 bc
       0.045466077 0.0025721125 0.0051209526 -0.010239017
0000d0 9e 4f 07 bc 5a 64 26 3d 35 bc 7d bb 30 87 54 bc
       -0.008258728 0.040623046 -0.0038716916 -0.012971684
0000e0 d8 53 c5 3c 68 c4 27 3c 0f 0d b6 3c 99 26 d3 3c
       0.024087831 0.010239698 0.022223024 0.02577524
0000f0 a0 1a 8e 3c 25 bf 71 3c 9f 86 18 3c e5 47 2b 3c
       0.01734668 0.014755045 0.00930944 0.010454153
000100 3a b9 50 bc a7 23 65 3a 12 da f5 3c 98 16 4a bc
       -0.012739474 0.00087409694 0.03001121 -0.012334488
000110 75 91 85 bc 8a b3 89 3c 7f 81 13 b8 a0 80 6d bc
       -0.01630471 0.016809244 -3.5168134e-05 -0.014495999
000120 22 8a 0c 3b 4f 0b 51 3c b6 73 b1 ba a5 09 4a 3a
       0.0021444638 0.012759044 -0.0013538513 0.00077071256
000130 e9 e1 09 bb 0b 3e f9 3c 0e 86 9c 3b 16 ac 12 3b
       -0.0021039194 0.030425092 0.0047767228 0.0022380403
000140 2c 7f e8 3c 36 62 b3 3c b9 da eb bc 06 ee 14 bc
       0.028380953 0.021897417 -0.028790819 -0.009089952
000150 9c 2e 90 3c 67 9c 9b 3c 8c 57 fa 3b 9d c4 2b 3d
       0.01760035 0.018995477 0.007639831 0.041935552
000160 3b 86 30 3c 8c 81 6f 3b f4 5a 2f 3d f6 2f 8f 3c
       0.010774191 0.0036545722 0.04281135 0.017478924
000170 e0 08 ca 3c fb 61 04 3c 06 85 9b 3b a4 a9 99 3c
       0.024662435 0.008080001 0.0047460822 0.018757649
000180 be af 3d 3a 46 b0 9a 3c 66 40 8d 3b 45 e7 98 3c
       0.00072359655 0.018882882 0.0043106554 0.018664965
000190 fd 8f 11 3c 2a 32 95 3b 1b 50 85 3c 94 f2 21 bc
       0.008884427 0.004553099 0.016273549 -0.009884495
0001a0 a9 d5 fa bb 2e 41 d7 3b 02 9e f8 3b 20 31 dd 3b
       -0.007654865 0.0065690493 0.0075871954 0.006750241
0001b0 4b a7 8b ba d6 1b 97 39 8a c8 41 3c 24 e5 07 3d
       -0.0010654716 0.00028821704 0.011827597 0.03317751
0001c0 14 71 97 3c c9 35 13 3b 21 3f d8 3b 93 b0 1b 3b
       0.018486537 0.0022462478 0.0065993224 0.002375637
0001d0 5b 7e 43 bb 62 3a 80 3c eb 83 77 3c 7a d2 81 bc
       -0.0029829952 0.01565284 0.015107135 -0.015847433
0001e0 c9 a4 89 3c 73 d2 4e 3c c3 27 f6 3b 66 ca bd 3c
       0.016802208 0.012623417 0.007512064 0.0231678
0001f0 cf 71 69 3b ac d5 71 bc 02 1f 2c 3b a5 15 f0 3c
       0.0035620814 -0.014760416 0.00262636 0.029307196

network_body._body_endoder.seq_layers.2.weight f4 [128, 128]
000000 f1 f7 9d bc 0f da e8 3d 53 a5 ee bd ce 36 87 bd
       -0.019283267 0.113697164 -0.11652627 -0.0660225
000010 33 ff 53 bd f0 49 f7 3d 3c a5 ce bc 0f 90 6b bc
       -0.05175705 0.12074649 -0.025225274 -0.014377608
000020 ab d8 82 3d 4c 9c 60 bd 6b 2a 99 3c 19 2a 24 3d
       0.063889824 -0.054836556 0.018696984 0.04007921
000030 b9 0e e8 bd 18 68 2b be b7 aa c1 3d 23 6c 59 3d
       -0.11330933 -0.16738927 0.094563894 0.053081643
000040 b0 1c 00 bd 16 c9 fe 3d 97 f8 0d 3e 59 9b f7 3c
       -0.03127736 0.12440698 0.13864361 0.030225443
000050 a3 47 32 be 9d 42 b0 3d 8f a9 4a bd 5c 70 e3 3d
       -0.1741014 0.086064555 -0.04947811 0.11105415
000060 d9 e9 7f 3d e6 2a 2e be 67 ea 36 3c aa 5f 29 3d
       0.062478874 -0.17008552 0.011164284 0.041350998
000070 c1 52 b7 bd 0e 54 6c 3d ea 58 77 bd 77 9e 63 bd
       -0.08951331 0.05769735 -0.06038753 -0.055571046
000080 4d 15 0f 3e b7 13 bf 3d 96 59 62 3d 1b c5 e5 3b
       0.1397297 0.09329932 0.055261217 0.007012022
000090 d2 79 f6 3d 3d c3 0e bc 5d 12 3a bd f9 b2 5c bb
       0.12034954 -0.008713541 -0.04542767 -0.0033676012
0000a0 b9 7c 53 bd 1e 82 b5 bd 4a ba 7f bd d8 80 f8 3d
       -0.051632617 -0.088627085 -0.06243352 0.1213395
0000b0 ec 63 c0 bd 7a b8 2b bd 8e 7a bc 3d b3 04 16 3e
       -0.093940586 -0.041923977 0.09203063 0.1465023
0000c0 0b d1 46 be 61 14 20 3e 20 9e 34 bc 02 a3 b0 bd
       -0.19415681 0.15632774 -0.011024028 -0.08624841
0000d0 b6 ec 56 3d 08 be bf bd 8f 70 ec bb c1 ca 42 be
       0.05247184 -0.093624175 -0.0072155665 -0.19022657
0000e0 c2 4b 2f bd c6 1b 1c 3e d4 e4 a1 bc 81 4a 0c 3d
       -0.042796858 0.1524497 -0.019762434 0.03425074
0000f0 f5 16 49 3d a9 b0 fc 3d 03 ac 6d bd 58 c1 75 bd
       0.04909416 0.12338383 -0.05802537 -0.05999884
000100 3a fe 99 bd df 57 2b 3e 0f bc 24 3e 14 6c 76 bd
       -0.07519193 0.16732739 0.16087364 -0.060161665
000110 f7 84 af 3d 8b cd 00 3d 47 48 39 3b f8 bd cf 3d
       0.08570283 0.03144602 0.002827184 0.101436555
000120 06 00 18 3d b1 1e 82 3d a5 b8 c6 bd ae e3 c8 bc
       0.037109397 0.0635351 -0.09703187 -0.024522629
000130 a3 b6 6d 3d b5 31 26 bd 28 d5 4c be 31 cf 10 3d
       0.058035504 -0.040574748 -0.20003188 0.035353843
000140 ec a5 d6 bd bc 24 26 be c9 06 e2 bb f4 d9 80 bd
       -0.10480866 -0.1622495 -0.0068977815 -0.06291571
000150 01 a8 8f 3c db 83 3c 3e 64 25 a4 3c 20 f7 dd 3d
       0.017536165 0.18409674 0.02003736 0.10838151
000160 04 a1 ec 3d 8a 7b fe 3c ef 46 c6 bb f2 c7 cf bd
       0.11554149 0.031064767 -0.0060509364 -0.101455584
000170 cc 68 8a 3c 3f 92 3c bb 5d dc 2b 3e a7 70 44 bd
       0.016895674 -0.0028773693 0.1678328 -0.047958996
000180 5d 69 69 3d 1f a4 14 3d 34 79 72 3c 72 de 09 bd
       0.056985248 0.03628933 0.014799405 -0.033659406
000190 a5 68 da bc 85 e4 16 3e 32 dd ee 3d e0 bb 97 3d
       -0.026661227 0.14735611 0.116632834 0.07408881
0001a0 4c 22 e6 3c f9 3b 3f bc 47 ef 33 3d b7 de 60 be
       0.028092526 -0.011672013 0.043929365 -0.21959959
0001b0 d0 f9 0d be 8f fa 85 bd 47 ca fc 3d 96 0a 2b be
       -0.13864827 -0.06541931 0.12343269 -0.16703257
0001c0 fd c7 15 be f1 48 85 bd da 79 23 bd 9b d9 5c bd
       -0.1462707 -0.06508053 -0.03991113 -0.053918462
0001d0 70 ab 2e 3d e6 e1 e9 bd a2 9b 7e 3c 07 2f 84 3d
       0.042643964 -0.1142004 0.015540035 0.06454282
0001e0 7e 8d 2e 3e 79 c2 52 bc 0c a1 39 bb ac e9 54 3d
       0.17046162 -0.012863749 -0.0028324751 0.05198066
0001f0 a2 f3 9d 3d 5f cf 50 3e 44 88 ad 3d 7a 46 2a 3d
       0.07712485 0.20391606 0.08473256 0.041571118
000200 b6 b7 1b 3d 07 0a 2a 3e af 99 a2 bd b1 4a 6f be
       0.038016997 0.16605388 -0.07939469 -0.23368336
000210 ac d1 1f be c4 3c 87 bb 92 18 8c bd 90 c4 b3 3d
       -0.15607327 -0.004127117 -0.06840624 0.08777726
000220 b2 64 ad bd bb 52 7d 3d 28 d2 1e be 06 bf b8 bd
       -0.08466472 0.061846476 -0.15509856 -0.0902081
000230 02 93 e8 bc 05 51 57 bc 54 82 03 3d 03 b7 b4 bd
       -0.028390411 -0.013141875 0.032106712 -0.08823969
000240 40 12 68 bc 5d ed a5 bd 1b a0 8e bd 5b 73 a4 bd
       -0.014164507 -0.08101914 -0.069641314 -0.08029815
000250 34 10 5a 3e 66 09 a3 bd 81 9b 17 3e 13 0c 74 3c
       0.21295244 -0.07960777 0.14805414 0.014895457
000260 2a fe ca bd 10 a5 16 bd 25 dc 0f 3d d6 a8 11 be
       -0.09911759 -0.03677851 0.035122056 -0.14224562
000270 6e 4d 34 bd e2 bb 24 3e d2 36 79 3d 2c b8 fb 3d
       -0.044019155 0.16087297 0.060843296 0.12290987
000280 d6 18 f0 bd db f0 72 3c b6 49 c3 3c 6b 72 f4 bd
       -0.11723487 0.014827932 0.023838859 -0.11935886
000290 9c e6 c2 3d 41 fc 9d 3d b0 46 a2 3d f1 86 fa 3c
       0.095166415 0.07714129 0.07923639 0.030581923
0002a0 fc 4e cc bc 17 83 58 3d 31 ed 59 3d 1d 77 b4 bd
       -0.024940006 0.052859392 0.05320472 -0.088117816
0002b0 00 aa cd bd 57 e1 31 3d 85 43 72 be eb 96 d8 3d
       -0.100421906 0.04342779 -0.23658569 0.1057566
0002c0 42 95 39 be 8d 59 0c bd b3 a0 b1 3d 66 88 0d bb
       -0.18123344 -0.03426509 0.08673229 -0.0021596192
0002d0 53 96 d6 3c 3a d4 80 be 1a c3 0c 3e b4 ce a0 3d
       0.026194727 -0.25161916 0.137463 0.078519255
0002e0 be 58 bc bd ab 6e 15 3c 80 5f 00 3e 41 d1 bc 3d
       -0.09196614 0.009120624 0.1253643 0.092195995
0002f0 65 56 8d 3d 14 16 4d 3d 2a 4c eb bd 81 80 15 3d
       0.06901244 0.050069883 -0.114891365 0.036499504
000300 3b 5a 51 be cc d2 0b 3e e7 d2 a2 bd 23 a7 2b 3d
       -0.20444576 0.13654631 -0.07950383 0.04190744
000310 3a c9 9f bd 61 a0 0e 3d 40 94 fb bc 5c 12 09 bd
       -0.07802053 0.034820918 -0.03071034 -0.033464774
000320 77 f3 10 3d fc af a9 3d 79 6b 9a bc 5d 18 ba bc
       0.035388436 0.082855195 -0.018850075 -0.022716695
000330 b9 19 89 3c e1 df 9f 3c 5d d6 43 bd 04 01 25 bd
       0.016735898 0.019515933 -0.047811855 -0.04028417
000340 95 68 03 be d8 30 c8 3d 15 0c ad bd 32 a2 5f 3c
       -0.12832864 0.09774941 -0.0844957 0.01364951
000350 4e c9 ba 3d d3 14 7c bc cb 95 99 3d 21 52 d7 bd
       0.09120427 -0.015385824 0.07499274 -0.10513712
000360 89 d3 96 3d b3 44 7d bd 94 60 9f 3d ad 9f 19 3c
       0.07364566 -0.061833095 0.07782093 0.009376449
000370 fa ce cb bc 38 ea 06 3e c6 da ca bd be 0b e2 bd
       -0.024878968 0.13175285 -0.09905009 -0.11037396
000380 0f 88 89 3d 88 f5 84 bd dd c1 e3 bd 73 95 6d 3e
       0.06715404 -0.06492144 -0.11120961 0.23201542
000390 31 85 67 bd 29 3d 14 be 5f b6 1b 3d de ae ed bd
       -0.056523506 -0.14476456 0.03801572 -0.11605619
0003a0 d1 98 71 b9 a9 8f cf bd 99 03 5b 3e 97 be 42 3c
       -0.0002304048 -0.10134823 0.21388091 0.0118862605
0003b0 74 90 6d bd 0f 9e 9b bd 2c 65 26 bd bb 95 f8 bc
       -0.05799909 -0.07598507 -0.04062383 -0.030344835
0003c0 1e 7d 19 be 09 8f b7 bd cb f5 c0 b8 bc eb 25 bd
       -0.14989135 -0.08962829 -9.201056e-05 -0.040508017
0003d0 a0 4f 02 bd 04 de 08 3d 43 37 e5 3c ed 46 b5 bd
       -0.031814218 0.033414856 0.027980452 -0.08851419
0003e0 0c a2 5c be 6e d0 85 bc d8 ea c0 3c d2 41 9b bc
       -0.21546191 -0.016334739 0.023549482 -0.018952284
0003f0 ef 56 07 3d ef 96 f8 3c b7 81 b5 bd 1d ac 3f 3d
       0.03304189 0.030345408 -0.08862632 0.046795

network_body._body_endoder.seq_layers.2.bias f4 [128]
000000 40 56 a9 3a da 03 0d 3b 3d f7 02 3c 59 90 41 3c
       0.0012919381 0.0021517188 0.0079935165 0.0118142
000010 6f 1e 4a 3c d7 ae e3 3b a0 de 66 bb d2 e5 ba 3c
       0.0123363575 0.006948333 -0.003522791 0.022814665
000020 02 c3 b6 3b b5 13 38 3c 7c 86 d1 3b 7e 21 cd bb
       0.005577446 0.011235167 0.0063942056 -0.006260096
000030 13 f5 15 bc f9 ad 0c bb fa 2a 83 ba 14 4c 16 3c
       -0.0091526685 -0.0021466 -0.0010007315 0.009173412
000040 17 79 06 bc cb 1c da 3b 2e a0 65 3b 3e f2 3b 3c
       -0.008207581 0.0066562644 0.0035038101 0.011471329
000050 08 0f e7 ba e2 c3 9f bb 9b 56 23 bc a8 0a 2e ba
       -0.0017628381 -0.004875646 -0.009969379 -0.0006639161
000060 35 a8 36 bc e4 77 92 ba a0 02 f7 3b 56 57 0d 3c
       -0.011148502 -0.0011174646 0.0075381547 0.00862678
000070 a6 a0 06 bc 30 8e bc 3b 1f 95 6e 3c 8b f5 42 3c
       -0.0082170125 0.0057542548 0.01456192 0.011899362
000080 7e a7 e0 3b 62 26 38 ba 31 5c 5d 3b e0 40 32 3c
       0.006855904 -0.00070247625 0.0033776874 0.010879725
000090 91 55 ce 3c 80 89 af 3c 04 a6 ad 3a 76 a4 b4 3b
       0.025187286 0.02142787 0.0013248329 0.0055127693
0000a0 bf b2 f8 3b 3a df 2c 3c f1 bd 41 3c c6 66 04 3c
       0.0075896676 0.010551268 0.011825071 0.008081144
0000b0 a1 17 3b bb ac 14 97 3c cf 6a c0 ba e9 ca fa 3b
       -0.002854802 0.018442474 -0.0014680269 0.0076535833
0000c0 c1 ed 15 3c 61 97 fa 3c 22 2d 08 bb fd a6 3e 3b
       0.009150923 0.030589761 -0.0020778854 0.0029091232
0000d0 ae 34 d2 bb 4c 55 e5 3a 1f 83 f8 3b 24 96 ac bb
       -0.0064149713 0.0017496734 0.00758399 -0.0052669216
0000e0 6e 3b 37 3c 0f a1 5d 3c 2a 98 f8 bb 99 99 80 3c
       0.011183603 0.013527169 -0.0075864987 0.015698241
0000f0 52 c0 29 bb 5f 29 f5 bb 5b 41 9c bb b9 e9 39 3c
       -0.0025901985 -0.0074817385 -0.004768533 0.011347228
000100 6e aa 32 3b 9c 00 b3 3a 91 06 bf bb 7d 67 7b bb
       0.0027262229 0.0013656798 -0.00582964 -0.0038361244
000110 fb 45 6e 3c e5 36 05 bc 02 b8 d3 3b 7c 2e f3 3a
       0.014543052 -0.008130764 0.0064611444 0.0018553282
000120 dd da 60 3b 8d 91 cb 3c 59 43 27 3a d9 8d a3 bb
       0.003431014 0.024849677 0.000638058 -0.004991275
000130 a7 e0 06 bb e0 a5 2b bb eb 55 6e 3c 1e ff 04 3b
       -0.002058068 -0.0026191399 0.014546852 0.0020293663
000140 bb 0b 9b bb a0 c4 41 3b b3 3e c1 3b 33 67 ce 3c
       -0.004731623 0.002956666 0.005897367 0.025195694
000150 3e d1 de 3b ce a3 a7 bb 4a 27 e8 3c 80 b6 52 bc
       0.006799846 -0.0051159626 0.028339047 -0.012860894
000160 46 17 43 bc 0c a4 a2 bb 55 25 3a 3b 23 2d d4 bb
       -0.011907404 -0.0049634036 0.00284036 -0.0064751073
000170 e5 9c 92 3c 88 6e 86 3b 2a c4 2a 3b 02 9a 31 3b
       0.017897079 0.004102532 0.0026056864 0.0027099852
000180 52 a7 82 3c 84 8a bb 3b 4a 07 bc bb ad 39 58 3b
       0.015948925 0.0057232995 -0.0057381736 0.0032993362
000190 f5 ba f1 bb da f6 45 bc 31 93 0b bc 07 a9 b1 3b
       -0.0073770233 -0.01208278 -0.00851898 0.005421761
0001a0 c7 59 0b 3c 49 d0 17 3c a8 41 0b 3b 4d e1 3a 3c
       0.008505291 0.009265968 0.002124885 0.011406255
0001b0 7c 74 ef 3b e2 c0 58 3b 80 44 e7 3b b3 b5 91 3c
       0.007307587 0.0033073951 0.0070577264 0.017786836
0001c0 25 39 c0 3b b9 5b 7d bc 19 73 9e bb 24 5f e2 bb
       0.005866187 -0.015463763 -0.004835498 -0.0069083143
0001d0 9c 22 ee 3a 82 fc 1e 3c 84 5c 15 3c e3 5e 53 3c
       0.0018168273 0.009703757 0.009116296 0.012901041
0001e0 b5 6f 6b bb 95 e0 51 3c 9e 7f 3c bb 8a 87 35 bc
       -0.0035924737 0.012809892 -0.002876259 -0.011079678
0001f0 4b b4 31 bb 85 1c c1 bb 93 49 8d bb ca 48 70 3c
       -0.002711552 -0.0058932924 -0.0043117492 0.014665792

action_model._discrete_distribution.branches.0.weight f4 [3, 128]
000000 b8 7d 58 3c 77 a3 2f 3c 6c 6d 95 3c a0 44 85 bc
       0.013213567 0.010720125 0.018240653 -0.016268075
000010 33 8d 1d bd d9 90 55 bc 65 1f d2 ba 61 17 87 3d
       -0.038464736 -0.013035023 -0.0016031085 0.06596256
000020 d5 b7 91 3c 73 67 92 3b 05 e7 d2 3b f9 db 83 3c
       0.017787853 0.0044678985 0.006436231 0.016096102
000030 56 b0 b9 ba 43 b7 a9 3c e2 dc 74 3c 82 52 ca 3c
       -0.0014166932 0.020717269 0.014945241 0.024697546
000040 ef 2e 56 bc 4b 75 d8 bc aa d7 1f 3d 89 bb 06 3d
       -0.013072713 -0.026423117 0.039024033 0.03289369
000050 94 54 a3 3b 16 79 3f bc 80 b4 b6 3b 8f d8 45 3d
       0.0049844477 -0.011686584 0.0055757165 0.04830223
000060 5e 0f 6b 3b 2f 4b 78 bc 6a 02 aa 3b 2e 65 f5 3c
       0.0035867314 -0.015154644 0.005188276 0.029955473
000070 0e 4c 19 3c 0c f4 b8 bc e9 49 73 bc 95 8e f4 3c
       0.009356512 -0.022577308 -0.0148491645 0.029853145
000080 df 21 f5 3c 0a 33 fb bc bf 7d 70 3c 1b 35 c0 bc
       0.029923378 -0.030663986 0.014678418 -0.023462823
000090 0d bf 8b bc e5 a5 0d bd 0b 2e dc 3b 22 f6 7a 3c
       -0.017058874 -0.034582037 0.006719356 0.015317472
0000a0 7c c0 91 bc 5d 19 dc 3c 51 d9 93 bb 63 03 02 bc
       -0.017791979 0.026867563 -0.00451199 -0.007935378
0000b0 8c f1 f3 3c 3c e3 a1 bc 45 0f a7 bc 63 35 74 bc
       0.029778264 -0.019761674 -0.020393023 -0.0149053065
0000c0 39 22 31 3d d1 a2 0d 3c 23 e1 0d bb 43 f9 e2 bc
       0.043245528 0.0086447755 -0.0021649085 -0.027706748
0000d0 82 98 53 bc e4 e4 2a 3c 03 7a 49 bd 78 ec b6 bc
       -0.012914779 0.010430548 -0.049188625 -0.022329554
0000e0 1a d8 d1 3c 91 1d 53 3d da fb a5 3b a2 ef 32 3d
       0.02561574 0.05154187 0.0050654234 0.043685563
0000f0 bf 51 5d bc 79 aa 93 3b 38 86 0a 3d ce 20 10 bd
       -0.013508259 0.004506406 0.033819407 -0.035187535
000100 03 14 16 3c a7 1a 74 bc 54 74 d2 3a 70 57 2c bc
       0.009160045 -0.014898933 0.0016056397 -0.010518894
000110 8d 7f c1 3c ee 9c c3 bb 03 33 bd bb 9b 26 8d 3c
       0.023620391 -0.005969635 -0.0057739033 0.017230323
000120 34 c2 a3 bc 89 39 b1 3d 18 45 d6 bb 67 6b e5 bc
       -0.019990064 0.08653552 -0.0065389983 -0.028005315
000130 1d c4 5b 3c 6c 43 d8 bb 22 16 81 3d cc c3 6d 3c
       0.013413456 -0.006599834 0.063030496 0.014512014
000140 59 3b 65 ba b4 aa b1 bc d4 58 4c bd 99 f4 55 bd
       -0.00087445 -0.021687843 -0.0498894 -0.05223522
000150 c5 cf 0e 3d 5c cc 24 bc 34 17 78 3d 93 32 0b 3c
       0.034866113 -0.010058489 0.060569003 0.008495945
000160 49 05 ab ba e9 76 8c 3c b9 f9 5c 3b 2d d3 93 bc
       -0.001304784 0.017146545 0.0033718182 -0.018045032
000170 83 3c a8 3d 33 e9 3f bc bd a2 03 3d 8b 1d b2 3c
       0.08214667 -0.011713314 0.03213762 0.021742603
000180 41 5c e2 bc ea 17 a1 3c 06 91 6d 3c 4d 04 d6 bc
       -0.02763188 0.019664723 0.014499908 -0.026125098
000190 df 90 20 3c 65 19 24 3d 22 ed eb 3b fc 7e 8e 3d
       0.009800165 0.04006328 0.0071998993 0.06957814
0001a0 40 75 ea bc e2 02 8b 3c 08 2a 0f 3d b9 48 16 3d
       -0.028620362 0.016969148 0.034952193 0.036690447
0001b0 52 38 1d 3b 4c cc a7 3c 30 c1 bf bc f6 f6 5e bd
       0.0023989868 0.020483159 -0.023407549 -0.05443474
0001c0 6a 4b 4d bc 96 2e ca 3b 20 0f 29 bc 48 29 13 bc
       -0.012530187 0.0061701043 -0.0103185475 -0.00898201
0001d0 61 ba ea 3b 8d 53 df bc 17 5d 3e bc 6c 9d 09 bd
       0.0071633314 -0.02726152 -0.011618874 -0.033597395
0001e0 5c f4 21 bc ad f1 19 3d 32 9e ac 3b 47 55 b6 3c
       -0.00988492 0.037583996 0.005267882 0.02225746
0001f0 1d 05 0b ba 49 79 97 3c 9b bf 18 bb c2 f0 ea 3c
       -0.0005303191 0.01849045 -0.0023307565 0.028679255
000200 6d e3 0a 3b 10 b0 b1 ba 7a 42 8a 3b 3e 76 e5 bb
       0.0021192685 -0.0013556499 0.0042193504 -0.007002621
000210 c1 ed 1f 3c 49 ed 09 3c 9b 93 82 bc 77 9d 8d bc
       0.009761275 0.00841839 -0.015939524 -0.017287
000220 d1 fd b6 bb 30 a1 1d 3c 1b da 81 3c bc 13 d0 3c
       -0.0055844565 0.00962095 0.015851071 0.025400035
000230 96 87 0c 3c a1 86 ee 3b 4f ee f0 bc 53 df 3b bb
       0.008577248 0.0072792326 -0.02941051 -0.0028667047
000240 bb 5a 4d 3c c1 77 bc 3a fe ef ac bc a2 8a a8 3c
       0.012533839 0.0014378951 -0.021110531 0.020573918
000250 b4 37 a3 bc fe 6d d7 b8 c0 0a a1 ba b6 8e 0b 3d
       -0.019924022 -0.000102724865 -0.0012286529 0.034071647
000260 f2 27 04 bb 7b 22 0a 3c f7 f2 d4 bc 1d 48 6c bc
       -0.002016541 0.008431072 -0.02599476 -0.01442149
000270 53 36 c9 ba 37 3c 97 3c d6 b5 27 bc a4 36 a0 bb
       -0.0015351273 0.01846133 -0.010236224 -0.004889326
000280 f5 8b dd bb 4b 56 a5 3c 7d f2 82 bb fa 91 fe ba
       -0.006761069 0.02018275 -0.003996192 -0.0019422167
000290 d2 3a 61 3b df 63 7f 3b 3f 08 a3 3c ac 15 92 3c
       0.0034367335 0.003896944 0.019901393 0.0178326
0002a0 cd 9a 6e bc 65 87 59 3c 17 e4 f0 3b fc 4c ec 3b
       -0.014563275 0.0132769095 0.007351409 0.0072113257
0002b0 25 1d 3e bc f9 7a 6e bc aa 5d e3 3c ce 4e 9a bc
       -0.011603628 -0.014555686 0.027754623 -0.018836405
0002c0 a8 11 01 bc 81 84 8e 3c 34 1e 2d 3c b0 2b 3e b9
       -0.007877745 0.017397167 0.010566283 -0.00018136087
0002d0 b4 ea 82 bb 2c 73 88 bb cc f9 3f ba f2 55 8f 3a
       -0.003995264 -0.00416412 -0.00073232944 0.0010935648
0002e0 b9 84 59 3c 5b ff 3c bc df 16 17 3b 30 57 40 bc
       0.013276272 -0.011535491 0.0023054404 -0.011739537
0002f0 8c e2 88 3b 17 6e 4d 3c b5 03 a8 bc be 2e ab bb
       0.004177397 0.0125384545 -0.02050958 -0.005224078
000300 f2 0a 34 bc 6a e9 47 ba d2 c7 2e bb 59 63 13 bc
       -0.010988938 -0.0007626029 -0.0026669395 -0.008995854
000310 91 0d 72 bc 64 d5 01 3c 3a 70 6b bb 84 f7 a1 ba
       -0.014773742 0.007924411 -0.0035925047 -0.0012357091
000320 57 4e bc bc e3 87 bf bc 74 ce be 3b 71 b0 bc 39
       -0.022986574 -0.023380226 0.005822951 0.00035989613
000330 b7 e9 ae bc 01 d8 0e bc c8 34 07 bc b3 22 01 bb
       -0.021351678 -0.0087184915 -0.00825233 -0.001970452
000340 7a 79 4c bc a1 dd b7 3a 15 03 f3 3c 50 ab c0 3c
       -0.012480134 0.0014027843 0.029664556 0.023519188
000350 de fc fd bb dd 36 3c ba ce ee b4 3b 4b 97 0e bb
       -0.0077510914 -0.0007179806 0.005521632 -0.0021757658
000360 a9 8c 0c bb ac 85 ad bc a3 fa f9 39 54 a7 99 bc
       -0.0021446145 -0.021181904 0.0004767972 -0.018756546
000370 28 9d 03 bb 32 0b 93 3c 06 3b 8d bc 69 63 f4 bc
       -0.0020082686 0.017949674 -0.017240059 -0.029832559
000380 01 2e 95 3c d7 40 a2 ba 47 67 49 3b 9f 9a 79 3a
       0.018210413 -0.0012378943 0.0030731724 0.00095216365
000390 ce a0 4a 3c 1c bd 45 bc 60 d6 66 3c 14 8b b6 bc
       0.01236744 -0.012069013 0.014089197 -0.022283114
0003a0 ff a5 c1 ba 4b df 88 3c 28 f2 30 b9 c1 da 98 bc
       -0.0014774202 0.016708037 -0.00016874878 -0.018658997
0003b0 96 8d 22 3b a2 a0 13 3a d2 e1 a6 bc d8 1c 12 bc
       0.002480363 0.0005631541 -0.020371351 -0.00891801
0003c0 55 94 f9 bc f5 a3 68 ba 73 d8 0d bc 49 4b 0b b9
       -0.030466238 -0.0008874529 -0.008657563 -0.00013284119
0003d0 aa 64 99 bc e8 c7 bc 3a 31 59 b7 bc f5 42 48 39
       -0.018724758 0.0014402838 -0.022381397 0.0001909843
0003e0 db 97 11 3c b8 f4 3c 3c 91 8e 38 bc 25 3a 80 bc
       0.008886303 0.011532955 -0.011264459 -0.015652725
0003f0 31 23 13 bc 6f c3 ed ba 8e d1 f9 3b 4b a2 e6 bc
       -0.008980558 -0.0018139909 0.007623858 -0.02815356

action_model._discrete_distribution.branches.0.bias f4 [3]
000000 98 0f 82 bb 80 13 28 3b 60 dc 1f 3b
       -0.003969144 0.0025646389 0.0024392828

action_model._discrete_distribution.branches.1.weight f4 [2, 128]
000000 bc 3c a3 bb 29 0d 27 3c 83 29 6b bc de b3 f8 bb
       -0.0049816053 0.010196009 -0.014353159 -0.007589801
000010 c3 8f 8e bb f7 0a ab ba dc 8e 51 3b 8e 73 55 3c
       -0.004350634 -0.0013049532 0.003197602 0.013028039
000020 ad 92 a9 3b 1d 2d 51 bc 76 46 f3 bb 04 6b 04 bd
       0.005174956 -0.0127671035 -0.007424171 -0.03232862
000030 6c 35 fc 3b 0d 25 e1 3b 7b a7 0c 3d d0 b5 4a bc
       0.007696798 0.006870872 0.03433941 -0.012372449
000040 1b 05 06 bc 49 02 4a 3d ec d6 e5 3c ce b4 4f bb
       -0.008179928 0.049318586 0.028056584 -0.0031693461
000050 48 55 28 3d a2 8b c5 bb 2e 06 71 3c 55 85 3b bc
       0.041096956 -0.0060286084 0.014710946 -0.011445363
000060 d8 c3 8f bc fd 27 6e bc c0 ec 54 bb 52 c0 e6 bb
       -0.01754944 -0.014535901 -0.0032489747 -0.0070419693
000070 75 be a0 3c d0 bb 6e 3b fc 25 90 bc 0c cf 05 3d
       0.019622067 0.0036427863 -0.017596237 0.03266816
000080 c3 f0 49 bc 78 c6 be bb 3e 1d c1 bb 71 be 55 bc
       -0.0123254685 -0.005821999 -0.0058933785 -0.013045893
000090 21 31 18 bd cf ae df bc 70 ab 03 3c a9 27 2f 3d
       -0.037156228 -0.027305035 0.008036479 0.042762432
0000a0 fd d5 75 bc 7f 1f 61 bc e0 7e ad bc 1e bc 34 bc
       -0.015004632 -0.013740419 -0.021178663 -0.011031179
0000b0 a3 bf 46 3b c1 1e 71 bc fe bb 3e 3b 4e 33 cb 3c
       0.0030326627 -0.014716805 0.0029103751 0.024804737
0000c0 f3 e4 cb b9 7f d8 e5 bc 79 d9 d5 3b f4 6b 00 bc
       -0.00038889758 -0.028057335 0.006526169 -0.007838238
0000d0 07 0b 1a 3c 08 6b 90 3a 2c 5d cb 3a 4b d2 0d 3c
       0.009402043 0.0011018226 0.0015515438 0.008656095
0000e0 5b a0 bd bc 0a 97 50 3d f8 8c e6 3a 8b 50 f0 3b
       -0.023147753 0.050925292 0.0017589619 0.00733382
0000f0 4a 5a 9c bb 34 73 78 3b cb 9f 35 3c b9 89 1d 3c
       -0.0047715055 0.0037910463 0.011085461 0.009615355
000100 44 10 b0 ba 92 6f c9 ba b5 8a c8 3b 93 56 d7 3c
       -0.0013432582 -0.0015368334 0.006120051 0.026286399
000110 d6 b4 58 3c 98 13 26 bc 59 56 f0 bb 66 d1 0d bc
       0.013226708 -0.010136507 -0.007334512 -0.0086558815
000120 80 19 ce 3c b3 40 b6 bb 3f a6 71 39 51 06 88 3c
       0.025158644 -0.005561912 0.00023045483 0.016604574
000130 fb fa 4a 3c c6 80 35 3c 7c 03 b3 3c e7 96 a5 ba
       0.01238894 0.011078065 0.021852247 -0.0012633473
000140 f9 c9 08 3c 83 73 08 bc 55 8a 27 3b e1 f2 9c bc
       0.008348935 -0.008328321 0.002556463 -0.019158782
000150 8a 13 95 3c f8 f6 c9 3b 70 ba a0 bc ac 05 73 3c
       0.018197794 0.006163474 -0.01962015 0.014832895
000160 37 49 96 3c 1c 5e 0d 3c 2a 44 80 bc 50 d4 3f 3c
       0.018345458 0.008628394 -0.015657503 0.011708334
000170 07 22 7c 3c 5f 96 0b bb 73 88 22 3d 0c 01 f0 3c
       0.015388972 -0.0021299345 0.03968091 0.029297374
000180 3e 00 f2 bc c1 f1 78 bc 92 97 62 3b 3e 5f b9 3b
       -0.029541131 -0.015194357 0.0034575206 0.0056571057
000190 0f 54 90 3b 94 07 50 3d ca 68 b5 3b dd b2 34 3d
       0.004404552 0.050788477 0.0055361735 0.04411589
0001a0 8a 83 1f bc 67 66 8d bc 86 a0 5a 3b 27 36 99 bc
       -0.009735951 -0.017260743 0.003335984 -0.01870258
0001b0 3a c2 98 bc 51 c4 97 ba 1c a1 2b 3b 10 f4 09 3d
       -0.018647302 -0.0011578893 0.0026188558 0.03368002
0001c0 8e 04 9c 3c 18 2d a2 bb 5e 97 74 bb 65 83 ba 3c
       0.01904514 -0.0049492233 -0.0037321667 0.022767732
0001d0 79 8a b8 b9 11 35 60 3b 31 09 70 bc 4c df 3e 3c
       -0.00035198385 0.0034211318 -0.014650629 0.011649918
0001e0 a7 4f 85 3c 18 de 40 bc de 7f 75 3b 36 a0 04 3d
       0.016273333 -0.011771701 0.0037460248 0.03237935
0001f0 4e e3 b7 bb 89 65 32 bb 10 ad 98 bb 22 b5 18 bd
       -0.0056118136 -0.0027221164 -0.0046593025 -0.037282117
000200 ba 0d 80 bc 2b 34 ca bc 8c 19 09 3c 6c 62 e0 3a
       -0.015631545 -0.024683079 0.008367907 0.0017119176
000210 8b a8 a2 3b 91 d0 36 3c 5d 35 28 bc 1a 30 b3 bc
       0.0049639395 0.011158125 -0.010266629 -0.021873523
000220 3b 2f 3c bc d1 e9 ed 3b c4 61 f0 3c 5b db 10 3d
       -0.01148587 0.007260539 0.029343493 0.035365444
000230 85 1a 47 bb 7f af 66 3c dd 78 10 bd db fd 38 3c
       -0.0030380797 0.0140799275 -0.035271514 0.011290993
000240 95 9f 02 bc c1 ab 2c bd 5f 00 2d bd 5f 4d f4 bb
       -0.007972618 -0.042155985 -0.042236682 -0.0074555124
000250 0f e1 11 bd ca ed 3e 3a b9 36 de bb 68 c9 da 3c
       -0.035615023 0.0007283358 -0.006781426 0.026707366
000260 ad a8 02 bc 82 c4 15 ba f5 74 1c bb 7c 9b f0 3b
       -0.007974786 -0.0005713181 -0.0023873423 0.007342754
000270 c8 13 31 3b a1 ed 19 3c 0e 66 90 3c cc b6 23 bd
       0.0027019847 0.009395034 0.017626788 -0.03996925
000280 2e 68 9a bb 05 84 a8 3b a8 b2 07 3c ed 11 ae 3a
       -0.004712126 0.005142691 0.008282341 0.0013280489
000290 cd 55 24 3d b7 b0 5d 3d 62 63 bb 3c e1 68 d8 bc
       0.04012089 0.054123607 0.022874538 -0.026417198
0002a0 eb 6a 9c 3b 96 fc 04 3c 81 fa de 3b 13 3b 43 3c
       0.004773488 0.008116862 0.0068047647 0.01191594
0002b0 b2 60 48 3b 1f a4 75 bb 8a 0c 75 3b 1e f0 2d bd
       0.0030575213 -0.0037481857 0.0037391507 -0.04246532
0002c0 e9 f5 2c 3c ca a9 90 3c 23 d0 78 bc f9 8b 09 bb
       0.010556676 0.017659087 -0.015186342 -0.0020987971
0002d0 83 87 38 3c 32 ae 5d bc 75 d7 0d 3b 4d b0 96 bb
       0.011262777 -0.013530301 0.0021643315 -0.0045986534
0002e0 bb 14 a0 3c 1f 89 20 bd df 91 04 3c da 06 12 bb
       0.019541135 -0.03919327 0.008091419 -0.0022281916
0002f0 9d 93 47 3a 32 01 fb bb d2 f8 c6 bc a0 83 33 bb
       0.00076132437 -0.0076600546 -0.024288569 -0.0027391687
000300 1a 1e 21 bc c0 68 b4 3b 77 32 18 3c 0e 6d 34 bd
       -0.009833837 0.0055056512 0.0092893755 -0.044049315
000310 58 33 a5 bc fd 48 35 bb 0e da 67 3c 5f 92 f6 bb
       -0.020166084 -0.0027661913 0.014151109 -0.007524773
000320 2a d7 4a bc bf 18 69 bc 1b e7 e3 3b 52 ee a8 bb
       -0.012380401 -0.014227091 0.00695504 -0.005155363
000330 fe 2d dd bb bf 0b 3b ba b3 7c 40 bd ab 69 6f bb
       -0.0067498675 -0.0007135234 -0.046993922 -0.003653149
000340 5c 88 5e 3c d1 af 0a bc 77 24 76 bc 8d 34 c3 3b
       0.013582315 -0.008464769 -0.015023342 0.0059571923
000350 74 c1 0b bd 59 53 b0 bc ed 00 1b 3c 82 8e 5c bb
       -0.03412004 -0.021524118 0.00946067 -0.0033654277
000360 8e e4 a3 3a c6 f3 65 ba 64 0f 14 3b 5e 87 4f bc
       0.0012504028 -0.0008771982 0.0022592181 -0.012666551
000370 a3 e1 ba bc c9 b9 2f 3c f6 59 54 bd f0 8c d7 bc
       -0.02281267 0.010725447 -0.051843606 -0.026312321
000380 69 86 b5 3c 55 9b 87 3a d7 16 0e ba c5 1e 6d 3c
       0.022158818 0.0010345975 -0.00054202735 0.014472668
000390 28 fd 18 bc 72 a3 22 bd 2e 65 d3 bc 99 de 6b bd
       -0.009337701 -0.039706655 -0.025805082 -0.057585333
0003a0 9a e7 5d 3b 23 51 6c 3c d3 9f 5d ba 0b 93 d9 3c
       0.003385997 0.014423641 -0.00084542966 0.026559373
0003b0 a7 e1 86 3b d6 51 3e 3c e2 34 23 bc 0d ff b2 bc
       0.0041162553 0.011616191 -0.009961339 -0.021850133
0003c0 7d 8a 51 bc 8b 3b 02 bc ff 05 c8 bc 8a e2 91 bb
       -0.012789366 -0.007948766 -0.024416922 -0.0044520544
0003d0 80 cc c1 3b a0 5b c7 3a 38 bd 77 3c 44 36 b6 bc
       0.005914271 0.0015209801 0.015120797 -0.022242673
0003e0 c2 d8 69 bc 1a 32 68 3c 93 99 98 b9 13 d1 d9 bc
       -0.0142728705 0.014172101 -0.0002910612 -0.026588952
0003f0 f7 04 3f bb 0d 0f b8 3b 48 d9 a4 3b 3c e5 11 3d
       -0.0029147246 0.0056170286 0.0050307848 0.035619006

action_model._discrete_distribution.branches.1.bias f4 [2]
000000 c7 d2 23 bc c5 d2 23 3c
       -0.009998984 0.009998982

exp_avg f4 [128, 52]
000000 e6 f3 20 b4 1c b4 4c b4 58 2a 68 b5 a0 ed 6b b5
       -1.4989891e-07 -1.9064504e-07 -8.6488353e-07 -8.789011e-07
000010 82 b9 d8 b5 ee 62 b9 b5 0d fb a2 b5 6c 6d 86 b5
       -1.6147244e-06 -1.3812366e-06 -1.2143006e-06 -1.0015624e-06
000020 d1 19 aa b5 64 7a 9b b5 e9 55 df b5 50 a9 9b b5
       -1.2673501e-06 -1.158402e-06 -1.6639798e-06 -1.1597676e-06
000030 93 90 a9 b4 9e 84 68 b4 14 51 7f b4 00 d5 e0 b5
       -3.1583895e-07 -2.165493e-07 -2.3778222e-07 -1.6751292e-06
000040 7b 17 7b b6 f4 cc ea b5 2d 1b c3 b5 97 46 8f b5
       -3.7415582e-06 -1.7494008e-06 -1.4536541e-06 -1.0674875e-06
000050 3d d0 12 b6 3a 3d 8f b5 88 16 ad b5 a6 97 c6 b5
       -2.1876906e-06 -1.067215e-06 -1.2896062e-06 -1.4796285e-06
000060 81 2f a8 b5 7e de c6 b4 e3 7e 78 b4 08 5c 46 34
       -1.2530801e-06 -3.7042258e-07 -2.3142961e-07 1.8473668e-07
000070 00 7a 02 37 80 54 fc b3 10 64 fc 36 a0 df 1b 35
       7.777009e-06 -1.1750035e-07 7.521834e-06 5.8067417e-07
000080 4c 03 e6 35 66 26 16 36 c0 05 a1 36 06 99 c0 35
       1.7137295e-06 2.2374093e-06 4.7988433e-06 1.434965e-06
000090 8b db c4 36 b6 d1 0f 36 f7 6c 28 b4 a3 32 f1 b3
       5.8668134e-06 2.1430728e-06 -1.568586e-07 -1.1231648e-07
0000a0 58 68 c8 32 54 99 1c 36 0e 4b 36 b7 72 5c aa b6
       2.3330514e-08 2.333506e-06 -1.086552e-05 -5.077157e-06
0000b0 d4 8d 47 b6 16 41 d4 35 70 73 83 35 42 56 63 36
       -2.9735866e-06 1.5814173e-06 9.793857e-07 3.3875845e-06
0000c0 f6 09 94 35 ca fe a8 b6 dc 80 33 36 b0 9b 52 34
       1.1029758e-06 -5.0364515e-06 2.6748085e-06 1.9614413e-07
0000d0 7e 89 d6 37 3c 11 ac 37 0b 8e 98 ba 34 0d 7d ba
       2.5574813e-05 2.0512023e-05 -0.0011639012 -0.00096531515
0000e0 0a 4e a3 38 63 43 c1 b8 f0 85 5a 37 0a d8 74 39
       7.7869816e-05 -9.215509e-05 1.3024997e-05 0.00023350134
0000f0 00 84 31 38 9c ac a8 38 71 ac c0 b8 68 c7 93 39
       4.2323023e-05 8.043015e-05 -9.187393e-05 0.00028186594
000100 40 96 37 b6 66 a8 b5 37 21 67 36 38 6f 9f d4 ba
       -2.7356582e-06 2.1655298e-05 4.3488228e-05 -0.0016221831
000110 fd 55 5d ba fe d3 02 b9 da 2d 4b b9 d4 12 27 b8
       -0.0008443294 -0.0001247674 -0.0001937667 -3.9833438e-05
000120 90 af ae 39 1e 0b 0b b8 6b 4c 62 38 37 9b 28 b9
       0.0003331867 -3.3150536e-05 5.395377e-05 -0.0001607955
000130 0a f3 9e 39 78 0a b3 36 1c b5 cd 37 4f d0 87 37
       0.00030317187 5.3358344e-06 2.452224e-05 1.6190255e-05
000140 d2 ec 00 bb 90 68 9d b9 d6 9e 16 b9 64 08 00 b8
       -0.0019672406 -0.0003002328 -0.00014364286 -3.0525393e-05
000150 c0 3d 7c b7 a2 39 58 39 1a 0a b3 38 82 39 bb 38
       -1.5034748e-05 0.00020620835 8.537267e-05 8.9275665e-05
000160 e8 8e c1 37 c0 73 9c 39 f1 1a 4e 37 2a 2e 01 38
       2.3073939e-05 0.0002984088 1.228483e-05 3.079899e-05
000170 32 9f ef 37 8d 9b f4 ba 88 45 47 b9 a0 73 79 38
       2.8565151e-05 -0.001866208 -0.00019004021 5.947391e-05
000180 e4 89 c8 38 30 23 eb 37 f4 ab 92 b9 42 40 a5 37
       9.562427e-05 2.8030569e-05 -0.00027975405 1.9699455e-05
000190 0b fd 80 38 b8 83 7b 38 00 03 be b7 b2 1c 58 38
       6.1506486e-05 5.9965736e-05 -2.2651162e-05 5.1525138e-05
0001a0 52 67 2e b4 3d 1a 2e b4 73 65 f6 b5 6e 7a 87 b5
       -1.62426e-07 -1.6214558e-07 -1.8357954e-06 -1.0093916e-06
0001b0 66 7b 48 b5 41 7a 23 b5 8a f9 55 b5 04 3e 82 b5
       -7.4685374e-07 -6.0900135e-07 -7.971181e-07 -9.703804e-07
0001c0 31 e3 83 b5 28 c2 88 b5 3a f6 28 b5 2a 30 7c b5
       -9.826382e-07 -1.0189297e-06 -6.2943184e-07 -9.3947403e-07
0001d0 97 63 44 b4 82 ea 0d b4 43 22 32 b4 32 42 d8 b5
       -1.8290153e-07 -1.3216962e-07 -1.6590006e-07 -1.611252e-06
0001e0 b4 77 70 b5 a6 9a 70 b5 ce 61 5e b5 98 16 58 b5
       -8.958116e-07 -8.963201e-07 -8.284377e-07 -8.049915e-07
0001f0 08 28 63 b5 e3 7e 63 b5 7e 8a 67 b5 00 54 76 b5
       -8.4622343e-07 -8.4748734e-07 -8.625574e-07 -9.176438e-07
000200 d8 d4 5f b5 22 d4 99 32 f6 39 19 b4 36 d3 26 b4
       -8.33837e-07 1.7908011e-08 -1.4270321e-07 -1.5536793e-07
000210 06 c7 b8 b5 80 6b 5c b5 67 2f a1 b5 42 be 94 b5
       -1.3766992e-06 -8.211282e-07 -1.2009231e-06 -1.1082232e-06
000220 50 a8 5b b5 c6 1b 3d b5 3c 00 3a b5 94 9f 4d b5
       -8.1828784e-07 -7.04484e-07 -6.929074e-07 -7.660067e-07
000230 27 bc 9c b5 08 99 41 b5 f5 81 74 b4 b0 92 17 b4
       -1.1677665e-06 -7.212079e-07 -2.2771549e-07 -1.4116335e-07
000240 aa 0c 31 b4 52 38 9d b5 b6 29 32 b5 96 2c 0b b6
       -1.6489017e-07 -1.1713803e-06 -6.6370865e-07 -2.0738566e-06
000250 8b 98 d1 b5 97 25 67 b5 e8 3b 11 b5 82 c4 0f b5
       -1.5616109e-06 -8.6108906e-07 -5.4103884e-07 -5.355761e-07
000260 08 2e 27 b5 bb a3 ff b5 22 56 0d b5 5c 92 f3 b3
       -6.227933e-07 -1.9046632e-06 -5.2651933e-07 -1.1342192e-07
000270 3c 2e 22 36 4a 0a 03 b7 44 47 96 ba 3c 6b 68 b9
       2.4166793e-06 -7.810604e-06 -0.0011465331 -0.00022165192
000280 34 7d 29 b9 32 a5 09 b9 9b a3 98 b8 90 12 09 b9
       -0.00016163738 -0.00013126878 -7.278399e-05 -0.00013072253
000290 68 0c 12 b9 f9 02 97 b8 be 71 2a b9 8d 0c 05 b9
       -0.00013928267 -7.200795e-05 -0.00016254836 -0.00012688544
0002a0 1c 07 17 33 bc 00 78 35 05 20 d4 36 b1 55 96 ba
       3.5163893e-08 9.238827e-07 6.32182e-06 -0.001146963
0002b0 6a ec 66 b9 62 36 1f b9 ba b7 07 b9 fe 46 9a b8
       -0.0002202258 -0.00015183681 -0.00012943047 -7.3565156e-05
0002c0 05 49 1f b9 f7 3d 16 b9 24 14 9b b8 00 95 18 b9
       -0.00015190624 -0.00014328198 -7.3947274e-05 -0.00014551356
0002d0 ae 42 11 b9 eb df 0a b7 83 fb c6 35 13 ed 08 b6
       -0.00013853118 -8.277576e-06 1.4825349e-06 -2.0403575e-06
0002e0 38 d2 96 ba 44 bf 71 b9 60 ef 1d b9 58 5f 09 b9
       -0.0011506742 -0.00023054803 -0.00015061861 -0.00013100856
0002f0 bc 81 9d b8 7a ca 2a b9 e1 c9 13 b9 52 99 a2 b8
       -7.510508e-05 -0.00016287892 -0.00014094218 -7.75332e-05
000300 d6 da 11 b9 b7 90 21 b9 cd 49 82 b6 d8 be 94 34
       -0.000139098 -0.00015408067 -3.8828935e-06 2.7706005e-07
000310 fe 97 02 37 c9 8c 97 ba fa 45 7d b9 b5 a1 18 b9
       7.783992e-06 -0.0011562343 -0.00024154029 -0.0001455609
000320 1d 6d 07 b9 24 bc 9e b8 ef 9c 33 b9 45 82 f0 b8
       -0.00012915251 -7.569071e-05 -0.00017129233 -0.000114683564
000330 09 4e ab b8 ec 39 06 b9 60 ec 37 b9 18 36 2a b7
       -8.1684506e-05 -0.00012800813 -0.00017540297 -1.0145384e-05
000340 14 be 08 b6 04 40 62 b5 25 e8 a7 b7 a6 b4 22 b7
       -2.037622e-06 -8.4284716e-07 -2.0016052e-05 -9.698013e-06
000350 ee 68 b3 b6 b1 4e b8 b6 d1 12 4a b7 66 46 7b b7
       -5.346831e-06 -5.492788e-06 -1.2044519e-05 -1.4977157e-05
000360 44 bd 97 b7 59 67 76 b7 36 b9 81 b6 7c 74 86 b7
       -1.8088736e-05 -1.4686805e-05 -3.866061e-06 -1.6028287e-05
000370 ce 01 2b b6 13 f5 f0 b5 52 31 5f b5 92 0f 9f b7
       -2.5482036e-06 -1.7952719e-06 -8.3145744e-07 -1.8961528e-05
000380 ba 60 cf b6 0e 6b b9 b6 44 5c 8e b6 d8 26 13 b7
       -6.180341e-06 -5.5258924e-06 -4.242671e-06 -8.770927e-06
000390 d1 2a 8a b7 71 f2 a0 b7 9a 9c 73 b7 04 ee 81 b6
       -1.647082e-05 -1.9186382e-05 -1.452039e-05 -3.8722083e-06
0003a0 7a d1 7e b7 20 b4 90 b5 74 fc dc b5 98 d2 5f b5
       -1.5188352e-05 -1.0781259e-06 -1.6464751e-06 -8.338043e-07
0003b0 b9 56 86 b7 98 ca d2 b6 fb 03 bf b6 20 9c 65 b6
       -1.6014428e-05 -6.2820727e-06 -5.692707e-06 -3.4214536e-06
0003c0 7a 4e c6 b6 64 d5 83 b7 a0 9b ac b7 5a 46 7b b7
       -5.9099957e-06 -1.5715785e-05 -2.0576466e-05 -1.4977146e-05
0003d0 ae 62 8e b6 25 0b 85 b7 ed 8e bf b5 e0 37 f5 b5
       -4.2434176e-06 -1.5860025e-05 -1.4272206e-06 -1.8270184e-06
0003e0 db ef a4 b5 9c e5 28 b8 fa 26 19 b7 24 38 fa b6
       -1.2288759e-06 -4.026816e-05 -9.128586e-06 -7.457116e-06
0003f0 8e 34 87 b6 67 5d a3 b6 0d 15 30 b7 71 15 b5 b7
       -4.0294317e-06 -4.868652e-06 -1.0495319e-05 -2.1586866e-05
