KartSCBIO/results/circuitoA-3/ArcadeDriver/ArcadeDriver-499974.onnx (onnx, 96494 bytes, 9 tensors)

discrete_action_output_shape f4 [1, 2]
000000 00 00 40 40 00 00 00 40
       3.0 2.0

network_body._body_endoder.seq_layers.0.weight f4 [128, 48]
000000 f5 8b 0c be 9f bc 41 3d 14 63 2f 3d 21 11 65 bd
       -0.13725264 0.047299024 0.042819098 -0.05592454
000010 57 de 9b 3e e4 1d ca 3d 79 cb 43 3e 48 7e 35 3e
       0.3044307 0.098689824 0.19120587 0.17723954
000020 a4 bb 76 bc d8 af 09 3e 88 73 20 3e 75 3b 18 3d
       -0.015059385 0.13445985 0.15669072 0.037166078
000030 12 3a 19 3e 83 f5 0c be 23 a3 16 3d c3 9e 7f bd
       0.14963558 -0.1376553 0.036776673 -0.062407266
000040 94 98 ff 3c 40 ed 73 3d 13 d3 64 3d 84 3f 57 be
       0.031200685 0.05955243 0.05586536 -0.21020323
000050 f9 54 1b 3e 32 87 9b be 10 11 53 bd 64 d0 55 3e
       0.15169133 -0.30376583 -0.051529944 0.20880276
000060 1b 6c 1b 3e dd 64 24 be bc 00 5e bd 37 bd 43 3e
       0.15177958 -0.16054101 -0.05419992 0.19115148
000070 00 6c 36 be 0b 30 6d 3d fa 6a 1d be 8a 3d 46 3d
       -0.17814636 0.057907145 -0.1537284 0.048398532
000080 0e ed 17 be 44 ee 96 3d 1b 77 79 3c 4f 7b 90 bc
       -0.14836523 0.07369664 0.015226151 -0.017636923
000090 1c be 89 3e 9a 72 01 be 2e d5 d2 3d c5 a5 26 be
       0.26902854 -0.12641373 0.10294567 -0.16274174
0000a0 9e 3e 4b bd 79 c2 8d be 5f 40 79 3c f8 70 a9 3d
       -0.049620263 -0.27687433 0.015213101 0.082735
0000b0 55 a2 45 3d b9 6b 04 bd 4f fc a2 3e 80 0d 5b 3d
       0.048250515 -0.032329295 0.3183312 0.05347967
0000c0 3a dc 25 3d 50 b3 56 bc c6 42 52 3c 20 6d 92 3e
       0.040493228 -0.013104275 0.012833303 0.2859888
0000d0 76 22 bb 3d 27 1c 6a 3e 4f 53 f8 bb d3 ad dc 3d
       0.09137432 0.22862302 -0.0075782905 0.10775342
0000e0 4a ed 06 3e b7 d8 bb 3d 71 90 35 3e 52 41 4f 3e
       0.13176456 0.091721945 0.17730881 0.20239761
0000f0 37 b9 e2 bd 83 13 07 be 8e 55 55 3d 0f fb 3f 3e
       -0.11070483 -0.13191037 0.052083544 0.18748115
000100 d8 53 2a 3d d1 d0 19 be 7b d0 f9 bc ba cd 61 3e
       0.041583866 -0.15021063 -0.030494919 0.22051135
000110 01 55 17 3d 1f 03 e2 bd f3 94 88 3e 9a 24 eb 3d
       0.0369463 -0.110357516 0.2667614 0.114815906
000120 78 ad 18 3d 43 09 52 3e 4d a2 8c 3c f5 50 08 3e
       0.037274808 0.20511346 0.017167235 0.13312133
000130 d0 d9 5e 3e c9 0a 9f bd fd d5 36 bd 05 dc 14 be
       0.21762776 -0.07765729 -0.04463767 -0.14537056
000140 1c 42 fc 3d e0 85 4b be d1 bf 99 be 1a d6 19 3e
       0.12317297 -0.19875288 -0.30029157 0.1502308
000150 e6 36 27 3e d0 e5 20 3e 1d 78 b9 bd 2e 05 5b 3e
       0.16329536 0.15712667 -0.09056113 0.21388695
000160 30 0e 67 3e 9f 52 c9 3c 76 5a 1b be 48 5d 92 3d
       0.22564006 0.02457553 -0.15171227 0.07146698
000170 f3 19 40 3e d5 e0 c0 3c ab 0d 30 bd 9f 09 80 bd
       0.18759899 0.023544708 -0.042981785 -0.06251835
000180 3a 46 75 3e 31 11 fa 3b 85 dd 49 3e 3a 04 8e 3d
       0.2395257 0.007631444 0.19713409 0.069344
000190 93 19 87 3e 58 32 e4 3b 43 49 dd 3c 7b 66 7f 3b
       0.263867 0.0069640093 0.027012473 0.0038970995
0001a0 58 ce 8e 3d cb 82 c9 bc 2a 85 0b 3d f7 57 53 be
       0.06972951 -0.0245985 0.034062542 -0.20639025
0001b0 c6 d7 29 3e 6a 94 1e be c6 6f e9 3d 17 74 b5 be
       0.16586217 -0.15486303 0.11398272 -0.35440132
0001c0 95 0d 3d 3d 50 59 3c 3d f6 a8 41 3d 56 7a e4 3e
       0.04615553 0.045983613 0.047280274 0.44624585
0001d0 46 fc 6d 3d 89 de 1d 3e dd a9 8e bd 16 f4 ca 3d
       0.058101915 0.15416922 -0.069659926 0.09909837
0001e0 80 8b 9c 3d 9a 58 0a 3d 07 07 02 3e e7 f8 f9 3d
       0.07643795 0.033775903 0.12697993 0.122056775
0001f0 18 e7 7d 3c 90 69 29 bd 0b 84 f3 bd 4e 15 e8 bd
       0.015496992 -0.041360438 -0.118904196 -0.113321885
000200 e5 d8 d2 3d 8c 5e 47 3d eb 72 02 3d 59 58 5a 3d
       0.102952756 0.04867415 0.031847876 0.05330691
000210 91 4f 8c be 0c 3d 8b 3d f8 74 41 be 73 af 50 3e
       -0.27404454 0.06798753 -0.18892276 0.20379429
000220 bb 98 e1 3d 09 d6 ee bc 7b f9 84 3d 3b 7b 8e bd
       0.11015459 -0.029154794 0.06492897 -0.06957098
000230 25 ee 57 be 63 24 26 bd d8 15 5d 3d 4b 3f 4c bd
       -0.21086939 -0.040562045 0.05397591 -0.04986505
000240 a4 7b a8 bc 5d be 39 3d 9e 3d d1 bd 11 b2 00 bd
       -0.020566769 0.04534756 -0.10216831 -0.031419817
000250 1a 9f b3 3d ee 60 1e be 9c a3 d5 bc d2 44 64 bd
       0.087705806 -0.15466663 -0.026078992 -0.055729695
000260 98 3c 2d 3e a9 a4 62 be 0b 49 97 bc 2e b6 51 3e
       0.16917646 -0.22133125 -0.018467447 0.20479652
000270 15 65 7f 3d fa 48 0c 3e cb f0 cb bd 86 e9 99 bd
       0.06235226 0.13699713 -0.09958037 -0.07515244
000280 02 a3 7f be 88 ef 3f 3d 55 fd 52 be 16 94 3a 3d
       -0.24964526 0.046859294 -0.20604451 0.045551382
000290 c2 87 7a 3e 0f fd cd bd 66 ef b3 3d 0e 9a 76 bd
       0.2446585 -0.10058033 0.08785896 -0.06020551
0002a0 ca f4 82 3d a2 e5 9a 3d 56 f4 8a bd 84 98 42 bd
       0.06394346 0.0756333 -0.06784885 -0.04750873
0002b0 9a 4d 27 be d2 cb dd 3d 65 f7 98 3c 27 57 ae 3d
       -0.16338196 0.10829891 0.018672654 0.08512717
0002c0 98 6c 86 3d c0 fd f3 3d 38 5b f1 ba dd 90 1c bd
       0.06563681 0.11913633 -0.0018414026 -0.03822409
0002d0 2e 56 96 bd a9 46 ad 3e c1 a0 98 be a6 bc 2d 3d
       -0.07340656 0.33842972 -0.29810145 0.042416237
0002e0 23 f2 74 3e 54 e3 6d 3d f3 71 d6 bc 01 03 20 bd
       0.23920493 0.058078125 -0.026177382 -0.039065365
0002f0 c3 5b b1 3d 31 aa 59 be 8e 64 67 3d 41 fb 35 bd
       0.0866008 -0.21256329 0.05649238 -0.044429068
000300 ef 01 66 bc 85 91 18 3e ab e3 52 be f3 25 34 3e
       -0.014038547 0.14899261 -0.20594661 0.17592601
000310 84 ec 0e be 8f e8 2b 3e 33 89 43 bb 0f 81 0b be
       -0.13957411 0.16787933 -0.0029836416 -0.1362345
000320 4a d3 10 3d 9b f7 4a be d5 8f 9b 3c f0 82 bf bd
       0.03535775 -0.19821016 0.018989483 -0.09351146
000330 50 df 8f 3d f4 5e 11 bc 96 95 85 bc 06 9c 47 3d
       0.07025015 -0.008872736 -0.01630668 0.04873278
000340 1f da 69 3d 01 aa 0f 3d ba 2d 35 3e e4 96 9c bd
       0.057092782 0.035074238 0.17693225 -0.076459676
000350 fc 43 a6 3d 72 78 9f 3d 8a 12 82 3e 32 e0 b6 bd
       0.08118436 0.07786645 0.2540477 -0.089294806
000360 3e 45 50 bd 2e 8e a1 3c 5e dc f4 3d 23 f8 85 3d
       -0.050847284 0.019721117 0.11956094 0.06541469
000370 00 e9 a5 3e 10 33 2c 3e d9 57 4d 3e 36 91 85 be
       0.32404327 0.16816354 0.20053042 -0.2608735
000380 17 71 31 bd 5d f3 c3 3d b7 33 67 bd 60 6c 14 3e
       -0.04332074 0.09567902 -0.056445803 0.14494467
000390 60 87 d3 bd b1 6f 93 bc 51 de d0 bc 12 5b 98 bd
       -0.10328555 -0.017997595 -0.025496634 -0.07439245
0003a0 90 e1 a4 bd 1c 59 6b 3d 73 76 e7 3d 72 56 84 3d
       -0.08050835 0.05745803 0.11301889 0.06461801
0003b0 54 ab 0e be 84 3b 91 bd b9 03 a0 bd c0 e7 2d be
       -0.13932544 -0.0709143 -0.0781321 -0.16982937
0003c0 b4 64 4d be 14 ed d6 bc bd 4d f5 ba f5 e7 0b bd
       -0.20057946 -0.026236095 -0.0018715184 -0.03415676
0003d0 2e 25 f4 3b 60 38 df 3d 5b 02 26 bd 13 5f 60 be
       0.007450721 0.108994246 -0.04052959 -0.21911268
0003e0 41 36 62 be 3d 5d b0 bd e3 23 b9 3d b6 a7 27 3d
       -0.22091009 -0.08611534 0.09040048 0.040931426
0003f0 63 df fa 3d 22 05 42 be b9 96 8a 3d fd d3 2e 3e
       0.12249639 -0.1894727 0.06767029 0.17073055

network_body._body_endoder.seq_layers.0.bias f4 [128]
000000 be 1a 67 bc 81 ff e7 39 f0 14 c0 bb cf 07 a5 bb
       -0.014105497 0.0004425012 -0.005861871 -0.0050363312
000010 0f b0 6b bc 94 1c 4d ba 89 21 27 bb 9c 3a 18 3c
       -0.014385237 -0.0007824388 -0.0025502166 0.009291317
000020 cc 27 28 3b 68 9f d4 39 35 eb 4e bc c3 78 69 3c
       0.0025658486 0.00040554558 -0.01262932 0.014249983
000030 85 a4 18 3d 53 30 cb 3b 1c da ac 3b 29 75 51 bc
       0.037266273 0.006200829 0.005275024 -0.012784281
000040 aa f5 05 3d ed 6e 8f 3c 51 0b 85 3c 2f 0b a4 3c
       0.032704987 0.017508948 0.016240748 0.020024864
000050 97 ac c0 bb 05 cf 32 3b fb d8 e2 3b 37 1f 10 3d
       -0.0058799493 0.0027284038 0.0069228387 0.03518602
000060 2b 49 43 bb 3a 2f f2 3b 2a e5 10 bc 9c 0b 3f 3c
       -0.002979825 0.0073908838 -0.0088436995 0.011660483
000070 3f c7 11 3c 81 98 6f 3c 86 a0 4d 3c 6d 94 fc 3b
       0.008897602 0.014623762 0.012550479 0.0077081234
000080 91 69 e3 3b fb 6f 0c 3d c4 12 13 bb 22 6e 33 bb
       0.0069400747 0.03428648 -0.0022441605 -0.0027378877
000090 85 39 13 3d e0 7c 2d bc 81 52 93 bc 06 79 6e b9
       0.035943527 -0.010588855 -0.017983677 -0.00022742533
0000a0 5a 71 bc 3a 08 21 25 bb 4d 8f 5c bc 2c 62 52 bc
       0.0014377043 -0.002519669 -0.0134619 -0.012840789
0000b0 f6 49 52 3c 20 68 83 3c 83 88 40 bc c3 2a 3b bc
       0.0128350165 0.016040862 -0.011751297 -0.011423769
0000c0 6d d2 ac 3c 18 5f 06 3d fc e0 ed bb cd 16 12 3c
       0.021096433 0.032805532 -0.0072594862 0.008916569
0000d0 da 0c c7 ba d4 a2 a8 bb 46 34 63 3c 5a 43 86 3b
       -0.0015186325 -0.0051463638 0.013867443 0.0040973844
0000e0 a2 74 4e bc c7 b1 c2 3b ac bf 25 bc 32 b4 0b ba
       -0.01260105 0.005941603 -0.010116499 -0.00053292804
0000f0 53 36 8c bb 7c fb 4a bb ba a2 91 3c d0 97 0c 3b
       -0.004278937 -0.003097265 0.01777779 0.0021452792
000100 12 30 96 3c 44 8e 89 bc 6a 01 9f bc a7 af 0b 3c
       0.018333469 -0.01679147 -0.019409854 0.0085257655
000110 47 6e ef 3c 7d 82 45 3c 10 62 d1 3c ee 83 e2 3b
       0.029227389 0.012055037 0.025559455 0.0069127
000120 4a 6f 15 3c aa c5 9d 3b ed 3a 3f 3a 88 6c c5 3c
       0.009120772 0.004814823 0.00072948524 0.024099603
000130 ed a2 0b 3d 79 1e 33 3c 49 20 56 bc 55 f5 94 bc
       0.034090925 0.010932558 -0.013069221 -0.01818339
000140 84 e2 86 3c 19 45 d5 bb 86 b6 4c 3c 46 3b 61 bc
       0.016465433 -0.006508481 0.012494689 -0.013747042
000150 f0 0c 8d 3c d5 52 31 3c 4d 3a 7e bc 95 73 75 3c
       0.017218083 0.010822971 -0.01551683 0.01498117
000160 25 14 1b bc 83 e4 47 ba 38 cd 87 3c 47 95 38 3a
       -0.009465252 -0.00076252985 0.016577348 0.0007041287
000170 0f 18 53 bc 16 46 c0 bc f2 1d 96 ba ff 4a 16 3c
       -0.012884154 -0.02347092 -0.0011453016 0.009173154
000180 3f 24 10 3c 02 e6 5c bb 3f d7 2e 3c 77 75 0a 3c
       0.008797704 -0.0033706431 0.010671436 0.008450857
000190 1d 19 7c bc f2 2e 3b bc 3a 2e 5f 3a c2 60 64 bc
       -0.015386847 -0.011424767 0.0008513663 -0.0139390845
0001a0 4d 4b 8c 3b 90 bf a7 3b e2 3f d4 3c 98 0c 13 3c
       0.0042814375 0.0051192716 0.025909368 0.008975171
0001b0 fc 48 7f 3c 48 df 9b 3c 68 7b b5 3b bb 0d e3 3b
       0.015581366 0.019027367 0.005538393 0.006929127
0001c0 73 70 72 3a c7 f7 29 3c 7a 8f ea 3b c2 b5 51 bb
       0.00092483236 0.010374016 0.007158217 -0.0031999205
0001d0 b7 4f 94 3c 30 39 96 39 61 05 a6 3b 01 d0 03 3c
       0.018104417 0.00028652837 0.005066559 0.008045197
0001e0 92 99 2a b9 40 5f ef ba f4 9a 01 3c 7b f8 81 3c
       -0.00016269673 -0.001826264 0.007910479 0.015865555
0001f0 b4 fd 6e 3a 46 a8 92 3c 5b d2 6d 3c 0f b3 8b 3c
       0.0009116784 0.017902505 0.014515485 0.017053155

network_body._body_endoder.seq_layers.2.weight f4 [128, 128]
000000 da 6a 55 bd 10 01 99 3b bf c4 40 bd 6e 09 c3 bd
       -0.052103855 0.004669316 -0.04706263 -0.09523283
000010 12 ac 46 3c 8b 6d eb 3a eb 7e f6 bd c5 be 6f 3d
       0.012125986 0.0017961723 -0.120359264 0.05853154
000020 c5 79 16 3e 20 f3 60 bd b4 50 ce bd 53 52 32 bd
       0.14694889 -0.054919362 -0.10073987 -0.04353554
000030 b4 db 4b 3d b5 f6 c4 3c 45 a0 99 bd 0d 22 dd bd
       0.049770072 0.02404342 -0.07501272 -0.1079751
000040 96 39 e3 bd a4 39 b1 bd 0d 70 39 3e 8a 11 1b 3c
       -0.11094968 -0.08653572 0.1810915 0.009464631
000050 d2 60 6e bc 77 bd 9e 3a 35 ff 39 bd ea 5d da bc
       -0.014549451 0.0012110908 -0.0454094 -0.02665611
000060 45 08 8f bd 60 8a 9a 3d ad e7 7a 3d 8a 44 e0 bc
       -0.06983999 0.07545924 0.0612561 -0.027376432
000070 2d b1 cf bd 4a de fc bc 8c 3e b8 3c 7d ff bb bd
       -0.101412155 -0.030867714 0.022490762 -0.0917959
000080 33 32 93 bd 83 d3 21 3e 85 ac c8 3d 5c c7 29 3d
       -0.07187309 0.15803342 0.097985305 0.04144989
000090 bf c2 8b 3d 32 cd 35 3d 44 e1 18 bd a0 e5 82 bd
       0.06824254 0.044385143 -0.037324205 -0.06391454
0000a0 a6 09 68 bc ba f1 03 3e 13 ad b1 bd 15 55 5f 3d
       -0.014162457 0.1288518 -0.086755894 0.0545245
0000b0 6a 0c 0f be 56 47 af 3d 47 ce 02 be c8 ea b2 3d
       -0.1396958 0.08558528 -0.12774001 0.08736187
0000c0 2f d4 d3 bd 7f c9 e3 bd 26 ab 82 bc 19 88 32 3d
       -0.10343205 -0.11122417 -0.01595075 0.043586824
0000d0 ba 62 10 bd 14 17 6f bd e1 61 12 3e 38 90 17 3d
       -0.035250403 -0.05837162 0.1429515 0.037002772
0000e0 18 23 14 be fd 31 99 ba 3d 3f fb 3d 9d 81 0f 3d
       -0.14466512 -0.0011687871 0.12267921 0.03503572
0000f0 97 69 a8 bd 3a 95 70 3a aa 46 b4 3d 9a 0d fb 3c
       -0.08223265 0.000917751 0.088025406 0.030646134
000100 e5 1d e3 bd 82 bc 70 bd 24 86 23 be 5e 15 96 3d
       -0.11089686 -0.058773525 -0.1596914 0.07328294
000110 e5 9b 38 be 2f 06 87 3c 72 3d ae bd d9 ab 22 3e
       -0.18028219 0.01648244 -0.085078135 0.15885867
000120 c6 e2 d6 bc 93 0b b5 3d 4c 40 25 bd 8f dc 19 3e
       -0.02623118 0.08840098 -0.04034452 0.15025543
000130 ff d7 5e be ae db 0e be c5 70 53 3d 3a 1f a9 bd
       -0.21762083 -0.13950989 0.051621217 -0.08257909
000140 48 94 86 bc 4a 73 67 bd 7d 73 98 3d 1d 62 3b 3e
       -0.016428128 -0.056506433 0.07443903 0.18299146
000150 1a a6 fd 3d e2 2c 84 3d dc 46 26 be a9 83 1b bd
       0.12385197 0.06453873 -0.16237968 -0.037967358
000160 09 4a 45 3e 65 41 42 3d 08 1e 5b bd ec f6 41 3b
       0.19266523 0.047425646 -0.053495437 0.002959664
000170 bd 74 60 bd 28 90 1c bd 54 87 ca 3d b2 e1 86 bc
       -0.05479883 -0.038223416 0.09889093 -0.016465042
000180 fb e6 1a 3e 5e b4 9e 3d df 14 e6 3c 86 75 17 3b
       0.15127175 0.07749246 0.028086124 0.002311082
000190 fe 34 c3 bd 44 e6 71 be d4 53 f3 3d c4 a0 5a bd
       -0.09531592 -0.23622996 0.11881223 -0.053375974
0001a0 71 b2 1b bc 87 29 b5 3b 36 bf 6a 3d 40 01 1e 3c
       -0.009502993 0.005528632 0.05731126 0.009643853
0001b0 73 c9 ef bb 05 ce 25 3d 0c 47 1a bd ff 74 4d 3d
       -0.007317716 0.04047968 -0.03766541 0.050160404
0001c0 9c 91 60 3c 99 ba 71 be 14 16 9c bc 63 9c 48 bd
       0.013706591 -0.23606338 -0.019053496 -0.048977267
0001d0 56 f3 93 bd 2d bd e9 3d fd 43 5f bd 75 33 16 be
       -0.07224147 0.114130355 -0.054508198 -0.14668067
0001e0 0d ac 1b 3e 5d c9 9f bd fd c2 66 3d 75 f5 eb bd
       0.15202351 -0.07802079 0.0563383 -0.115214266
0001f0 77 83 08 3d 33 24 79 bd 28 e9 a6 bd fe 11 07 3e
       0.0333285 -0.060825538 -0.0814994 0.13190457
000200 f4 bb c0 bd c5 35 40 3c 43 6b 2f 3d 85 1e 08 be
       -0.09410849 0.01173157 0.042826902 -0.13292892
000210 cc 0e a8 3d 87 24 04 be 0e 29 1f bd a8 ab 31 3d
       0.08205947 -0.12904559 -0.038857512 0.043376595
000220 35 70 bc 3d 2d 3f 0a bd 5c bf b8 3c db 79 e9 3d
       0.09201089 -0.033751655 0.022552185 0.11400195
000230 0f db 8e 3d a3 90 0c 3e 77 80 30 3e f2 cb d0 bc
       0.06975376 0.1372705 0.17236505 -0.025487874
000240 f6 56 05 3d ce 1f d5 bc 3f 72 a9 bd 36 4f f9 bd
       0.032553636 -0.026016142 -0.08273744 -0.121733114
000250 82 d5 f5 bc d5 e5 be 3c 83 69 2b 3d c4 ba 2f bc
       -0.030009035 0.023302952 0.04184867 -0.010725681
000260 b7 f4 2f bd a1 47 af bd 9a e1 77 3d de 71 2a 3c
       -0.042957988 -0.08558584 0.060517885 0.010403125
000270 16 24 2b be f3 58 d7 3d 02 af 8e bb 27 31 04 3d
       -0.16712984 0.105150126 -0.0043543587 0.032273438
000280 d4 e7 14 bc 74 67 2b be 12 33 49 3d 8f 4b 54 bd
       -0.009088475 -0.16738683 0.04912097 -0.05182987
000290 c7 af 80 3c 37 41 e3 bb 8b 38 88 bc 65 7d c7 3d
       0.015708817 -0.0069352644 -0.016628524 0.09740714
0002a0 e3 09 d1 3c b4 e1 dc 3d 08 e7 b7 3d de e3 e6 bd
       0.02551741 0.10785237 0.089796126 -0.11273931
0002b0 6b 76 c8 bc 08 60 e2 3d 9c 8f e7 bc 77 6c ef bd
       -0.024470529 0.11053473 -0.02826672 -0.1169061
0002c0 46 ba 8e bd 61 a3 d8 3a ca 83 1a be a0 47 4d 3d
       -0.069691226 0.0016528183 -0.15089336 0.050117135
0002d0 f5 87 cf bc 66 2f 0d bc ca 80 97 bd a5 a7 d5 bd
       -0.025333384 -0.008617258 -0.073976114 -0.10432366
0002e0 40 11 af bd 50 67 49 bc b5 ae 34 bd fe 1a 77 bd
       -0.08548212 -0.012292698 -0.044111926 -0.060328476
0002f0 05 7e 49 bd e4 0a 17 be b6 42 ee bc df 56 15 be
       -0.049192447 -0.14750248 -0.029084545 -0.1458392
000300 dd 49 59 bc ee 9e 17 be e0 ab 4a bc de 6e 4b 3d
       -0.013262239 -0.1480672 -0.01237008 0.049666278
000310 52 c9 4a be bf bd d3 3d 94 16 83 3d f9 ac 09 be
       -0.1980336 0.103389256 0.06400791 -0.1344489
000320 c2 e1 51 3e 80 8d 3e 3d 22 ac 3a be 1a 34 10 3d
       0.20496276 0.046521664 -0.18229726 0.035205938
000330 cf 06 9d 3d 4e 0a 33 3d 9c b9 3e 3d ae 5a 70 3d
       0.07667314 0.043711 0.04656373 0.05868023
000340 b5 74 c2 bb 2a f8 17 3d 6d c8 01 3d df 13 ca bd
       -0.0059343227 0.037101902 0.03168528 -0.09867071
000350 94 6a 13 be 38 e3 27 be 33 a2 ab 3d 9a f1 85 3b
       -0.14396125 -0.16395271 0.083805464 0.004087639
000360 af 32 d1 3d e8 a7 10 3d 11 bf 4e bd 16 00 fe bd
       0.10214745 0.035316378 -0.050475184 -0.1240236
000370 a4 6b f3 bd af f5 84 3d 77 85 c9 bd 7d 40 98 3d
       -0.11885765 0.06492173 -0.098399095 0.07434175
000380 cc 1f 02 be e0 58 37 3d a7 7f 94 3d 20 55 4b 3b
       -0.12707442 0.044762492 0.0725091 0.003102608
000390 c3 eb a9 3d e2 5b 6a 3c 24 38 11 bd 0c 95 15 3d
       0.08296921 0.014304133 -0.03545393 0.036519095
0003a0 e4 d8 92 bd 5e 42 4b bd 2f be 44 bc c0 dd d7 bd
       -0.07170275 -0.04962384 -0.012008234 -0.10540342
0003b0 58 e8 81 bd 03 82 7b bd 85 fb ce bd 6c a6 6b 3e
       -0.06343144 -0.061403286 -0.10106567 0.23012704
0003c0 52 af f0 bc 7a 6c b4 bd 27 f7 0d 3e 38 c1 21 3e
       -0.029380474 -0.08809753 0.13863812 0.15796363
0003d0 17 b6 0a 3e 7d 71 86 3a 7e d7 23 3b d1 1a 07 bd
       0.13546024 0.0010257211 0.002500027 -0.03298456
0003e0 82 28 98 3c 5c 86 84 ba c5 3d 1f 3d 5d 1a e1 3d
       0.018574003 -0.0010110843 0.038877267 0.109913565
0003f0 39 26 22 3e 21 ff f2 3b ac e2 87 3c e4 dd 01 3e
       0.15834893 0.0074156676 0.016587578 0.12682301

network_body._body_endoder.seq_layers.2.bias f4 [128]
000000 5a a2 bc 3c f0 d3 11 3c c2 32 61 bc 0c 59 2f bc
       0.023026634 0.0089006275 -0.013745012 -0.010702383
000010 38 5a f7 b8 1f 4e 10 bc 1d 9e 91 3c fa da 20 bc
       -0.00011794682 -0.008807688 0.01777559 -0.009817833
000020 5e 07 7a 3c 6f 53 eb bb b2 7a 21 bc 21 f6 2d 3b
       0.015260546 -0.007181577 -0.009855913 0.002654441
000030 99 9f 9a ba a1 90 64 3c fb 1f a0 bb a3 13 23 bc
       -0.0011796831 0.013950498 -0.004886625 -0.009953412
000040 d3 41 cd 3a 75 49 46 ba 90 8d 24 ba 7a 20 ee 3c
       0.0015659876 -0.00075640465 -0.0006277198 0.02906822
000050 a1 39 dc bb 28 69 27 3c 27 91 f0 3c 05 3a 3d 3c
       -0.006720737 0.010217942 0.029366089 0.011549477
000060 2d c5 8e bc be 13 d0 3b 9c 91 05 3c 24 fa 05 3c
       -0.017428005 0.0063500097 0.008152392 0.008177314
000070 9d 60 9f 3c 50 a9 4a 3c e5 07 0a 39 a7 de 06 bc
       0.019455248 0.012369469 0.00013163647 -0.008231795
000080 1d 93 b1 3c 98 6e 94 3c 44 6f 06 bc 41 95 3e bb
       0.021676594 0.018119141 -0.008205239 -0.0029080661
000090 23 71 9b 3b c6 6b 11 3c bd ac 81 bb 14 cb 41 bc
       0.0047437116 0.008875793 -0.0039573596 -0.011828203
0000a0 9a 81 8a 3c 48 ba a1 3b d8 23 84 ba 59 c8 02 3a
       0.016907502 0.0049355365 -0.0010081483 0.00049889606
0000b0 fc 92 e3 3c 9f 2d a8 3b e5 61 f9 3a 11 90 2c 3a
       0.027780049 0.0051323916 0.0019026367 0.0006582747
0000c0 78 f2 48 bc 88 96 d0 b9 4d cd 01 3d 44 ea 58 bb
       -0.01226484 -0.00039785006 0.03168993 -0.0033098618
0000d0 31 84 1b 3c 93 94 94 bb c9 1d c5 ba 96 2e 2b bc
       0.009491966 -0.004534313 -0.0015038784 -0.010448119
0000e0 2c 75 24 bb 4b d9 01 3a 2f 1c 22 bb 29 0b 21 3c
       -0.0025094254 0.00049533386 -0.0024736037 0.009829321
0000f0 fc dc 78 3c a0 b2 4e 3b 24 5c 22 3b 5d fe ab 3a
       0.0151894055 0.0031539574 0.0024774158 0.0013122071
000100 7e 6e 52 3b fb 07 11 3c cc cc 47 bc 91 22 88 3a
       0.0032109316 0.008852 -0.0121948235 0.0010386278
000110 d1 17 c5 3c 8a e1 35 3c 1c a7 a1 3c 4c 3b 91 3c
       0.024059208 0.011101136 0.019733004 0.01772847
000120 b0 aa 80 bc 62 4f 45 3a c7 a1 1f 3c e4 84 59 3c
       -0.01570639 0.00075267826 0.009743161 0.0132763125
000130 db 29 b5 3b 7d 9c 64 3b c0 0f 7b bb 99 66 6e ba
       0.005528671 0.0034883313 -0.0038308948 -0.0009094268
000140 b4 40 b3 3b 18 e5 9a 3c 5f 00 8d 3a 58 c2 50 3b
       0.0054703597 0.018908069 0.0010757557 0.003185412
000150 f2 93 a2 3c dc ef 1c bc 18 88 df bb 9f b7 49 bb
       0.019845936 -0.009578671 -0.0068216436 -0.0030779613
000160 29 b3 88 bb ad 3e 67 3c af d1 aa 3c d8 77 4e 3c
       -0.004171748 0.014114064 0.020851938 0.012601815
000170 43 9f 6a bb b6 48 bd ba e9 43 83 3c 3c c6 31 bc
       -0.0035800494 -0.0014441225 0.016023593 -0.010850485
000180 3b 64 83 3c ec 46 9c 3c 7c 8c 3e 3b 22 76 d1 3b
       0.016039005 0.019076787 0.0029075434 0.0063922564
000190 66 f5 93 3a 22 86 ab b8 12 1f 06 bc 3d 17 72 3b
       0.0011288344 -8.1788996e-05 -0.008186119 0.003694012
0001a0 6d 18 cb 3c 98 95 05 bc ab 19 5c 3c 65 27 1a 3c
       0.02479192 -0.008153342 0.013433854 0.009408806
0001b0 d3 0c b0 3b 0a b5 1b 3b 4b 9a 55 3b d0 5f 46 3c
       0.0053726225 0.002375903 0.0032593186 0.012107804
0001c0 bc 8a e8 3a c1 5b 8a bb 87 a0 0c bc 14 81 1b 3c
       0.0017741541 -0.0042223637 -0.008583195 0.009491224
0001d0 f0 c4 a3 3c 4c 6d 53 3b 8c 41 68 3a de a4 7d bc
       0.019991368 0.003226119 0.0008859865 -0.015481202
0001e0 6c 67 a4 3c db 16 b3 3c e2 f8 46 bc ef bb 89 3b
       0.020068847 0.021861484 -0.012144299 0.0042033116
0001f0 66 55 09 3c 7e df dc bb 51 48 96 3c 65 b8 da 3b
       0.008382177 -0.0067405095 0.01834503 0.0066748136

action_model._discrete_distribution.branches.0.weight f4 [3, 128]
000000 c6 15 14 3d 45 42 97 bd 3c c0 80 bb 92 98 b3 3c
       0.036153577 -0.07385687 -0.003929166 0.021923337
000010 a6 4a 1e 3d 52 3e ad bb b6 35 af bc 50 92 60 bb
       0.03864541 -0.00528697 -0.021387916 -0.0034266897
000020 95 1b 09 bd 19 65 98 bc 1f 44 6c bc 11 68 66 bc
       -0.03347357 -0.018602895 -0.014420538 -0.014062897
000030 94 b9 cd 3c 32 4d 97 3c 54 4f a1 3c 0f 54 23 3c
       0.025112905 0.018469427 0.019691147 0.009968772
000040 91 cc 12 bd ff 0b 10 3d 78 d3 a5 3c 64 60 c7 bd
       -0.03583962 0.03516769 0.020242438 -0.09735182
000050 64 ee 04 3c 84 e0 c8 3c d2 8e 8e 3d f8 c1 3a bc
       0.008113477 0.02452112 0.069608346 -0.011398785
000060 81 bc bc 39 5d 62 42 bc b9 3a 00 bc ae 14 1b bd
       0.000359986 -0.011864272 -0.007826501 -0.03786152
000070 fa 11 47 ba f8 41 18 bd 94 d4 37 3d 64 ba 7d 3c
       -0.0007593926 -0.037172288 0.044880465 0.0154863335
000080 8a 45 1e 3d 5e d1 d5 bc bd 24 a5 bc 21 f9 bd bc
       0.038640536 -0.02610081 -0.02015912 -0.023190083
000090 85 e3 9b 3c 3b d3 0c 3c ff 2d f9 3c dd 07 b4 bc
       0.019029388 0.008595283 0.03041744 -0.021976406
0000a0 79 c2 38 3d 2c 15 23 bd 4b 4d c7 bc 78 f3 fb 3b
       0.04510734 -0.039815113 -0.024328848 0.007688936
0000b0 cd 19 7f bd 92 d8 b9 3a 8f d3 5e bb 81 58 10 3d
       -0.062280465 0.0014178923 -0.003400061 0.035240654
0000c0 0e 97 79 3c ec 7b 5d bc 0c 3b 6a 3d fb dd 6e ba
       0.015233768 -0.013518315 0.057185218 -0.0009112057
0000d0 4c 22 41 3d 83 22 76 3c 88 53 d6 bc 50 77 01 3b
       0.04715185 0.015022877 -0.026162878 0.0019754954
0000e0 fb 7a 18 3c 94 6e 51 3c d2 10 e0 bc 28 a7 ad bd
       0.009306665 0.012782712 -0.02735177 -0.08479148
0000f0 8a bd 40 3d d6 9e 0a bc 33 ac f9 3c 58 93 12 bc
       0.04705576 -0.008460721 0.030477619 -0.008946262
000100 35 f8 3c bd b3 87 fd bc d0 13 0a 3c c9 8b 2a bd
       -0.046135146 -0.030948495 0.008427575 -0.041637216
000110 33 0e a0 bb 35 c3 6e bc 4a da b1 3d 6d 0f 89 3d
       -0.004884505 -0.014572908 0.086842135 0.06692395
000120 fb 7e 8e 3d 78 f4 3e 3b 6b 4b 44 3d 8d 19 63 3d
       0.06957813 0.0029137414 0.047923487 0.05544429
000130 90 c2 a1 bc 9a c4 a8 bc e1 7e 0d 3c e9 ae 99 bc
       -0.019746095 -0.02060156 0.008636207 -0.018760161
000140 66 ea a4 bb 2e 60 9d bc 80 5b 7b 3c 14 93 ec bc
       -0.0050328253 -0.019210901 0.0153416395 -0.028878726
000150 1e 2b 08 bc ca 7a 8a bb 2c 30 e3 bc 89 3f 0e 3c
       -0.008311061 -0.0042260634 -0.027732931 0.00868214
000160 bd 17 23 bc 7d cf 5a 3c 61 db 93 3c f9 5c 6b 3d
       -0.00995439 0.013355133 0.018048944 0.057461713
000170 bc a0 9b 3c 59 76 30 bb 84 0f 8d bd 9d 50 51 ba
       0.018997543 -0.002692601 -0.06887725 -0.00079847296
000180 4f d2 8d 3c 99 6e 58 bd fc a0 ad 3c 68 ae 95 bc
       0.017312197 -0.05283985 0.021194927 -0.01827164
000190 92 ad 85 ba 68 cc d3 bc 4a 33 33 bd 01 be e2 bc
       -0.0010198823 -0.025854304 -0.043750085 -0.027678492
0001a0 14 0a a7 bb f4 89 04 3b 7b db 71 3a f8 ed 17 3c
       -0.005097637 0.0020223828 0.00092261255 0.009273045
0001b0 60 ac c8 3c cc e6 87 bd 2d eb c3 bb f3 90 0c bd
       0.024496257 -0.06635818 -0.005978963 -0.03431792
0001c0 0d 22 43 3d 8d 0b e7 3c bc d4 00 bc 03 2b c0 bc
       0.047639895 0.02820375 -0.00786322 -0.02345801
0001d0 5a 7a 63 3c 2b 3a f5 3b 63 27 02 bc 68 19 bd bc
       0.013884151 0.007483741 -0.007943961 -0.023083404
0001e0 5a 5a 3f 3d 2a 1c 05 3d b1 de ff 3b a8 9d 2b bd
       0.046717025 0.032497562 0.0078085293 -0.0418984
0001f0 5f 5f dd bb a9 2b 45 3b af 29 9b 3d 7a 5d 1f 3c
       -0.006755754 0.0030085838 0.0757631 0.009726876
000200 5d 15 45 bb 23 54 c5 bb 92 b9 7f 3b d7 04 e6 bc
       -0.0030072548 -0.006021993 0.003902052 -0.02807848
000210 5f 4b 67 bc a1 d2 d7 bb 06 ef c4 3b f8 74 b3 38
       -0.014117091 -0.006586388 0.006009939 8.557172e-05
000220 77 8b a7 3b ce d6 d9 bc d5 ff 21 bb ea 01 1a bb
       0.005113061 -0.026591685 -0.0024719138 -0.0023499676
000230 d6 5f 3c bb a6 0f 3a 3d ed 82 da bc e5 c8 2d 3b
       -0.0028743646 0.04542508 -0.026673758 0.0026517448
000240 96 b8 08 3d 3a 70 8f bc c4 c8 99 bc e6 16 87 bc
       0.03337916 -0.017509568 -0.01877249 -0.016490411
000250 00 5f 6b 3b 26 dd c7 bc 27 3f 01 3b 4f 35 f8 bb
       0.0035914779 -0.024397444 0.001972148 -0.0075747143
000260 79 19 de 3a ed 86 5e 3c 94 33 be 3c e4 fc 4a 3c
       0.0016944847 0.0135819735 0.023217954 0.012389395
000270 62 c5 e1 3b ea 65 9e 3c 06 f6 8e bb b9 5a 2f 3c
       0.006889985 0.019335706 -0.0043628244 0.010702782
000280 aa dc 76 bd ba 3d 7f 3c 9d 2d 0f bc 89 dc bf 3b
       -0.060269035 0.015578682 -0.008738902 0.0058551473
000290 e3 dc 12 bc d5 3d 86 3b 3f e4 ea 3b 66 53 04 bc
       -0.008963796 0.0040967264 0.0071683223 -0.008076524
0002a0 07 0b 6b bc 78 92 1b bc 55 ad d9 3c 17 ec 01 3c
       -0.014345891 -0.00949537 0.026571909 0.007929823
0002b0 b3 54 75 bb 75 f9 34 3c 25 36 b4 ba 7f c1 ea bc
       -0.0037434518 0.011045803 -0.0013749046 -0.02865672
0002c0 d1 b8 06 3c ac 02 88 3c 29 6a 63 bc 58 cc 23 bc
       0.008222775 0.016602837 -0.013880291 -0.00999745
0002d0 82 c6 66 3b 71 9d 09 3c 9d c9 b5 3a 58 cb 5e 3c
       0.0035213535 0.008399353 0.001386929 0.013598286
0002e0 41 3d b7 3b 16 1d 97 3c 5c 19 21 3c 88 89 99 bc
       0.005592019 0.018446486 0.009832706 -0.018742338
0002f0 af 4d 00 3c c7 3a 44 bc 9c c2 a7 3c 75 e8 02 b8
       0.007831021 -0.011976904 0.02047854 -3.1210908e-05
000300 ca 53 af bb ab 53 18 bc 6d 07 87 bc 36 29 6b bc
       -0.0053505646 -0.009297292 -0.016483033 -0.014353087
000310 63 e4 e2 3c 28 8c 49 3b 55 0c 1a bd 3c 91 82 bb
       0.027696794 0.0030753706 -0.037609417 -0.0039845984
000320 0c 79 df 3c 60 fa 2d 3b 4e cd 12 bc 7c d2 4b bd
       0.0272794 0.002654694 -0.008960081 -0.04976128
000330 e1 47 49 3c 4c 22 85 3c 7d f8 24 ba 24 0c 30 3b
       0.012285204 0.016251706 -0.0006293131 0.0026862705
000340 4b c5 2f 3c e8 82 27 3d 4d b9 af 3b 08 bf 25 3c
       0.010728191 0.040896326 0.0053626657 0.010116346
000350 6a 4e 37 3a 87 70 71 bc d4 b0 3b 3d 39 39 fd bc
       0.00069925806 -0.014736301 0.045822933 -0.030911075
000360 6f d3 5f 3b 02 0b 90 bb 75 c3 69 bc b3 ea 8f bc
       0.0034153124 -0.0043958435 -0.014267792 -0.017567968
000370 aa 5d 8c bb 89 22 15 bd a4 80 1e 3d eb 5b d8 bb
       -0.0042836266 -0.03640989 0.0386969 -0.0066027544
000380 b8 b6 82 3c 9f ae 3b 3b 32 80 61 bc 34 20 c0 3c
       0.015956268 0.0028638018 -0.013763474 0.023452856
000390 fb e2 a8 3b fc c0 08 bd 56 83 49 bb a1 29 97 3c
       0.0051540113 -0.03338717 -0.0030748448 0.018452467
0003a0 a3 05 90 3c a6 01 9a 3b bd 37 a2 3c 16 e1 ad 3c
       0.017580813 0.0046999035 0.019801969 0.021225493
0003b0 e0 7d 63 3b 38 bf 1e 3c 1b 60 e9 ba 79 85 2c 3c
       0.0034712479 0.009689145 -0.0017805131 0.010529869
0003c0 de 25 ed bc a0 94 c4 bb 91 aa e0 bb 13 c0 99 3c
       -0.02894872 -0.005999163 -0.0068562706 0.018768346
0003d0 1e 84 fd 3b 38 1e 1a bd 90 48 02 3c e1 b8 4c 3c
       0.007736697 -0.037626475 0.007951871 0.01249525
0003e0 7c 56 1f bc 6d e6 39 bc 72 cb 11 3c bd 19 e5 bc
       -0.009725209 -0.011346442 0.008898603 -0.027966375
0003f0 d6 8e 15 3b b0 71 88 ba 4b 8c c5 bc c1 ef f0 bc
       0.0022820733 -0.0010409858 -0.024114748 -0.029411199

action_model._discrete_distribution.branches.0.bias f4 [3]
000000 38 10 cd bb 99 2e b1 3b 52 7b ae 3a
       -0.006258037 0.005407166 0.0013311899

action_model._discrete_distribution.branches.1.weight f4 [2, 128]
000000 d6 e0 f2 3b ba c6 4c 3b 46 0f 3e 3c 00 d8 89 bc
       0.0074120564 0.003124638 0.011600321 -0.01682663
000010 68 06 97 3c ef ec 7a 3c 7d fc cb bc 43 c6 65 3b
       0.018435672 0.015315278 -0.02490067 0.00350608
000020 ee 29 22 3d bb 65 c6 3c 1c ea 7a bb 59 67 03 bc
       0.03959077 0.02421843 -0.0038286513 -0.0080202455
000030 c6 24 5d 3c 3b 62 17 bc e4 2b 16 3d 18 1b c3 bb
       0.013497537 -0.009239729 0.03666295 -0.0059541576
000040 e2 c7 1b 3a fd b2 32 3c 4d 51 11 3c f5 ad f4 3c
       0.00059425656 0.010906932 0.008869481 0.029868105
000050 27 ef 45 3c 43 b1 2f 3d de f5 66 3c 25 51 2f bd
       0.012080944 0.04289366 0.014096705 -0.042801995
000060 be 3e 1f bc 1e 35 6c bc ba 2e 8f bc d0 8b 37 bb
       -0.009719549 -0.014416961 -0.017478336 -0.0028006919
000070 fa 02 e4 3c 5b 5e 45 3d 06 ab da 3c a9 8c 29 3a
       0.02783345 0.048185688 0.026692878 0.00064677984
000080 2a 57 58 3d 9a 70 1f bd b2 01 86 3b 14 6f 93 3c
       0.0528175 -0.038925745 0.0040895576 0.017997302
000090 d8 ed 35 3c a1 d2 80 bc f7 f7 99 ba 2c d4 7e 3c
       0.01110407 -0.015725436 -0.0011746873 0.015553515
0000a0 82 3d 04 3b 8a cc f3 bb c8 2f 0d 3d a9 97 05 bd
       0.0020178263 -0.0074401544 0.034469396 -0.032615338
0000b0 c6 09 b2 3c 4d 4f ff 39 2e 6c 18 3c 20 fc ed 3c
       0.021733176 0.00048696474 0.009303136 0.029050887
0000c0 98 51 ec 3b ba de 9b ba 2d 1e 0b bc e3 13 eb 3c
       0.007211875 -0.0011891939 -0.008491081 0.028696006
0000d0 86 1f 04 3d 75 f0 cf 3a 7b ab 4b 3d 89 4d 3f 3a
       0.032256626 0.0015864508 0.049724083 0.00072976254
0000e0 ab f7 1b bc 42 df 28 3b 39 eb fe bb 1e cc 35 bb
       -0.009519498 0.0025767838 -0.0077795056 -0.0027740072
0000f0 4c f8 af 3b e8 a1 b2 3c 80 13 4c bc 7e ce e4 bb
       0.0053701755 0.021805719 -0.012455821 -0.0069826236
000100 38 46 31 3d 9e c1 b4 bc b2 a7 79 3b c8 27 a1 3b
       0.043279856 -0.02206498 0.003809434 0.0049180724
000110 b8 85 e1 3c dd d7 82 3d ff 8d 11 3d e2 21 43 3c
       0.027529582 0.06388829 0.03553581 0.011909934
000120 64 b3 f1 bb b3 d1 06 3c 08 e3 ca 3b 0c 6b 07 3d
       -0.0073761214 0.008228707 0.006191615 0.033061072
000130 5a 3d ea bb 28 a8 98 bb 14 22 b2 b9 9c 66 8b bc
       -0.007148427 -0.0046587177 -0.00033976196 -0.017016701
000140 db 1d b4 ba dc 77 61 3c 74 87 20 3b d4 b1 c7 bb
       -0.0013741808 0.013761487 0.00244948 -0.006094197
000150 a4 52 0c 3d 8f bb 6b bb 8d f5 be bc 25 4d e5 3c
       0.0342585 -0.0035969948 -0.023310447 0.027990887
000160 74 f5 c0 3c 0e 55 5f bd 04 16 6d bd 35 2c 1f 3b
       0.023554541 -0.054524474 -0.057882324 0.0024287824
000170 42 3e 95 bc 30 c8 42 3b c4 4b 1b bd 7d 09 05 bc
       -0.018218163 0.0029721372 -0.037914053 -0.008119938
000180 bb 2d ce bb d5 6a b3 bc d2 d7 9b bc 28 d0 82 bc
       -0.0062920726 -0.021901527 -0.01902381 -0.015968397
000190 8f 97 13 bb 12 fe 5c 3d 6c 94 04 3d 3c f4 9f 3b
       -0.0022520756 0.053953238 0.03236811 0.00488141
0001a0 77 5f 79 3d 5d 3e c3 bc 72 ac 26 bd ae 86 59 bc
       0.060882058 -0.023833448 -0.0406918 -0.013276739
0001b0 ef 1b d9 3c 29 5d 60 3c ee d3 9c bc 16 49 99 ba
       0.026502578 0.013694086 -0.019144025 -0.0011694755
0001c0 da 0a ae 3b 22 24 69 ba ac 65 90 3a 8e d8 ae bc
       0.005311352 -0.0008893629 0.0011016629 -0.021343496
0001d0 16 1d fb bc c1 87 01 3d 1a bd 83 bc ff 7e 22 3b
       -0.030653518 0.031623606 -0.016081382 0.0024794934
0001e0 30 89 0d 3d bf 65 db 3c 5e 5c 70 3c f1 ec 5a 3b
       0.03455466 0.026781915 0.01467046 0.0033405388
0001f0 5d 33 a3 bc 91 96 99 3b 28 fc 17 3d 16 c8 b2 bc
       -0.019921953 0.0046871384 0.03710571 -0.021823924
000200 36 43 f1 bb 74 50 ab bb ad 7b a8 bb b4 ab 5f 3c
       -0.0073627485 -0.0052280966 -0.0051416964 0.013651777
000210 59 f8 2d bd 11 f3 b7 3a d5 af 75 3c 6b ba 54 39
       -0.04247317 0.0014034231 0.014995535 0.00020287342
000220 2d 28 57 bd ec 38 81 bc 3b e3 3a 3b 0e 42 8a 3c
       -0.05252855 -0.015774213 0.0028516788 0.0168772
000230 87 7d cf 3b 99 4d 9c 3c 8c 41 f5 bc ea e3 0c 3b
       0.0063321027 0.01907997 -0.029938482 0.0021498152
000240 2a 03 b5 bc 5e c3 46 ba f3 2f c8 3c 2d 1e b1 bc
       -0.022096235 -0.00075822126 0.024436926 -0.021620834
000250 87 ab 86 bc 39 56 61 bd 94 56 98 bc 32 5d a8 3c
       -0.016439212 -0.05501387 -0.018595971 0.020552251
000260 5f a6 49 ba fa 11 12 3d 5d 79 e7 3c 03 59 9a 3a
       -0.0007692333 0.035661675 0.028256113 0.0011775795
000270 cc 5e 10 bd dc c6 76 bd 87 01 c5 bc b0 19 6a bc
       -0.035246655 -0.06024824 -0.02404858 -0.014288351
000280 1d 21 31 bd 31 f9 4f 3c 8a b1 0f 3c 23 b5 53 bc
       -0.04324447 0.012693689 0.008770356 -0.012921604
000290 a4 6a ed ba 39 fe 95 3c cf 63 ae bb a0 f9 57 3b
       -0.0018113446 0.0183097 -0.0053219567 0.0032955185
0002a0 1f 82 92 bc 2f 05 7e bb 43 1f a3 bc 15 7d 9b 3c
       -0.017884312 -0.0038760414 -0.019912368 0.018980542
0002b0 3b a8 de bc 18 7a 8e 3c d2 d6 ea bc 09 e9 7c bc
       -0.027179828 0.017392203 -0.028666887 -0.015436419
0002c0 83 8c 05 3c 7b 20 c5 3c c6 ec c1 3c d7 3a 06 bd
       0.008151176 0.02406334 0.023672473 -0.032770958
0002d0 a5 42 a5 bc 27 42 8b 3c a6 d1 07 bd cd 76 a0 3a
       -0.02017338 0.016999317 -0.03315892 0.0012242437
0002e0 66 f3 69 3b 65 38 05 3c a6 2a 30 bb 7c 56 df bc
       0.0035698055 0.008131121 -0.002688089 -0.027262919
0002f0 4c 32 16 bc c0 57 80 bc 21 3f 32 3c ca a0 6c 3c
       -0.009167265 -0.015666842 0.010879309 0.014442632
000300 02 77 bb bc db ae f2 3c 3f 9d 88 bb ce a9 77 3c
       -0.022883896 0.029624393 -0.004169136 0.015116168
000310 a4 60 f6 bc 64 88 6a bd 12 55 0a bd d2 86 44 3b
       -0.030075379 -0.05725898 -0.033772536 0.0029987586
000320 95 dd b8 3c c6 33 9a bc e9 de bc 3b f5 ce 07 bd
       0.022566596 -0.018823516 0.0057638776 -0.033156354
000330 e7 42 cc 3c 0b 37 29 3c de 7f f7 ba 87 9b 03 3b
       0.024934245 0.010328065 -0.0018882712 0.0020081715
000340 1b 17 fb 3a df 5a 88 bc ee 18 c0 3b b2 1b ce bb
       0.0019156666 -0.016644893 0.005862347 -0.0062899226
000350 4b 29 0f bd 79 f8 d4 ba cb ee 3c 3b 2b c4 2c bd
       -0.03495149 -0.0016248367 0.0028828855 -0.042179268
000360 aa 99 fd bc 07 b0 0e 3d 7f 7a 71 3d 5b 07 a2 3b
       -0.030957062 0.03483584 0.058954712 0.0049447245
000370 ac 72 75 3c a8 4c 39 bc 33 a8 7f ba 8c 44 23 bc
       0.014980953 -0.01130978 -0.00097525417 -0.009965073
000380 30 05 3b b8 5b d8 00 3d b0 5d f1 3b 1e b7 e0 3b
       -4.4589106e-05 0.031456333 0.0073659047 0.006857767
000390 3b f7 98 ba 08 7e 85 bd 8e 95 da bc dd 16 5e bc
       -0.001167036 -0.06518179 -0.026682641 -0.013555256
0003a0 ce 06 36 bd 48 6d 87 bb 7f 6a b6 3c 95 d4 c6 3c
       -0.044440083 -0.0041329004 0.022267578 0.024271289
0003b0 f4 2f 78 bc 75 d2 e9 bc 37 1b c5 3b 24 10 6f bc
       -0.015148152 -0.028542737 0.006015207 -0.014591251
0003c0 10 a6 fc bc 4a f7 68 bb cd 0a 6c 3b 78 d4 be 3c
       -0.030840904 -0.0035547786 0.003601718 0.023294672
0003d0 8d 49 b7 3c 7a 0a 1c bd 46 93 6f 3c 87 77 54 bc
       0.022373939 -0.03809593 0.014622515 -0.012967951
0003e0 53 42 53 bd af 65 0c bd a7 c5 17 bc d4 a8 35 bc
       -0.051576924 -0.03427666 -0.009263433 -0.011087615
0003f0 88 dc 14 bc 63 d3 b9 bc 80 94 12 bd e5 10 0d 3b
       -0.009085782 -0.022683805 -0.035786152 0.0021524963

action_model._discrete_distribution.branches.1.bias f4 [2]
000000 fb fb 08 bc fc fb 08 3c
       -0.008360858 0.008360859
