KartSCBIO/results/circuitoA-3/ArcadeDriver/ArcadeDriver-597733.onnx (onnx, 96494 bytes, 9 tensors)

discrete_action_output_shape f4 [1, 2]
3.0 2.0
00000000: 0000 4040 0000 0040

network_body._body_endoder.seq_layers.0.weight f4 [128, 48]
-0.13802463 0.045221332 0.04174181 -0.058454666 0.30355722 0.09857554 0.19425048 0.17720959
-0.01588933 0.13298301 0.15785746 0.034446493 0.14971586 -0.13942425 0.036245536 -0.06571204
0.03060317 0.05942936 0.05786565 -0.21044143 0.150649 -0.30452338 -0.05149333 0.21144904
0.15262024 -0.1652858 -0.05335709 0.19054009 -0.17991744 0.05739583 -0.15390925 0.049892016
-0.14856964 0.07167051 0.01578797 -0.014251347 0.27033976 -0.13382913 0.10003878 -0.16779178
-0.055418096 -0.278674 0.013696448 0.0864449 0.049871847 -0.03833393 0.32021326 0.05704353
0.04236318 -0.0116099585 0.013800162 0.28931734 0.09306364 0.2298565 -0.010564681 0.108956695
0.13393341 0.09508375 0.17819549 0.2056991 -0.10964024 -0.1296217 0.053446062 0.19190548
0.043299336 -0.14904127 -0.031784993 0.22231197 0.03930081 -0.10772259 0.26851398 0.114218436
0.037761502 0.20942411 0.015298329 0.13525793 0.22043587 -0.075975575 -0.04405917 -0.14386296
0.1251108 -0.19514523 -0.29808754 0.14821613 0.16355847 0.16303816 -0.09054248 0.21854721
0.23138525 0.027222075 -0.15031065 0.07102115 0.18812388 0.028894478 -0.042329032 -0.06023907
0.23925169 0.008682804 0.19802263 0.07081997 0.26187778 0.005418036 0.02380895 0.003676674
0.069634244 -0.024863541 0.033614602 -0.20428343 0.16458671 -0.15333194 0.11525783 -0.35180816
0.0448004 0.044583112 0.04509302 0.4468284 0.058621638 0.15391295 -0.069755815 0.09485059
0.074530296 0.037199564 0.1248088 0.12196391 0.014983428 -0.042232182 -0.11872315 -0.1147982
0.10290305 0.0488892 0.031583074 0.049357273 -0.27633786 0.07356905 -0.18981017 0.20700695
0.11297158 -0.028918318 0.06612242 -0.07344107 -0.21270251 -0.038313393 0.052717365 -0.05359185
-0.03176006 0.036605332 -0.10891039 -0.038242754 0.08060503 -0.16242355 -0.033547584 -0.06549924
0.15996152 -0.22796345 -0.02883506 0.19800082 0.052260865 0.12843855 -0.10548628 -0.08038225
-0.256292 0.038851216 -0.21597554 0.036019213 0.23539525 -0.10667438 0.07703812 -0.062629074
0.052778814 0.06838422 -0.07285589 -0.05131625 -0.16835803 0.100354575 0.009302069 0.07524952
0.05625682 0.11458747 -0.012461786 -0.047216363 -0.08221336 0.33189487 -0.30364305 0.039403643
0.23619996 0.050268445 -0.034776706 -0.049035482 0.07677225 -0.21538253 0.04656335 -0.044795573
-0.015867738 0.1500292 -0.20392448 0.17668173 -0.14244032 0.16644594 -0.0020355938 -0.13468282
0.03565512 -0.20059104 0.018751388 -0.09461158 0.06836486 -0.0073461365 -0.014448446 0.047669396
0.05383767 0.033672716 0.17645764 -0.0747253 0.08190631 0.07500895 0.2543878 -0.09001116
-0.05327535 0.023055019 0.11786274 0.06648657 0.32271716 0.16777979 0.2001051 -0.25975728
-0.041745756 0.09399645 -0.05657824 0.14376433 -0.10626589 -0.013232924 -0.026422268 -0.0731356
-0.08151861 0.057937566 0.11314716 0.06450015 -0.13788813 -0.07402927 -0.07901268 -0.17244871
-0.20511982 -0.031044153 -0.005044529 -0.038309917 0.006434442 0.106337495 -0.04581909 -0.22385551
-0.2262421 -0.089383945 0.087812245 0.036648504 0.11768239 -0.19469291 0.06438328 0.16946694
00000000: 5456 0dbe 013a 393d 76f9 2a3d 296e 6fbd
00000010: da6b 9b3e f9e1 c93d 99e9 463e 6e76 353e
00000020: 572a 82bc b32c 083e 63a5 213e c417 0d3d
00000030: 1d4f 193e 3bc5 0ebe 3376 143d 0994 86bd
00000040: 80b3 fa3c 336c 733d 8804 6d3d f57d 57be
00000050: bb43 1a3e 7dea 9bbe acea 52bd 1986 583e
00000060: 7b48 1c3e ae40 29be f78c 5abd f11c 433e
00000070: 473c 38be e417 6b3d 639a 1dbe 925b 4c3d
00000080: a422 18be fdc7 923d c655 813c 7b7e 69bc
00000090: f969 8a3e 810a 09be 22e1 cc3d 9cd1 2bbe
000000a0: 16fe 62bd 5cae 8ebe 1167 603c 060a b13d
000000b0: 6c46 4c3d 0a04 1dbd fef2 a33e 7aa6 693d
000000c0: 0485 2d3d b237 3ebc 131a 623c 6721 943e
000000d0: 2698 be3d 815f 6b3e 7c17 2dbc b024 df3d
000000e0: d725 093e 45bb c23d e178 363e c9a2 523e
000000f0: 108b e0bd 8dbb 04be 42ea 5a3d df82 443e
00000100: a55a 313d 469e 18be fb30 02bd c0a5 633e
00000110: e3f9 203d a99d dcbd aa7a 893e 5beb e93d
00000120: ceab 1a3d 4673 563e d8a5 7a3c 0e81 0a3e
00000130: f1b9 613e 1599 9bbd 6377 34bd d050 13be
00000140: 0c1d 003e 27d4 47be ee9e 98be f8c5 173e
00000150: df7b 273e 7af3 263e 566e b9bd d7ca 5f3e
00000160: 41f0 6c3e d400 df3c 09eb 19be 8973 913d
00000170: 8ca3 403e 1db4 ec3c 3561 2dbd 3ebd 76bd
00000180: 65fe 743e 5242 0e3c 72c6 4a3e 0f0a 913d
00000190: d814 863e c889 b13b fd0a c33c 5bf4 703b
000001a0: 669c 8e3d a0ae cbbc 77af 093d ad2f 51be
000001b0: 6b89 283e 0c03 1dbe 4c0c ec3d 3320 b4be
000001c0: a080 373d c89c 363d 75b3 383d b1c6 e43e
000001d0: 3e1d 703d 5b9b 1d3e 23dc 8ebd 0741 c23d
000001e0: 57a3 983d 925e 183d c29b ff3d 37c8 f93d
000001f0: 0d7d 753c a7fb 2cbd 1f25 f3bd 521b ebbd
00000200: d6be d23d 0b40 483d 415d 013d da2a 4a3d
00000210: 287c 8dbe 5fab 963d 995d 42be a1f9 533e
00000220: a55d e73d 1ce6 ecbc 316b 873d 4668 96bd
00000230: b0ce 59be 81ee 1cbd 2aee 573d 2183 5bbd
00000240: d616 02bd 79ef 153d 690c dfbd 6fa4 1cbd
00000250: 4014 a53d 5c52 26be 3169 09bd 7724 86bd
00000260: f4cc 233e 406f 69be 8137 ecbc bac0 4a3e
00000270: 7d0f 563d 6585 033e 3109 d8bd 739f a4bd
00000280: b438 83be 7422 1f3d b128 5dbe e288 133d
00000290: 740b 713e 1978 dabd 29c6 9d3d ac43 80bd
000002a0: 992e 583d 070d 8c3d 7835 95bd fd30 52bd
000002b0: 0c66 2cbe b386 cd3d b567 183c 6c1c 9a3d
000002c0: 8d6d 663d d6ac ea3d 852c 4cbc f265 41bd
000002d0: 7a5f a8bd 20ee a93e 1a77 9bbe b765 213d
000002e0: 67de 713e 49e6 4d3d 0572 0ebd 6ed9 48bd
000002f0: c53a 9d3d 3d8d 5cbe 36b9 3e3d 907b 37bd
00000300: 0ffd 81bc 41a1 193e 94d1 50be 0eec 343e
00000310: e0db 11be ce70 2a3e 9967 05bb 4bea 09be
00000320: 1a0b 123d bd67 4dbe 839c 993c b7c3 c1bd
00000330: e002 8c3d dcb7 f0bb 2db9 6cbc fc40 433d
00000340: e384 5c3d 67ec 093d 50b1 343e 9409 99bd
00000350: 7fbe a73d 4b9e 993d 1e3f 823e c557 b8bd
00000360: 4137 5abd e1dd bc3c 0562 f13d 1c2a 883d
00000370: 2f3b a53e 77ce 2b3e 5ae8 4c3e e8fe 84be
00000380: 99fd 2abd 3681 c03d 96be 67bd f536 133e
00000390: eea1 d9bd e8ce 58bc 8373 d8bc 1ec8 95bd
000003a0: 3bf3 a6bd f14f 6d3d b3b9 e73d a818 843d
000003b0: 8c32 0dbe a89c 97bd 66d1 a1bd 6596 30be
000003c0: ee0a 52be 4f50 febc 944c a5bb dcea 1cbd
000003d0: 03d8 d23b 79c7 d93d ccac 3bbd 613a 65be
000003e0: 02ac 67be ee0e b7bd e8d6 b33d be1c 163d
000003f0: 7703 f13d 945d 47be 62db 833d be88 2d3e

network_body._body_endoder.seq_layers.0.bias f4 [128]
-0.014208365 0.0017160313 -0.006955421 -0.014220111 -0.013494575 -0.005533351 -0.0012997594 0.01043722
0.0015061488 0.0010471857 -0.014899247 0.010109424 0.036555264 7.921552e-05 0.0046229376 -0.0072820173
0.03178482 0.017228067 0.017397817 0.020991642 -0.011562525 0.0011295319 0.005251342 0.024093838
-0.004000995 0.008446734 -0.009336947 0.020141168 0.0079956455 0.013326929 0.012010976 0.008547213
0.0046263174 0.035106666 -0.0024016062 0.0002717289 0.0363585 -0.009920236 -0.01978247 0.0026510356
-0.0032949462 -0.004327019 -0.016488224 -0.014077425 0.014074667 0.015392874 -0.0119766155 -0.01067323
0.022835825 0.033589005 -0.006848555 0.0102042435 -0.00016021977 -0.0017121579 0.015850872 0.004255389
-0.012589283 0.006559641 -0.0069956626 -0.0043363245 -0.0023390672 -0.0031585884 0.018690784 0.0037901953
0.015257746 -0.01858 -0.02260935 0.011805637 0.02807934 0.010104073 0.029564021 0.0048324056
0.010970471 0.0044780513 -4.6632173e-05 0.024174182 0.034698915 0.012407566 -0.01683462 -0.02177535
0.017835151 -0.0094481865 0.013208689 -0.016466131 0.01804269 0.011999518 -0.016608197 0.017748833
-0.0107014645 -0.0017664969 0.018496128 0.0015910096 -0.013051728 -0.024945071 0.009253936 0.013248268
0.0037131894 -0.0006194385 0.011670207 0.008811235 -0.019645171 -0.011381468 -0.0021777907 -0.014753735
0.0066516744 0.006061058 0.028174289 0.012836809 0.01173514 0.020032829 0.00399257 0.004903507
-0.00060130405 0.013222694 0.009280359 -0.0014351846 0.020193435 0.005411832 0.0056449054 0.005454862
0.0008368609 -0.0023586247 0.004972716 0.013915785 -0.000900022 0.019816767 0.013011277 0.01475118
00000000: 34ca 68bc 75ec e03a 4dea e3bb 78fb 68bc
00000010: 5a18 5dbc 1d51 b5bb b05c aaba e000 2b3c
00000020: f869 c53a b941 893a f91b 74bc ffa1 253c
00000030: f9ba 153d 8220 a638 037c 973b fd9d eebb
00000040: cd30 023d e021 8d3c de85 8e3c aaf6 ab3c
00000050: bf70 3dbc cd0c 943a 7313 ac3b 7160 c53c
00000060: c71a 83bb 2c64 0a3c fff9 18bc 17ff a43c
00000070: 2b00 033c 3159 5a3c afc9 443c 9c09 0c3c
00000080: 5d98 973b 02cc 0f3d 4464 1dbb d676 8e39
00000090: a7ec 143d 7c88 22bc d90e a2bc ffbc 2d3b
000000a0: 06f0 57bb abc9 8dbb 5012 87bc 00a5 66bc
000000b0: 6f99 663c 6532 7c3c 9139 44bc c5de 2ebc
000000c0: 3212 bb3c a094 093d d869 e0bb b32f 273c
000000d0: ab00 28b9 7c6a e0ba b0d9 813c ca70 8b3b
000000e0: 4843 4ebc 42f2 d63b df3b e5bb ba17 8ebb
000000f0: 094b 19bb 5200 4fbb 6a1d 993c ed64 783b
00000100: a0fb 793c 1635 98bc 3e37 b9bc 6e6c 413c
00000110: a506 e63c 8e8b 253c 3f30 f23c 2859 9e3b
00000120: 7ebd 333c 9ebc 923b ea96 43b8 ef08 c63c
00000130: 7320 0e3d 1b49 4b3c c2e8 89bc 3862 b2bc
00000140: 061b 923c 91cc 1abc 4269 583c fbe3 86bc
00000150: 43ce 933c a099 443c ea0d 88bc 0066 913c
00000160: 3255 2fbc cd89 e7ba 3185 973c 6c89 d03a
00000170: ead6 55bc 9b59 ccbc d29d 173c 430f 593c
00000180: fb58 733b d061 22ba 6534 3f3c 005d 103c
00000190: e9ee a0bc 5679 3abc 44b9 0ebb a6b9 71bc
000001a0: 4af6 d93b d79b c63b c4cd e63c 7b51 523c
000001b0: bf44 403c e31b a43c 1bd4 823b 99ad a03b
000001c0: d5a0 1dba 00a4 583c a60c 183c ce1c bcba
000001d0: b46c a53c bd55 b13b e6f8 b83b b3be b23b
000001e0: c960 5b3a 2893 1abb 2af2 a23b 08ff 633c
000001f0: 74ef 6bba c656 a23c 402d 553c efae 713c

network_body._body_endoder.seq_layers.2.weight f4 [128, 128]
-0.04818796 0.005637723 -0.045284722 -0.09444901 0.015389156 -0.0020750249 -0.11513057 0.06215256
0.14689396 -0.05351245 -0.10249886 -0.044111133 0.05431237 0.011020548 -0.076568425 -0.11593903
-0.108910814 -0.08758822 0.18629682 0.014479062 -0.013547394 0.0045110565 -0.04783229 -0.02869622
-0.074659504 0.07757465 0.062285595 -0.032996193 -0.10568596 -0.026558638 0.018944057 -0.09188778
-0.070418976 0.16241762 0.09802953 0.043573715 0.0710154 0.045417193 -0.03328835 -0.06526351
-0.018248739 0.1319976 -0.08362555 0.05477509 -0.14315034 0.08746889 -0.12859412 0.088755295
-0.10225101 -0.11204126 -0.0122733675 0.047560748 -0.029406913 -0.059131376 0.1460595 0.03833934
-0.14695872 -0.0004720678 0.12353095 0.036358304 -0.089610554 0.003625806 0.08850107 0.033435937
-0.10920298 -0.06057409 -0.1577866 0.074277274 -0.18126972 0.01718824 -0.09273826 0.16054821
-0.02729548 0.090880066 -0.04747677 0.1541473 -0.22031642 -0.13974264 0.052795134 -0.08043756
-0.013964852 -0.057686787 0.07681951 0.1834822 0.12684834 0.065146014 -0.15727696 -0.037620988
0.19785117 0.048878998 -0.05442473 0.0061320937 -0.05114142 -0.042074192 0.10018654 -0.013243569
0.15124722 0.078119904 0.029076647 0.0051538497 -0.09267787 -0.23625714 0.120251246 -0.05568407
-0.00014581325 0.003365985 0.0655341 0.007860711 -0.008099155 0.046228338 -0.04353527 0.048465982
0.015682574 -0.2351372 -0.017774044 -0.045871597 -0.06592568 0.115150474 -0.0552483 -0.1489035
0.15070574 -0.08235 0.0577303 -0.11184521 0.03736151 -0.064617746 -0.08205095 0.13398308
-0.09696325 0.013032585 0.04375198 -0.13351187 0.08310958 -0.117830686 -0.041544154 0.053638186
0.090769306 -0.030601747 0.023972018 0.100496605 0.07041855 0.14855525 0.18106012 -0.018296199
0.03409359 -0.023159243 -0.08731518 -0.121486865 -0.027691677 0.02412682 0.04078002 -0.009494314
-0.038335055 -0.083318956 0.06032312 0.017697081 -0.16250816 0.106278285 0.0051143295 0.035159763
-0.010967358 -0.17369065 0.048994586 -0.04941528 0.013508994 -0.0041928003 -0.01985708 0.10517616
0.02618032 0.108042076 0.09045729 -0.10957698 -0.023537563 0.1132958 -0.023895154 -0.11432029
-0.067532025 0.0113951815 -0.15820064 0.052722026 -0.02046232 -0.007611949 -0.077335484 -0.10315273
-0.08004623 -0.008849163 -0.040841512 -0.062105272 -0.036685124 -0.15252583 -0.029037412 -0.14580172
-0.0063333437 -0.13980909 -0.0085328575 0.0572305 -0.1954711 0.105438635 0.073463015 -0.13646631
0.20804626 0.046050467 -0.18471761 0.0375138 0.07713284 0.047822114 0.047976617 0.055525437
-0.0025176543 0.0382419 0.03180056 -0.097105935 -0.14946921 -0.1599152 0.0823432 0.008708473
0.0987009 0.034721162 -0.047391433 -0.123432174 -0.119535916 0.071071 -0.097590595 0.065724485
-0.13037223 0.051110405 0.08015459 0.0033713365 0.0838433 0.022159038 -0.037049998 0.03773385
-0.07430074 -0.049628876 -0.014849555 -0.104804315 -0.061593033 -0.06919266 -0.094507955 0.23322055
-0.029495625 -0.08033824 0.14284566 0.15973322 0.13564451 -0.0008582438 0.0040617185 -0.029995902
0.018390194 0.00071471033 0.03748008 0.11479619 0.15733217 0.014668973 0.024975171 0.12589099
00000000: bd60 45bd a6bc b83b 797c 39bd 7c6e c1bd
00000010: cc22 7c3c 24fd 07bb 94c9 ebbd af93 7e3d
00000020: 5f6b 163e df2f 5bbd ecea d1bd e0ad 34bd
00000030: a676 5e3d 878f 343c e8cf 9cbd 7171 edbd
00000040: a20c dfbd 7461 b3bd 98c4 3e3e 9639 6d3c
00000050: e4f5 5dbc 7cd1 933b cbeb 43bd 5614 ebbc
00000060: 15e7 98bd 75df 9e3d 2e1f 7f3d 0427 07bd
00000070: e171 d8bd 8091 d9bc 9130 9b3c a92f bcbd
00000080: d337 90bd ce50 263e b5c3 c83d 5a7a 323d
00000090: 8670 913d 6107 3a3d 5d59 08bd e0a8 85bd
000000a0: 617e 95bc 612a 073e df43 abbd d85b 603d
000000b0: 0196 12be e422 b33d 2dae 03be 56c5 b53d
000000c0: fa68 d1bd e375 e5bd 3c16 49bc 0fcf 423d
000000d0: c4e6 f0bc be33 72bd 9f90 153e b609 1d3d
000000e0: 597c 16be de7f f7b9 cbfd fc3d 72ec 143d
000000f0: bd85 b7bd ee9e 6d3b 0d40 b53d 1ff4 083d
00000100: d0a5 dfbd 891c 78bd cf92 21be af1e 983d
00000110: c59e 39be 5ace 8c3c 8fed bdbd c066 243e
00000120: c59a dfbc 541f ba3d 0077 42bd cad8 1d3e
00000130: a19a 61be b218 0fbe b63f 583d 73bc a4bd
00000140: d6cc 64bc fb48 6cbd 8c53 9d3d c2e2 3b3e
00000150: 88e4 013e 466b 853d 360d 21be 7718 1abd
00000160: 7f99 4a3e 5835 483d 77ec 5ebd bbef c83b
00000170: aa79 51bd fd55 2cbd 9a2e cd3d 8efb 58bc
00000180: 8de0 1a3e 54fd 9f3d 2632 ee3c a0e1 a83b
00000190: e5cd bdbd 64ed 71be 4946 f63d fb14 64bd
000001a0: 72e5 18b9 db97 5c3b be36 863d 36ca 003c
000001b0: 51b2 04bc ed59 3d3d 0a52 32bd 4484 463d
000001c0: be78 803c cec7 70be df9a 91bc dbe3 3bbd
000001d0: 0b04 87bd 03d4 eb3d 0b4c 62bd 297a 18be
000001e0: 9b52 1a3e 1ea7 a8bd 9b76 6c3d 1a0f e5bd
000001f0: 6208 193d 4f56 84bd 540a a8bd dc32 093e
00000200: ab94 c6bd a086 553c 4735 333d 56b7 08be
00000210: 5b35 aa3d 3751 f1bd 342a 2abd b7b3 5b3d
00000220: 42e5 b93d 84b0 fabc f760 c43c 2ad1 cd3d
00000230: 9a37 903d de1e 183e d367 393e e9e1 95bc
00000240: b8a5 0b3d 74b8 bdbc 4dd2 b2bd 1bce f8bd
00000250: a8d9 e2bc 9ca5 c53c f308 273d 0a8e 1bbc
00000260: 3805 1dbd 21a3 aabd 6015 773d 78f9 903c
00000270: 8a68 26be 6ea8 d93d 1b96 a73b af03 103d
00000280: 6fb0 33bc f6db 31be 8cae 483d ad67 4abd
00000290: d454 5d3c c263 89bb 51ab a2bc 9966 d73d
000002a0: 1c78 d63c 2a45 dd3d ac41 b93d e569 e0bd
000002b0: d9d1 c0bc a107 e83d c5bf c3bc c220 eabd
000002c0: 3b4e 8abd dbb2 3a3c 59ff 21be 0df3 573d
000002d0: 98a0 a7bc a86d f9bb 1162 9ebd bd41 d3bd
000002e0: 47ef a3bd 14fc 10bc 6e49 27bd 1962 7ebd
000002f0: 2443 16bd bb2f 1cbe dedf edbc 0c4d 15be
00000300: f087 cfbb 1d2a 0fbe 66cd 0bbc 876a 6a3d
00000310: 9329 48be 36f0 d73d c773 963d d3bd 0bbe
00000320: 140a 553e 6a9f 3c3d 9d26 3dbe 12a8 193d
00000330: d3f7 9d3d 1fe1 433d 2183 443d a46e 633d
00000340: 3bff 24bb 8aa3 1c3d 4e41 023d 7adf c6bd
00000350: 750e 19be cfc0 23be 8da3 a83d fcad 0e3c
00000360: b323 ca3d c737 0e3d 851d 42bd 02ca fcbd
00000370: 3fcf f4bd ac8d 913d 94dd c7bd 8f9a 863d
00000380: 4c80 05be 2559 513d 1728 a43d a4f1 5c3b
00000390: 09b6 ab3d df86 b53c bdc1 17bd cf8e 1a3d
000003a0: fd2a 98bd a647 4bbd 8c4b 73bc a5a3 d6bd
000003b0: fa48 7cbd e2b4 8dbd 638d c1bd 5ed1 6e3e
000003c0: cfa0 f1bc 6088 a4bd 2246 123e 1b91 233e
000003d0: 65e6 0a3e c4fb 60ba 2a18 853b f7b9 f5bc
000003e0: 08a7 963c 665b 3b3a b684 193d 441a eb3d
000003f0: af1b 213e 2256 703c bb98 cc3c 91e9 003e

network_body._body_endoder.seq_layers.2.bias f4 [128]
0.025608465 0.009047395 -0.01763794 -0.011230609 -0.0030254489 -0.009887565 0.020626314 -0.008400948
0.009343815 -0.009583817 -0.009426019 0.0052480604 -0.003938555 0.0140496995 -0.0050452505 -0.012397931
-0.0017296385 0.00038687882 -0.00314722 0.027133994 -0.0073636323 0.009347856 0.030229775 0.018780656
-0.017893748 0.0083290115 0.010845927 0.008612195 0.022929635 0.0111159645 -0.0019889406 -0.014310568
0.019307291 0.02065608 -0.00921755 -0.00314185 0.0018526074 0.010338129 -0.0023313495 -0.014808117
0.018190335 0.0038736972 -0.0004400152 -0.0014296795 0.026992766 0.007150174 0.0029554872 -0.00046863235
-0.014137102 0.0020297142 0.03284547 -0.004418776 0.0012573947 -0.0039970423 -0.0030443869 -0.012722722
-0.0017280527 0.0021952472 -0.0025119141 0.008157191 0.017403217 0.0044258134 0.0042017573 0.0033353777
0.001860334 0.010314866 -0.013523935 0.0015295999 0.027503544 0.012619426 0.021146087 0.01819038
-0.01385506 -0.00035920241 0.012486823 0.013010144 0.009047343 0.0052198507 -0.00054027536 -9.273169e-05
0.003708018 0.016547462 0.0011992009 0.003938679 0.018542988 -0.008607102 -0.006630691 -0.0051679877
-0.005911033 0.017413022 0.024889162 0.012127045 -0.003066284 -0.0037144008 0.017363735 -0.009512318
0.017913856 0.021356402 0.0037228186 0.0036505708 0.002330421 -0.00061852543 -0.0107005 0.0032376477
0.01652636 -0.0064389864 0.01573537 0.012430312 -0.00020332042 0.0011435936 0.005333661 0.011006026
0.0022269855 -0.004055418 -0.00961969 0.010487763 0.022396114 0.00026073144 0.0035562918 -0.010828699
0.019131929 0.021680694 -0.013329852 0.0025246558 0.010798222 -0.007553636 0.019155003 0.0091529535
00000000: d8c8 d13c 863b 143c 717d 90bc 9700 38bc
00000010: 9c46 46bb 74ff 21bc 84f8 a83c 21a4 09bc
00000020: cd16 193c 7105 1dbc 976f 1abc ecf7 ab3b
00000030: fe0e 81bb b630 663c a152 a5bb b120 4bbc
00000040: 0ab5 e2ba ffd5 ca39 9741 4ebb 1c48 de3c
00000050: a04a f1bb c027 193c 6fa4 f73c e4d9 993c
00000060: e995 92bc 6876 083c 1db3 313c 2a1a 0d3c
00000070: eed6 bb3c bc1f 363c e358 02bb df76 6abc
00000080: 532a 9e3c f136 a93c 3505 17bc 7fe7 4dbb
00000090: 30d3 f23a 4161 293c 8ec9 18bb bf9d 72bc
000000a0: e603 953c dbdd 7d3b d7b1 e6b9 1564 bbba
000000b0: ef1f dd3c 024c ea3b d9b0 413b c5b2 f5b9
000000c0: 4e9f 67bc f404 053b f988 063d 61cb 90bb
000000d0: 2acf a43a 9ff9 82bb 5684 47bb f772 50bc
000000e0: d47f e2ba 23de 0f3b ed9e 24bb bda5 053c
000000f0: 3191 8e3c 6a06 913b e5ae 893b 5a96 5a3b
00000100: 73d6 f33a afff 283c 7f93 5dbc db7c c83a
00000110: 1d4f e13c b5c1 4e3c 8f3a ad3c fe03 953c
00000120: 5500 63bc 5553 bcb9 8895 4c3c 8028 553c
00000130: 4f3b 143c 480b ab3b 44a1 0dba f278 c2b8
00000140: 3802 733b 8b8e 873c 812e 9d3a 0910 813b
00000150: 77e7 973c cd04 0dbc 4446 d9bb 3958 a9bb
00000160: 57b1 c1bb c1a5 8e3c 5be4 cb3c 83b0 463c
00000170: b6f3 48bb 4e6d 73bb 643e 8e3c 8ed9 1bbc
00000180: 14c0 923c 9ff3 ae3c 88fa 733b 6a3e 6f3b
00000190: fab9 183b 8a24 22ba 2651 2fbc b72e 543b
000001a0: 4a62 873c 22fe d2bb 76e7 803c 82a8 4b3c
000001b0: 6932 55b9 a2e4 953a fec5 ae3b 9e52 343c
000001c0: 9ef2 113b 50e3 84bb e79b 1dbc ded4 2b3c
000001d0: 0e78 b73c c8b2 8839 ad10 693b db6a 31bc
000001e0: 90ba 9c3c b69b b13c 7465 5abc b274 253b
000001f0: 07eb 303c 7e84 f7bb f4ea 9c3c 45f6 153c

action_model._discrete_distribution.branches.0.weight f4 [3, 128]
0.036585815 -0.07606448 -0.0039731567 0.021374872 0.04151674 -0.006251131 -0.02316514 -0.00427598
-0.034180433 -0.018400537 -0.015514893 -0.015510364 0.027474534 0.020685757 0.022129605 0.009825852
-0.038147308 0.04118229 0.02049554 -0.10233746 0.008528255 0.024662837 0.07234282 -0.016350325
-0.0002427297 -0.013370178 -0.009447655 -0.040730346 -0.0014433553 -0.016984671 0.047388 0.01535308
0.0437326 -0.0278067 -0.019883458 -0.023162898 0.026980603 0.009455761 0.029210458 -0.024570245
0.046472777 -0.047113057 -0.026186483 0.007867803 -0.06498433 0.0010013205 0.0066029187 0.024535136
0.01457642 -0.014014392 0.057016347 0.018397529 0.048961617 0.017794887 -0.02814697 0.001504223
0.008399183 0.013442018 -0.029310413 -0.08864711 0.046528786 -0.008454932 0.028726008 -0.009851867
-0.052795924 -0.039232455 0.0070221457 -0.0486922 -0.0047409744 -0.0131273335 0.090325564 0.068997905
0.07214996 0.0046476615 0.049337357 0.059855852 -0.022529198 -0.023047574 0.008038111 -0.020889224
-0.0069237542 -0.021071713 0.016414694 -0.03288382 -0.008098826 -0.0030684816 -0.029936826 0.010533948
-0.010044577 0.010950202 0.012198522 0.06014786 0.01436536 -0.00502882 -0.07107628 0.0010073003
0.018123906 -0.05596434 0.023427214 -0.014883466 -0.00031560642 -0.027812678 -0.044955146 -0.02725731
-0.0036178518 0.0014906217 0.00031121736 0.007992904 0.025876384 -0.06941762 -0.009110461 -0.033402536
0.050991967 0.030101221 -0.0059592095 -0.02487518 0.013287417 0.0026319807 -0.0103089735 -0.02528642
0.046533283 0.04240718 0.009464558 -0.04717706 -0.00850047 0.002312812 0.07794133 0.0064974395
9.150481e-05 -0.012786461 0.0071765836 -0.029621398 -0.017239857 -0.004479859 0.0059425035 0.003699217
0.004759488 -0.027700093 -0.00075178203 -0.0010367674 -0.00607765 0.042662363 -0.027363824 0.0004594709
0.03501704 -0.018370807 -0.017297897 -0.018499192 0.0026929616 -0.025447963 0.0027940727 -0.0007308432
0.0021633883 0.014382277 0.023187265 0.01332206 0.011271323 -0.00019894342 -0.0040104333 0.010527877
-0.06511166 0.015475129 -0.010192014 0.00104155 -0.011058561 0.003831151 0.011541833 -0.0056025716
-0.012044613 -0.0063087554 0.022289502 0.011135174 -0.0066296957 0.012554071 -0.00332059 -0.04562695
0.008221731 0.016482841 -0.011215443 -0.030731505 0.0031195239 0.005589073 0.0009831461 0.013847241
0.00779494 0.019369915 0.009647407 -0.02219323 0.013928006 -0.01541957 0.02526289 0.0008658136
-0.0048614726 -0.008221519 -0.01625928 -0.015609233 0.02315169 -0.0046392814 -0.0370489 -0.004199399
0.028686522 -0.002500626 -0.006034383 -0.051900025 0.01168744 0.01889081 -0.007824148 0.0026484702
0.0133115 0.039092105 0.003873908 0.011627763 0.003684692 -0.017958887 0.04582464 -0.031428244
0.0052794055 -0.00593977 -0.009283846 -0.018366303 0.005654146 -0.035095286 0.038017567 -0.009383766
0.017117288 0.0036694673 -0.013678579 0.022350274 0.0077994573 -0.032803882 -0.0048840665 0.023492686
0.014943278 0.005090519 0.020547649 0.02230889 0.0065345867 0.0056826244 -0.0012191166 0.010569832
-0.030186588 -0.0045976024 -0.010649901 0.020587262 0.009916673 -0.0331918 0.005660815 0.013813249
-0.010414847 -0.020585757 0.009640346 -0.031040754 0.001045832 0.00032554998 -0.018885138 -0.03198916
00000000: 02db 153d b2c7 9bbd 4131 82bb 5b1a af3c
00000010: 750d 2a3d 4ad6 ccbb d2c4 bdbc 851d 8cbb
00000020: c800 0cbd b9bc 96bc 2e32 7ebc 2f1f 7ebc
00000030: 4612 e13c 2d75 a93c 2549 b53c 9cfc 203c
00000040: 5a40 1cbd c3ae 283d 43e6 a73c 4d96 d1bd
00000050: 18ba 0b3c b809 ca3c 7928 943d 1ef1 85bc
00000060: 4285 7eb9 970e 5bbc 56ca 1abc ddd4 26bd
00000070: f82e bdba 7023 8bbc eb19 423d 7c8b 7b3c
00000080: f420 333d e0ca e3bc a2e2 a2bc 1ec0 bdbc
00000090: 6d06 dd3c 56ec 1a3c c54a ef3c 8a47 c9bc
000000a0: 3d5a 3e3d 9ff9 40bd 0985 d6bc f5e7 003c
000000b0: 8116 85bd be3e 833a 4c5d d83b e9fd c83c
000000c0: f0d1 6e3c 9f9c 65bc f989 693d 6ab6 963c
000000d0: fa8b 483d 95c6 913c 7994 e6bc 5929 c53a
000000e0: ba9c 093c e93b 5c3c 641c f0bc 9e8c b5bd
000000f0: f894 3e3d 8e86 0abc ce52 eb3c ba69 21bc
00000100: 8a40 58bd 36b2 20bd 071a e63b 7971 47bd
00000110: 2d5a 9bbb 0714 57bc 9cfc b83d c64e 8d3d
00000120: 5cc3 933d 694b 983b f815 4a3d 692b 753d
00000130: 278f b8bc 44ce bcbc 48b2 033c e11f abbc
00000140: a9e0 e2bb 969e acbc 1c78 863c 2fb1 06bd
00000150: f0b0 04bc 9418 49bb 133e f5bc 9596 2c3c
00000160: 0292 24bc 7a68 333c 4fdc 473c 9a5d 763d
00000170: b05c 6b3c cdc8 a4bb 7190 91bd 6407 843a
00000180: 9678 943c dd3a 65bd 6eea bf3c c8d9 73bc
00000190: fa77 a5b9 6ad7 e3bc e322 38bd b94a dfbc
000001a0: 7b19 6dbb f760 c33a e32a a339 abf4 023c
000001b0: b6fa d33c d32a 8ebd 0b44 15bc 19d1 08bd
000001c0: f4dc 503d d696 f63c 7945 c3bb 09c7 cbbc
000001d0: 77b3 593c 4f7d 2c3b f8e6 28bc 7725 cfbc
000001e0: af99 3e3d 27b3 2d3d 3c11 1b3c bc3c 41bd
000001f0: 8e45 0bbc 8c92 173b b49f 9f3d 79e8 d43b
00000200: 45e6 bf38 4e7e 51bc 8c29 eb3b 93a8 f2bc
00000210: 9a3a 8dbc c8cb 92bb 55b9 c23b 906e 723b
00000220: 7bf5 9b3b 4eeb e2bc 3d13 45ba 24e4 87ba
00000230: 0627 c7bb bbbe 2e3d 192a e0bc 24e5 f039
00000240: 076e 0f3d 607e 96bc 52b4 8dbc 9e8b 97bc
00000250: 667c 303b 3f78 d0bc c31c 373b 0f96 3fba
00000260: a2c7 0d3b a4a3 6b3c 38f3 bd3c c544 5a3c
00000270: 5bab 383c 789b 50b9 f469 83bb 1e7d 2c3c
00000280: 4359 85bd 658b 7d3c 68fc 26bc 9e84 883a
00000290: f72e 35bc 0c14 7b3b f519 3d3c c795 b7bb
000002a0: c556 45bc adb9 cebb 7998 b63c 4e70 363c
000002b0: eb3d d9bb 97af 4d3c 419e 59bb 53e3 3abd
000002c0: 70b4 063c 0607 873c fac0 37bc a3c0 fbbc
000002d0: ed70 4c3b 8b24 b73b e9dc 803a 8adf 623c
000002e0: b26c ff3b a8ad 9e3c 2810 1e3c 94ce b5bc
000002f0: 4b32 643c 5da2 7cbc 1ff4 ce3c c4f7 623a
00000300: fd4c 9fbb 8db3 06bc 2e32 85bc debd 7fbc
00000310: 9da8 bd3c 1d05 98bb 96c0 17bd 1d9b 89bb
00000320: ffff ea3c 8be1 23bb 13bc c5bb 1f95 54bd
00000330: ad7c 3f3c e6c0 9a3c db30 00bc f591 2d3b
00000340: 7a18 5a3c 0b1f 203d 64e1 7d3b 5f82 3e3c
00000350: e07a 713b 841e 93bc 9eb2 3b3d e7ba 00bd
00000360: ddfe ac3b 67a2 c2bb 461b 18bc ee74 96bc
00000370: 6a46 b93b 13c0 0fbd 4fb8 1b3d 5ebe 19bc
00000380: 8e39 8c3c 727b 703b 1e1c 60bc ec17 b73c
00000390: 9792 ff3b 5d5d 06bd 850a a0bb bc73 c03c
000003a0: a7d4 743c 5ece a63b 8b53 a83c 22c1 b63c
000003b0: 1620 d63b 4f35 ba3b c4ca 9fba 172d 2d3c
000003c0: dd49 f7bc 7ca7 96bb ec7c 2ebc 9ea6 a83c
000003d0: 8b79 223c 20f4 07bd 5c7e b93b f750 623c
000003e0: 09a3 2abc 76a3 a8bc 8bf2 1d3c 2e49 febc
000003f0: 4c14 893a 94ae aa39 01b5 9abc 1107 03bd

action_model._discrete_distribution.branches.0.bias f4 [3]
-0.00684473 0.00722854 -0.00018574795
00000000: c249 e0bb 63dd ec3b 56c5 42b9

action_model._discrete_distribution.branches.1.weight f4 [2, 128]
0.00998292 0.004416907 0.014100773 -0.018647641 0.022907041 0.015615345 -0.027156906 0.0045421952
0.0429337 0.024944287 -0.0043462785 -0.010461739 0.014588565 -0.010081121 0.041281823 -0.0029866882
-0.00017218554 0.012788535 0.012876856 0.029105883 0.011890372 0.046142336 0.0151646305 -0.05142435
-0.010298727 -0.016389327 -0.019251343 -0.0030647838 0.03312945 0.05208895 0.020636212 -0.0004390739
0.050942972 -0.04199933 0.0027029624 0.024787616 0.012297764 -0.016588869 -0.0011051696 0.013382622
0.005777236 -0.008255839 0.03448995 -0.03459859 0.02161626 0.00048783427 0.013905995 0.024077838
0.011423901 -0.003704317 -0.008828749 0.03931947 0.024634367 0.0021521435 0.053258155 0.001975756
-0.008799582 0.0036376622 -0.009667235 -0.003939154 0.006760213 0.020308556 -0.013287713 -0.008838435
0.043782257 -0.02352349 0.004737353 0.0011552845 0.027043844 0.071787104 0.0357135 0.013724722
-0.008398067 0.013093849 0.007285201 0.033660404 -0.011801513 -0.005798564 0.0023355165 -0.01944426
-0.0005061354 0.016922949 0.002812853 -0.008024302 0.037518542 -0.0052085975 -0.02278759 0.03102062
0.023807041 -0.05977027 -0.06459815 0.0066521666 -0.021387517 0.005499796 -0.039332096 -0.0055884253
-0.005809102 -0.026298448 -0.018867906 -0.014310853 -0.0037708124 0.055207983 0.03528087 0.0061435197
0.06400217 -0.02513021 -0.043287043 -0.015990974 0.032709505 0.013346656 -0.02216695 0.0006774768
0.0074176234 0.0003898736 0.0022809166 -0.022964582 -0.031693097 0.03794115 -0.023176093 0.009688291
0.036631405 0.02436468 0.014684641 0.0042576035 -0.021030644 0.0053462237 0.0401604 -0.029002322
-0.009933612 -0.006520367 -0.0076421606 0.015472779 -0.04694457 0.001103339 0.01725178 -0.00083323783
-0.05587148 -0.016500069 0.003369309 0.019318666 0.005241075 0.019921366 -0.034557346 -0.0008176554
-0.021329813 -0.0026398292 0.020429559 -0.020858606 -0.016248615 -0.058262546 -0.019663898 0.029174604
-0.00019006198 0.037634045 0.030029122 0.0014416685 -0.04054264 -0.064151496 -0.017991915 -0.013202501
-0.04136995 0.015767306 0.010156959 -0.01971192 -0.0030050324 0.01917314 -0.0053914706 0.0054664076
-0.02164372 -0.0030603518 -0.019932931 0.020963764 -0.027062913 0.017391343 -0.033269748 -0.010463374
0.0039391397 0.026578479 0.024010185 -0.04339441 -0.012551121 0.016433615 -0.036693003 -2.1748547e-05
0.002849878 0.0070702387 -0.0008003542 -0.02609779 -0.010557318 -0.014169683 0.011711203 0.01629842
-0.023386331 0.031082904 -0.005097054 0.018878972 -0.02958962 -0.06515785 -0.033950225 0.0011839691
0.02358853 -0.023688652 0.004670293 -0.033755686 0.029587328 0.01146791 -0.0045635495 0.0044357264
0.001047622 -0.019806353 0.0054989746 -0.0043598185 -0.03821154 -1.3229893e-05 0.0023600336 -0.045208987
-0.031209607 0.040081635 0.06567051 0.00072133925 0.018150304 -0.013837438 0.00044279988 -0.012496587
-0.0005275536 0.03585319 0.007210016 0.0052002175 0.00035170032 -0.06643656 -0.029595438 -0.014817369
-0.047560174 -0.0028361222 0.024862854 0.026985541 -0.021355052 -0.028195288 0.009038126 -0.016438205
-0.032947164 -0.004834021 0.002422466 0.024915762 0.023413504 -0.04441347 0.021717224 -0.020176739
-0.053653665 -0.031859413 -0.009277622 -0.012004681 -0.007977081 -0.023342876 -0.038840838 0.00933088
00000000: 678f 233c b4bb 903b ee06 673c f0c2 98bc
00000010: 8ca7 bb3c 81d7 7f3c 2978 debc b2d6 943b
00000020: 3fdb 2f3d f657 cc3c 3a6b 8ebb b767 2bbc
00000030: e004 6f3c 492b 25bc 2117 293d 50bc 43bb
00000040: b48c 34b9 0187 513c 73f9 523c 766f ee3c
00000050: d6cf 423c bfff 3c3d 1275 783c 57a2 52bd
00000060: febb 28bc e942 86bc feb4 9dbc 8ada 48bb
00000070: bfb2 073d 395b 553d 460d a93c 8033 e6b9
00000080: 94a9 503d 7d07 2cbd 2f24 313b 660f cb3c
00000090: 907c 493c 61e5 87bc 57db 90ba c942 5b3c
000000a0: f84e bd3b 8043 07bc 5545 0d3d 40b7 0dbd
000000b0: 9514 b13c 02c4 ff39 f8d5 633c e33e c53c
000000c0: 502b 3b3c 20c4 72bb 75a6 10bc 740d 213d
000000d0: 03ce c93c fa0a 0d3b 3925 5a3d af7b 013b
000000e0: 1f2c 10bc d865 6e3b 5363 1ebc 0514 81bb
000000f0: c784 dd3b 215e a63c b5b4 59bc 15cf 10bc
00000100: 0655 333d 56b4 c0bc cc3b 9b3b ea6c 973a
00000110: 0d8b dd3c 1e05 933d 5248 123d a8dd 603c
00000120: 0c98 09bc 9587 563c b2b8 ee3b 7edf 093d
00000130: 225b 41bc e101 bebb 770f 193b 9249 9fbc
00000140: 2cae 04ba ffa1 8a3c d857 383b 5d78 03bc
00000150: 0bad 193d e2ac aabb 0aad babc f51e fe3c
00000160: fc06 c33c acd1 74bd 094c 84bd 6bfa d93b
00000170: e034 afbc a237 b43b b11a 21bd 1c1f b7bb
00000180: 485a bebb d86f d7bc de90 9abc 1178 6abc
00000190: bc1f 77bb c421 623d ac82 103d 944f c93b
000001a0: 9213 833d dfdd cdbc c14d 31bd 81ff 82bc
000001b0: 67fa 053d efab 5a3c 7797 b5bc b398 313a
000001c0: 890f f33b f367 cc39 6e7b 153b 3820 bcbc
000001d0: 9fd0 01bd 2e68 1b3d cadb bdbc a3bb 1e3c
000001e0: d00a 163d 7098 c73c d997 703c 5e83 8b3b
000001f0: 7548 acbc 602f af3b 3b7f 243d 4796 edbc
00000200: 97c0 22bc cea8 d5bb 176b fabb 8a81 7d3c
00000210: f348 40bd ea9d 903a 9b53 8d3c a56d 5aba
00000220: 7ed9 64bd 272b 87bc a0cf 5c3b 2e42 9e3c
00000230: 53bd ab3b 2232 a33c 018c 0dbd ed57 56ba
00000240: dcbb aebc fc00 2dbb e45b a73c abdf aabc
00000250: d11b 85bc b5a4 6ebd 2f16 a1bc 94ff ee3c
00000260: 604b 47b9 2826 1a3d a2ff f53c 5ef6 bc3a
00000270: 0a10 26bd dc61 83bd c863 93bc 4e4f 58bc
00000280: 8973 29bd 702a 813c 6069 263c e47a a1bc
00000290: 14f0 44bb fd10 9d3c efaa b0bb 8d1f b33b
000002a0: 2c4e b1bc 2f90 48bb 634a a3bc 33bc ab3c
000002b0: 0bb3 ddbc 4a78 8e3c dc45 08bd 926e 2bbc
000002c0: e613 813b 1cbb d93c 02b1 c43c 56be 31bd
000002d0: 38a3 4dbc ca9f 863c 674b 16bd a670 b6b7
000002e0: 05c5 3a3b 76ad e73b dcce 51ba 08cb d5bc
000002f0: 9af8 2cbc f527 68bc 58e0 3f3c 4484 853c
00000300: b194 bfbc 93a1 fe3c 3005 a7bb 13a8 9a3c
00000310: ee65 f2bc 7b71 85bd 640f 0bbd 692f 9b3a
00000320: bc3c c13c b40e c2bc 4209 993b 6743 0abd
00000330: 2061 f23c e7e3 3b3c d489 95bb 9259 913b
00000340: 5c50 893a ef40 a2bc be30 b43b cfdc 8ebb
00000350: b483 1cbd f5f5 5db7 cbaa 1a3b 0f2d 39bd
00000360: 4aab ffbc a42c 243d 437e 863d 4218 3d3a
00000370: f2af 943c 6cb6 62bc 9827 e839 7cbe 4cbc
00000380: 864b 0aba cbda 123d ff41 ec3b 9666 aa3b
00000390: 6b64 b839 e40f 88bd 2272 f2bc 8dc4 72bc
000003a0: 75ce 42bd 3cde 39bb 2fad cb3c c810 dd3c
000003b0: caf0 aebc cef9 e6bc a614 143c 6aa9 86bc
000003c0: 9bf3 06bd b566 9ebb 3cc2 1e3b 241c cc3c
000003d0: adcd bf3c e6ea 35bd 52e8 b13c b049 a5bc
000003e0: f2c3 5bbd 047f 02bd 2b01 18bc 48af 44bc
000003f0: 4eb2 02bc 8f39 bfbc 9217 1fbd 8ce0 183c

action_model._discrete_distribution.branches.1.bias f4 [2]
-0.010644501 0.010644504
00000000: 4666 2ebc 4966 2e3c
