KartSCBIO/Assets/Karting/Prefabs/KartClassic/ArcadeDriver-6184.onnx (onnx, 97010 bytes, 9 tensors)

discrete_action_output_shape f4 [1, 2]
00000000: 0000 4040 0000 4040
3.0 3.0

network_body._body_endoder.seq_layers.0.weight f4 [128, 48]
00000000: ad5d 543e f7c2 a23d eef2 b33d 4190 5b3e
00000010: a913 9abd 0ab0 0bbe 209f 15bd 0eb3 bfbd
00000020: d1d7 733e 9fb6 a6bd c879 743e 1edf 5abe
00000030: 2a61 86bb 7baa 4fbe 1b87 863d 122a f73d
00000040: 59f6 c9bb c659 92be 5e4b 01be 4d8a 8cbd
00000050: c80a 13bb afd4 5cbe 27b8 dbbd 6735 9f3d
00000060: 63cf 91bd b2c9 a4bd 6c04 213e 9dc0 693e
00000070: 64a8 803d a4ae 8c3d 8483 edbd ab9a ab3b
00000080: 7c53 f5b9 1346 3d3e 10cc 85bd 9f22 eb3c
00000090: 8d1e 40be 2bc1 81bc b3e8 5b3d c5a1 8abd
000000a0: d3af 3b3d 651e 9c3c b75e d6bd 160d 00bd
000000b0: d381 45be 76c0 06be 0844 c4bd 0719 cc3d
000000c0: 1aad dbbb ee01 c53b 04b5 123a 5f9b 85be
000000d0: 2abb 16be 3a9f e9bd d5e6 943d 2d51 933d
000000e0: 57e7 55bc 4155 b2bd e4c3 263e e72a 113e
000000f0: 0731 6c3d 848a 3abe 1f9d 273d 7903 02bb
00000100: 6bc9 303e e06a 803d 2c34 d2bd c23a 703d
00000110: df15 1e3d 7975 5c3c cdd4 be3d 71f7 293d
00000120: 0a08 2c3e d8d8 29bd 211b 2cbc 399a 29bd
00000130: 8385 bcbe d47e a43b e0b1 7e3c dcbe 96bd
00000140: 2556 503e fb7e 9b3c 1993 5fbd 9e6e d7bd
00000150: 5659 873e dca9 95bd 4053 01be 9211 f33d
00000160: a46f bebd acc0 383d 5514 93bd bd8e 9fbe
00000170: f56f 1a3e 41c9 9f3d f13c d03d 5bbf ab3d
00000180: 2e2d 9a3e af55 ee3d e7c2 8cbc 846c 12be
00000190: 7ba6 56be 053e 8e3d a3e1 0c3e c3c9 583d
000001a0: a9d6 76be 4d2a 36bd 0ac3 9bbd 6203 783d
000001b0: 6c23 ad3e 68ad f03c b5b8 293d ae6f 8e3d
000001c0: 50f5 46be 7df1 4abc 6bd4 17be 2a70 b0bc
000001d0: 43ec 2cbe 5739 923c 8499 993d 719b e9bc
000001e0: 4f4a 85bd 9d4d e03d 770e 7c3d 5378 b4bd
000001f0: 5d6a 4d3d 3347 83bd c9c4 dabd 798e 993d
00000200: 7a57 5dbe 57c8 71be 4bad fbbd 072e 52be
00000210: 74bc 88bd 04f4 52bd 3c8e 833d 8389 943e
00000220: e600 44bc 0bcb 8ebe a854 253d 7fcf 11be
00000230: c8e9 953e 187e 2cbd f99c 9abd 6f69 b1bd
00000240: fc31 13be 4ae6 1dbe 255b e4bd c2fe c0bc
00000250: 3ef0 583a ca1a 34be af3e a7bc 67c8 443e
00000260: 304d 573d 93ec 2e3e b5b7 e3bc cb69 423c
00000270: b1ef 0abe 3ca1 9d3d 8b46 8b3e e739 69be
00000280: 04ea ed3b 1ce0 76bd 104b 5cbe c1b7 c8bc
00000290: 08c9 043e 89c4 f4bd 11d7 863e e202 1f3e
000002a0: c99b 28bd 4588 e73d 7fbc 34be 9d17 163e
000002b0: e1c2 27be d307 823d 12f0 59be c32a bcbc
000002c0: 5fc9 493e 7306 85bd 6cdb 823d 85de 2b3e
000002d0: fe6a edbd 0a6f eab9 5c4f 6c3d f351 a4be
000002e0: fb62 853d c497 29be 9bc1 303e 29fa 1bbe
000002f0: f8c8 093d 5e20 0d3e 06ff d3bd 15ab 083c
00000300: 70d3 a738 20fd a5be ca6e 3fbe 534c b4bd
00000310: 7a97 c1bd e375 413e 457c 503d 5e3b 81bd
00000320: 9caa 533e e264 173e 2a35 e73c 7851 563d
00000330: 4eb6 7b3c cda5 843e 5f4c f23d 084d 093e
00000340: a75c 843d 1dd3 edbc 584b 543e 625c 723d
00000350: c129 18bc fc9c ce3d d3c1 9bbd 7004 5ebc
00000360: 488a 96bd 724f b4bd 208c fb3d 3a8f 75be
00000370: fe9c 103e 65bc d53c c306 23bd f4f8 1d3e
00000380: fb90 4fbe 4da2 453d 9747 c7be 0907 353e
00000390: 8138 92be 04a8 3dbc 4eb6 9e3e 4bba 84bd
000003a0: 0619 603d 6f46 24bd 363c 4f3c 3567 b9bd
000003b0: 846c 98bc 70b7 23be e3cb 99bd e645 8abe
000003c0: 82da 5d3e b49b d43d dab3 27be d9c3 2cbe
000003d0: 3ff5 84be 2732 abbd 60fe ad3d 8367 443e
000003e0: 84ca 443d 601e fd3c e334 77bd af03 673c
000003f0: ea9b 27be 959d b83c ddf8 1a3e 01b9 9bbd
0.2073886 0.07947343 0.087865695 0.21441747 -0.07523281 -0.13641372 -0.036528707 -0.09360324
0.23812796 -0.08140301 0.23874581 -0.21374175 -0.0041009383 -0.20279877 0.06568738 0.12068571
-0.0061634 -0.28584117 -0.12626407 -0.06862316 -0.0022436846 -0.21565507 -0.10728484 0.077738576
-0.07119634 -0.08046283 0.15724343 0.22827382 0.06282118 0.068692476 -0.1159735 0.0052369437
-0.00046792242 0.18483762 -0.065330625 0.028703032 -0.18761654 -0.01583918 0.053688716 -0.06769136
0.045821976 0.019057462 -0.10467284 -0.03126248 -0.19287805 -0.13159356 -0.095832884 0.09965711
-0.006703985 0.006012193 0.00055964314 -0.260951 -0.14719835 -0.11407323 0.0727059 0.071932174
-0.013055644 -0.08707667 0.16285664 0.14176522 0.057663944 -0.18216902 0.040921327 -0.0019838496
0.17264335 0.06270385 -0.10263857 0.058649786 0.038595077 0.013455742 0.09317932 0.041495744
0.16799942 -0.041466564 -0.010504515 -0.041406844 -0.3682061 0.005020002 0.015545338 -0.07360622
0.20345362 0.018981447 -0.054583643 -0.105191454 0.26435345 -0.07307789 -0.12629414 0.11868586
-0.092986375 0.04510562 -0.071816124 -0.31163588 0.1508177 0.07802058 0.10167874 0.083861075
0.30112594 0.116374366 -0.01718278 -0.14299208 -0.20961945 0.06945423 0.13757949 0.05292679
-0.24105324 -0.044473935 -0.0760556 0.0605501 0.33816087 0.029379562 0.041435916 0.06954895
-0.19429517 -0.012386677 -0.14827125 -0.021537859 -0.16887002 0.017849607 0.07499984 -0.028516503
-0.06508314 0.109523036 0.061537232 -0.088120125 0.050150264 -0.064100645 -0.10682065 0.07497878
-0.21615401 -0.2361158 -0.122889124 -0.2052537 -0.066765696 -0.051502243 0.064236134 0.29011163
-0.011963105 -0.27889284 0.040363938 -0.1423931 0.29279923 -0.04211244 -0.075494714 -0.08662688
-0.14374536 -0.1541988 -0.11150197 -0.023558978 0.0008275545 -0.17588344 -0.020415632 0.19217072
0.052563846 0.17082433 -0.02779756 0.011866043 -0.13567998 0.07696769 0.27202258 -0.22775994
0.007260563 -0.06027232 -0.21513009 -0.024501683 0.12967312 -0.119515486 0.26335958 0.15528443
-0.041164193 0.11305288 -0.1765003 0.14657445 -0.16382934 0.063491486 -0.21282986 -0.02296961
0.19705723 -0.06495371 0.06389508 0.16784103 -0.11592673 -0.0004471469 0.05769287 -0.32093772
0.0651302 -0.165618 0.17261355 -0.15232147 0.033638924 0.13781878 -0.10351376 0.00834157
8.002564e-05 -0.32419682 -0.18694606 -0.0880362 -0.0945272 0.18892626 0.050899763 -0.063101515
0.20670551 0.14784577 0.028223593 0.05232379 0.015363289 0.25907746 0.11830973 0.13408291
0.064629845 -0.02903133 0.20731866 0.059170134 -0.009287299 0.10088536 -0.076053284 -0.013550863
-0.07350594 -0.088042155 0.12282586 -0.23980418 0.14122388 0.02609081 -0.03980137 0.15427
-0.2027015 0.048250485 -0.38921806 0.17678465 -0.28558734 -0.011575703 0.30998462 -0.06480845
0.054711364 -0.040106233 0.012648633 -0.09052888 -0.018606432 -0.15987945 -0.075095914 -0.27006453
0.21665385 0.103812605 -0.16377202 -0.16871585 -0.25968358 -0.08359175 0.08495784 0.19180112
0.048044696 0.030898273 -0.06035317 0.014099999 -0.1636807 0.022536078 0.15133996 -0.07603646

network_body._body_endoder.seq_layers.0.bias f4 [128]
00000000: 0000 0000 0000 0000 0000 0000 0000 0000
00000010: 0000 0000 0000 0000 0000 0000 0000 0000
00000020: 0000 0000 0000 0000 0000 0000 0000 0000
00000030: 0000 0000 0000 0000 0000 0000 0000 0000
00000040: 0000 0000 0000 0000 0000 0000 0000 0000
00000050: 0000 0000 0000 0000 0000 0000 0000 0000
00000060: 0000 0000 0000 0000 0000 0000 0000 0000
00000070: 0000 0000 0000 0000 0000 0000 0000 0000
00000080: 0000 0000 0000 0000 0000 0000 0000 0000
00000090: 0000 0000 0000 0000 0000 0000 0000 0000
000000a0: 0000 0000 0000 0000 0000 0000 0000 0000
000000b0: 0000 0000 0000 0000 0000 0000 0000 0000
000000c0: 0000 0000 0000 0000 0000 0000 0000 0000
000000d0: 0000 0000 0000 0000 0000 0000 0000 0000
000000e0: 0000 0000 0000 0000 0000 0000 0000 0000
000000f0: 0000 0000 0000 0000 0000 0000 0000 0000
00000100: 0000 0000 0000 0000 0000 0000 0000 0000
00000110: 0000 0000 0000 0000 0000 0000 0000 0000
00000120: 0000 0000 0000 0000 0000 0000 0000 0000
00000130: 0000 0000 0000 0000 0000 0000 0000 0000
00000140: 0000 0000 0000 0000 0000 0000 0000 0000
00000150: 0000 0000 0000 0000 0000 0000 0000 0000
00000160: 0000 0000 0000 0000 0000 0000 0000 0000
00000170: 0000 0000 0000 0000 0000 0000 0000 0000
00000180: 0000 0000 0000 0000 0000 0000 0000 0000
00000190: 0000 0000 0000 0000 0000 0000 0000 0000
000001a0: 0000 0000 0000 0000 0000 0000 0000 0000
000001b0: 0000 0000 0000 0000 0000 0000 0000 0000
000001c0: 0000 0000 0000 0000 0000 0000 0000 0000
000001d0: 0000 0000 0000 0000 0000 0000 0000 0000
000001e0: 0000 0000 0000 0000 0000 0000 0000 0000
000001f0: 0000 0000 0000 0000 0000 0000 0000 0000
0.0 0.0 0.0 0.0 0.0 0.0 0.0 0.0
0.0 0.0 0.0 0.0 0.0 0.0 0.0 0.0
0.0 0.0 0.0 0.0 0.0 0.0 0.0 0.0
0.0 0.0 0.0 0.0 0.0 0.0 0.0 0.0
0.0 0.0 0.0 0.0 0.0 0.0 0.0 0.0
0.0 0.0 0.0 0.0 0.0 0.0 0.0 0.0
0.0 0.0 0.0 0.0 0.0 0.0 0.0 0.0
0.0 0.0 0.0 0.0 0.0 0.0 0.0 0.0
0.0 0.0 0.0 0.0 0.0 0.0 0.0 0.0
0.0 0.0 0.0 0.0 0.0 0.0 0.0 0.0
0.0 0.0 0.0 0.0 0.0 0.0 0.0 0.0
0.0 0.0 0.0 0.0 0.0 0.0 0.0 0.0
0.0 0.0 0.0 0.0 0.0 0.0 0.0 0.0
0.0 0.0 0.0 0.0 0.0 0.0 0.0 0.0
0.0 0.0 0.0 0.0 0.0 0.0 0.0 0.0
0.0 0.0 0.0 0.0 0.0 0.0 0.0 0.0

network_body._body_endoder.seq_layers.2.weight f4 [128, 128]
00000000: e162 9fbc 3bf9 443d 1940 98bd 52af 43be
00000010: e3c4 273d 4d11 03be e28d f9bd 8189 9fbd
00000020: 75c3 8abd 8e1f db3d f1d3 ea3c d2e3 45bd
00000030: a99e 423d 58de fb3c e856 8e3c f276 56be
00000040: 476b 78bd e9bf 6f3c 934c 153d 7218 1cbe
00000050: 14a0 ae3c fc4f 903d 4eb6 82bd f131 82bd
00000060: 9b20 a4bd 3e00 0b3d 9428 1cbe 22ed 90bc
00000070: ce48 d03c 1a2e 9b3c 97fa e63d 8010 a0ba
00000080: 737c fcbd 1c26 0abd a671 53be bfef bfbd
00000090: 7105 f23c b563 08be 33b3 fb3d 89ad 21bd
000000a0: 6d08 e13d 5f3d c3bc 0f27 51bd 7ba6 c03d
000000b0: 7fcb 853d 3b7f f43c 47e0 14bd 1cc9 813d
000000c0: 5718 a3bd 3720 55bd 5396 fabc f241 14be
000000d0: 7b1c 8c3d a406 cdbd e385 9d3d 7078 cf3d
000000e0: 5c73 f73d b14f 72bd 8b3e 0c3d 5952 06bd
000000f0: ed1b 73be 402e 273e 6644 88bd cada 3a3d
00000100: 4c81 b0bb d924 a2bb 8d61 8cbd bcf3 dabc
00000110: 20f2 943c 39e0 b4bd 1b3c fcbc ddce 103e
00000120: f7ac 5b3d 7c6f 48bc 2582 fdbd 33f2 60bd
00000130: bc8c c03d c8b3 c4bd db78 823d 1acd 623b
00000140: 88fb 923d 12ea 34be 550d 3abd c96b 713d
00000150: cf5c babd f561 2dbd 207b f9bd a0f4 073d
00000160: 1536 04bd b97b 3dbe c49c 2ebe 3d5a 9bbd
00000170: 3f4f 4eba 66dd 87bc 31c8 13bc 19bb f3bd
00000180: d1db 0bbe 850a 13bc 7636 e3ba 88bb 383c
00000190: 4761 a23c 70d8 af3c 5517 87bb 67ae e83d
000001a0: 22b7 0e3c 3b15 df3d b3c7 3a3d 6183 943c
000001b0: fd88 be3b 21a5 f93c 0c5f 563d 96e7 27bc
000001c0: 57a4 8e3d 40bd 9abc 9964 043e c997 26be
000001d0: 4242 08bc 8403 ebbc b42e 90bc 0d41 7a3b
000001e0: bfce 9e3c d2d3 16bd 0bb1 283e 8491 e73d
000001f0: 6bf8 09bb 4b73 c1bc 438f 72be 8b07 d0bd
00000200: b4b4 ca3c 6707 503c 436c 32bb 0445 af3d
00000210: f8bc 75bd d04d 7abd f4e1 3b3e ccf7 a0bd
00000220: 3bbc f8bc 3fd5 adbb 0f51 733b 6973 b13d
00000230: ae4b 6b3c 836a fe3d 62f0 88bc 6f5b 17be
00000240: 58c9 e1bd 2bc5 d5bd 3340 7a3d e079 1dbe
00000250: 1fb7 673d 7aa3 773d da58 4f3b b958 28bd
00000260: 0c32 94bc 5e45 cabd fb53 0a3c 5d0b 1b3e
00000270: 0cbc ca3b 9416 99bd 8e8f 84be ee0b d13d
00000280: 70c0 b03d 7f26 25be 39c5 c8bd 794b f43d
00000290: bb47 d13d 6aeb 91bd b1e2 bcbd c362 c038
000002a0: 6b26 be3d a05f f23b 1f38 743c 8133 793c
000002b0: 0fa7 b7bd 536d d9bd 85cc 4f3c 5954 6f3c
000002c0: 1795 dfbd 85ad 19bc f507 873d c7fd 0a3e
000002d0: ffa0 8dbc eb10 213d bd11 463c f89e 90be
000002e0: 8660 6cbd 8875 3fbe 1b76 6b3d 9e1c 06be
000002f0: d495 5bbd 1371 9bbc bc82 8bbd 8606 e23d
00000300: 9968 1dbe 6a79 743d 39ae 6d3d 0bf8 16be
00000310: 5eba 613d 63d3 78bd 1dc7 afbc 0c4a 143c
00000320: 0b5c 93bd 1c6d dc3d 3483 86bd 07f1 f3bd
00000330: 3cdd 43bd 3bd9 c93c 69b2 b2bd f464 9a3c
00000340: 625b af3c 4994 07bd 1229 903d 3831 abbc
00000350: 7190 1fbe e1eb bf3d 9fb6 04bd 9b17 3abe
00000360: 6484 ba3c 5872 d8bc 556f ca3c eff8 d5bc
00000370: 2ccf c83d c6ed 5cbd 2997 5bbe 38ab c93d
00000380: 397d d9bc 58b6 37bc e0cb acbd a54f 853d
00000390: 9398 8dbc 9310 d1bc c921 353e 3ea8 8a3d
000003a0: efe9 f83b de00 043e 2a9f 563d e7f5 fb3c
000003b0: dbbc f8bc 20e7 fbbd c8bd 373b 3f38 ec3d
000003c0: dc3e 103d eb5f 1c3d c1e4 ac3c 3ca4 edbc
000003d0: e008 adba 436b 083d 874b 82bd edbd 353d
000003e0: 2727 e43c 8b8b 4cbc ff27 f9bc d1e3 013d
000003f0: ac92 413d 557c fe3d 1233 fcbd bc2a 81bd
-0.019456329 0.048089247 -0.07434101 -0.19109848 0.04095925 -0.12799568 -0.12185265 -0.07789899
-0.06775562 0.10699378 0.028665515 -0.04831297 0.04751459 0.03074567 0.017375425 -0.20943812
-0.060649183 0.014633157 0.03644998 -0.152437 0.021316566 0.07046506 -0.06382428 -0.06357182
-0.080140315 0.033935778 -0.15249854 -0.017691199 0.025425341 0.018942881 0.11278265 -0.0012211949
-0.12328424 -0.03372775 -0.20648822 -0.093719 0.02954361 -0.13319285 0.12290039 -0.039472137
0.10987935 -0.023832975 -0.05106264 0.09406754 0.065329544 0.029845824 -0.0363467 0.06337187
-0.07963627 -0.052032676 -0.030589258 -0.14478281 0.0684137 -0.10011032 0.076915525 0.101303935
0.1208255 -0.05915803 0.034239333 -0.032793377 -0.23741122 0.16326237 -0.06653671 0.04561881
-0.005386507 -0.0049482402 -0.06854544 -0.02672755 0.01818186 -0.088318296 -0.03079038 0.14141412
0.05363175 -0.012233611 -0.12378339 -0.05491848 0.09401843 -0.09604603 0.063707076 0.0034607113
0.07176882 -0.17667416 -0.04542287 0.058940683 -0.09099733 -0.042329747 -0.12181687 0.033192277
-0.03227814 -0.18504228 -0.17051989 -0.07585571 -0.0007870085 -0.016585063 -0.009019897 -0.119009204
-0.13658072 -0.008974676 -0.0017334956 0.01127518 0.019821776 0.02146551 -0.0041226544 0.113613896
0.008710654 0.10892721 0.045600604 0.018129053 0.00581467 0.030474247 0.052336738 -0.0102480855
0.06964939 -0.01888907 0.12929 -0.16268839 -0.008316578 -0.0286882 -0.017600395 0.0038185746
0.019385694 -0.0368231 0.16473787 0.11307052 -0.002105261 -0.023614546 -0.23687463 -0.10157689
0.02474437 0.012697077 -0.0027225174 0.085580856 -0.059994668 -0.061109364 0.18347913 -0.078597635
-0.030363193 -0.005304962 0.0037127172 0.08664591 0.014361305 0.12422659 -0.016716186 -0.14780973
-0.110247314 -0.104379974 0.06109638 -0.15378523 0.056571122 0.060458638 0.0031638653 -0.041100238
-0.01809027 -0.09876512 0.008442874 0.15141053 0.0061869677 -0.074750096 -0.25890774 0.102073535
0.086304545 -0.16127966 -0.09803242 0.11928458 0.102187596 -0.0712498 -0.092229255 9.173669e-05
0.092846714 0.0073966533 0.014905958 0.015210033 -0.08967411 -0.10616555 0.012683039 0.014607512
-0.109171085 -0.009379749 0.065933146 0.13573371 -0.017288683 0.039322775 0.01208919 -0.28246284
-0.05770924 -0.18697178 0.05748568 -0.13096854 -0.053609684 -0.018974816 -0.06812045 0.110364005
-0.15371932 0.059686102 0.05802748 -0.14743058 0.055109374 -0.06074847 -0.02145725 0.009050857
-0.0719529 0.107629985 -0.06567994 -0.11911207 -0.047818407 0.024639716 -0.08725435 0.018846966
0.02140588 -0.0331004 0.070390835 -0.020897493 -0.15582444 0.09371162 -0.032400724 -0.18173067
0.022768207 -0.02642171 0.02471129 -0.026119677 0.0980514 -0.053937696 -0.21444382 0.098471105
-0.026548969 -0.011212908 -0.084373236 0.065093316 -0.017284667 -0.025520599 0.1768867 0.06770371
0.0075962464 0.12890956 0.052397884 0.030756904 -0.03036349 -0.12299943 0.0028036702 0.115341656
0.035216197 0.038177412 0.021105172 -0.029008977 -0.0013201497 0.033305418 -0.06362062 0.04437058
0.0278507 -0.0124844415 -0.03041458 0.031711403 0.047259018 0.12426058 -0.123144284 -0.06306979

network_body._body_endoder.seq_layers.2.bias f4 [128]
00000000: 0000 0000 0000 0000 0000 0000 0000 0000
00000010: 0000 0000 0000 0000 0000 0000 0000 0000
00000020: 0000 0000 0000 0000 0000 0000 0000 0000
00000030: 0000 0000 0000 0000 0000 0000 0000 0000
00000040: 0000 0000 0000 0000 0000 0000 0000 0000
00000050: 0000 0000 0000 0000 0000 0000 0000 0000
00000060: 0000 0000 0000 0000 0000 0000 0000 0000
00000070: 0000 0000 0000 0000 0000 0000 0000 0000
00000080: 0000 0000 0000 0000 0000 0000 0000 0000
00000090: 0000 0000 0000 0000 0000 0000 0000 0000
000000a0: 0000 0000 0000 0000 0000 0000 0000 0000
000000b0: 0000 0000 0000 0000 0000 0000 0000 0000
000000c0: 0000 0000 0000 0000 0000 0000 0000 0000
000000d0: 0000 0000 0000 0000 0000 0000 0000 0000
000000e0: 0000 0000 0000 0000 0000 0000 0000 0000
000000f0: 0000 0000 0000 0000 0000 0000 0000 0000
00000100: 0000 0000 0000 0000 0000 0000 0000 0000
00000110: 0000 0000 0000 0000 0000 0000 0000 0000
00000120: 0000 0000 0000 0000 0000 0000 0000 0000
00000130: 0000 0000 0000 0000 0000 0000 0000 0000
00000140: 0000 0000 0000 0000 0000 0000 0000 0000
00000150: 0000 0000 0000 0000 0000 0000 0000 0000
00000160: 0000 0000 0000 0000 0000 0000 0000 0000
00000170: 0000 0000 0000 0000 0000 0000 0000 0000
00000180: 0000 0000 0000 0000 0000 0000 0000 0000
00000190: 0000 0000 0000 0000 0000 0000 0000 0000
000001a0: 0000 0000 0000 0000 0000 0000 0000 0000
000001b0: 0000 0000 0000 0000 0000 0000 0000 0000
000001c0: 0000 0000 0000 0000 0000 0000 0000 0000
000001d0: 0000 0000 0000 0000 0000 0000 0000 0000
000001e0: 0000 0000 0000 0000 0000 0000 0000 0000
000001f0: 0000 0000 0000 0000 0000 0000 0000 0000
0.0 0.0 0.0 0.0 0.0 0.0 0.0 0.0
0.0 0.0 0.0 0.0 0.0 0.0 0.0 0.0
0.0 0.0 0.0 0.0 0.0 0.0 0.0 0.0
0.0 0.0 0.0 0.0 0.0 0.0 0.0 0.0
0.0 0.0 0.0 0.0 0.0 0.0 0.0 0.0
0.0 0.0 0.0 0.0 0.0 0.0 0.0 0.0
0.0 0.0 0.0 0.0 0.0 0.0 0.0 0.0
0.0 0.0 0.0 0.0 0.0 0.0 0.0 0.0
0.0 0.0 0.0 0.0 0.0 0.0 0.0 0.0
0.0 0.0 0.0 0.0 0.0 0.0 0.0 0.0
0.0 0.0 0.0 0.0 0.0 0.0 0.0 0.0
0.0 0.0 0.0 0.0 0.0 0.0 0.0 0.0
0.0 0.0 0.0 0.0 0.0 0.0 0.0 0.0
0.0 0.0 0.0 0.0 0.0 0.0 0.0 0.0
0.0 0.0 0.0 0.0 0.0 0.0 0.0 0.0
0.0 0.0 0.0 0.0 0.0 0.0 0.0 0.0

action_model._discrete_distribution.branches.0.weight f4 [3, 128]
00000000: afaa 3cbc c6e5 a6ba fb08 4ebc cb12 38bc
00000010: dd28 1b3c 00d6 ee3a ab2c 01bb a513 993b
00000020: 58cf 163c 9a52 cebb ebae 493a 0f36 5abc
00000030: 9b46 083c 9fa2 84bb 6e30 903a 6dc3 803b
00000040: bb2d 5bbc 1fe7 02bb 8063 6bba 7ede 97ba
00000050: f05a b03c 2f0f a3bb f067 263c 4a5a e4ba
00000060: c77f a1ba e7c1 d13b a322 94bc 556f 8b3b
00000070: ce58 b53a 652d 1ebc c161 013b 6cc4 333c
00000080: 173d 9dbb dc20 92bb a111 9b3c d8c5 d43a
00000090: b29f 643b ad60 1e3b e439 44bc 9b88 10bc
000000a0: 5348 fc3b 02f4 7bbb eede 353b a679 b13b
000000b0: eaef 53bc c785 92bb 43b4 69bb 3bde 14bc
000000c0: fc7f 213c 6187 8f39 5420 283c 2a3b 8bbc
000000d0: 88e4 54b9 6bff dd3b 0e6b 37ba fbd5 9ebb
000000e0: c682 0cbc 833b 393c 67c9 37ba fd17 f03b
000000f0: 3ce3 08bc 1b2e cc3c 70d3 f73a 524a f93b
00000100: abcb 5dbb 1b4d 72bb 931a 07bc 22e9 4e3c
00000110: d5ca eaba ff31 7abb e3f5 ca3b 2f99 64bc
00000120: 7f4f c23b 9257 03bc e04a eebb b52e 85bc
00000130: b571 593b 7197 1a3c f6a8 993c 839b 19bb
00000140: 4ac8 6fbc 0e7b 813b cf9c 1dbc d758 f1bb
00000150: e79d 0f3b c0e2 da3a 9c30 963b cb66 5a3b
00000160: 3f6c 4c3c 3866 b6ba eb0b 193b 6d56 46bb
00000170: eb1b c9bb 03f9 1ebc 986f 7b3c 4a12 a1bb
00000180: cb48 5bba cad7 943c 0175 80bc 5bb5 383c
00000190: e94e b3bb 8fb2 85bb 5ca4 123c 5ba3 9d3b
000001a0: e424 01bc 079d 413c f843 16bc e0a2 da3b
000001b0: 105d 96bc c85c bbba d877 2dbc bbd7 92bb
000001c0: a7c2 123b 219b 813b b5b3 793c 47cc 1938
000001d0: e0e9 e0ba e38b b33b e77e ae3b 3161 21bc
000001e0: 0878 483c 0ae4 07bb 4e75 973b 2565 b3bb
000001f0: cd92 1e3b 9a2f 203c a5e8 5f3c 274b 17bc
00000200: cb50 6bbc 2d61 063c 123a 0abc 30cf ce3b
00000210: add3 f9bb 0d57 f73b 0574 28bb eb18 84bc
00000220: 0b1f d63b 4d88 48bc f718 aa3b eb97 a83b
00000230: 3d9b fabb db77 91bb c368 06bd 7979 1fbc
00000240: 017e 80bb 6fff a9b8 2b45 693b 53e6 983b
00000250: 38e8 48bb bf8e f9bb 9aae bd3a 9b97 30bc
00000260: 42e2 7c3b cbb4 8e3c e7d3 953c 70ec f639
00000270: 6ba9 a1bb c032 5fba 2f93 5fbc 6bf5 0ebb
00000280: 6dfd 59bc 8cdc 04bc 97ab 0e3c c3ee 6d3a
00000290: 2f3f 203c 28bd e0bb c4e8 01bb 4d25 2a3c
000002a0: e08d bc3b 32e7 6a3b ba71 7ebc 885b 5e3a
000002b0: 5420 303c db68 233b c7c6 a93a 3f7f 8a3b
000002c0: 391b 4a3c 4a8d 7e3c 3333 52bc 8b4c 4ebc
000002d0: 2d06 6dbc 97d6 003c 9aa5 2e3a 2f1a fc3a
000002e0: 8b38 30bc baf3 8a3c af83 503c 2a9b 94bc
000002f0: 2e93 42bc fa66 713c a837 d43b 6cb3 96bc
00000300: 408c 4eba 6441 82bc a0b9 d73a becc 33bb
00000310: c72d 03bc be24 893c ca4d 82bb e333 353c
00000320: 431e 0cbc ef02 063b a5a7 e4bb e371 023b
00000330: 20df 78bb d71a 91bc d236 853c c6f4 b6ba
00000340: 45dc 64b9 986b 183c bd76 43bc bc44 8a3c
00000350: 9342 2abc bb58 a43b 18bc 76bb 67d6 3abc
00000360: a34d d93b 6f07 21bb 1877 093c 95a4 43bc
00000370: 9f9f 4c3c af0c e13b 2f60 d13b 28cd 5f3c
00000380: 1c22 3d3c d701 68bc 3e51 92bc 9d5b e23b
00000390: fa36 d2b9 5f35 7cbc edbe d53b 2a77 22bb
000003a0: 30ff 7fbb b39e 40bc e57b 7b3a d296 5fba
000003b0: 183f 82bb a3cf aa3b f918 9dbc 4339 67bb
000003c0: 2a80 fcbb beac 273b 43e3 f43b e814 51bb
000003d0: 78c3 de39 f1b5 84bc 33b9 3cbc fb1e 803c
000003e0: e963 3f3c 9b23 c3bc 3072 cebb d31e a1bc
000003f0: a31a bdbb 5d20 26bc ab22 c2bb 59d6 b7bb
-0.0115153035 -0.0012733273 -0.012575383 -0.011234949 0.009470192 0.0018221736 -0.0019710462 0.0046715313
0.009204708 -0.006296468 0.00076936063 -0.013318553 0.008317615 -0.0040477063 0.0011000761 0.0039295466
-0.013377602 -0.0019974185 -0.0008979365 -0.0011586694 0.021527737 -0.0049761753 0.010156617 -0.0017421928
-0.0012321406 0.006401289 -0.018082922 0.004255215 0.001383567 -0.009654378 0.0019742104 0.010972124
-0.0047985422 -0.0044594835 0.018929305 0.0016233278 0.0034885225 0.002416651 -0.011976693 -0.008821632
0.0076990514 -0.0038445 0.0027751285 0.005416113 -0.012935618 -0.004471514 -0.0035660423 -0.009086187
0.009857174 0.0002737595 0.010261614 -0.016995985 -0.0002030303 0.006774833 -0.00069968484 -0.004847286
-0.008576101 0.011305693 -0.0007010907 0.0073270784 -0.008354958 0.024924329 0.0018907618 0.0076077366
-0.003384332 -0.0036972228 -0.008246082 0.012628825 -0.0017913232 -0.0038176773 0.0061938628 -0.013952537
0.005929887 -0.008016484 -0.0072721094 -0.016257623 0.0033179347 0.0094355205 0.018757325 -0.002343864
-0.014635155 0.003951437 -0.009619906 -0.007365327 0.0021914185 0.0016699657 0.0045834314 0.003332543
0.01247698 -0.0013915962 0.002335305 -0.0030263916 -0.0061373613 -0.009702924 0.01534643 -0.0049155103
-0.0008365034 0.018169302 -0.015680792 0.011273707 -0.0054720533 -0.0040801237 0.008950319 0.0048107333
-0.007882331 0.011817223 -0.009171478 0.0066722482 -0.018354923 -0.0014294619 -0.010587655 -0.0044812835
0.0022393854 0.0039552604 0.015240599 3.666829e-05 -0.0017159544 0.0054793223 0.0053251865 -0.009849832
0.012235649 -0.0020735287 0.004622138 -0.005474704 0.0024196387 0.009776974 0.013666307 -0.009234226
-0.014362524 0.008201879 -0.008436697 0.00631132 -0.0076241107 0.007548219 -0.0025703919 -0.016125163
0.0065344623 -0.012239528 0.0051909643 0.005145063 -0.0076479004 -0.0044393367 -0.032814752 -0.009733551
-0.003921271 -8.106126e-05 0.0035594206 0.0046661287 -0.0030655991 -0.0076158936 0.0014471591 -0.010778333
0.0038587009 0.017420193 0.01828952 0.00047096936 -0.0049335263 -0.0008514337 -0.013645931 -0.002181376
-0.01330505 -0.008109223 0.008707902 0.0009076411 0.009780689 -0.0068584867 -0.0019822577 0.01038487
0.0057542175 0.003584337 -0.015530044 0.0008482267 0.010749895 0.0024934325 0.0012952917 0.0042265947
0.012335592 0.015536616 -0.01282959 -0.012591491 -0.014466804 0.007863662 0.000666225 0.0019233878
-0.010755668 0.016961921 0.012726708 -0.018140394 -0.011875911 0.014734024 0.0064763613 -0.018396102
-0.0007879175 -0.015900321 0.0016458519 -0.0027435268 -0.00800652 0.016741153 -0.0039765583 0.011059734
-0.008552137 0.0020448526 -0.0069779926 0.0019904308 -0.003797479 -0.017712994 0.016261492 -0.0013958446
-0.00021825831 0.009302996 -0.011930165 0.016878478 -0.010391849 0.0050154603 -0.0037648734 -0.011403657
0.0066315695 -0.002457108 0.008390211 -0.011941095 0.0124892285 0.006867967 0.00638964 0.013659753
0.011543777 -0.014160595 -0.017861005 0.006907894 -0.00040095282 -0.015393584 0.0065230043 -0.0024790266
-0.0039062016 -0.011756587 0.0009593352 -0.0008529249 -0.0039748065 0.0052127405 -0.019176947 -0.0035281933
-0.007705708 0.002558514 0.007473381 -0.003190333 0.00042488775 -0.016200038 -0.011518764 0.015639773
0.011681535 -0.023820689 -0.0063002333 -0.019668018 -0.0057709976 -0.010139552 -0.005924543 -0.005610269

action_model._discrete_distribution.branches.0.bias f4 [3]
00000000: 0000 0000 0000 0000 0000 0000
0.0 0.0 0.0

action_model._discrete_distribution.branches.1.weight f4 [3, 128]
00000000: 33c8 83bc 2388 903b b85a 0a3c 112b 373b
00000010: 353e a63b 1ca5 a9bc a554 f9bb 308f 023d
00000020: 652b 82bb bc4a 08bb 6b75 fd39 b0fb f1ba
00000030: 496e 2b3c 8334 c5bb 71ca 063c 8b3c e2ba
00000040: 1772 333b bd2c 703b 17ba 03bc 05cc 003c
00000050: c66d 0c3c e46a 40bc 479e 073c eb8f 10bc
00000060: 53a1 debb bb80 1fbc b5e7 ad3c f35a 8b3c
00000070: dd1f 983b fb69 ed3b 0774 95ba 6e16 bcbb
00000080: 5f76 c53b 5e85 353c b28c bc3b 1b25 fd3b
00000090: aff7 89bc 258d 5eb9 8bed a43b 1510 42bb
000000a0: 85c3 50bb 4ecc 1b3c bf08 a03b 968a 45ba
000000b0: 07c4 133c 5414 1fbc dde7 613c c04a d63a
000000c0: 42e9 94bc 9bb3 f63a 47ff 9239 0399 223b
000000d0: d07b fe3a 0fcc 6dbc 9fe6 8d39 8798 87bb
000000e0: 6c82 103a b70a 2ebc 59cf 8e3b 1b40 733b
000000f0: e1ea 24b9 50b0 783c 4ff9 36bb 4582 413c
00000100: 10e4 3d3c b815 043c 6934 9c3b a626 c53b
00000110: 798a 4b3b 83d6 cb3b ccde 15bc 1ae9 903b
00000120: 70d4 7e3c 07a8 e83b d425 b7bc d7a8 223b
00000130: cacf d93b 98f0 54ba 368b 8939 9b92 443b
00000140: 5a11 f53b b199 433c e388 57bb 9f57 44bb
00000150: ff5e fdbb 2f4c 91bb 628b 183b b468 c839
00000160: 8268 74bc 8fd3 78bb a730 3bbb 1f5e 5a3b
00000170: 38e0 fc3b 8a08 783b 50be 073c 9fb6 d33a
00000180: 717b 21bc bd12 06bc 0507 1a3c f2a0 cfbb
00000190: 739d 34bb e232 4f3a b6c0 a43a 726a 503b
000001a0: e8e6 87bc 632b a53b 9768 063c df16 173c
000001b0: a475 99bb dc02 44bc 9217 76bb e528 e8ba
000001c0: 0320 28bc c4d1 083c 00f1 e63b 10cf 3f3b
000001d0: eaa7 88bb 5fc9 55bc 4fb1 9c39 e898 e23b
000001e0: 47fa 8e3b 3723 82ba 5d15 e73b 87d0 a23b
000001f0: 59ac 023b 512f 283b 031e 5c3a 9c0d c8bb
00000200: 1cb5 393b fa0a f4ba f02d 0bbc 179a 09bc
00000210: b890 6438 a5d7 553c 8d16 99ba 2816 28bc
00000220: ef1b 80bc cb31 243b 3e3c 1f3c 0815 f1ba
00000230: 926b 823b a731 8a3c 5b4d e7bb 54c3 8bbc
00000240: b384 88b9 e3ed dd39 aaf9 71bc fa51 94bc
00000250: 5257 07bc edce 243b 6093 c43a 83c5 90bc
00000260: 4664 943b 7c36 14bc fb19 233a 7d38 cdbb
00000270: 8b77 b63a 902f 5b39 4452 8dbb 397f 8bbb
00000280: 51e2 bebc 1f2d 35bc 630c 2c3c 1791 093c
00000290: 1d74 3c39 37fb b23b 8a62 913b b7af 4a3c
000002a0: 11e4 c43a e5c9 1c3c 574e 8ebb 5828 7a3c
000002b0: 5e7f 8bbb 77b0 40bc dd6d e53b bfc6 1539
000002c0: 835e eebb 65c1 653c a135 b23a f827 1fbc
000002d0: 9f95 d2bb e362 0f3c b0b1 053b 239f f2bb
000002e0: cf5c f9bb 614c 2e3b d7c9 9cba 9870 babc
000002f0: a909 1dbc ee7d 493c 3db1 ec3b e666 90bb
00000300: b349 bc3b 2be0 c0bb 4e7c 1cbc 2815 9bba
00000310: 6ccd b83b ea2b a33b 25b8 2b3c 0315 c13b
00000320: 0360 963b 309b cfba 8d1f cdbb 47f1 f03b
00000330: c85e 16bc 558c 9ebb 9a30 acbc fee5 043a
00000340: 9532 b83b cf9a a5bb 7a5d caba 2d92 6fbc
00000350: f7e3 4ab9 2847 4f3b 2fdb c53b a476 213c
00000360: 2762 d23b 8b11 79ba 5e38 35bc 0588 4b3a
00000370: dd49 993b 63a1 d23a c063 09bc df5d 85bb
00000380: 7066 00bc 23a7 5dbc 274e 093c adc4 883b
00000390: 42d8 e03b b77b 013c 4c34 0bba 3ab8 28bb
000003a0: 2a30 edbb dcc9 42bc 1ad9 e43b 38f2 bb3b
000003b0: 5372 09bc 5ffa 303b 2dfd 333c facd 52bb
000003c0: bbef bdba a7c8 0bba 675b 92ba ed3e 33ba
000003d0: e62d 0a3c d3a0 733c 2fb2 ac38 e3e5 063c
000003e0: 6741 81bc 1dcf 273a 5a2f f03a 7a12 39ba
000003f0: 738c 473c 9521 a3bc 8120 933b 82ae 8cb9
-0.016086673 0.00441076 0.008444481 0.0027949254 0.0050733336 -0.020708613 -0.0076089674 0.031874835
-0.003972458 -0.0020796498 0.00048343404 -0.001846185 0.010463306 -0.006018223 0.008226977 -0.0017260475
0.0027381235 0.003664776 -0.008039973 0.007861142 0.008571094 -0.011744235 0.008277482 -0.008823375
-0.0067941337 -0.009735282 0.02122865 0.017011141 0.0046424703 0.0072453 -0.0011402377 -0.0057399785
0.006026074 0.0110791605 0.005754077 0.0077253706 -0.016841738 -0.0002122415 0.0050332 -0.0029611636
-0.003185482 0.009509159 0.004883855 -0.00075356045 0.0090189045 -0.009709436 0.013788191 0.0016349182
-0.018177632 0.0018821837 0.00028037486 0.002481044 0.0019415561 -0.014513983 0.00027065442 -0.0041380557
0.00055125984 -0.010622672 0.004358214 0.0037117067 -0.00015727758 0.015178755 -0.0027919596 0.011810844
0.011590019 0.008061819 0.00476699 0.00601657 0.0031057878 0.00622064 -0.009147357 0.004422319
0.015553579 0.0071001085 -0.022356905 0.0024819875 0.006647085 -0.00081230095 0.00026234397 0.002999461
0.007478875 0.011938498 -0.0032887987 -0.0029959453 -0.0077322717 -0.0044341306 0.0023276438 0.00038224983
-0.014917495 -0.0037967896 -0.0028562935 0.003332026 0.0077171586 0.0037846887 0.00828512 0.0016152448
-0.009856091 -0.0081831785 0.009401088 -0.006336325 -0.0027559667 0.00079040055 0.0012569639 0.0031801728
-0.016589597 0.0050405725 0.008203647 0.0092217615 -0.0046832133 -0.011963572 -0.003755067 -0.0017712383
-0.010261538 0.008350793 0.0070477724 0.0029267706 -0.0041704075 -0.013048499 0.00029886744 0.0069152005
0.0043633315 -0.0009928708 0.0070521072 0.004968706 0.0019939153 0.0025662968 0.0008396806 -0.006105138
0.002833671 -0.0018618994 -0.008494839 -0.008398554 5.4494216e-05 0.013051902 -0.0011679694 -0.010259189
-0.01563832 0.0025054093 0.009718953 -0.0018393109 0.0039801085 0.01686938 -0.007058782 -0.017060913
-0.0002603881 0.00042329644 -0.014768997 -0.018105496 -0.008260565 0.0025147751 0.0014997534 -0.017672306
0.004528555 -0.009046193 0.0006221828 -0.0062628374 0.0013921125 0.00020903186 -0.0043127853 -0.0042571095
-0.023301275 -0.011058121 0.010501 0.0083964085 0.00017972333 0.005462076 0.0044367956 0.012370995
0.0015021582 0.00956962 -0.004342835 0.015268408 -0.0042571267 -0.0117608225 0.007001622 0.00014283786
-0.0072744503 0.01402316 0.0013596305 -0.009714119 -0.0064265276 0.008751604 0.00204001 -0.0074042245
-0.0076099406 0.0026595818 -0.0011962008 -0.022758767 -0.009584823 0.01229809 0.007223277 -0.0044067977
0.0057460903 -0.005886098 -0.009551121 -0.0011831867 0.0056397226 0.0049796 0.010480915 0.0058923974
0.004589082 -0.0015839096 -0.0062598647 0.0073529813 -0.009177871 -0.004838506 -0.021019269 0.0005069672
0.005621264 -0.005053855 -0.0015439235 -0.014622253 -0.00019349145 0.0031628106 0.0060380916 0.009854946
0.006420392 -0.00095012103 -0.011060802 0.0007764104 0.0046779946 0.0016069826 -0.008385599 -0.004070028
-0.007836923 -0.013528618 0.008380449 0.004173836 0.0068617174 0.007903031 -0.0005310222 -0.0025744573
-0.0072384076 -0.011888947 0.0069838883 0.005735662 -0.008389073 0.0027004702 0.010985655 -0.0032166229
-0.0014491001 -0.0005332329 -0.0011166156 -0.0006837685 0.008433795 0.014869886 8.2347884e-05 0.00823352
-0.015778257 0.0006401407 0.0018324659 -0.0007059943 0.012179482 -0.019913474 0.0044899588 -0.000268329

action_model._discrete_distribution.branches.1.bias f4 [3]
00000000: 0000 0000 0000 0000 0000 0000
0.0 0.0 0.0
