KartSCBIO/results/circuitoA-4/ArcadeDriver/ArcadeDriver-404913.pt (torch, 573303 bytes, 40 tensors)

discrete_act_size_vector f4 [1, 2]
00000000: 0000 4040 0000 0040
3.0 2.0

network_body._body_endoder.seq_layers.0.weight f4 [128, 48]
00000000: d8fd 61bd 7911 d3bd 29b2 393e 0a43 d13d
00000010: f529 19be 04d0 693d 1816 3dbc 4966 303e
00000020: eb80 3c3d e2e8 2abe 4a22 36bd b37c 44be
00000030: c657 6f3d 2088 48be 35d2 bc3e 5bc8 2c3d
00000040: 78de e33c d20e 20be 0bde a4bc 4da8 853e
00000050: b29c 183d 1324 5d3e 17ca b73c 0bd5 5e3c
00000060: 9b70 fdbd 35e6 8ebc 9c8f f73d df6f 943e
00000070: d3a7 72bc 7261 dabd f7ee 81bc 72f8 4f3d
00000080: fff1 2fbd ec5f 993e 58ed 033e 4729 893d
00000090: ff04 57bc ced6 f73d 2822 a23e cb22 7e3d
000000a0: 57f3 d9bc be5a ad3e dc07 2dbd db1b 883d
000000b0: a3cd a43e 6c19 93bd 135b 0abd 3ac6 a7bd
000000c0: 9830 ea3d c31d a43d fc69 3d3e ca88 4e3e
000000d0: 2ea4 d23d 3a7a a03e 2726 84bd 8b86 973d
000000e0: f24c 863d cfb1 2bbe 29d8 17bd 7ace ea3d
000000f0: 383c 183e 1333 263e 3c2c 9abd 5d7b 81be
00000100: 694a 713d 2aec 34be f4d4 f83c 27fb 3ebe
00000110: 27e0 1b3e 97e9 703e 348c 3a3d 98df 6dbd
00000120: 7591 b93c da1a 46bd 8f1c 29be 0912 dc3d
00000130: 58a2 d03d 16b0 aebc 75a5 d5bd 8589 7fbd
00000140: 9638 283e 687f bfbc 2226 debd d4fa 21be
00000150: a661 2c3d 63ce 9d3d 6127 3d3e 1fa0 c33d
00000160: 136e e0bc 4de6 72be 13dc a1bd d68c 81bd
00000170: 8718 263e 2b5b bb3d e353 e9be 9c72 6abd
00000180: 6316 2abe f884 643e 4296 013e b1c4 4bbc
00000190: e21f 1bbc 1e18 37bc f92b 99be dc53 063e
000001a0: 2c76 223e 0e34 06be 1915 6f3d 4c63 a7bd
000001b0: 6afa 933e 8a1b e0bd 8be5 663d b0b0 ae3d
000001c0: 2415 443e f55b 13be 1fbf 8dbd 59da 2bbe
000001d0: 03e0 34be b421 08be e99b 6b3d a5da 6abd
000001e0: f9f7 16be 0902 a43d 131f 14bd 8b0d ab3b
000001f0: 3392 4ebd a0fb bc3d 5282 91bd 3da5 933e
00000200: 439d 15be 3236 76bd fd28 e53d 2b36 ab3c
00000210: 9eea 503e caca 3d3d 83be 3d3d e715 053c
00000220: d5b4 9b3e 993c db3d e35d 14be 15bb 1f3e
00000230: b163 8d3d b5be 8f3d 7cd5 97bc a98a 93be
00000240: 76d1 0e3e ec55 d6bd aeb3 813c c483 f13d
00000250: b258 1ebe ac29 bebc ce41 f7bc b9a4 8c3d
00000260: bb32 683e 71fc 533b e082 06be 08de 1abe
00000270: 46af 6cbc 3dc4 283d 08c9 afbc 104d e2bd
00000280: 69aa 40be 10c3 1dbe fb11 23be a08e 283e
00000290: 5462 21bd 9621 b23d 4381 b8bd 098b 8a3d
000002a0: 87a9 963d 7ed0 46be be08 bf3d 7b7c a6bd
000002b0: 644c 653e b938 d53d 1577 b03d 1b07 0fbe
000002c0: d0d1 49bd 607e d0bd 5f9b 433d d96a 983b
000002d0: 00f6 c8bd 34cb 2fbd 4a1b 693e c1ec 98bd
000002e0: 4b4b 0ebe 1adf f1bd 144a 393e 01d0 51be
000002f0: 73f8 bebc c3d2 c7bd 12ef bd3b 0ec3 1f3d
00000300: f2cd bebd fbba 093e 0bf1 2fbe 0e5e 243d
00000310: 056e b4bd 73cd 21be 86ed 653d 05f0 0b3d
00000320: 491d a83d cd78 95bc 04f3 0abe 2120 143d
00000330: aba2 87bc c629 b2bd 4965 ab3b e9be 123d
00000340: 06f3 01be 96d2 bf3d 7070 e43d 321b ff3d
00000350: 2caf 343e 50c3 59be b6ac 373e 28eb 133e
00000360: d3e6 02bc d8b5 133d 9e9b e7bd a750 cdbd
00000370: ba1c 4b3e 3314 2ebb b0ea 04be 63c9 5cbe
00000380: cb1f d5bd d3da a33d c299 b73e 1e86 c1bd
00000390: 18da a9bd f053 f1bc 4a23 c43d 8d5c 1c3d
000003a0: 363d 763d b5d1 28be f41a a3bd 1185 49bd
000003b0: 3cea 8bbe 9d1d a3be 252a 73bd 3557 1d3e
000003c0: a01c 5fbd 8622 bfbd 5e37 44be 08c9 793d
000003d0: 322f 1bbe 1f69 193e 423b 023e 6d69 95bc
000003e0: 2756 923e 644d a23e e9e5 babd de02 153e
000003f0: 6504 02be 8971 60be 757a a8bb efa7 38be
-0.055173725 -0.10306067 0.18134369 0.10217865 -0.14957412 0.057083145 -0.011540912 0.17226519
0.046021383 -0.166904 -0.044466294 -0.19188194 0.058433317 -0.19583178 0.36879125 0.04218326
0.027816042 -0.15630654 -0.02012541 0.26104966 0.03725881 0.21595792 0.022435231 0.013600598
-0.123749934 -0.017443756 0.12087938 0.289916 -0.01481052 -0.106631175 -0.015861018 0.050774045
-0.042955395 0.29955995 0.12883508 0.06697326 -0.01312375 0.121015176 0.31666684 0.0620449
-0.026605291 0.33858293 -0.042243823 0.06645938 0.32188138 -0.07182583 -0.03377826 -0.081921056
0.1143505 0.08013489 0.18497461 0.20169368 0.10285221 0.3134325 -0.064525895 0.07398709
0.06557645 -0.16767047 -0.03707138 0.114651635 0.14866722 0.16230421 -0.07527968 -0.2528943
0.058908854 -0.17668214 0.030374981 -0.18650495 0.15222226 0.23526607 0.045543864 -0.058074564
0.022652367 -0.04836545 -0.165148 0.107456274 0.101872146 -0.021324199 -0.10431949 -0.06238701
0.16427836 -0.023376182 -0.10847117 -0.1581834 0.042085312 0.07705381 0.18472053 0.09552025
-0.027396237 -0.23720665 -0.07903304 -0.063256904 0.16220294 0.09148248 -0.45571813 -0.057238206
-0.16610102 0.22316349 0.12654975 -0.012437032 -0.009468051 -0.011175184 -0.2991636 0.13117927
0.15865391 -0.13105795 0.05836973 -0.08173236 0.28901988 -0.10942753 0.056371253 0.08529794
0.1914869 -0.14390548 -0.06921219 -0.16782512 -0.17663579 -0.13294107 0.057521734 -0.057337422
-0.14743032 0.08008201 -0.036162447 0.0052201203 -0.050432395 0.09227681 -0.07104935 0.28837004
-0.14610772 -0.06011028 0.111894585 0.020899853 0.20402 0.046335973 0.046324264 0.008122898
0.304114 0.107049175 -0.1448894 0.1559871 0.0690378 0.07018796 -0.018534414 -0.28816727
0.1394709 -0.10465607 0.015832748 0.117927104 -0.15463522 -0.02321323 -0.030182745 0.06867356
0.22675602 0.0032346512 -0.13135862 -0.1512376 -0.014446085 0.041202772 -0.021458164 -0.11049855
-0.18815006 -0.15406442 -0.15924828 0.16460657 -0.039400414 0.08697812 -0.0900903 0.067648
0.073565535 -0.19415471 0.09327839 -0.081292115 0.22392422 0.104112096 0.08616463 -0.13967554
-0.04927236 -0.10180354 0.047755595 0.004651409 -0.09812546 -0.0429184 0.22764316 -0.07467032
-0.1389591 -0.11810131 0.18094665 -0.20489503 -0.02331183 -0.097569965 0.0057963217 0.039004378
-0.09316625 0.13450234 -0.17181794 0.04012876 -0.08810047 -0.15801029 0.056134723 0.034164447
0.08208711 -0.018246079 -0.13569266 0.036163453 -0.016557058 -0.08699374 0.00523058 0.035826597
-0.12690362 0.09366338 0.11154258 0.12456359 0.17644948 -0.21265912 0.17936978 0.14445174
-0.007989603 0.03606209 -0.113089785 -0.10025149 0.19835177 -0.0026562333 -0.12980151 -0.21561198
-0.10406455 0.08000722 0.35859495 -0.09449409 -0.08293551 -0.02945897 0.09577043 0.0381742
0.06011697 -0.16486247 -0.07964125 -0.049199168 -0.27327144 -0.3185853 -0.059366364 0.15365298
-0.05447066 -0.09332757 -0.19161746 0.060982734 -0.15154722 0.14981507 0.12717918 -0.018238747
0.28581354 0.3169967 -0.09125883 0.14551875 -0.12696989 -0.2191831 -0.005141551 -0.18032812

network_body._body_endoder.seq_layers.0.bias f4 [128]
00000000: 7b35 40bc 9d45 043c 04f5 373b b36e c7bb
00000010: 248e 65bc 5395 bebc dd80 bb3c 35cb 9d3c
00000020: d26b 97bb 70ef 56bc 9c61 453c 8059 503c
00000030: 5f18 593c 1c53 02bc 4357 82bc 07ce 173c
00000040: 3185 34b9 bf88 423c 1631 123c db48 92bc
00000050: d814 483d 832d 84bc c30f d53c 5bf9 183d
00000060: ad9f d53b 76b0 22bc 647f e43b ff4a c23c
00000070: 85f0 52bc 6360 1abc ac7c 94bc 6422 88bc
00000080: 4a26 973c 7ae4 2d3c 68d5 35bb 1e6e 773c
00000090: b81f c9bc 7d37 803c 4c9e 253b 5448 0d3b
000000a0: cf36 d5bb acfe c5bb 2497 12bc ad35 cf3b
000000b0: 0257 4c3c edc8 9dbc f5e9 c0bb 6e84 353c
000000c0: 830f dc3c e06b 633c da31 033c 02f3 9ebb
000000d0: 36a6 e93c cb3b 73bb dbef 0a3c 95a7 92bb
000000e0: c007 93b9 1c88 b4b9 bcd5 203c b361 463c
000000f0: 1176 643a 9b34 313c a5c8 173c 6922 8e3c
00000100: caee fbbb 2f88 823c a8e5 2e3c b367 b5bb
00000110: e3ff 07bc a68e ec3b 30bf 1abb 8eaa 333c
00000120: ec7e 40bc 84ba 443b 254a b33c e139 49bc
00000130: d9f3 8ebb de17 653c 2d7f c63b af79 363c
00000140: 7aad e33b ddae d03c abe7 acbb 6dac f63b
00000150: 23a8 c93c 1757 1f3c 3dcf 4a3c cb42 ae3c
00000160: 3318 9c3c 8707 fa3c 8079 10bc a159 28bb
00000170: 5095 a0bc e982 993c b928 143d 2704 aa3b
00000180: 0a4d d2bb 7c5b 1dbc 2b37 dfbb 5e45 283c
00000190: f594 70bb 57fa ca3c 28b6 6f3b 6cfe 983c
000001a0: bb8f 223c d0cb 87bb 720d 8c3b 9c33 903c
000001b0: e480 d53b 8848 463c c913 b03b a533 ebba
000001c0: e764 5a3c ef08 4d3b a6aa e7ba f11e dcbb
000001d0: 21a5 71ba 4059 d13b fd24 b13c 40fb be3b
000001e0: 6436 cbbb aaab 82bc befb 9cbb 16d4 4d39
000001f0: 4bb4 bbba 8b23 8abc 5c1d 913c 56cb 2c3c
-0.011731501 0.008073238 0.0028069625 -0.0060861944 -0.01401094 -0.023264563 0.022888595 0.019261936
-0.0046210075 -0.01311861 0.012047198 0.012716651 0.013250439 -0.007954385 -0.01591075 0.009265429
-0.00017215755 0.011873423 0.008922836 -0.017857006 0.048848003 -0.016134983 0.026008492 0.03734718
0.006519279 -0.009929767 0.006973194 0.023717402 -0.012874727 -0.009422394 -0.018125854 -0.016617961
0.018450875 0.010613555 -0.0027745608 0.015101938 -0.024551257 0.015651459 0.0025271354 0.0021558004
-0.006506778 -0.006042322 -0.008947168 0.0063235373 0.012471916 -0.019260848 -0.005887265 0.011078937
0.026862865 0.0138807 0.008007491 -0.004850746 0.028521638 -0.0037114497 0.008480038 -0.0044755437
-0.000280438 -0.00034433685 0.009816583 0.012108254 0.0008715103 0.010815765 0.009264146 0.017350392
-0.007688378 0.015934078 0.0106748715 -0.0055360436 -0.008300754 0.0072191535 -0.0023612492 0.010965956
-0.0117490105 0.0030018399 0.02188594 -0.012281866 -0.004362565 0.013982741 0.006057641 0.01113741
0.0069481703 0.025474006 -0.0052766404 0.007527879 0.024616307 0.009725354 0.012378511 0.021272084
0.019054508 0.030521167 -0.00881803 -0.0025688189 -0.019602448 0.01873918 0.03617165 0.0051884833
-0.006417875 -0.009604331 -0.0068119965 0.010270445 -0.003670988 0.024777574 0.003657708 0.018676005
0.009921963 -0.0041441694 0.0042740637 0.017602734 0.006515609 0.012102254 0.0053734523 -0.0017944468
0.013329721 0.0031285842 -0.0017674759 -0.0067175557 -0.00092180265 0.0063888133 0.021624083 0.005828291
-0.006201552 -0.015950996 -0.004790752 0.00019629332 -0.0014320699 -0.016862651 0.017714195 0.010546526

network_body._body_endoder.seq_layers.2.weight f4 [128, 128]
00000000: 12ae b7bd 6e9b 17bd a818 efbc 0979 22be
00000010: e142 6f3e f363 363e be29 14bb 8316 0cbd
00000020: 17b9 09be a317 22bd 071e 053e cbf8 3b3d
00000030: 4d7d c0bd 9256 173d b2a3 9b3c 5a3d 653b
00000040: 348f dfbc c80e 91bd 7344 96bc 3bba d3bc
00000050: eeb6 3bbe da83 81bd 4710 a43d e86a f13c
00000060: d491 1a3d 7734 93bd 99cd 6e3d 08ee 963d
00000070: e01c 0f3e 7336 c9bc 9546 a23d 59f5 9c3d
00000080: c2ff dd3d f19c c9bd 76dd 28bb 9912 aa3d
00000090: 041b b63c 2dc3 ecbb a63a 543c ea8b ad3c
000000a0: 334f 9f3c 81d6 863c e764 d23d 6d3b e03d
000000b0: 16a4 aebd 3963 823d e15b 6fbb 5be0 55bd
000000c0: 6122 85bd 3d9a 073d 4a43 1dbd 96d3 a8bb
000000d0: bc1a 143e fec4 b1bc 4b94 c83d b2d3 4dbc
000000e0: e84c 4fbd d2f1 59be 3c89 203e 7e8e 14bd
000000f0: 6d3d 4abd 7334 4dbc 0faf d63d 1ad7 48bd
00000100: dfb0 ab3d bb84 cfbb ce4a f73c 7102 493d
00000110: 35a7 d63a b577 443d 7967 bbbc a458 893d
00000120: 877a 553d d927 903d cfc1 273d e119 ea3d
00000130: 29c6 6cbd 3db8 86bd b2b6 f43d e6e8 b03c
00000140: b383 86bd 0663 083d 3ca0 c73c 7fae bc3d
00000150: e1ff 203d 9c90 063e b147 973c 4bf6 83bd
00000160: 62a7 a13c 8ac5 3b3d f3bb 883d 98bf 79bd
00000170: 27b9 9a3c beae 5e3d ee99 85bc 8ad0 f73d
00000180: d9c7 87ba ab01 d5bd 2678 49bc e5e6 81bd
00000190: 33f9 b33d 2865 1f3d c5e9 503d cc12 aebb
000001a0: 0953 e93d 3486 2e3d 8d30 1cbd 37e2 89bd
000001b0: 11aa b5bd 373f 8d3a fdc1 01bd 1595 16be
000001c0: 8561 253e de12 ee3c bbcf a03c 21a0 863a
000001d0: 1ec7 ea3c ba75 c53d ebe5 4c3b dbfd a93d
000001e0: f6b8 5c3d b25b 04bd 7eaf f3bd ab00 843d
000001f0: bbdb 583d c159 87bd 9a39 f2bc 4ac8 a0bc
00000200: edd8 1cbe 7b8d a93d 9470 93bd bd9c 6ebd
00000210: f671 013e 166b 623d 8ba9 88bd 215a b73d
00000220: 665e debd 8b32 e43d 9e34 65bc 614b 86bd
00000230: 044c 19be 91a0 dabd 0620 febd 2bfb b7bb
00000240: b5f8 f83c 42e7 133d 811c 1fbd 9855 5d3c
00000250: 1d26 5e3c 7833 26be c3a9 00bd ebf5 4d3d
00000260: 846a 13bd 096b 5d3c 432b 513d 5e0c e7bc
00000270: 3466 bcbd d93b c1bc 2f9f 503d 7a8d 423c
00000280: 247e 2abd d56a 513e 7eb5 cc3d 074f 09bd
00000290: 88cf 0d3e 3f09 f1bc 6d86 14bd fdcb 563d
000002a0: 08f1 1dbd fe3c baba 6667 093e 7feb 823d
000002b0: 0843 163c 1116 e83d 0849 863c 9644 49be
000002c0: fe97 fc3d a213 7cbd 6269 8bbd d4ce 05be
000002d0: 10e1 553d a1e6 293d 9457 0f3b 994f 30bd
000002e0: a83e 27be 39ad 34be b480 0c3e 71d3 34bb
000002f0: bb36 863d 7833 eabd 388f 7e3d 8282 823d
00000300: f82a 193d 64f9 263e 13ae 433b 9b28 813d
00000310: 5d81 e0bd 52b0 7f3d e186 b1bd 6e46 c53d
00000320: 9d6b 493e 53d3 aabd 3f11 a6bb 0878 25bd
00000330: 8c48 88bd 1328 79bc 6e55 c0bc ce7d b33c
00000340: f483 10be 23d5 1abd 3bca c0bd a94f 67bd
00000350: fe48 813c aa77 3f3d 46fb 113d 1624 a43c
00000360: f1d3 8bbc 4378 bebb 4417 c4bd 77f8 4e3e
00000370: 51b2 a23d 828c d93c 5911 863e c0d7 e13c
00000380: 235a a33d 77f0 d3bc 652e a2bd 4215 6a3d
00000390: 0eb1 343c 8f83 eebb 80af 28bd a039 8fbd
000003a0: 089d 4d3c 7268 d83d ca4c f33d f937 ddbd
000003b0: e289 633d 850c 43bd b4b1 8d3c 6627 17be
000003c0: 231f 03bd 79e8 4c3d 8b17 9a3d e867 59bd
000003d0: e82b 8e3c d2ee a73c f877 cdbb d774 e53d
000003e0: 1e53 d2bd eef4 3abd 795b 40bd 4011 4e3d
000003f0: 5add adbd 4c18 423d 2dc3 243d ec97 10bd
-0.08968748 -0.037013464 -0.029186562 -0.15866484 0.23365356 0.17811565 -0.0022607888 -0.034201156
-0.13449512 -0.039573323 0.12999736 0.045891564 -0.09398899 0.036947794 0.018998954 0.0034979195
-0.027289964 -0.070828974 -0.018343186 -0.025845638 -0.18331501 -0.06323977 0.08010917 0.029469922
0.03773673 -0.07187741 0.058301542 0.073696196 0.13975859 -0.024562096 0.07923619 0.07663984
0.108397976 -0.09844387 -0.0025766767 0.083043285 0.022229679 -0.007225415 0.012953436 0.02118488
0.019446945 0.016459705 0.10273152 0.109488346 -0.08527391 0.063665815 -0.003652327 -0.052215915
-0.06500698 0.033106077 -0.03839425 -0.005152176 0.14463323 -0.021700379 0.0979391 -0.012562679
-0.050610453 -0.21283653 0.15677351 -0.036268704 -0.049374986 -0.012524712 0.104826085 -0.04903326
0.08383345 -0.0063329614 0.030187037 0.049074594 0.0016376736 0.047965724 -0.022876488 0.0670636
0.052118804 0.0703885 0.040956315 0.11430717 -0.057806168 -0.065781094 0.11948909 0.02159543
-0.065680884 0.03329756 0.024368398 0.0921297 0.039306525 0.13141102 0.018466802 -0.06443461
0.019733135 0.045842685 0.066764735 -0.060973734 0.018887116 0.054365866 -0.016308751 0.121003225
-0.0010359242 -0.10400709 -0.012296712 -0.06342868 0.08787765 0.03891483 0.05100419 -0.0053122994
0.11392791 0.042608455 -0.03813224 -0.067326 -0.08870328 0.0010776286 -0.031679142 -0.14705308
0.16150482 0.029061731 0.019630304 0.0010271111 0.0286594 0.09641595 0.0031264971 0.08300372
0.05388733 -0.03231401 -0.11898707 0.0644544 0.052943926 -0.06608916 -0.029568482 -0.019626755
-0.15317126 0.082789384 -0.07199207 -0.058254946 0.12641129 0.055277906 -0.06672963 0.089527376
-0.10857849 0.11142453 -0.013989596 -0.06557346 -0.14970404 -0.10675157 -0.12408452 -0.0056146584
0.03039203 0.036109217 -0.038845543 0.013509177 0.013558892 -0.16230571 -0.031411897 0.050283354
-0.035990253 0.013514289 0.05106665 -0.02820414 -0.09199181 -0.023588108 0.05093306 0.011874551
-0.041624203 0.2045091 0.099955544 -0.033522632 0.13848698 -0.029423354 -0.03626101 0.052440632
-0.038559943 -0.0014208851 0.1341835 0.063925736 0.009171255 0.11332334 0.016392246 -0.1965507
0.12333678 -0.06154216 -0.068072096 -0.1306718 0.05221659 0.04147971 0.002187227 -0.04304466
-0.16332495 -0.17644204 0.13720971 -0.002759185 0.06553408 -0.11435598 0.062148303 0.06372549
0.037394494 0.16306072 0.0029858395 0.06306573 -0.10962174 0.06242401 -0.08668304 0.09632574
0.19669957 -0.08341088 -0.005067974 -0.040397674 -0.06654462 -0.015207308 -0.023478236 0.021910574
-0.14112836 -0.03780092 -0.094135724 -0.056472454 0.015781876 0.04674498 0.035640024 0.020036738
-0.017068835 -0.005812676 -0.0957475 0.2021197 0.079441674 0.026556257 0.2618511 0.027568698
0.079761766 -0.025871499 -0.07919005 0.05714918 0.011028541 -0.0072788666 -0.041182995 -0.06993413
0.012549646 0.10566796 0.11879881 -0.108016916 0.055551417 -0.04761936 0.01729665 -0.14761123
-0.032012116 0.05002639 0.07524022 -0.05307761 0.01735492 0.02049962 -0.006270405 0.11203926
-0.102697596 -0.04564374 -0.046962235 0.05030942 -0.08489485 0.047386453 0.040225197 -0.035301134

network_body._body_endoder.seq_layers.2.bias f4 [128]
00000000: 27be 0a3d 4ce1 593b 6416 33bc 1389 e03b
00000010: 3856 c43c be06 89bb ec70 903a 94a2 413b
00000020: c87d c53c ecce 833c d930 9abc 29f7 56ba
00000030: dd95 0bba 497a 6abc 7f67 68bc 6885 9f3c
00000040: 15e8 0c3c ba45 323b 169d d23b 9910 3a3a
00000050: 7f84 043c 235b 9f3c 7a63 483c c663 473b
00000060: e8dc 713c bda5 9c3c ac11 2cbc ca77 b0bc
00000070: 7edd 7c3b 0510 983a 7d79 08bb b489 c9ba
00000080: cb3a 193c 614f 5d3c 9d53 0bbc 9ce3 223c
00000090: 337a 8bbb 8372 03bc 4986 a13c fb1a 86bc
000000a0: b4c0 dd3a 00c4 073d 40a9 43bb d83b 41bc
000000b0: 558c 63bb 5c79 dcbb ad24 73bc cc50 c73b
000000c0: 3549 4f3b 06ab a53b f888 66bb 906d 473c
000000d0: 3880 00bb b4ae ca3c 92ca e4ba 82c9 5d3b
000000e0: 62ff 63bc 3c98 a43b 846d da3c 2719 e9bb
000000f0: 3ab5 4b3c 7e75 123c 2150 3a3b 2008 d2bb
00000100: 17f8 093d 5b81 9cbb 5db8 0e3d 2a78 933c
00000110: 4d16 a43c 1c79 e03b 4d87 f83b aa9a f6bb
00000120: d144 213c 69ce 073c edf4 483c 5ece a93b
00000130: f394 cb3b af07 893c 1c8d 20bb 7f1c b33c
00000140: 632b 283c b12e 813c 09cd c43b 3e37 543b
00000150: e612 5a3c e2e1 143d d715 ff3b 9851 073b
00000160: 862f 703b 9364 94bc cf6d 233c 0cd4 af3c
00000170: 3721 ab3a fc12 04bc 6c06 113c 7c47 b13b
00000180: 1d86 163b 2f7f 863c 0175 983c 713a 123c
00000190: 7646 1e3a 3b25 973c 25dd 943b 2181 803c
000001a0: 5f54 8b3b 64ca 7e3c c222 da3b d7d4 9cbc
000001b0: 92c5 9e3a 05b7 54bc ab27 c4bb 7e1c 613c
000001c0: 8e2e 9a3c d0a5 0b3c 12e3 d7ba 08e4 083d
000001d0: af6a 10bc 072e 5039 61fe e33c ec12 96bc
000001e0: 8a12 5d3b 6de2 b33c dbed 163c 22f2 333c
000001f0: 1ed7 e8bb f681 1cbc 4e63 893b da9d 6f3b
0.03387275 0.003324586 -0.010930631 0.006852278 0.023966894 -0.004181712 0.0011019981 0.0029546367
0.024107829 0.016089879 -0.01882212 -0.0008200282 -0.00053247606 -0.014311382 -0.014184832 0.019472793
0.008600255 0.0027202205 0.0064274175 0.000709781 0.00808823 0.019452637 0.012230748 0.003042446
0.014762141 0.019121999 -0.01050226 -0.021541495 0.0038584168 0.0011601454 -0.0020824366 -0.0015376122
0.009352396 0.013507695 -0.008503822 0.009941962 -0.0042565106 -0.008022907 0.019717352 -0.016370287
0.0016918392 0.033145905 -0.002985552 -0.011794053 -0.0034721096 -0.0067283344 -0.014840287 0.00608263
0.0031629328 0.005055788 -0.0035176855 0.012172118 -0.0019607674 0.024741508 -0.001745539 0.0033842032
-0.0139158685 0.0050230306 0.02666355 -0.007113594 0.0124333445 0.008939145 0.0028429108 -0.00640966
0.033683863 -0.0047761626 0.03484379 0.018001635 0.020030165 0.006850375 0.0075844885 -0.0075257616
0.009843067 0.008288958 0.012265426 0.0051820716 0.0062128245 0.016727297 -0.002449817 0.021864174
0.01026425 0.015769335 0.0060058874 0.003238156 0.01331017 0.03634823 0.007784586 0.0020648
0.003664942 -0.018114364 0.009974911 0.021463417 0.0013056163 -0.008061167 0.008851629 0.005410133
0.0022968121 0.016418068 0.01861048 0.008925066 0.0006037721 0.01845037 0.004542964 0.015686573
0.004252001 0.015551183 0.0066569755 -0.019144459 0.0012113324 -0.012983088 -0.005986174 0.013739703
0.018821027 0.0085234195 -0.001647087 0.033420593 -0.008814498 0.00019853572 0.027831258 -0.01831957
0.0033732974 0.021958554 0.009211983 0.010983022 -0.007105722 -0.0095524695 0.0041927462 0.0036562593

action_model._discrete_distribution.branches.0.weight f4 [3, 128]
00000000: 5a0d 583c 8af8 db3c 1b72 923c 6052 ee3c
00000010: 5d85 dd3c e345 9cbb c31b ed3c abd4 273b
00000020: 102c 083d 70c1 353c 2c87 283b 2f6c 1c3d
00000030: bd84 2b3b 3332 0d3c 167d 32bc 7fc2 80bb
00000040: 6274 67b8 d73b c3bb 9c1d 6bbc 33d1 d7bb
00000050: 9fa7 7dbd 3c0c 453d 81a1 923c 903c aebc
00000060: f198 ed3b 37cb 2c3d 75f3 f83b 6d21 42bb
00000070: 8c6a 28bc 78d0 343b ffdf 5abc b64e 7fbd
00000080: e6f3 5dbd 7f33 353c d404 79bc 210d d03c
00000090: ba36 b8bc ab51 003c ec45 08bd 3029 d6bb
000000a0: 1cff 8e3c e236 333c 0c41 063d ea60 bcbb
000000b0: 894c 3c3c 4242 293b e075 65bb e705 3cbd
000000c0: 98cd 643b ae78 ac3c 933a 523d 5c48 e43b
000000d0: 88a8 83bb 7142 2abc fb83 d3bc 8983 c73c
000000e0: cba7 883c 15c1 abbd c952 6d3d b596 8ebc
000000f0: 6393 81bc 8fd9 613c 9433 873c fae6 b0bc
00000100: 382c 18bd 6b13 bcbc 6c44 26bd 18ad 0cbb
00000110: d7d8 09bd 9395 103d 8dd8 3bba 78f2 3cbd
00000120: 0c47 313d 9b77 58bc f613 2fbd 8b6c 633d
00000130: e1e1 333d b870 26bd f5da f33b 03fc 8f3d
00000140: 136d 4a3b 58fe 393d 58f7 dabc ee5b d5bb
00000150: ec4c 113c cba1 413d 75aa febc 085f 123d
00000160: f11d fcbc bb1f 323c 5793 bcbc 12db 593c
00000170: 8b0a e3bc ce26 a03c d43e 6d3b 610c b33c
00000180: 2b29 a0bc e405 abbd 4b62 9cbb 13c6 4d3c
00000190: 7c12 f3bb d297 8a3d 03a2 18bc 7459 a0ba
000001a0: c151 283c 8491 adbc 6ca9 f53a c6a2 ba3b
000001b0: 0ea4 86ba d028 a6bc 9e47 aabc 775b 29bc
000001c0: f99d 9ebc 128d aabc aab8 0aba 31ce 81bd
000001d0: b05b 473c 77d3 8c3c 4d32 403d 8a9a 583b
000001e0: d7cb 793c d9e9 8bbd 11f3 02bc ad3a 04bd
000001f0: c2d6 ca3a 29e6 743b f5fd 4dbc c260 02bd
00000200: 1d4a 9abb 26ad eb3b b5d1 9d3a 66b6 7e3c
00000210: a0ed 833c 1d6b 383c f4bc 88bc b6ea b73b
00000220: 624b f9bb 256d 8c3c 930a 94bb 6cff 3ebb
00000230: 95aa ebbc 5d7d ba3b a08a d2ba a06c 903c
00000240: 152f 053b c3c1 b4bc 29cb 053c 33e5 bdb9
00000250: 7c96 43bc b972 ccba 98b3 f63c a700 21bc
00000260: 3793 503c cc1a a6bc 2467 9abb 43ea 22bb
00000270: d28d b43c 0263 dd3b a23c 85bc dd4c 9f3b
00000280: ea81 14bc fcfc 083c ecd6 8e3c fcae ddba
00000290: 275d 4d3c 116d a13c 5f78 1fbd c3ba 6a3c
000002a0: d273 7c3c 1295 5a3c aca7 413b 7676 10bb
000002b0: c30f 8b3c 6446 9c3c edcc fe38 3952 9bbc
000002c0: 2240 df3b d0a2 9c3b 2182 ab3c 628d a33b
000002d0: 3920 b9bb a21b b6bc 43c5 0bbd 4fe9 083d
000002e0: 07bf acbc 216d 34bc 06f6 2f3c 6748 91bc
000002f0: e552 67bc 92f7 c43a 002e 323c 6d44 afbc
00000300: 9d33 313d efb6 93bb 0505 813c 72fb 85bb
00000310: acca 073b b2cc 313c 7f90 b7bc c01f 813c
00000320: 4dc1 71bb 15fc a33b 26bd b1bb e606 acbb
00000330: 5f7a a7ba c704 14bd d8c6 483c b577 eabc
00000340: 9565 d23c f154 72bd 3a7d 17bb 2bc1 b53b
00000350: 386d 453c 74fb c2bc 832f 873c 5058 83bb
00000360: 3c05 8cbc ccd4 53bc 47fc 9f3c 000b 193c
00000370: 7d78 8ebc 5aa7 5a3b 1f6a d63c 7bc1 debc
00000380: d745 e9bc 807a 183b 47f0 13bd 359a 35bb
00000390: 5bf1 35bd 0c05 8fbc fb7d cebc f638 0e3c
000003a0: ff31 02bd 64fe 0dbc 4f06 8c3b 506f 98ba
000003b0: ff56 12bd bd14 fa3a 7811 6c3c 8a61 eebc
000003c0: 0dfc 3e3c efdf 603c deee 9fbc 5c0f 77bc
000003d0: 91cf 8d3c 2b2e aaba 43bb f5bb c53d b53a
000003e0: 0116 c93b cfb9 77bb 3e10 bd3b a16c 64bb
000003f0: cb1d cc3b 6017 3bbc 2ca8 843b 74a5 85bc
0.013186777 0.026851911 0.017876675 0.029092014 0.027041132 -0.0047690733 0.028943902 0.0025608938
0.033245146 0.011093482 0.0025715334 0.03818911 0.0026171647 0.008617925 -0.010894081 -0.0039294357
-5.518308e-05 -0.005958061 -0.014350321 -0.006586218 -0.061927434 0.04810737 0.017899277 -0.021269113
0.007250898 0.04218599 0.0075973817 -0.0029621974 -0.010279309 0.0027590077 -0.013359069 -0.062330924
-0.054187678 0.011059641 -0.015198905 0.025396885 -0.022487033 0.007831971 -0.033269808 -0.0065356717
0.01745563 0.010938378 0.032776877 -0.0057488577 0.011492857 0.0025826846 -0.0035012886 -0.045904066
0.0034912582 0.021053638 0.051325392 0.0069666337 -0.004017893 -0.010391817 -0.02581977 0.024354713
0.016681572 -0.08386437 0.05794028 -0.017405847 -0.01581735 0.01378478 0.016504087 -0.021594513
-0.037151545 -0.022958478 -0.040592596 -0.0021465477 -0.03365406 0.035298895 -0.00071657525 -0.046129674
0.043280646 -0.01321211 -0.042743646 0.055523437 0.043916587 -0.04063484 0.007441873 0.07030489
0.0030887767 0.045408577 -0.02672927 -0.006511203 0.008868437 0.04727344 -0.03108714 0.03573516
-0.030775996 0.010871823 -0.023019476 0.013296859 -0.027714988 0.019549754 0.0036200779 0.021856489
-0.01955088 -0.08350733 -0.0047724596 0.012559432 -0.007417975 0.06767239 -0.00931597 -0.001223369
0.010273398 -0.021187551 0.0018742508 0.0056956736 -0.0010272281 -0.020283133 -0.020786103 -0.010336748
-0.019362437 -0.02081922 -0.00052917993 -0.06338156 0.012167856 0.017190678 0.04692297 0.0033051097
0.015246353 -0.06831712 -0.007992522 -0.03228252 0.001547538 0.0037368631 -0.012572755 -0.031830557
-0.004708542 0.0071922718 0.0012040647 0.015546417 0.01610452 0.011256007 -0.016691662 0.0056126965
-0.0076078633 0.017141888 -0.004517862 -0.0029143943 -0.028767863 0.005691214 -0.0016063042 0.017629921
0.0020322253 -0.022065049 0.008166113 -0.00036219656 -0.011937734 -0.0015598155 0.030114934 -0.009826816
0.012730411 -0.02027645 -0.0047120024 -0.002485887 0.022040281 0.0067561874 -0.016264264 0.0048614577
-0.009064177 0.008361097 0.017436467 -0.0016913111 0.012534416 0.019705327 -0.038933154 0.014326754
0.015408473 0.013341205 0.0029549403 -0.0022043264 0.01697529 0.019076534 0.00012149834 -0.018960105
0.006813065 0.004780151 0.020936074 0.0049912194 -0.005649593 -0.022229973 -0.03412367 0.033425625
-0.021087183 -0.0110123465 0.010739809 -0.01773472 -0.014118885 0.0015027395 0.010875225 -0.021394933
0.043262113 -0.0045078914 0.015749464 -0.0040888125 0.0020720167 0.010852026 -0.022407768 0.01576221
-0.0036888898 0.0050044158 -0.0054241596 -0.005249846 -0.0012777558 -0.03613737 0.012254439 -0.028621534
0.025683204 -0.059163038 -0.0023115412 0.005546709 0.012049966 -0.023801543 0.016502148 -0.0040083304
-0.01709234 -0.012929153 0.019529475 0.0093410015 -0.017391438 0.003336391 0.02617365 -0.027191868
-0.028475685 0.0023266375 -0.03611782 -0.0027710323 -0.044419628 -0.017458461 -0.025206557 0.008680573
-0.03178596 -0.0086666085 0.004273213 -0.0011629853 -0.035727497 0.0019079667 0.014408462 -0.029099245
0.011656773 0.013725265 -0.01952308 -0.015079346 0.01731089 -0.001298373 -0.00749913 0.0013827613
0.0061366563 -0.003779996 0.0057697585 -0.0034854787 0.0062291375 -0.011419147 0.004048368 -0.016314246

action_model._discrete_distribution.branches.0.bias f4 [3]
00000000: dae3 c13a 20f5 3c3b f114 a3bb
0.0014792637 0.002883263 -0.0049768616

action_model._discrete_distribution.branches.1.weight f4 [2, 128]
00000000: 8cf9 1dbd aeb7 473d 53bd 1e3d d3ec 073c
00000010: a338 9dbc 7397 f2ba 3185 fbbb ac99 01b9
00000020: 7c9b c8bb c469 cdbc df02 503b 9a2c 4b3c
00000030: 5a07 a83c 41df d03a 04cf ad3b 1da1 19bd
00000040: c602 68bc 4791 f23c 683b 25bb ad0e 9ebb
00000050: dab6 6f3c db8a 743b 2389 cb3c 767c 6fbc
00000060: 2b55 18bd eda9 a1bc 4155 353b 6e94 363c
00000070: f15a e53a 00d9 6b3b e455 08bc 3a0a 0a3d
00000080: b802 dd3b d8e4 12bb df16 033d 2b36 afbb
00000090: 1a16 30bb c7e5 123c b3b3 5d3d 194e 65bb
000000a0: 2ea3 49bc e1b0 38bd 9b11 953c 01ab 143c
000000b0: 0e6d 533c 96b8 993c 4315 133c 64b3 28bc
000000c0: 5a18 80bc eb6c a13b 157f 11ba ef18 16bc
000000d0: 9f36 afbb 74dc 533d 1cf7 ac3c 2085 453d
000000e0: de68 a13c 7154 583c d718 9abc ecb3 7b3c
000000f0: ac93 eb3c d9db 8a3c ddac 213d df26 a53c
00000100: cdf2 fbbc 35d7 a73b bebd a2bc b1d4 d6bc
00000110: 2c2c 083d ba1c 563c d1c8 303d c646 bb3b
00000120: 50f0 163d e522 1cbc 4d39 a2ba 1a03 ac3c
00000130: ac4e 393d 7ca1 8d3d c142 b03c 4b53 cd3c
00000140: 848f 24bc edb2 df3c a4c4 88bc 6520 09bc
00000150: a1f6 aabc 25a8 2ebc d3f0 f6bb a407 aa3a
00000160: 8678 b73b b064 603c cb44 ecba 44d0 2abc
00000170: b268 88bc d73b 3dba cbc6 91bc 9e80 0c3d
00000180: 4ace bebb d102 df3b 524d e33c 61eb 483b
00000190: ae8b 0ebb 5e4e 043d c25b 893d 6387 34bc
000001a0: 0e8c b2ba 54e0 2a3d dafe 133d 095a 2b3d
000001b0: edc2 883d 74b0 483c eed3 b2b9 b8b6 1b3d
000001c0: 2729 d7bc ab4b d6bc 2c00 f03c cfa5 10bd
000001d0: f78c 7a3b 03b1 323d bb18 a9bb f016 9537
000001e0: 5185 8aba 862e 2dbc 6288 10bc 11cb 91bc
000001f0: 1a3d 1f3d da9f a93b cdcb 94bb d026 073d
00000200: f14d 173d 331f 41bd be28 b9bc b0c5 08bc
00000210: d2d3 113c ae30 893a 3322 eb3b f0f6 e73b
00000220: 0e43 1a3c 67bd e53b c820 73bb 6f77 b6bc
00000230: 9223 41bd 6c21 88bb 9469 0f3c 92eb d53c
00000240: 1428 233b c208 3bbd 3098 4c3c 861b 183c
00000250: 6938 b83c 6fc0 9cbc 3ed4 65bb be69 263b
00000260: 48a1 873c 6583 2a3c 68df 76ba de2d 413b
00000270: 4103 033c 94b1 893c 61a6 6c3b cbcb 0ebd
00000280: 0654 a7bc 0f2d 3c3c b154 74bc 9263 e9bb
00000290: 3d2a 41bc e8f7 9bbb e5e7 4dbd 532e 03bc
000002a0: 358d 5fbc 71fa 183d b2a8 8bbc 92d1 a63b
000002b0: 9075 afbc bc51 e1bb 9ae8 293b bcc2 2ebc
000002c0: c078 beba 50c1 9ebb d6d1 f1bb 2c62 5b3c
000002d0: 5b69 f03b 3f5c 1abd 233f 60bc 1b75 47bd
000002e0: 5f71 ac3a 397d 90bc 5563 423c 88d4 bebb
000002f0: ba64 d9bc d8de 17bd bec4 eabc ff9f 16bd
00000300: a503 c83c 1d8e 06bc f178 aebb 3640 223c
00000310: 657f 00bd 6b22 2fbc a7ec 22bd c5be 403b
00000320: 9511 1bbd 6732 083c bbc1 033b b2b3 a0bc
00000330: 5d85 e6bc 89b0 73bd 7fcb 69bc c323 47bc
00000340: 5fca 8c3c 291b 52bd 988b 8a3b dfc0 693c
00000350: d2c6 d13b 9e75 af3c f872 363c 541c 953a
00000360: b71d b7bb 416a 2cbc 8681 963c c5e0 d03c
00000370: fd32 7eb9 d624 8dbb 8c6e 9f3b e1d1 83bc
00000380: e4a4 6dbc 8feb 0e3c c64b e6bc e0ae ddbc
00000390: 7fe7 883b 480d 19bd e99f 7fbd b2f6 d83c
000003a0: 60da debc 0f09 3cbd 6026 d9bc f6b4 d9bc
000003b0: e02c 0bbd 5c8c fbba b741 fa3b b0a6 b2bc
000003c0: 7434 233d 177d e73c 92f2 b9bc d105 163d
000003d0: eadc 6239 92d0 0dbd 3a5d ef3b 5d55 15bc
000003e0: a27a 233b 6e33 bc3c 069a a73c 569c 933c
000003f0: c157 dbbc 3db0 0a3c fffd 803c 7e2d b1bc
-0.038568065 0.048759155 0.038754772 0.008296209 -0.019192046 -0.001850827 -0.0076757898 -0.00012359646
-0.006122051 -0.025074847 0.0031739993 0.012400771 0.020511318 0.0015935675 0.005304219 -0.037507165
-0.0141608175 0.02961029 -0.002521241 -0.004823527 0.014630998 0.003731421 0.024845665 -0.014617076
-0.037190598 -0.019734347 0.0027669223 0.011143787 0.0017498416 0.0035987496 -0.008321259 0.03370116
0.006744709 -0.0022414234 0.032004233 -0.0053470335 -0.0026868642 0.008965916 0.054126453 -0.0034989177
-0.0123069715 -0.04509056 0.018196872 0.009073974 0.012904419 0.018764775 0.008977237 -0.010296676
-0.015636612 0.004926314 -0.0005550248 -0.009161218 -0.0053470875 0.051723912 0.021113925 0.04822266
0.019703325 0.013203726 -0.018810673 0.015362721 0.028756939 0.016950535 0.039471496 0.020160137
-0.030755425 0.00512209 -0.019865867 -0.026224466 0.03324525 0.013068372 0.043160263 0.005715224
0.036850274 -0.009529804 -0.0012376696 0.020997573 0.045241043 0.06915566 0.021516206 0.025064131
-0.010043982 0.027306998 -0.016695328 -0.00836954 -0.020869555 -0.010660206 -0.0075360327 0.0012972248
0.0055990843 0.013695881 -0.0018025873 -0.010425631 -0.016651485 -0.00072186947 -0.017794987 0.034302346
-0.0058229314 0.0068057557 0.02774683 0.0030657875 -0.0021750736 0.0323013 0.067069545 -0.011018607
-0.0013622062 0.041717842 0.036131717 0.04183391 0.06677804 0.012249101 -0.00034108706 0.03801605
-0.02626474 -0.026159128 0.029296957 -0.035314377 0.0038230994 0.043625843 -0.005160419 1.7772865e-05
-0.0010568296 -0.010570174 -0.008821579 -0.017797025 0.03887663 0.0051765265 -0.0045408965 0.032996
0.036939565 -0.047148895 -0.022602435 -0.008347914 0.0089006 0.0010466778 0.0071757077 0.007078998
0.009415401 0.007011104 -0.0037098397 -0.022273747 -0.047153063 -0.004154375 0.008753199 0.026113305
0.0024895715 -0.04566265 0.012487456 0.009283906 0.022487836 -0.019134728 -0.0035069133 0.0025392617
0.016556397 0.010407303 -0.00094174454 0.0029476802 0.007996381 0.016808309 0.0036109912 -0.03486232
-0.020425808 0.011485352 -0.01491277 -0.0071224654 -0.011789856 -0.0047597773 -0.05026998 -0.00800665
-0.013644506 0.037348215 -0.017048214 0.0050909007 -0.021418363 -0.0068761986 0.0025925995 -0.0106665455
-0.0014531836 -0.004844822 -0.0073797507 0.013390105 0.007336778 -0.03768563 -0.013686928 -0.048695665
0.0013156346 -0.017637836 0.011864503 -0.0058236755 -0.026537288 -0.037077755 -0.028658267 -0.036773678
0.0244158 -0.008212593 -0.005324476 0.009903004 -0.031371493 -0.010689358 -0.03977647 0.0029410583
-0.037858564 0.008312798 0.0020104486 -0.019616935 -0.028139764 -0.05949453 -0.014269709 -0.012154522
0.017186342 -0.051295433 0.0042280667 0.014267175 0.006401875 0.021418389 0.011135809 0.001137624
-0.005588259 -0.01052338 0.018372308 0.025497803 -0.00024242322 -0.0043073697 0.004865473 -0.016091289
-0.014504645 0.008723154 -0.028112303 -0.027060926 0.004177987 -0.03736618 -0.06240836 0.026484821
-0.027203739 -0.045907076 -0.026507556 -0.026575547 -0.033978343 -0.0019191611 0.0076372284 -0.021807998
0.039844945 0.02825789 -0.022698674 0.03662664 0.00021635336 -0.034622736 0.0073048146 -0.0091145905
0.002494492 0.022973742 0.020459186 0.018018883 -0.026775243 0.00846487 0.015746115 -0.021628138

action_model._discrete_distribution.branches.1.bias f4 [2]
00000000: 164e 71bc 124e 713c
-0.01472809 0.014728086

exp_avg f4 [128, 48]
00000000: 94c5 cb38 2ae9 d438 436f e53a b804 393a
00000010: b90f 2e3a 72ba b939 4519 9e3a f7ee 2c3a
00000020: e7fa f839 fceb 533a 7348 813a 86b5 fb38
00000030: 81a6 d038 9b6f d138 534f 093b 4b90 543a
00000040: 2470 303a d327 d739 1e20 a03a f51c 523a
00000050: c266 f839 bd5f 5f3a 72ef 6b3a ec77 dd38
00000060: e367 c938 607a a238 ceb3 ea3a fb0d 6f3a
00000070: 5190 3a3a c583 d939 7f36 9f3a 48c3 243a
00000080: 2c69 ec39 bedf 423a a5eb 773a 99e1 8f38
00000090: 3893 b538 743d 9f38 5df9 b93a 3ca1 5d3a
000000a0: d04b 223a 3241 e839 b536 5a3a ef51 f039
000000b0: 4928 da39 3302 3b3a faee 403a 20b1 8838
000000c0: 81f7 dcb8 584d ceb8 8d1d a6ba 72a3 21b9
000000d0: 3513 0aba 3ef9 89b9 6aea 5cba d682 97b9
000000e0: cdcf 62b9 8536 a6b9 c340 c1b9 8316 b5b8
000000f0: bb66 ebb8 683c d6b8 b606 f5ba 7c0b a4b8
00000100: 7630 00ba 1c25 a9b9 a013 30ba b186 f2b9
00000110: 3c05 6ab9 41c1 b6b9 c795 e4b9 787c d9b8
00000120: dea7 d3b8 808d 95b8 a1fe ddba 904a 04ba
00000130: da65 18ba 3a1b b4b9 0a09 21ba 2a29 85b9
00000140: 7811 83b9 0f11 a2b9 b189 c4b9 5871 88b6
00000150: 0742 bcb8 8ff9 92b8 81c1 97ba ccf0 7bba
00000160: 1ed2 0dba d603 cdb9 6eef a9b9 281a 16b8
00000170: 3feb 5cb9 8242 4fba 3011 92b8 f3c2 c6b7
00000180: ae16 b937 59a6 d737 52e4 ea39 0cb8 5939
00000190: 6aca 1d39 5d4c d638 e57a af39 7c43 3439
000001a0: 81fe 0239 c858 5139 ec99 8e39 7446 1138
000001b0: e4c0 c837 eef5 dd37 65b7 ee39 f832 3639
000001c0: 703b 2d39 5441 f338 cf56 ac39 8b70 4f39
000001d0: c2d0 0239 d8cf 5439 4c02 8439 47cb 0738
000001e0: fc1c c637 31cf bf37 4d5f d339 0d93 5939
000001f0: 2629 2439 52b5 ef38 00be b339 6530 4139
00000200: 1cba f838 7bbc 4e39 c32c 8a39 7d2b b337
00000210: c926 ab37 bdee 8b37 f57d da39 7f88 4839
00000220: ded6 1439 bcbb f438 9d17 7739 ff76 1f39
00000230: 875c f538 cee0 3c39 4869 7339 f04f 6137
00000240: 9a02 23b8 405c 34b8 24b5 a5ba 9e2d fcb9
00000250: e274 51b9 7e9d 37b9 f417 81ba b40f 1aba
00000260: a3b8 abb9 fb50 a5b9 ff0b 59ba c7fc 80b8
00000270: ef81 34b8 434a 3bb8 6656 b0ba 3c39 1bba
00000280: cc9b 82b9 9432 37b9 41ff 87ba 263b 0eba
00000290: 3f82 a9b9 5038 bcb9 aaa1 3dba 932f 82b8
000002a0: 9147 36b8 9e59 41b8 4074 aaba 5bd9 1dba
000002b0: ac5f 8ab9 2cfd 36b9 219c 8aba d929 02ba
000002c0: debf a2b9 3fa0 abb9 ce00 4eba 5a43 73b8
000002d0: 3c15 3bb8 88f5 36b8 5508 bfba 9225 e0b9
000002e0: 1627 85b9 1934 3cb9 a05e 6dba 3df8 b1b9
000002f0: 3cd1 95b9 4ce0 a4b9 a5ce 18ba 7e53 7db8
00000300: 4808 a8b4 408c 3db5 82fe 0c37 ad36 8637
00000310: 46c2 3137 8945 9e36 0cca 9db7 b081 81b7
00000320: 58f9 30b6 1cc7 7437 ae36 4fb7 dcf1 0f35
00000330: ca1d 1ab5 1c01 b4b4 9c4f 5c36 24df a437
00000340: 7094 2737 001b eb36 07e8 afb7 0704 5ab7
00000350: 1051 11b5 aa54 8937 9499 42b7 6059 03b6
00000360: 9c5d 4fb5 20d4 17b4 d9f0 56b7 c915 8b37
00000370: fca4 4037 175b e536 1905 b1b7 c618 38b7
00000380: a42e 9cb5 2313 8637 d19a 49b7 c0bd 1834
00000390: 9ce7 18b5 00a8 e531 92c6 69b8 8444 2eb6
000003a0: 6af2 2537 7b3c cf36 e5d0 beb7 3ecc 98b6
000003b0: 0cdc 93b5 087b 1c37 9566 2cb7 5934 b4b5
000003c0: ccab db38 e732 e738 b158 0f3b c3b4 673a
000003d0: 8641 353a 81e0 d139 4107 ad3a 67df 2b3a
000003e0: b7c9 ec39 6430 603a 46a3 873a c56d 0639
000003f0: e809 e638 9d55 d438 ae87 043b 91d3 743a
9.716596e-05 0.00010152378 0.0017504472 0.0007057893 0.0006639916 0.00035424862 0.0012061974 0.0006596888
0.00047489183 0.00080841756 0.000986351 0.00012002424 9.949227e-05 9.986685e-05 0.0020951822 0.00081086595
0.00067305774 0.00041037667 0.0012216603 0.0008015179 0.00047378807 0.0008521041 0.00090002187 0.000105604384
9.603777e-05 7.747556e-05 0.0017906369 0.000911921 0.0007116842 0.0004148764 0.0012146978 0.00062852027
0.00045091787 0.0007433853 0.0009457416 6.860792e-05 8.658174e-05 7.593157e-05 0.0014188696 0.0008454507
0.00061911065 0.00044299063 0.0008324192 0.00045837412 0.00041610215 0.00071338116 0.0007359829 6.5179775e-05
-0.00010536519 -9.837252e-05 -0.0012673602 -0.00015415045 -0.00052671443 -0.00026316376 -0.00084272644 -0.00028898445
-0.00021630451 -0.00031702608 -0.0003686008 -8.634946e-05 -0.00011224808 -0.00010215567 -0.0018694017 -7.8222685e-05
-0.0004890034 -0.0003226184 -0.00067167915 -0.0004625819 -0.00022317929 -0.0003485773 -0.00043599142 -0.000103705504
-0.00010092532 -7.13123e-05 -0.0016936847 -0.0005046511 -0.0005813517 -0.0003435256 -0.00061430095 -0.00025398406
-0.00024999282 -0.00030911757 -0.0003748662 -4.066311e-06 -8.976837e-05 -7.0083064e-05 -0.0011578054 -0.00096107717
-0.0005410033 -0.00039103505 -0.0003241258 -3.5787147e-05 -0.00021068471 -0.0007906334 -6.965024e-05 -2.369422e-05
2.206428e-05 2.5707459e-05 0.0004480207 0.00020763295 0.00015048092 0.00010218539 0.00033470165 0.00017191278
0.00012492576 0.00019964867 0.0002719903 3.463631e-05 2.393168e-05 2.6459773e-05 0.00045531537 0.0001737586
0.00016520708 0.00011599311 0.00032871074 0.00019782984 0.00012475534 0.00020295323 0.00025178713 3.2375825e-05
2.3616936e-05 2.2865455e-05 0.0004031606 0.00020749513 0.00015655588 0.000114301816 0.00034283102 0.00018423943
0.00011860227 0.00019715905 0.0002635476 2.1358714e-05 2.040285e-05 1.6681262e-05 0.00041674045 0.00019124335
0.00014194424 0.00011669795 0.00023564552 0.00015207751 0.00011699745 0.00018012823 0.00023213506 1.3429657e-05
-3.886465e-05 -4.300126e-05 -0.0012642485 -0.00048099173 -0.00019975335 -0.0001751091 -0.0009849058 -0.0005876974
-0.00032753227 -0.00031531588 -0.00082796806 -6.150599e-05 -4.3036354e-05 -4.4653436e-05 -0.0013453483 -0.00059213093
-0.0002491161 -0.00017471082 -0.0010375754 -0.0005425684 -0.00032331233 -0.0003590011 -0.00072338677 -6.2077444e-05
-4.3458833e-05 -4.609825e-05 -0.0013004616 -0.0006021463 -0.00026392692 -0.00017451186 -0.0010575094 -0.0004965342
-0.00031042 -0.00032735054 -0.0007858396 -5.799844e-05 -4.460405e-05 -4.362085e-05 -0.0014574627 -0.000427526
-0.00025396858 -0.00017948485 -0.0009054933 -0.00033945023 -0.00028575386 -0.00031447632 -0.0005829132 -6.039766e-05
-3.1298464e-07 -7.061208e-07 8.4039075e-06 1.5999505e-05 1.0595255e-05 4.716862e-06 -1.8809944e-05 -1.5438389e-05
-2.637118e-06 1.4589892e-05 -1.2350893e-05 5.3623603e-07 -5.741282e-07 -3.352842e-07 3.2828893e-06 1.9654231e-05
9.9885365e-06 7.006689e-06 -2.0969672e-05 -1.299475e-05 -5.413467e-07 1.6371097e-05 -1.1599059e-05 -1.9572544e-06
-7.724973e-07 -1.4140142e-07 -1.2811471e-05 1.6580236e-05 1.1482505e-05 6.835336e-06 -2.1102418e-05 -1.0973023e-05
-1.163648e-06 1.5982956e-05 -1.201658e-05 1.4225134e-07 -5.696145e-07 6.6838766e-09 -5.5736462e-05 -2.5967902e-06
9.891208e-06 6.1761216e-06 -2.274704e-05 -4.55373e-06 -1.1016396e-06 9.32697e-06 -1.0275883e-05 -1.342628e-06
0.000104747334 0.0001102442 0.0021872933 0.0008838886 0.0006914366 0.00040030855 0.0013201014 0.0006556422
0.00045163717 0.00085521326 0.0010348342 0.00012820128 0.000109691 0.000101248945 0.0020222473 0.0009339387

exp_avg_sq f4 [128, 48]
00000000: 967b b933 b995 0434 b3ba e537 3df3 5f37
00000010: 0dec d636 9e81 7c36 5451 7737 f39b e536
00000020: 1ce6 7836 ceaa 1b37 fafe 2b37 7ce7 1b34
00000030: 9d7c b633 84d3 fb33 3330 c337 ee99 4637
00000040: 69a6 d336 2c44 7b36 4074 6937 945f e636
00000050: 4bce 7936 4187 1437 a802 2737 03b4 1634
00000060: 0236 b133 a904 ec33 3ae5 a737 a217 2f37
00000070: eb88 c836 af86 7736 f9f9 6037 4331 e436
00000080: ac95 7a36 6533 0937 76ad 2437 9bf8 0d34
00000090: 5df1 a833 8af7 e933 dfe8 8d37 2484 1f37
000000a0: 9dfd c036 fd8e 7236 24e0 5137 e808 e436
000000b0: a045 7a36 7b42 0037 7799 2237 b3e0 0b34
000000c0: 4c15 9534 1a24 cd34 9747 b838 6a57 5338
000000d0: ef15 aa37 c1c0 3337 93fe 0638 fd6e 8537
000000e0: d7e4 3d37 223b 0738 8a64 ae37 8094 e734
000000f0: 8f5b 9334 0278 c734 cd5a 9238 c496 4238
00000100: e3e8 b437 6a45 3837 2d4d db37 298c 6f37
00000110: 38ed 3937 16fd 0f38 96d6 9837 35fb de34
00000120: 27fa 8d34 9ef6 c034 3682 7a38 8d11 4038
00000130: ae6e b537 280c 3c37 7c8e af37 9243 5d37
00000140: 4e88 3437 0a18 0c38 368d 8037 d165 ca34
00000150: b435 8834 7d6b b634 ebc6 7238 eaf8 2f38
00000160: ce05 b037 49a1 3d37 e762 a437 f542 5037
00000170: 6884 2f37 6c15 0638 7432 6937 dae0 c634
00000180: 9b3c 8d32 5a1d dc32 1bdc e236 8ba5 4c36
00000190: f55f b935 0b1f 6335 49c9 4d36 9ffd d435
000001a0: ed38 5f35 bfee 0536 9bf8 1a36 1b46 0133
000001b0: 7672 8932 500d cf32 20a0 dd36 4eb2 3e36
000001c0: 41f0 b335 a64a 6335 6338 4736 84c8 df35
000001d0: 2939 6535 5837 0036 8c00 1b36 3f6c f132
000001e0: 46a8 8732 11ff c932 0dce c836 aa04 3d36
000001f0: cfb2 ac35 a27d 6135 f05e 4736 02f8 e335
00000200: fdcf 6c35 7f29 fa35 4604 1d36 ccb3 fa32
00000210: d055 8132 5f4e be32 08aa c136 1007 3736
00000220: 8afb a735 0fac 5e35 e745 4636 7db3 eb35
00000230: f3ab 7335 bdf0 f535 cdd4 1e36 c2da ea32
00000240: c856 3333 a531 8133 e1e1 1038 e7ab ff36
00000250: 7b98 2436 d930 c335 aff0 1c37 b783 4636
00000260: 3592 d135 8feb 8736 7099 ac36 db94 9333
00000270: 9598 3733 bf4f 8033 f83f 2038 473e f536
00000280: 2fb0 2136 4e54 c435 1c01 2c37 6b31 4a36
00000290: 3f53 ce35 5f59 7e36 4980 b236 ad9a 9533
000002a0: 9dcb 3c33 ada8 7e33 0bc2 3138 7434 f336
000002b0: 27b2 1836 8722 c635 2d80 4237 9b02 4d36
000002c0: f589 ce35 e6bc 7136 2305 c136 2c02 9733
000002d0: 3796 4333 ec41 7433 6183 3738 a41c f036
000002e0: 8677 1536 52a2 c635 1b01 4d37 c2d9 5036
000002f0: 682f d035 544d 6636 ed95 cb36 9ffa 9d33
00000300: 2ffd 5030 a697 f430 07dd 4234 332e 0134
00000310: 01b6 9133 2653 6233 297e b234 9a10 2e34
00000320: d4dc 8633 1b95 b533 bc25 8534 45d2 0b31
00000330: 12af 4c30 41dc fe30 af15 b334 158d 1f34
00000340: 43fd ab33 cf6a 7633 baec ca34 720f 4334
00000350: da7f 9333 31da d633 5025 9d34 d73b 0e31
00000360: f258 4730 cf71 ff30 591e d434 c903 1134
00000370: 273d ac33 aec9 7433 0706 be34 ad73 2c34
00000380: 8650 9333 09c0 d433 20c6 9334 2917 1c31
00000390: 91f1 4830 3bb7 fb30 2483 1c35 e98e 1534
000003a0: 0f88 a733 0b95 7233 763d ac34 1329 1d34
000003b0: 312d 9233 4ebd c833 bb7f 7134 61b1 2331
000003c0: f8a1 a733 1fe4 d533 b19e c337 7cb5 2a37
000003d0: 4191 aa36 d056 5736 3729 6c37 7d42 ec36
000003e0: 4d9a 5836 31d9 ed36 3995 3237 36a1 0834
000003f0: f4cd a533 c99d ca33 f1f3 a737 a518 1e37
8.637214e-08 1.2347927e-07 2.7385866e-05 1.3348469e-05 6.405177e-06 3.7626373e-06 1.4741283e-05 6.8428867e-06
3.708882e-06 9.2784885e-06 1.0251761e-05 1.4519713e-07 8.4977025e-08 1.1726573e-07 2.3268256e-05 1.1837559e-05
6.3076627e-06 3.7441596e-06 1.3914949e-05 6.865661e-06 3.722397e-06 8.852979e-06 9.954594e-06 1.4035327e-07
8.252029e-08 1.0990454e-07 2.0014693e-05 1.0436315e-05 5.976404e-06 3.6884264e-06 1.3409642e-05 6.8006643e-06
3.7340023e-06 8.177803e-06 9.815549e-06 1.322209e-07 7.867013e-08 1.0894935e-07 1.6916949e-05 9.507905e-06
5.7515704e-06 3.614404e-06 1.2509558e-05 6.7959663e-06 3.729343e-06 7.644873e-06 9.691684e-06 1.3027129e-07
2.7768908e-07 3.8210493e-07 8.787138e-05 5.038773e-05 2.0275793e-05 1.071411e-05 3.218518e-05 1.5906518e-05
1.1318559e-05 3.224158e-05 2.0789234e-05 4.313515e-07 2.74475e-07 3.7153956e-07 6.9787355e-05 4.6393616e-05
2.1566118e-05 1.0983416e-05 2.6142772e-05 1.4278144e-05 1.1082091e-05 3.432956e-05 1.8219736e-05 4.15335e-07
2.6445306e-07 3.5942224e-07 5.9725913e-05 4.5792713e-05 2.162842e-05 1.1208504e-05 2.0927975e-05 1.3188359e-05
1.0760572e-05 3.340099e-05 1.5324546e-05 3.7699513e-07 2.5371048e-07 3.397835e-07 5.7882553e-05 4.195507e-05
2.0983538e-05 1.130283e-05 1.9596378e-05 1.2413356e-05 1.0461641e-05 3.196804e-05 1.3899629e-05 3.7043975e-07
1.644212e-08 2.5624718e-08 6.7609485e-06 3.0494728e-06 1.3811501e-06 8.4609263e-07 3.0664544e-06 1.5869044e-06
8.315681e-07 1.9957513e-06 2.3092496e-06 3.0098914e-08 1.600095e-08 2.4104025e-08 6.6049543e-06 2.8415993e-06
1.3406462e-06 8.467272e-07 2.9686132e-06 1.6673152e-06 8.5392327e-07 1.91057e-06 2.3097118e-06 2.8105317e-08
1.579259e-08 2.351547e-08 5.984452e-06 2.816591e-06 1.2867039e-06 8.400185e-07 2.9708572e-06 1.6984998e-06
8.8219514e-07 1.8638528e-06 2.339731e-06 2.9185593e-08 1.50566e-08 2.215455e-08 5.7716425e-06 2.7273236e-06
1.2515677e-06 8.295182e-07 2.9544988e-06 1.7561102e-06 9.0774773e-07 1.8323987e-06 2.36677e-06 2.7340665e-08
4.1755612e-08 6.016061e-08 3.454264e-05 7.6196043e-06 2.452666e-06 1.4542849e-06 9.354363e-06 2.9580967e-06
1.5614265e-06 4.050736e-06 5.143862e-06 6.8722976e-08 4.274678e-08 5.97497e-08 3.820655e-05 7.308819e-06
2.4093422e-06 1.4627674e-06 1.0252257e-05 3.012911e-06 1.5372424e-06 3.790097e-06 5.3197477e-06 6.9664885e-08
4.3957346e-08 5.9292393e-08 4.2380805e-05 7.2480707e-06 2.2753463e-06 1.4762198e-06 1.1593144e-05 3.0548897e-06
1.5388347e-06 3.6021752e-06 5.752446e-06 7.0318805e-08 4.5538595e-08 5.6870633e-08 4.3752956e-05 7.1558916e-06
2.2272302e-06 1.4799391e-06 1.221921e-05 3.1121167e-06 1.5511005e-06 3.4317682e-06 6.067325e-06 7.35647e-08
7.6029755e-10 1.7796438e-09 1.8148067e-07 1.2030868e-07 6.785195e-08 5.269535e-08 3.3246877e-07 1.6211052e-07
6.28003e-08 8.4555914e-08 2.4800636e-07 2.0346687e-09 7.446356e-10 1.8543532e-09 3.3357125e-07 1.4859354e-07
8.008876e-08 5.737348e-08 3.7797673e-07 1.8166409e-07 6.868477e-08 1.000484e-07 2.9270677e-07 2.0697735e-09
7.2522177e-10 1.8586038e-09 3.9510158e-07 1.3505554e-07 8.020498e-08 5.6994104e-08 3.5394643e-07 1.6060831e-07
6.859868e-08 9.90695e-08 2.752504e-07 2.2714153e-09 7.310286e-10 1.8314731e-09 5.8305363e-07 1.3928697e-07
7.8012924e-08 5.648057e-08 3.2082215e-07 1.4636707e-07 6.806875e-08 9.34766e-08 2.2491342e-07 2.382045e-09
7.8060054e-08 9.9600804e-08 2.3319708e-05 1.0175045e-05 5.0833046e-06 3.2088028e-06 1.4076292e-05 7.0410883e-06
3.2276323e-06 7.088435e-06 1.064437e-05 1.2724635e-07 7.720874e-08 9.435059e-08 2.0021545e-05 9.423272e-06

exp_avg f4 [128]
00000000: e970 c938 df68 7cb8 109b cb37 762f 6fb8
00000010: 00ee 9131 d2c1 cd38 aac2 32b8 19ae 80b7
00000020: e4ed 80b8 d80c d233 4ea8 b438 9c28 0936
00000030: 6484 4138 166d b437 f240 3fb8 3a98 24b8
00000040: a44d d2b7 ea5e 9237 eade 2d37 39a1 04b6
00000050: 6efa a7b7 146c 22b8 ae42 3ab9 d2d8 2cb9
00000060: 8585 4e38 d871 0338 b8ce 8938 9ba2 9ab9
00000070: 47c4 14b6 8869 02b9 283f c335 c450 3935
00000080: 9ed6 2b39 116a 8638 1cde b3b8 af8c 3839
00000090: 9614 acb8 a65d 6538 d4e1 1337 d64b 25b8
000000a0: bfdd 08b9 9e36 4e34 381f 7b35 4c3d 7b38
000000b0: cba6 c037 e177 1a36 c0fe 8736 3ca4 2939
000000c0: 9360 93b9 ac1c c438 ffb0 a036 d663 ce38
000000d0: 041f 0db8 8c6f 51b4 bebd 8a38 5357 0f38
000000e0: 51fa 01b8 7fd3 0139 e64f b4b9 6303 9137
000000f0: a06d d236 5e21 fbb6 0abe 4e37 51a8 49b8
00000100: dde2 5e35 297e e238 1d91 0fb8 1e69 f538
00000110: 0658 e437 13c1 cf37 5438 4e39 5b65 5838
00000120: 9533 2eb8 9a5b a338 044f eb38 600e 80b7
00000130: 584e eb32 3fce 9034 9b77 6e39 8bde 3138
00000140: 1c63 f338 5a08 96b7 2f85 fd38 ea6c e5b8
00000150: 0950 81b9 59d7 8b38 4cf4 3339 5a01 aeb8
00000160: 0d9b c3b8 ecd1 f937 249f cb38 cc87 fe38
00000170: c54a e3b4 a465 0238 0caa c2b9 b8c0 08b8
00000180: 010d 08b8 8503 2539 44c7 b3b8 7085 1ab5
00000190: 3c58 25b4 3c37 cbb7 865f 8239 b1e0 84b7
000001a0: ca44 a4b8 d569 6738 5644 c1b5 402a ad36
000001b0: 0012 9433 87bc f5b5 f92b 10b9 dc70 1a39
000001c0: cb9d 36b9 3451 89b3 3cc9 6eb8 3f20 2136
000001d0: a45a 25b9 5de7 81b7 b917 d0b8 f0c0 2239
000001e0: c465 8bb5 bce9 b735 928d 6838 cf8a cd38
000001f0: de76 8db5 4a15 0538 0407 83b9 2716 fd38
9.605458e-05 -6.017915e-05 2.4271692e-05 -5.7026242e-05 4.247113e-09 9.8112636e-05 -4.2619802e-05 -1.533986e-05
-6.147826e-05 9.781223e-08 8.614418e-05 2.0438229e-06 4.6138084e-05 2.150847e-05 -4.5598434e-05 -3.924242e-05
-2.5070105e-05 1.7448754e-05 1.0363505e-05 -1.9763377e-06 -2.0024567e-05 -3.8724465e-05 -0.00017763182 -0.0001648397
4.9238577e-05 3.133886e-05 6.5711734e-05 -0.0002949432 -2.2167967e-06 -0.0001243708 1.4547013e-06 6.90354e-07
0.00016387782 6.409374e-05 -8.576756e-05 0.00017600016 -8.2054336e-05 5.468507e-05 8.8144625e-06 -3.9409693e-05
-0.00013052578 1.9205115e-07 9.3550216e-07 5.990015e-05 2.2965853e-05 2.3017567e-06 4.0529703e-06 0.00016178278
-0.00028109978 9.351349e-05 4.7889766e-06 9.841441e-05 -3.3645905e-05 -1.9505222e-07 6.615695e-05 3.4175184e-05
-3.0989122e-05 0.00012381187 -0.00034391804 1.7286924e-05 6.2712497e-06 -7.4842674e-06 1.2322804e-05 -4.807889e-05
8.3031574e-07 0.00010800019 -3.4229004e-05 0.0001170209 2.7220707e-05 2.476623e-05 0.00019666675 5.1592808e-05
-4.1532872e-05 7.789508e-05 0.00011220391 -1.5265483e-05 2.7393227e-08 2.6972154e-07 0.00022742005 4.2407348e-05
0.000116056035 -1.7885282e-05 0.000120887875 -0.00010939858 -0.00024664428 6.668148e-05 0.00017161778 -8.297218e-05
-9.327205e-05 2.9780866e-05 9.7094366e-05 0.00012136958 -4.2336447e-07 3.1089075e-05 -0.00037129258 -3.260441e-05
-3.2437038e-05 0.00015736937 -8.572501e-05 -5.756365e-07 -1.5398922e-07 -2.4225206e-05 0.00024866703 -1.5840256e-05
-7.832942e-05 5.5173256e-05 -1.4399509e-06 5.1607203e-06 6.895061e-08 -1.8308791e-06 -0.00013749291 0.00014728628
-0.00017415655 -6.3943304e-08 -5.6931036e-05 2.400964e-06 -0.00015769392 -1.5485735e-05 -9.9226316e-05 0.00015521399
-1.0385925e-06 1.3702588e-06 5.5444958e-05 9.801017e-05 -1.0539914e-06 3.1729498e-05 -0.00024991494 0.00012068106
