KartSCBIO/results/circuitoA-8/ArcadeDriver/ArcadeDriver-228125.onnx (onnx, 98542 bytes, 9 tensors)

discrete_action_output_shape f4 [1, 2]
0	0x40400000	3.0
1	0x40000000	2.0

network_body._body_endoder.seq_layers.0.weight f4 [128, 52]
0	0x3e0b29f1	0.13590218
1	0xbe275c0a	-0.16343704
2	0x3d6189d4	0.055063084
3	0xbdffd95f	-0.12492632
4	0xbe05bafd	-0.13059612
5	0x3d8f3421	0.06992365
6	0xbe9762cd	-0.29567567
7	0xbdfedfe1	-0.12445045
8	0xbd3487e6	-0.044074915
9	0x3d9e2c77	0.07723325
10	0x3b9137e2	0.0044317106
11	0xbe7af949	-0.24509157
12	0x3d855582	0.0651045
13	0x3e0a3804	0.13497931
14	0x3e16b9bd	0.14719291
15	0xbe04eb39	-0.12980355
16	0xbe0b9dd4	-0.13634425
17	0xbe2be085	-0.16784866
18	0x3d3c2a5b	0.04593883
19	0x3dda0d6a	0.1064709
20	0x3cbf3409	0.023340242
21	0xbd6306a0	-0.05542624
22	0xbdaa3049	-0.08309991
23	0xbd3847d6	-0.044990383
24	0xbdb91da3	-0.09038856
25	0xbd90c801	-0.07069398
26	0xbe139fe5	-0.14416464
27	0x3ddeda9c	0.1088154
28	0xbcf006ce	-0.02930012
29	0x3d894b45	0.0670381
30	0xbe7a016d	-0.24414606
31	0x3e049a88	0.12949574
32	0x3d0746bf	0.033026453
33	0xbe36bd43	-0.17845635
34	0x3e5c0140	0.21484852
35	0x3c4d13ee	0.012516959
36	0x3da23028	0.07919341
37	0x3dc61e2e	0.09673725
38	0x3d4e6b1c	0.050395116
39	0x3d062112	0.032746382
40	0x3e36b0f1	0.17840935
41	0xbb05a956	-0.0020395122
42	0xbe650478	-0.22364986
43	0xbdcb84b0	-0.099374175
44	0xbe0301cf	-0.12793659
45	0xbe531375	-0.20612891
46	0xbd5fb1d3	-0.054612946
47	0x3dd8c8fb	0.10585209
48	0x3e81de65	0.25364986
49	0xbe150232	-0.14551619
50	0xbde05298	-0.109532535
51	0xbef7ef53	-0.48424777
52	0x3dda2abd	0.10652683
53	0xbdc62866	-0.09675674
54	0xbe363682	-0.1779423
55	0xbd7db460	-0.061939597
56	0xbed0e399	-0.40798643
57	0xbda59f5b	-0.08087035
58	0xbe31991e	-0.17343566
59	0x3ea38f3b	0.31945214
60	0x3d7061e3	0.058687102
61	0xbd9df407	-0.0771256
62	0x3dfcc95f	0.12343096
63	0x3c772172	0.015083658
64	0xbea60256	-0.32423657
65	0x3eb47a0e	0.3524937
66	0xbe3f59eb	-0.18686645
67	0x3d84b6b6	0.06480162
68	0xbdbc0052	-0.091797486
69	0x3e8a424f	0.27003714
70	0x3e8431fa	0.2581938
71	0xbe663519	-0.22481193
72	0xbd814993	-0.06312861
73	0xbd425206	-0.047441505
74	0xbdfc5191	-0.12320245
75	0x3dcfffb9	0.10156197
76	0x3d7b45be	0.06134581
77	0xbde38f70	-0.11111343
78	0x3e6335c1	0.22188474
79	0xbe0e35bd	-0.13887687
80	0xbaa0d239	-0.0012269682
81	0xbe8af924	-0.27143204
82	0x3e50f583	0.20406155
83	0xbdb95950	-0.09050238
84	0x3e18179c	0.14852756
85	0xbe7d2563	-0.24721293
86	0x3de6c347	0.11267715
87	0x3d8faa69	0.07014925
88	0xbdd08599	-0.10181732
89	0xbe30d6e1	-0.1726947
90	0xbdbaa820	-0.091140985
91	0x3e109120	0.14117861
92	0x3e6191cb	0.22028272
93	0xbe223034	-0.158387
94	0xbb99acb3	-0.004689777
95	0x3da1e076	0.07904141
96	0x3db6e4e3	0.089303754
97	0xbe0ae0b2	-0.13562277
98	0x3dbc96dc	0.09208462
99	0xbe565068	-0.2092911
100	0x3e69f14b	0.22845952
101	0x3dbe1cca	0.09282835
102	0xbe86b661	-0.2631102
103	0x3e1a53c1	0.15071012
104	0xbd388fc8	-0.045058995
105	0x3e7c3583	0.24629788
106	0x3e0f3ac8	0.13987267
107	0xbe20916c	-0.15680474
108	0xbdccf6b4	-0.100079924
109	0xbe793e2a	-0.2434012
110	0x3d980461	0.0742271
111	0xbd8feb7f	-0.07027339
112	0xbd88a33d	-0.0667176
113	0x3ec36350	0.38161707
114	0x3dbbf96d	0.091784336
115	0xbdd366d1	-0.10322345
116	0x3e1245d4	0.1428445
117	0xbe579fe0	-0.21057081
118	0x3e0ff4b5	0.14058192
119	0x3e0897b7	0.13339125
120	0x3db3f91e	0.0878775
121	0x3d08b7f0	0.03337854
122	0xbee7b3f8	-0.45254493
123	0xbd8f4369	-0.06995279
124	0x3e004c07	0.12529002
125	0xbe09b9c0	-0.13449764
126	0x3e74cb49	0.23905672
127	0x3dbff57b	0.093729936
128	0x3e19fcd5	0.15037854
129	0x3d2a056d	0.04150908
130	0x3dbddd5f	0.09270739
131	0xbd076c49	-0.033062253
132	0x3dc2b0f5	0.09506408
133	0x3e2d5688	0.1692754
134	0x3d93419f	0.071902506
135	0x3e46078f	0.19338821
136	0x3dac9031	0.0842594
137	0x3e009398	0.12556303
138	0xbd81d88b	-0.063401304
139	0x3da9dbe3	0.08293893
140	0xbde26f7c	-0.1105642
141	0xbddbfed0	-0.10741961
142	0xbe98738c	-0.29775655
143	0x3dcc58b1	0.09977854
144	0xbe1a5687	-0.1507207
145	0xbcf71c7c	-0.03016495
146	0x3d8841e3	0.06653192
147	0x3e0f1957	0.1397451
148	0xba583e9e	-0.0008249077
149	0xbdc44134	-0.09582749
150	0xbe007b24	-0.12546974
151	0xbdbeca50	-0.09315932
152	0x3dc045ba	0.09388299
153	0xbd33b331	-0.043872062
154	0xbc8c0d41	-0.017096164
155	0xbe5edaac	-0.21763104
156	0xbd597e4c	-0.05309896
157	0xbd849992	-0.06474604
158	0x3e5208b3	0.20511131
159	0x3d4d443a	0.050113894
160	0x3ccb94db	0.024851253
161	0xbe6c6d48	-0.23088562
162	0xbe3e8d3a	-0.18608561
163	0x3e1d73d5	0.15376218
164	0x3d91434c	0.07092914
165	0x3eb15afb	0.34639725
166	0x3d81e798	0.06343001
167	0xbcc96066	-0.0245821
168	0xbce1a3eb	-0.027543982
169	0xbd16242d	-0.036655594
170	0x3e603144	0.21893793
171	0x3dc118ba	0.09428544
172	0x3eb95a23	0.3620158
173	0xbe244e90	-0.16045594
174	0xbdaf78cc	-0.08567962
175	0xbe3c163f	-0.18367861
176	0x3dde2537	0.10846942
177	0x3d82dc3f	0.06389665
178	0x3e4a850f	0.1977732
179	0xbe363045	-0.17791851
180	0x3c8b5731	0.01700935
181	0xbbad5700	-0.005289912
182	0x3d977e8d	0.073971845
183	0x3de2b514	0.11069694
184	0xbe477548	-0.19478333
185	0xbd516ff1	-0.051132146
186	0x3d941f98	0.072325885
187	0xbdff25cc	-0.12458381
188	0x3d5bbb91	0.053645674
189	0xbd084c9b	-0.03327618
190	0x3d2d916d	0.042375017
191	0xbe528099	-0.20556869
192	0xbcaff415	-0.021478692
193	0xbd95b973	-0.07310762
194	0xbe7ab943	-0.24484734
195	0x3e1373e7	0.14399682
196	0xbd670738	-0.05640337
197	0x3db2ed8c	0.08736715
198	0xbc8e45ff	-0.017367361
199	0x3c1ac6d4	0.009446818
200	0x3e9b9659	0.30388144
201	0x3c935225	0.017983506
202	0xbcd499fa	-0.025952328
203	0xbe51cc7f	-0.20488165
204	0xbd33e780	-0.043921947
205	0xbd8d9448	-0.06913048
206	0x3d6fd82f	0.058555778
207	0xbebb82c9	-0.3662322
208	0xbd8e75a4	-0.06956032
209	0x3d90376a	0.070418194
210	0x3c179ec6	0.009254163
211	0xbe70f3ed	-0.2353055
212	0x3e6cd3e4	0.23127705
213	0x3cebfa16	0.028805774
214	0xbdcfaa1d	-0.101398684
215	0xbdcdab61	-0.100424536
216	0x3d308b86	0.04310181
217	0x3e7f4732	0.24929503
218	0xbe152da1	-0.14568187
219	0x3e215daf	0.15758394
220	0xbd525e71	-0.051359598
221	0xbce4d7df	-0.027934967
222	0xbe5d2691	-0.21596743
223	0x3cb97656	0.022639435
224	0x3c91d035	0.017799476
225	0xbdde1eab	-0.10845693
226	0xbe625169	-0.22101368
227	0xbd5fac7b	-0.05460785
228	0xbd850606	-0.064952895
229	0x3c4b22c2	0.012398424
230	0x3dc31438	0.09525341
231	0x3d6f3980	0.058404446
232	0xbd137c1a	-0.036007024
233	0xbe33d9a2	-0.17563489
234	0x3d8e1a89	0.06938655
235	0x3e0f1ae4	0.13975102
236	0xbe297d82	-0.16551784
237	0x3df0b5b8	0.1175341
238	0xbe269342	-0.16267112
239	0x3e81c440	0.2534504
240	0x3d7372f5	0.059435803
241	0x3deabf05	0.11462215
242	0x3e5aaf60	0.21355963
243	0x3c9c08e4	0.019047208
244	0x3d5edef5	0.054411847
245	0x3aff1678	0.0019461652
246	0x3dc3a8c3	0.09553673
247	0x3d9e723b	0.077366315
248	0x3e3d6451	0.18495299
249	0xbd4edd6a	-0.050504126
250	0x3e2f6c90	0.17131257
251	0xbc8d97d4	-0.017284311
252	0x3e5653d2	0.20930412
253	0xbdbf70c3	-0.093476795
254	0x3e660d86	0.22466096
255	0x3e9caed4	0.30602133

network_body._body_endoder.seq_layers.0.bias f4 [128]
0	0x3c4c1651	0.0124564925
1	0xbb9fb4a9	-0.0048738313
2	0x3aee5d2d	0.0018185728
3	0x3c7c4624	0.015397582
4	0x3c92e5c1	0.01793182
5	0x3c9c8c30	0.019109815
6	0xbc25adbc	-0.010112222
7	0x3c89227d	0.016740078
8	0xbbced0d9	-0.0063115177
9	0x3c1c6d76	0.009547582
10	0xbb62cf3f	-0.0034608392
11	0x3c9f6372	0.019456599
12	0x3c72fca2	0.01483074
13	0xbbdd52ae	-0.006754241
14	0x3b33c127	0.002742836
15	0x3c1b2022	0.00946811
16	0x3d0b46a6	0.034002922
17	0x39106b61	0.00013772912
18	0x3c70e5a8	0.014703192
19	0x3ca20b6c	0.019780837
20	0xbc0f82ca	-0.00875921
21	0x3c5db108	0.013530977
22	0x3ab9ceb4	0.0014175982
23	0xbcce39a7	-0.025173975
24	0x39b088ab	0.00033671162
25	0xbb86fae7	-0.0041192654
26	0x3ad718ec	0.0016410626
27	0x3c2ee281	0.01067412
28	0x3ce5792f	0.028011886
29	0x3aae95b1	0.0013319758
30	0x3c21fb98	0.009886645
31	0xbb34208e	-0.0027485224
32	0xba5479d3	-0.00081053114
33	0x3bdd5c5e	0.006755396
34	0xbbe3d2fb	-0.006952641
35	0xbc224f33	-0.009906578
36	0x3ac0f980	0.0014722794
37	0xbb790ce6	-0.0038002073
38	0xbb81c5ab	-0.0039603314
39	0xbc2191a2	-0.009861382
40	0x3c03511b	0.0080149425
41	0x3c409075	0.011753191
42	0x3caeeb10	0.02135232
43	0x3bbf5464	0.0058389176
44	0x3c4dba0f	0.012556567
45	0xbc25db08	-0.010123022
46	0x3c83c11b	0.01608329
47	0x3cc0e80e	0.023548152
48	0x3c7ae0fb	0.015312429
49	0xbc17cef5	-0.009265651
50	0xbbbfa50f	-0.005848534
51	0x3c52e16e	0.012871129
52	0xbb953aea	-0.0045541422
53	0xbbbe6c39	-0.005811241
54	0xbb96332b	-0.0045837364
55	0x3c86806f	0.016418664
56	0x3b4660cc	0.0030270098
57	0x3c68d37a	0.014210576
58	0xba1ab8cd	-0.0005902171
59	0x3c001380	0.007817149
60	0xbb234426	-0.0024912446
61	0x3baae0ca	0.005214785
62	0xbbf0fddb	-0.0073544807
63	0xbc27951f	-0.010228424
64	0xbba92a06	-0.0051624803
65	0x3d39eca4	0.045391694
66	0xbc8d2cc1	-0.017233254
67	0xbb1811f1	-0.0023204053
68	0x3c34779d	0.011014846
69	0x3c30e816	0.010797521
70	0x3b997891	0.004683562
71	0xbc4e9d8b	-0.012610803
72	0x3c02dd1e	0.007987289
73	0xbc3e04fd	-0.011597869
74	0xbc0b2ff6	-0.0084953215
75	0x3b507569	0.0031808263
76	0x3b8af235	0.004240299
77	0x3b51318e	0.0031920406
78	0x3c6d2b4e	0.014475657
79	0x3c9741f0	0.018464059
80	0xbb091eb9	-0.0020922853
81	0xbb3dcbd9	-0.0028960614
82	0x3c0e9190	0.008701697
83	0xb9272baf	-0.00015942634
84	0xba358e55	-0.0006925811
85	0xbb235efc	-0.0024928441
86	0x3c157605	0.009122376
87	0x378997fc	1.6402446e-05
88	0x3966c3cc	0.0002200745
89	0x3d13a322	0.036044247
90	0xbc3014de	-0.010747163
91	0xbb9beb11	-0.0047582467
92	0x3b6cdc0f	0.0036141907
93	0xbca204ec	-0.019777738
94	0x3c9373e9	0.017999606
95	0x3b7dd58b	0.0038732018
96	0x3a8454ec	0.001009611
97	0x3c88572e	0.016643133
98	0x3c9982fc	0.018739216
99	0xbb040af7	-0.0020148137
100	0xbc42d78f	-0.0118922135
101	0xbc4c637f	-0.012474894
102	0xbbb7a6f4	-0.005604619
103	0x3c3eb3c3	0.011639538
104	0x3a8cba15	0.0010736609
105	0x3c70d492	0.014699118
106	0x394b3593	0.00019379547
107	0x3c66be16	0.014083406
108	0x3c154048	0.009109564
109	0x3a8f8fdd	0.0010952909
110	0x3cce56ef	0.025187938
111	0x3c17dd40	0.009269059
112	0x3bbf42db	0.005836827
113	0x3c8c5ebc	0.017135017
114	0xbb14fa78	-0.0022732299
115	0xbb87ae8e	-0.0041406816
116	0x3bc39215	0.005968342
117	0xbc81927f	-0.015816925
118	0xbbec49f9	-0.0072109667
119	0xba3cddbf	-0.00072046736
120	0xbb1714d3	-0.0023053184
121	0x3b96b666	0.0045993803
122	0xbc91963b	-0.01777183
123	0x3cb0d868	0.021587566
124	0x3c29f6bf	0.01037377
125	0xbc2ac0f0	-0.010421976
126	0x3b1518c4	0.0022750357
127	0x3c8a1eaa	0.016860325

network_body._body_endoder.seq_layers.2.weight f4 [128, 128]
0	0xbd415c93	-0.047207426
1	0x3cd9537d	0.026529068
2	0x3d2df3bd	0.042468775
3	0x3d996a99	0.07491035
4	0x3c8a5d91	0.016890319
5	0x3e060352	0.13087204
6	0x3a820d45	0.0009922168
7	0xbcc3e43d	-0.023912543
8	0x3dc2e696	0.09516637
9	0x3d806e82	0.06271078
10	0x3dfc41a2	0.12317206
11	0x3dc0af7c	0.09408471
12	0xbb99208b	-0.004673069
13	0x3b9ffcab	0.0048824153
14	0xbdac443f	-0.084114544
15	0x3e01edce	0.12688372
16	0xbd0baad4	-0.03409846
17	0x3d2f3c93	0.042782377
18	0xbce6787c	-0.028133623
19	0x3d05ed24	0.032696858
20	0xbe478a57	-0.19486366
21	0x3deae2e8	0.1146906
22	0x3d6f19be	0.05837416
23	0x3dad13a4	0.08451012
24	0xbcb70276	-0.02234004
25	0xbd92d8c9	-0.07170255
26	0x3cde1d48	0.027113572
27	0x3dd24c57	0.10268467
28	0xbb930fa1	-0.004487947
29	0xbc8c1165	-0.017098138
30	0xbde851cf	-0.11343729
31	0xbd8f0887	-0.06984048
32	0x3cbf88ae	0.023380604
33	0x3e493719	0.19649924
34	0x3dc26df0	0.09493625
35	0xbd74c8c4	-0.059761778
36	0xbe24f5a2	-0.16109326
37	0x3dbf6e14	0.093471676
38	0xbd7b3d7b	-0.06133793
39	0x3e20c190	0.15698838
40	0xbd5fed59	-0.05466971
41	0xbd9271d5	-0.07150618
42	0x3dcd401f	0.10021996
43	0xbd87bd48	-0.066278994
44	0xbc74b78f	-0.014936342
45	0xbda26b56	-0.07930629
46	0x3c90cf81	0.01767707
47	0xbd384b39	-0.044993613
48	0xbcea595d	-0.028607065
49	0x3c543940	0.012953103
50	0x3da67777	0.08128255
51	0xbd415c88	-0.047207385
52	0xbd7749ef	-0.060373243
53	0x3da207bb	0.07911631
54	0xbdcdd50f	-0.10050403
55	0xbc2593c9	-0.0101060355
56	0x3e07e093	0.13269262
57	0xbc96637e	-0.018357988
58	0xbdedcaa9	-0.1161092
59	0xbe02b304	-0.12763602
60	0xbdb04708	-0.08607298
61	0x3dc0b8a1	0.09410215
62	0xbd35e6dd	-0.04440962
63	0xbdde237c	-0.10846612
64	0xbd75ce69	-0.0600113
65	0x3dd31872	0.10307397
66	0x3d51aee4	0.05119218
67	0xbdcfd9e9	-0.10148985
68	0x3e260646	0.1621333
69	0x3d41c536	0.047307216
70	0x3e59d54b	0.21272771
71	0xbe0b31c6	-0.13593206
72	0xbdecc7ab	-0.11561521
73	0x3c65135b	0.0139816655
74	0xbcbaaa39	-0.022786247
75	0x3e1c49f3	0.15262584
76	0x3c8830c5	0.016624818
77	0x3d06729f	0.032824155
78	0x3dd06f3b	0.101774655
79	0xbd9171d1	-0.07101787
80	0x3c55de89	0.013053545
81	0xbd47cd61	-0.04877985
82	0x3c1b3f19	0.009475493
83	0xbd5b7f6e	-0.053588323
84	0xbd3eb333	-0.046557616
85	0xbd45a7e2	-0.04825581
86	0xbde7750b	-0.11301621
87	0x3d67f871	0.056633417
88	0x3dfd227d	0.12360094
89	0x3db54977	0.08851903
90	0x3d46a576	0.04849764
91	0x3da4f91f	0.080553286
92	0xbc4844f1	-0.012223468
93	0xbc9ed4e8	-0.019388631
94	0x3d9a1c12	0.07524885
95	0xbd16d91e	-0.036828153
96	0x3c7883a8	0.015168108
97	0xbc1aaa18	-0.009439968
98	0xbccb6e6c	-0.024832927
99	0xbd12c7a7	-0.035834935
100	0xbdb393fb	-0.087684594
101	0xbdca8ebc	-0.09890506
102	0xbd19b813	-0.037529062
103	0xbd3462d6	-0.04403957
104	0x3e2194ce	0.1577942
105	0x3d2ffaa3	0.042963635
106	0xbd2fa4d4	-0.0428818
107	0xbd7d9cf0	-0.061917245
108	0x3d33f240	0.0439322
109	0xbdc73b2a	-0.097280815
110	0x3d96d83d	0.07365463
111	0x3e306507	0.17226039
112	0xbd01275b	-0.031531673
113	0xbd8e0e81	-0.0693636
114	0x3df662ef	0.12030589
115	0xbd2e0479	-0.042484734
116	0xbe276a6e	-0.16349193
117	0x3d940f5c	0.07229492
118	0xbd3ee318	-0.046603292
119	0xbd914bdd	-0.07094548
120	0x3d42fbf8	0.047603577
121	0xbb37b44d	-0.0028031052
122	0xbc8cc03d	-0.01718151
123	0x3dbe0202	0.09277727
124	0x3c986bcf	0.018606095
125	0xbd009820	-0.031395078
126	0x3cd0dbce	0.025495436
127	0xbd573bd0	-0.052547276
128	0x3e43084d	0.19046135
129	0xbca90915	-0.020634213
130	0xbe0309f2	-0.12796763
131	0x3d8824f4	0.06647673
132	0xbda46add	-0.08028195
133	0xbdb11a7e	-0.08647631
134	0xbe16552a	-0.14680925
135	0x3bf4caf2	0.007470482
136	0xbde655b3	-0.112468146
137	0x3d45523c	0.048174128
138	0x3d27e141	0.040986303
139	0x3b4530ef	0.003008898
140	0xbd6085bc	-0.05481504
141	0x3d0cbfe8	0.034362704
142	0x3dc300a7	0.09521609
143	0xbd904411	-0.07044233
144	0xbe027df8	-0.12743366
145	0x3cc1ccbf	0.0236572
146	0x3d52ac78	0.05143401
147	0x3c90b9e2	0.01766676
148	0xbda5a086	-0.08087258
149	0x3d8a5dd5	0.06756178
150	0xbe022ef1	-0.12713219
151	0xbdb2951c	-0.087198466
152	0xbda0300b	-0.078216635
153	0x3d822df3	0.0635642
154	0xbd2ea373	-0.042636346
155	0xbd9e7677	-0.07737439
156	0x3c1c3e4e	0.009536339
157	0xbd9b3ad3	-0.07579579
158	0xbd9ebe36	-0.077511236
159	0xbe297391	-0.16547991
160	0xbcaa7ee7	-0.020812465
161	0x3deb92ab	0.11502584
162	0x3cb6693e	0.02226698
163	0x3d171699	0.036886785
164	0x3df663ea	0.12030776
165	0xbc0fd137	-0.008777908
166	0xbd8a10d2	-0.067414895
167	0x3ddcf991	0.107897885
168	0xbda76e1f	-0.08175301
169	0xbdbd6d76	-0.09249394
170	0xbd9fedae	-0.07809006
171	0x3d7c4135	0.061585624
172	0x3c0dd377	0.008656374
173	0x3c0a8734	0.0084550865
174	0x3d0c59e5	0.034265418
175	0x3da3dec0	0.080014706
176	0x3d1953e4	0.03743352
177	0xbd8ec144	-0.06970456
178	0x3cc6dce8	0.024275258
179	0x3dc3b13e	0.09555291
180	0xbd9b8f2c	-0.07595667
181	0xbd7d1e02	-0.061796196
182	0xbdc3a4d3	-0.09552922
183	0xbd18f0dd	-0.03733908
184	0xbdd43640	-0.1036191
185	0x3e130fa0	0.14361429
186	0xbdeb2462	-0.11481549
187	0xbde4e144	-0.111757785
188	0xbc46d2ae	-0.012135191
189	0xbc5dc742	-0.013536276
190	0x3d37ce51	0.044874493
191	0x3d864ccc	0.065576166
192	0xbe09b856	-0.13449225
193	0x3d55aac7	0.05216482
194	0xbb7472f9	-0.0037299974
195	0x3dd33692	0.10313143
196	0xbd4c8e10	-0.04994017
197	0xbb957c1d	-0.0045619146
198	0x3cabf56f	0.020991055
199	0x3db72eea	0.08944495
200	0x3b486dea	0.0030583092
201	0xbdac13e1	-0.08402229
202	0xbda3899f	-0.079852335
203	0x3ded27dd	0.11579869
204	0xbd4c506e	-0.04988139
205	0x3ca25f5e	0.019820865
206	0x3d7358af	0.059410747
207	0x3d5db41a	0.054126836
208	0x3df53f00	0.11974907
209	0x3c8315c1	0.016001584
210	0x3ca7568a	0.020427007
211	0x3d799912	0.060936995
212	0xbdc1b68a	-0.09458645
213	0xbdce4196	-0.10071103
214	0x3cd49761	0.02595109
215	0xbdbe6cba	-0.09298082
216	0xbda1fb99	-0.079093166
217	0xbc8e2d30	-0.017355531
218	0xbceedf29	-0.029159145
219	0xbc184e03	-0.009295943
220	0xbe2696be	-0.16268441
221	0x3d51ab07	0.051188495
222	0xbc68e16f	-0.014213904
223	0x3cd54feb	0.026039084
224	0xbce0d68a	-0.02744605
225	0xbbd7b26d	-0.0065825493
226	0xbd9d89c2	-0.07692291
227	0xbe36b73e	-0.17843339
228	0x3d95d959	0.073168464
229	0xbdb6dd40	-0.08928919
230	0x3dbf69a8	0.09346324
231	0xbd304a25	-0.04303946
232	0x3d8ddcd2	0.06926884
233	0xbdecac29	-0.115562744
234	0xbd819bf9	-0.063285775
235	0x3df15874	0.11784449
236	0xbd9c292c	-0.076250404
237	0x3d547569	0.051869784
238	0xbd2c4c46	-0.042064928
239	0x3c710244	0.014710013
240	0xbdeb7cc2	-0.11498405
241	0x3da9becc	0.08288345
242	0xbe390409	-0.18067946
243	0xbce00df0	-0.027350396
244	0x3e27a949	0.16373171
245	0x3d573089	0.05253652
246	0x3d880a83	0.0664263
247	0x3cee60b9	0.029098855
248	0xbd710388	-0.05884126
249	0x3d9ca568	0.07648736
250	0xbe05de21	-0.13073017
251	0x3cf36df1	0.02971551
252	0x3abc5ebc	0.0014371495
253	0x3d92e967	0.07173424
254	0xbd847562	-0.064677015
255	0xbd373a89	-0.044733558

network_body._body_endoder.seq_layers.2.bias f4 [128]
0	0x3bb5e1ec	0.0055506136
1	0xbc5eacea	-0.013591031
2	0x3b15fbe1	0.0022885727
3	0xbb2073ca	-0.0024483078
4	0x3be27e47	0.006912026
5	0x3c430636	0.011903336
6	0xbb90729c	-0.0044081938
7	0x3c7d097a	0.015444154
8	0x3bc6f4aa	0.0060716467
9	0x3c0e81f2	0.008697974
10	0x3c270d46	0.010196036
11	0x3b883110	0.0041562393
12	0xbc211ef8	-0.009834044
13	0x3c28329d	0.010265973
14	0x3c8f7549	0.01751198
15	0x3af9ef1f	0.0019068456
16	0xba2ba488	-0.00065476494
17	0x3c213d37	0.009841255
18	0xbadb2050	-0.0016718004
19	0xbba5ec8d	-0.0050635994
20	0xbbef95cb	-0.007311558
21	0xbc3cf3e4	-0.011532757
22	0x3b6532e8	0.003497297
23	0x39ad3b66	0.00033041387
24	0x3cf90af2	0.030400727
25	0x3bdbbb1d	0.0067056553
26	0x3c30983b	0.010778482
27	0x3bbdfa7d	0.005797683
28	0xbc1640c8	-0.0091707185
29	0xbb8083b8	-0.003921952
30	0xbb4f1258	-0.0031596627
31	0xb9bce10d	-0.0003602583
32	0x39cd5be3	0.00039169108
33	0x3c85f326	0.016351294
34	0x3be18b14	0.0068830345
35	0xbb6d2a59	-0.0036188571
36	0x3c5a5168	0.013325073
37	0xbb62833a	-0.003456308
38	0x3abaa51d	0.0014239881
39	0xb8778837	-5.901625e-05
40	0x3c9918fb	0.01868867
41	0xbb16a580	-0.002298683
42	0x3ae8fdf4	0.0017775879
43	0xbbd3022e	-0.006439469
44	0x3c69115a	0.014225328
45	0xbc9828e2	-0.018574182
46	0x3b6611f6	0.003510592
47	0x3b89c6d3	0.00420461
48	0x3c08e901	0.008356334
49	0x3b0bfe56	0.0021361313
50	0xb8d15b37	-9.982887e-05
51	0x3b58ed46	0.003310041
52	0x3bd14602	0.0063865194
53	0xbc765313	-0.015034455
54	0x3c35c188	0.011093505
55	0x3c344116	0.011001846
56	0xbadec8e9	-0.0016997132
57	0xbbe78393	-0.0070652454
58	0x3c2fc72f	0.010728641
59	0x3c178ec6	0.009250348
60	0xbbb6a964	-0.005574392
61	0x3be683b5	0.0070347437
62	0x3bb55815	0.005534182
63	0xbc17f5e9	-0.009274938
64	0x3b112444	0.002214686
65	0xba1395c3	-0.0005629921
66	0xbbdfc6e1	-0.006829128
67	0x3c0be203	0.008537772
68	0x3b03c013	0.0020103499
69	0x3b34724e	0.0027533951
70	0x3c76c87c	0.015062448
71	0x3b821db2	0.003970825
72	0x3b8e78d4	0.0043479
73	0x3b6ef19c	0.0036459928
74	0x3add5b00	0.0016888082
75	0x3bd16965	0.006390738
76	0x3c00b5e5	0.007855867
77	0x3c167889	0.009184011
78	0xbc09e976	-0.008417478
79	0x37329fc6	1.0646827e-05
80	0x3c915b29	0.017743664
81	0xbbe2d480	-0.0069223046
82	0xbc299189	-0.01034964
83	0x3a2e998c	0.00066604535
84	0x3b6666a8	0.0035156403
85	0x3c872daa	0.016501267
86	0x3c68c86f	0.014207943
87	0x3a0fdbae	0.0005487752
88	0xbad4ec10	-0.0016244669
89	0xbb8ea7a7	-0.004353482
90	0xba813f2b	-0.0009860744
91	0xbb5d2887	-0.003374608
92	0xba9bab77	-0.0011876662
93	0x3c93072f	0.017947761
94	0x3ba7be57	0.005119126
95	0x3b351757	0.002763232
96	0xbbf85ab0	-0.00757917
97	0xbc62d09f	-0.013843684
98	0x3c461a4c	0.012091231
99	0x3c0a5759	0.008443677
100	0x3bb13e22	0.005409018
101	0xbaab57db	-0.0013072448
102	0xbae111e3	-0.0017171468
103	0x3c762c6c	0.015025239
104	0xbb29c125	-0.0025902477
105	0x3b7e2769	0.0038780815
106	0x3acc4161	0.0015583449
107	0x3cddb863	0.027065462
108	0x3ba0d932	0.004908704
109	0x3c8702e7	0.016480876
110	0x3ad9343e	0.0016571356
111	0xbb19617b	-0.002340405
112	0xba5d0567	-0.0008431286
113	0x3c3fc3d8	0.011704408
114	0x3c5ef750	0.013608769
115	0x3b5a951e	0.003335304
116	0x3c2b44e8	0.01045344
117	0x3cc8bc6a	0.024503905
118	0xbb69118b	-0.0035563435
119	0xbac02a0b	-0.0014660967
120	0xb9b09a6d	-0.00033684392
121	0xbbf55488	-0.0074868836
122	0x3c154199	0.009109878
123	0x3b4f9f08	0.0031680483
124	0x3be8721a	0.00709368
125	0x3ac7a992	0.0015233031
126	0x3bd5b2a0	0.006521538
127	0x3b6c7380	0.0036079586

action_model._discrete_distribution.branches.0.weight f4 [3, 128]
0	0xbc9d0310	-0.0191665
1	0xbc1f3f82	-0.009719731
2	0xbbc20519	-0.005921018
3	0xbcd4feb8	-0.026000366
4	0xbb922b2d	-0.0044607134
5	0x3c2fc5ad	0.010728282
6	0xbca17d60	-0.019713104
7	0x3d0581f9	0.032594655
8	0x3c28b264	0.010296438
9	0x3d09cb0f	0.033640917
10	0x3cd8a8cf	0.026447682
11	0x3ca3b247	0.01998247
12	0x3b32e944	0.0027299682
13	0xbc0da5a6	-0.008645451
14	0x3cd5e562	0.026110355
15	0xbb5abb0b	-0.0033375646
16	0xbca3a26f	-0.019974915
17	0xbd874aa0	-0.066060305
18	0xbc608bb6	-0.013705185
19	0x3b2f5804	0.0026755342
20	0xbc7fdd86	-0.01561678
21	0xbcad16a9	-0.02112897
22	0x3cb84fb3	0.022498941
23	0xbbab5e12	-0.00522972
24	0x3d849de3	0.06475427
25	0xbbc79c71	-0.0060916473
26	0x3d31d3db	0.04341493
27	0x3d0df41e	0.034656636
28	0xbc87d942	-0.016583089
29	0x3c9723c3	0.01844967
30	0x3a8ead06	0.0010885305
31	0x3c11751c	0.008878019
32	0x3c3af615	0.01141121
33	0xbc980cc7	-0.01856078
34	0xbcc1e1be	-0.023667213
35	0xb8dc5b6a	-0.00010507445
36	0x3b96c29c	0.004600836
37	0x3c8e2588	0.01735188
38	0x3b3f2800	0.002916813
39	0xbc3ed2f8	-0.011646979
40	0xbcaa2702	-0.020770553
41	0x3b89fe97	0.0042112577
42	0xbabe0632	-0.0014497696
43	0xbca38ca6	-0.019964527
44	0xbd4161e0	-0.04721248
45	0x3bbad292	0.0057013715
46	0x3c22532f	0.009907528
47	0xbba39951	-0.004992642
48	0x3b1f6cd0	0.0024326332
49	0x3b5b4781	0.0033459368
50	0xbbe06270	-0.006847672
51	0xbc52b91c	-0.012861516
52	0xbd1ce92a	-0.0383083
53	0x3b72816d	0.0037003413
54	0xbc23dea6	-0.010001814
55	0x3a15bfca	0.0005712478
56	0x3c10780e	0.008817686
57	0xbc686424	-0.014184032
58	0xbd05ad50	-0.032635987
59	0x3be5a364	0.007008003
60	0xbb8bc830	-0.0042658076
61	0x3c5c1294	0.013432164
62	0xbc2882d1	-0.010285095
63	0xbc91c000	-0.017791748
64	0x3d3523ca	0.044223584
65	0xbc168e2f	-0.009189173
66	0x3ba2c53f	0.004967361
67	0x3cada0c5	0.021194825
68	0xbc7cbee5	-0.015426372
69	0x3c1d4810	0.009599701
70	0xbd77f7bd	-0.060538996
71	0xbd2b4842	-0.041816957
72	0x3d1e5686	0.038656734
73	0x3d23fd40	0.04003644
74	0x3bc73e8a	0.0060804533
75	0x3c3e7ae5	0.01162598
76	0x3c1ddc28	0.009635009
77	0xbcc21cd3	-0.023695385
78	0x3b994ae0	0.0046781152
79	0xbd2561b9	-0.0403764
80	0x3d375920	0.04476273
81	0x3c2eabd8	0.010661088
82	0x3b9387d4	0.004502276
83	0x3ba72674	0.0051010195
84	0xbbea6fb2	-0.0071544284
85	0x3c997e19	0.018736886
86	0x3d00d9bf	0.03145766
87	0x3c805407	0.015665067
88	0x3c119b73	0.00888716
89	0x3b805c6f	0.003917269
90	0xbc89cc96	-0.016821187
91	0xbc85a25b	-0.016312769
92	0x3cfd54fa	0.030924309
93	0x3d4a054c	0.049321458
94	0xbd03a2f2	-0.03213782
95	0xbca4e3b1	-0.020128103
96	0xbc0a208c	-0.008430611
97	0x3c0afc26	0.008482968
98	0x3d78d0f7	0.06074616
99	0xbd072b28	-0.03300014
100	0xbc9edba4	-0.019391842
101	0x3c101ba9	0.008795657
102	0x3c8761f6	0.016526204
103	0xbd3c9fb4	-0.046050742
104	0xbab55de8	-0.001383719
105	0x3cacf8af	0.021114675
106	0xbc807537	-0.015680892
107	0x3d008fd5	0.03138717
108	0xbbfcdba2	-0.007716612
109	0xbc3728d8	-0.0111791715
110	0xbd00913b	-0.031388503
111	0x3bc804fd	0.0061041103
112	0xbc28e276	-0.010307899
113	0xbcccae51	-0.024985464
114	0xbccf13cd	-0.025277996
115	0xbc175486	-0.009236461
116	0xbcfc5a18	-0.030804679
117	0xbcafe9ad	-0.02147373
118	0xbc8f99ea	-0.017529447
119	0x3bfc63ea	0.0077023404
120	0x3c1fcba7	0.009753144
121	0x3c816c53	0.015798723
122	0x3ca8d6c6	0.020610224
123	0x3b4acce5	0.003094488
124	0xbc429ecd	-0.011878681
125	0x3af5f25e	0.0018764248
126	0xbc8d74ef	-0.017267672
127	0xbc5c78d3	-0.013456541
128	0xbc1826b4	-0.009286571
129	0xba2102d8	-0.00061420863
130	0x3c3898c4	0.011266891
131	0xbbf4900a	-0.00746346
132	0x3bd62b20	0.0065359026
133	0xbc521be4	-0.012824032
134	0xbbd8449b	-0.0065999753
135	0xbb33a0ae	-0.0027409005
136	0x3b95e083	0.004573883
137	0xbc360248	-0.011108942
138	0xbb08c6be	-0.0020870413
139	0x3b8c508c	0.004282063
140	0xbbe15643	-0.0068767383
141	0xbb168c94	-0.0022971975
142	0xbbf599c8	-0.007495139
143	0xbc352c22	-0.011057885
144	0x3c912bfd	0.01772117
145	0x3bfeb298	0.007772755
146	0x3c450625	0.012025391
147	0xbc26c8c4	-0.010179702
148	0x3b9c837e	0.0047764173
149	0xbc258c33	-0.010104227
150	0x3b687875	0.0035472189
151	0x3cb96a42	0.022633675
152	0xbb3bff3c	-0.0028686067
153	0x3c2aa444	0.010415141
154	0xbc0776c0	-0.008268058
155	0xbc599f83	-0.013282659
156	0x3b999367	0.004686761
157	0xbc2690d2	-0.010166364
158	0x3b7dc427	0.0038721652
159	0x3b28e84c	0.0025773225
160	0x3bf62df9	0.0075128046
161	0x3c5ac307	0.013352162
162	0xbbf9de77	-0.007625397
163	0xbb9a3465	-0.004705953
164	0x3beecd04	0.0072876234
165	0x3be1620e	0.006878144
166	0xbc5c1311	-0.01343228
167	0x3ca63623	0.020289486
168	0x3ba672cd	0.0050796033
169	0xbc3bc2d9	-0.0114600295
170	0xbc748454	-0.014924128
171	0x3c5f3a60	0.0136247575
172	0x3ca25f9d	0.019820983
173	0xbb87060b	-0.0041205934
174	0xb98e7687	-0.0002717266
175	0x3b2ce7fb	0.0026383388
176	0x3bb64b68	0.0055631883
177	0x3b251680	0.0025190413
178	0x3bd22849	0.006413494
179	0x3a4d8143	0.0007839391
180	0x3c8fdb68	0.017560676
181	0xbb2f65c5	-0.002676354
182	0x3c4cd620	0.012502223
183	0x3bd08a28	0.0063641258
184	0xbc0fb912	-0.008772152
185	0xbc7c37e0	-0.015394181
186	0x3c47cebf	0.012195288
187	0xbc05cb2c	-0.008166116
188	0x3c840565	0.016115854
189	0x3c2e1351	0.010624723
190	0x3b65fe5e	0.0035094242
191	0xba2412f0	-0.00062589254
192	0xbcebd932	-0.02879009
193	0x3c2254d6	0.009907922
194	0x3c1a6d24	0.009425435
195	0xbbe2ef14	-0.006925473
196	0xbc382420	-0.011239082
197	0xbc112853	-0.008859712
198	0xbc6377e0	-0.013883561
199	0xbb6ceae8	-0.0036150757
200	0xbc1013d3	-0.008793789
201	0xbc9f4c47	-0.019445552
202	0xbc8b1397	-0.016977115
203	0xbd06352c	-0.032765552
204	0xbadfde26	-0.0017079755
205	0x380100a9	3.075661e-05
206	0x3c7f8d0a	0.015597591
207	0x3c3e83d5	0.011628111
208	0xbd0c1097	-0.03419551
209	0x3be0a2a3	0.0068553253
210	0xba600114	-0.00085450825
211	0xbad943c3	-0.0016575981
212	0x3c2207f5	0.009889592
213	0x3cada218	0.021195456
214	0xbb0ba0c1	-0.0021305534
215	0x3b13a475	0.0022528444
216	0x3c58f982	0.013243081
217	0xbc6573c2	-0.01400465
218	0x3ba680bc	0.0050812643
219	0x3acfba17	0.0015848306
220	0xbb06a588	-0.0020545442
221	0xbd22293f	-0.039590117
222	0xbc02e97f	-0.00799024
223	0x3b4121d0	0.0029469617
224	0xbc114c5c	-0.008868303
225	0xbb1d8a17	-0.0024038607
226	0xbc05709e	-0.008144526
227	0x3c895ed5	0.016768852
228	0x3c93a8d7	0.018024845
229	0xbc105d82	-0.0088113565
230	0xbbd8af8e	-0.0066127246
231	0xbcb533a4	-0.02211935
232	0x3b3d1da9	0.002885679
233	0xbd0dc51c	-0.034611806
234	0x3cb7c49c	0.022432618
235	0xbc1278c3	-0.008939925
236	0xbb7c801f	-0.0038528515
237	0x3b47e0d8	0.0030499008
238	0x3c9e2c6d	0.019308293
239	0x3b867b34	0.0041040424
240	0xbb851ba1	-0.0040621315
241	0xbbf150df	-0.007364377
242	0x3c6d1c1c	0.014472034
243	0xbcc3fc15	-0.023923913
244	0x3b2b6020	0.0026149824
245	0xbc4c7393	-0.012478727
246	0xbc1332e4	-0.008984301
247	0xbc6839f8	-0.014173977
248	0xba038949	-0.00050177105
249	0xbbe2cf6c	-0.0069216993
250	0x3b3f78ec	0.0029216362
251	0xbbf14e5b	-0.007364077
252	0x398d22d3	0.00026919562
253	0x3c66470c	0.014055025
254	0x3b08e95e	0.002089105
255	0x3c1cd62d	0.009572548

action_model._discrete_distribution.branches.0.bias f4 [3]
0	0xbb232057	-0.0024891102
1	0x39a63edd	0.00031708824
2	0x3b1b34e7	0.0023682655

action_model._discrete_distribution.branches.1.weight f4 [2, 128]
0	0xbc3cbd36	-0.011519721
1	0x3cc7d6d0	0.024394423
2	0x3c12e782	0.008966329
3	0x3ca61cad	0.020277346
4	0xbbaa9dd5	-0.0052068033
5	0xbcaac225	-0.020844528
6	0x3c908fa7	0.017646624
7	0x3c439a8a	0.0119387
8	0x3ba45215	0.0050146678
9	0x3c183bf4	0.009291638
10	0xbbbe508a	-0.005807941
11	0x3c82af2b	0.015952667
12	0x3b8c5e7a	0.0042837234
13	0xbc596640	-0.013269007
14	0xbb37c08b	-0.0028038349
15	0x3b00ed35	0.0019672636
16	0x3c1c9086	0.009555941
17	0x3c2734bd	0.010205445
18	0x3ca3a340	0.019975305
19	0x3c8ae59c	0.01695519
20	0x3b51847f	0.0031969843
21	0x3b0bf3a6	0.0021354943
22	0xbc0f136e	-0.00873266
23	0xbc0f271a	-0.00873735
24	0xbac13e35	-0.0014743271
25	0xbc236014	-0.009971637
26	0x3a5a9d4a	0.0008339478
27	0x3cb69dfa	0.022292126
28	0xbba92f14	-0.005163083
29	0x3aa10956	0.0012286108
30	0x3b9b9faa	0.004749258
31	0x3c41badd	0.011824337
32	0xba91b0b2	-0.0011115281
33	0xbcddb792	-0.027065072
34	0xbc07455a	-0.008256281
35	0x3c6b9aa6	0.014380133
36	0xbc2d7723	-0.010587486
37	0x3c9f2b8d	0.019429946
38	0xbba760bd	-0.0051079676
39	0xbc268b3e	-0.010165034
40	0xbc7ccc41	-0.015429557
41	0x3a92e70b	0.0011207772
42	0xbbf9b8fa	-0.007620928
43	0x3ccb9945	0.024853358
44	0xbb7cd2f3	-0.0038577884
45	0x3b9d334a	0.004797374
46	0x3b95da06	0.0045731096
47	0x3c238827	0.009981192
48	0xbc9210c3	-0.017830258
49	0xbb8c268a	-0.004277055
50	0x3bbc69e2	0.005749927
51	0x3c381ba3	0.011237058
52	0x3c43caed	0.011950237
53	0x3bf9db8e	0.00762505
54	0xbc8699c7	-0.016430749
55	0xbc98bc79	-0.018644558
56	0x3c7c4c4b	0.015399049
57	0x3a557642	0.0008142927
58	0xbbbd8b2b	-0.0057844124
59	0xbbebee71	-0.0072000553
60	0xbbf713ff	-0.0075402255
61	0xbc6bdbc0	-0.014395654
62	0x3b9903cf	0.0046696435
63	0x3c8a8147	0.016907347
64	0x3c0c8b35	0.008578111
65	0x3bd15d1d	0.006389274
66	0x3c896177	0.016770108
67	0xbc0c0823	-0.008546862
68	0xbc2a9b7a	-0.010413045
69	0x3d13750f	0.036000308
70	0x3ccf9d70	0.025343627
71	0x39f1d563	0.00046126088
72	0x3c618e1e	0.0137667935
73	0x3c7f399f	0.015577703
74	0x3b9ea088	0.004840914
75	0x3d62e31e	0.055392377
76	0xba5f6889	-0.0008522352
77	0xbcc77187	-0.024346126
78	0x3b1f5bd6	0.0024316213
79	0x3c3f2d3e	0.011668501
80	0x3d428fff	0.047500607
81	0x3cc719fa	0.024304379
82	0x3bb0418d	0.005378908
83	0xbc34d04d	-0.011035991
84	0xbc4c0d51	-0.012454347
85	0xbc9f0037	-0.019409282
86	0xbced20b4	-0.028946258
87	0xbc1f9753	-0.009740668
88	0x3c006586	0.007836705
89	0x3c215bbf	0.009848534
90	0xbbf5d361	-0.007502005
91	0xba9f3c6c	-0.0012148744
92	0x3c88e3e6	0.016710233
93	0x3ca68a26	0.020329546
94	0xba6f2ad8	-0.00091235107
95	0x3c129e0e	0.008948816
96	0x3c77da47	0.015127725
97	0xbb60cb70	-0.0034300946
98	0x3afaefde	0.0019144972
99	0x3c0d78fe	0.008634804
100	0xbc64dae4	-0.013968203
101	0x3bdaee61	0.006681249
102	0x3bad085c	0.0052805375
103	0xbbc14c7a	-0.0058990093
104	0xbb065c93	-0.0020501956
105	0xbc890a29	-0.016728478
106	0xbb770324	-0.003769108
107	0xbc8d93e3	-0.017282432
108	0xbadcff3a	-0.0016860731
109	0xbc854b39	-0.01627122
110	0xbc822141	-0.015884997
111	0xbc841605	-0.016123781
112	0x3b4efde3	0.0031584434
113	0xbc3b6738	-0.0114381835
114	0xbd23a714	-0.03995426
115	0xbc82d405	-0.01597024
116	0x3ba11bc1	0.0049166386
117	0xbc82f69e	-0.015986737
118	0x3bfe0e00	0.007753134
119	0xbbd023b9	-0.0063519147
120	0xbbb94dd0	-0.005655028
121	0x3a4d9177	0.00078418053
122	0xbca28c92	-0.01984242
123	0xbc32fcbf	-0.010924517
124	0xbc643055	-0.013927539
125	0x3bb50f1a	0.005525482
126	0x3aa78320	0.0012780167
127	0x3b8487ce	0.0040445095
128	0x3b9717d1	0.0046109934
129	0xbc55dbaa	-0.01305286
130	0x3c2e54f3	0.010640371
131	0xbce9956c	-0.028513633
132	0x3c5b03ea	0.013367632
133	0x3d1c4325	0.03814997
134	0xbc57b28e	-0.013165129
135	0x3a79ecca	0.00095338805
136	0xbc218485	-0.009858255
137	0x3b115366	0.0022174953
138	0xbb2c7b52	-0.0026318622
139	0xbc1be981	-0.009516121
140	0xbbde1089	-0.0067768735
141	0x3c5bd74f	0.013418033
142	0xbb2abbc0	-0.002605185
143	0xbb2235b4	-0.0024751248
144	0x3bf5c2fa	0.0075000497
145	0xbcbe0828	-0.023197249
146	0x3c2667e4	0.010156605
147	0xbc47d082	-0.012195708
148	0xbb463c6b	-0.0030248414
149	0xbc2f98ad	-0.010717553
150	0xbc3e45eb	-0.011613349
151	0xbba791b0	-0.005113803
152	0xba168c58	-0.0005742959
153	0x3c281f6d	0.010261399
154	0xbb9d067d	-0.004792033
155	0xbc8b4091	-0.016998561
156	0xbc8d51c9	-0.017250912
157	0xbc3ba8cf	-0.011453821
158	0x3c18e238	0.0093312785
159	0xbc0c6a84	-0.008570317
160	0xbc45d622	-0.012074979
161	0x3d129879	0.03578994
162	0xbb2bace0	-0.002619557
163	0xbc10b2c4	-0.008831684
164	0x3c424022	0.011856111
165	0xbc83388b	-0.016018173
166	0x3bae90fd	0.0053273425
167	0x3b386c0f	0.002814058
168	0x3caba22a	0.02095135
169	0x3c1affb2	0.009460377
170	0x3b8a3249	0.0042174202
171	0xbc87b7a0	-0.016567051
172	0x3bf6fdf0	0.007537596
173	0xb9073b3b	-0.00012896668
174	0xbc0fd478	-0.008778684
175	0x3c802316	0.01564173
176	0x3c0d05ab	0.008607308
177	0x3bf0595a	0.0073348703
178	0xbc090517	-0.00836303
179	0xbd0392af	-0.03212231
180	0xbc81fd98	-0.015867993
181	0xbc950ac9	-0.01819362
182	0x3c48033f	0.012207805
183	0x3c7865b7	0.015160969
184	0xbc47b6e1	-0.012189598
185	0xbc48dee0	-0.012260169
186	0x3c3c1e8d	0.011481893
187	0x3babc610	0.0052421167
188	0xbb12d4fe	-0.0022404785
189	0x3b0c82ce	0.002144027
190	0x3c91f80b	0.017818471
191	0xbd0452f5	-0.032305676
192	0xbc42a178	-0.011879317
193	0xbb17c4e0	-0.0023158118
194	0xbc145447	-0.009053296
195	0x3c3c239c	0.011483099
196	0x3c6819eb	0.014166336
197	0xbce5eef3	-0.028068041
198	0xbba9f4a2	-0.005186633
199	0xbc8a7377	-0.016900761
200	0xbcf93ae9	-0.030423598
201	0xbbbd86ac	-0.0057838764
202	0x3c91caf9	0.01779698
203	0xbd662353	-0.05618603
204	0x3cbacd28	0.022802904
205	0x3c3bfa54	0.011473257
206	0xbb36245f	-0.0027792675
207	0x3c8a7928	0.016903475
208	0xbd53b699	-0.05168781
209	0xbc804d34	-0.015661813
210	0x3a5250f4	0.0008022927
211	0x3bb039a5	0.0053779655
212	0xbb2c28a3	-0.0026269339
213	0x3b184d34	0.0023239376
214	0x3c9baf4e	0.01900449
215	0xbc35c8f7	-0.011095277
216	0xbc12dd7c	-0.008963939
217	0x3c4f3a1b	0.012648131
218	0xbb0d1f91	-0.0021533708
219	0x3bc002ea	0.0058597224
220	0xbc64acb8	-0.013957195
221	0xbc90499e	-0.017613228
222	0x3b81534d	0.003946698
223	0xbbcb67fb	-0.006207464
224	0xbb309a33	-0.0026947379
225	0x3bed5798	0.007243108
226	0x3b524043	0.003208176
227	0xbcad96c6	-0.021190058
228	0x3c0ef478	0.008725278
229	0x3c55bca1	0.013045461
230	0xbbe6b65e	-0.007040783
231	0x3b7f94e9	0.003899867
232	0xb98a90be	-0.00026429252
233	0x3c9d3e83	0.019194847
234	0xbc40c9e4	-0.0117668845
235	0x3c89a885	0.01680399
236	0x3c5fdb0e	0.013663067
237	0x3c1e15ea	0.009648779
238	0xbcbb3b52	-0.022855435
239	0x3ac5a9df	0.0015080533
240	0xbc9efd6a	-0.019407947
241	0x3bbe1cca	0.005801772
242	0x3afa6e4d	0.0019106359
243	0xbbcd2755	-0.0062607923
244	0xbcd36b41	-0.025807979
245	0x398eddd8	0.00027249637
246	0xbcf62144	-0.03004516
247	0xbb15693f	-0.0022798327
248	0xbc5fa424	-0.013649974
249	0xbb8e8274	-0.0043490473
250	0x3b92482f	0.0044641714
251	0x3bd8f394	0.0066208337
252	0x3b8d80df	0.004318341
253	0x3c281429	0.010258713
254	0x3c895c76	0.016767722
255	0x3b99cadf	0.0046933736

action_model._discrete_distribution.branches.1.bias f4 [2]
0	0xbc32bdfa	-0.010909552
1	0x3c32bdfc	0.010909554
