KartSCBIO/results/circutioA-14/ArcadeDriver/ArcadeDriver-240533.onnx (onnx, 100590 bytes, 9 tensors)

discrete_action_output_shape f4 [1, 2]
00000000: 0000 4040 0000 0040
3.0 2.0

network_body._body_endoder.seq_layers.0.weight f4 [128, 56]
00000000: e6b1 c23d ea1f 6ebd c187 5c3e 19ef 4fbe
00000010: b220 15be d4b5 0c3e 2eef ed3d 7a9b 2e3c
00000020: af53 0fbe 2efe 25bd 9843 ccbd be83 8d3e
00000030: d5a1 0e3d 5060 90bd 155c ac3d 90be 48be
00000040: 9ec1 d7bc 1e79 133e 303d 073e 22b4 e53d
00000050: 8e35 963b 4f7b d73b 5fa4 a9bd d19c 14be
00000060: 6c36 1fbe 3222 1dbe 4e16 c4bd 1da1 11bd
00000070: 6967 99bc 4455 2db9 4abe 4dbd 0577 c73d
00000080: c4a5 143e e0e0 5a3d b229 b3ba 5486 c23d
00000090: 3f9d 7dbe 6db8 633e e6bf f8bc 7a0b 053e
000000a0: 2e4b 93bd 1df6 09be 0bed 0c3e db08 043d
000000b0: de64 513e e9b9 c53d 90d9 25be 641f 56bd
000000c0: 02b6 e73d 8026 c5bd fa16 313e 3723 1ebe
000000d0: 84f1 6e3e 6071 f4bd 99bb 133e 91a6 b3bd
000000e0: 7ede 4d3e dff6 073b 8891 13be e814 bcbd
000000f0: b70b cbba e459 3cbe 9508 933d 7f7f 4b3e
00000100: 2071 8abd becc 003e 1f2a a9bc 1f4a 46be
00000110: ff99 93bd 8dc2 793e 431d 23be 2c7f fbbd
00000120: 4ef6 7a3d 4925 c8bc 5d9d 88bd 21cd 97bd
00000130: 55d0 c8bd 359b 353d faa3 62bd 7e1f b83d
00000140: 7a0e 5fbe 40d9 013e 5d4a 2cbe 9091 e13d
00000150: a331 d83d 9e60 393e 3510 573e 38c5 31be
00000160: ecbe 74bd 73ba cebd a373 343e d291 40bd
00000170: 252c 59be e940 e4bc af64 76bd b683 183d
00000180: d057 443e 2899 35be 985d 8a3d 767c 4a3d
00000190: 1e3a 093c 0992 183e 7577 1bbe 4f77 a03d
000001a0: 112a 08be a97b 413e 8df5 cd3d 06e1 85bd
000001b0: 1c72 babc 71bd 49be 5c4f 7cbe 1f35 483d
000001c0: 1c63 2b3d c8fa 5fbe e95a 4abd 4096 afbc
000001d0: acc5 48bd fd4e f8bd 87fa 213d 0dcb 89bd
000001e0: 0727 643e 5c4c 513e 0fd8 afbd e813 cebd
000001f0: 8afb 7e3c c0d2 bd3d dc0c a23e 80c5 44be
00000200: 89a6 f73d b103 173e ffc3 2b3d 0754 a43d
00000210: 2cdf 643e 6b5d 3fbd 5562 e93c faf4 f23d
00000220: b6fe a73c 985b 13be 5a96 0abe ba52 893e
00000230: ef5c 1cbe bdbc 283e 85f7 cd3c e7d5 1ebe
00000240: 4113 23be 3882 b13d 815d 203e ab93 413d
00000250: 8f10 e6bd 1a3d 44bc 1626 d83d df4f 493d
00000260: ddbc e4bd 7894 8f3c ad56 c4bd 4ba1 f6bc
00000270: f72c 75bd 2656 d1bd 9814 4b3e 4821 2a3d
00000280: d7b3 ac3c 8ca9 a33e df32 18bd 979b 3b3e
00000290: 9b53 c8bd cfd6 273e 0395 873e c42a 00be
000002a0: 3817 2d3e 356c c83d b0ce 9fbe 0dd5 ffbd
000002b0: b152 b93e 62c4 9ebe 838f 1ebe 40dd 8a3d
000002c0: d26f 93bd 48bf ae3b 34a5 afbd d6ea 3dbe
000002d0: 7dda 53be a9fc 01bd 15f5 283d bea6 1a3e
000002e0: 5604 d33d 8d57 d0bd a211 1fbd 89cf 7bbe
000002f0: c73c f7bb dbab 943e 99e2 493d 574b 013e
00000300: 2785 0fbd 1a9a ec3b b474 133c 3c90 883b
00000310: e50b 993c 9951 e63d 528e 903c c50e 1c3e
00000320: 53a1 fdbc 1de3 273e dc4b b7bc d067 1ebe
00000330: ab11 b23a cba7 c2bd 8277 ac3d 6531 ffbd
00000340: 0965 bebd 6d5a 25be 33c4 ec3c 4dc1 db3d
00000350: 0746 da3c e550 623e d937 833e 9fc1 03be
00000360: 267a c8bd ab2f 463e 21da 60be 39be bfbd
00000370: f676 34bd d1fb 59be b125 85be 6c5f 323e
00000380: a361 b93d d986 04be 9da1 95bd 51a9 593e
00000390: 4d53 2e3d 0a7e 9b3d 5239 a9bd 0c17 083d
000003a0: d326 f83d 0595 cfbc 6f60 0a3d 1f19 54be
000003b0: 190e 383d 76de a9bd f415 c13d afa6 c43d
000003c0: c69e 3bbe 619d 1c3e 4991 e23c 4c3b a23d
000003d0: f698 913d 6619 32be 0d88 fabd 3258 a6bd
000003e0: 3c8c 7cbe 24eb eabb 4708 49bd 41ca 0c3d
000003f0: 12fe 87bd 9089 8cbd 9870 7abc 8f2d 283c
0.09506588 -0.058135904 0.21536161 -0.20306052 -0.14563254 0.13741237 0.116178855 0.010657186
-0.13996767 -0.040525608 -0.0997383 0.27639574 0.034822304 -0.0704962 0.08416001 -0.19603944
-0.026337441 0.14401671 0.13206935 0.11215998 0.004584021 0.006575979 -0.082833044 -0.14512946
-0.15548104 -0.15345076 -0.09574567 -0.03555404 -0.018726068 -0.0001653033 -0.050230302 0.09739498
0.1451636 0.053437114 -0.0013669042 0.09498277 -0.24767016 0.22238322 -0.030364942 0.12992659
-0.07192074 -0.13472791 0.137623 0.032235008 0.20448634 0.096546 -0.16196275 -0.05227603
0.11314012 -0.09626484 0.17293921 -0.15443121 0.23334318 -0.11935687 0.14427032 -0.087720044
0.20104405 0.0020746512 -0.14410985 -0.09183675 -0.0015491162 -0.18393666 0.07179371 0.19872855
-0.06759858 0.12578103 -0.020649968 -0.19364212 -0.07207107 0.24390621 -0.15929131 -0.122801155
0.06127005 -0.024431841 -0.0667064 -0.07412172 -0.09805361 0.04433747 -0.05533216 0.08990382
-0.21782866 0.1268053 -0.16825242 0.11014092 0.105563425 0.18103263 0.21002276 -0.17360389
-0.05975239 -0.10094156 0.17622237 -0.047014065 -0.21208246 -0.027862983 -0.060154613 0.037234984
0.19174123 -0.17734206 0.06756133 0.0494351 0.008375673 0.14899458 -0.15182288 0.07835256
-0.13297297 0.18894829 0.10056601 -0.065370604 -0.02275949 -0.19701172 -0.24639648 0.048878785
0.041842565 -0.21873009 -0.049403105 -0.02143395 -0.04901664 -0.12124441 0.039545562 -0.06728182
0.22280513 0.20439285 -0.08586132 -0.100623906 0.015562901 0.09268713 0.31650436 -0.19215965
0.12092311 0.14747502 0.041934963 0.080238394 0.22350758 -0.04671995 0.028489271 0.11863132
0.020507198 -0.14390409 -0.13533917 0.26820928 -0.15269826 0.16478248 0.02514244 -0.15511285
-0.15925314 0.086674154 0.15660669 0.047259968 -0.11233627 -0.011977458 0.10554139 0.049148437
-0.11168835 0.01752685 -0.095868446 -0.030106207 -0.059857335 -0.1022151 0.19832075 0.041535646
0.021081848 0.31965292 -0.03715789 0.18321072 -0.097815715 0.16390537 0.26480874 -0.12516314
0.16903389 0.09786264 -0.31212378 -0.12491808 0.361959 -0.31009203 -0.15484433 0.06780481
-0.071990624 0.005332861 -0.08576432 -0.18546614 -0.20688815 -0.031735096 0.041249353 0.1510267
0.103035614 -0.10172949 -0.038835175 -0.24590887 -0.007545087 0.29037365 0.049288366 0.12626396
-0.035039093 0.007220519 0.008999992 0.0041675847 0.01868243 0.11246032 0.017645989 0.15240009
-0.030960714 0.1639523 -0.02237504 -0.15469289 0.0013585588 -0.0950466 0.08421232 -0.12460593
-0.09296615 -0.16147776 0.028902149 0.107302286 0.02664472 0.22101171 0.25628546 -0.1286683
-0.09788923 0.19354121 -0.2195821 -0.09362454 -0.044058762 -0.21287467 -0.2600532 0.17419213
0.09051826 -0.12942065 -0.07306216 0.21255995 0.04255991 0.075923994 -0.08262886 0.033225104
0.1211678 -0.025339613 0.033783372 -0.20712708 0.04493532 -0.08294384 0.09428015 0.09602105
-0.18322286 0.1529441 0.027657168 0.07921466 0.07109253 -0.17392501 -0.12232981 -0.08122291
-0.2466287 -0.007169144 -0.04908016 0.03437257 -0.06640257 -0.068621755 -0.0152856335 0.010264768

network_body._body_endoder.seq_layers.0.bias f4 [128]
00000000: 7ff0 42b8 2262 2fbc e075 ab3c eba9 fabb
00000010: 5fdb 16bc 6561 7fbb c187 3d3c 7d38 8abc
00000020: 8971 dc3b 8d2a 863c 0969 213d a9e6 a83c
00000030: d87c 86bc 4396 8fbc 2890 4fb9 cf72 793c
00000040: 1421 10bc 4914 013c 6004 703c ec89 7dbc
00000050: 7ad9 f43b 8c7b 14bc 77b7 793c 95e3 debc
00000060: 72c1 35bb 5326 8f3c d6b2 78bb 5d9a ff3c
00000070: 46b5 853c 6181 a93b 2eda f8bb 2bcc a43b
00000080: 40f4 09bc 038c d73b e154 953b 138a 003c
00000090: 2fbf e03b 2f03 eabb bf98 eb3b 6e16 c7bc
000000a0: dd64 9d3b c4f0 a63c 06a9 a8bc 56d2 8e3c
000000b0: 8205 8c3c c9be 9c3c d2c7 963c 60c2 57bc
000000c0: db42 a73b 518a a43c c713 af3c 1ae4 78bb
000000d0: e4af a73c 7312 623c 8bbd a53c 0b0b 5a3c
000000e0: bb39 0cbc 8f04 c63a 3696 c83c 4f68 edbb
000000f0: 0f9a d0bc 31b4 e5ba 29df 31bb 5a30 b03c
00000100: 9d29 0e3d 0936 99bb b581 dc3c f049 f1bb
00000110: bd1a 973b 069d 9a3c 203f fd3b e528 1439
00000120: f8db 913b a81f 8b3b c081 313c 6ffc 55bb
00000130: 6bea 3bbb e494 383c 86e9 b63c e19f c6bc
00000140: b227 2cba d0fa 99bb f0fe 003d eb14 c63c
00000150: 7e92 4fbc 3efc 09bc bafe eb39 dc73 eab8
00000160: d87d a5bc d300 43bc 0294 cc3a 89ce 113d
00000170: 890c 853c 135a a0bb af17 253b e201 7e3c
00000180: 0a63 323d 38c7 c63b 6c5f 8238 515d 443c
00000190: 2e88 2eba e2cc d03a 7e41 d13c 6f3b 673a
000001a0: 15fe 52ba fa96 8c3c 83cb 6bbb 9a23 693c
000001b0: 9861 c83b 003a 8abc 5cda 36bc dc62 6d3a
000001c0: da3e 9f3c 8435 2cbc bee8 eabc a482 d43a
000001d0: 3c2c f63b 18dd 94ba ef24 2d3c 0a79 d03b
000001e0: c7b9 5dbb 071d 2a3c 4446 1a3d 803a 9238
000001f0: 3b48 6d3c 4c74 dfbb 60dc 5abb 444a b2bb
-4.6477184e-05 -0.010704549 0.02093023 -0.0076496503 -0.009207576 -0.0038967964 0.011568011 -0.016872639
0.0067274016 0.016377712 0.03940681 0.0206178 -0.016416952 -0.017527705 -0.00019794761 0.015225126
-0.008796949 0.0078783715 0.014649481 -0.015474778 0.0074722143 -0.009062659 0.015241495 -0.027208129
-0.002773371 0.01747433 -0.0037948391 0.031201536 0.01632179 0.005172894 -0.0075943684 0.0050292215
-0.00842005 0.00657797 0.0045572375 0.007845419 0.0068587284 -0.007141493 0.0071898396 -0.024302687
0.0048032836 0.020378478 -0.02058841 0.01743428 0.01709247 0.019133942 0.018405829 -0.013168901
0.0051044053 0.020085486 0.021371735 -0.0037977756 0.020469613 0.013798344 0.020231983 0.013308297
-0.008558686 0.001510756 0.024485689 -0.0072451006 -0.025464086 -0.0017525015 -0.002714107 0.02150743
0.034707654 -0.004675631 0.026917318 -0.0073635504 0.0046113417 0.018873703 0.0077284724 0.00014129614
0.004451271 0.004245717 0.0108341575 -0.0032651683 -0.002867366 0.011265967 0.02232815 -0.024246158
-0.00065671944 -0.0046990886 0.031493127 0.024179896 -0.012669204 -0.008421956 0.0004501248 -0.0001117957
-0.020201609 -0.011902052 0.0015608075 0.035597358 0.016241329 -0.00489355 0.0025191118 0.015503379
0.043551482 0.006066229 6.216657e-05 0.011985139 -0.00066578656 0.00159302 0.025543924 0.0008820807
-0.00080487254 0.017161835 -0.0035979457 0.0142296795 0.0061151497 -0.01687336 -0.011160459 0.0009055564
0.01943915 -0.010510806 -0.028675433 0.001621325 0.0075125974 -0.0011357395 0.010567888 0.006362085
-0.0033832656 0.010382897 0.037664667 6.972719e-05 0.014482553 -0.0068192836 -0.0033395514 -0.005440982

network_body._body_endoder.seq_layers.2.weight f4 [128, 128]
00000000: 08d7 f0bc 1c6d 82bd e8f5 183e 5bda 9e3c
00000010: 49ff 61bd 2d2a d3bd 9449 993c 7913 eabc
00000020: ed31 7d3d e69b 9fbd 5b27 61be 07e5 b2bb
00000030: 0074 96bb 3dc1 903d 9c16 0b3e d147 4c3e
00000040: afe2 7eb9 8ad2 98bb d034 4dbd e776 da3d
00000050: 7d1d a53d 3239 0f3c 0239 8e3d 753e 0fbd
00000060: 191c a33d 258a 683d 448f 393e 6cd8 1b3d
00000070: e8c0 163e 275f 3bbd 2b6a f33d 4c95 48bc
00000080: d743 50bd a712 d03d 7c90 f63d 01c8 a93d
00000090: 0ec5 f2bc eff2 c63d ae35 743e e333 2a3d
000000a0: 8c26 9e3d 3fff 8abd c104 c6bb c90e 3d3c
000000b0: 33d8 ec3d 7b06 c33b aef6 cf3d 85fc 91bc
000000c0: fb83 4b3d afed 73bd 0040 7bbd bfce 123e
000000d0: 1282 e2bd 1122 9b3d 4255 82bd 97f3 adbc
000000e0: 7d4f efbd 0ab4 493d 63be dbbd b534 ecbd
000000f0: 948d 74bd 2bab 92bb 807a b13d 2886 f9bd
00000100: 5617 ecbc f0b3 cf3d e7f6 8d3d 4912 183e
00000110: cbe3 2c3c 59c9 2cbd 41c7 d9bd b070 b5bc
00000120: f2fa 27bd 230c 25be dd27 8d3b 389a 103e
00000130: 7ae0 a33c 40f1 cf3c 79a4 cc3d 07c4 bb3a
00000140: e224 cbbd 4979 a73c 6094 2b3a cec2 b6bb
00000150: 09be 30bc 0356 ff3d b981 acbd 4e82 613d
00000160: 9e39 2cbd a968 2bbe 118b d23d 5117 d73d
00000170: 1e96 693d 7d5f 163d 959e d43c 9f6e 0d3e
00000180: 7d05 ccbc debe a2ba d909 fe3d 5a6b a23c
00000190: 7916 81bc 82c8 c73d 2f88 513b 903b aa3d
000001a0: bd45 473e 711b 04bd f745 afbd 65f8 403e
000001b0: 7877 a5bd 1a70 3f3c 948f d3bd ffd3 dd3c
000001c0: e84e 863d aedc 63bd ed10 2d3c 18d6 ab3d
000001d0: fb53 273d d67c 043e 50d5 1d3e 63bf 4abe
000001e0: 0bd4 89be 5da1 eebc 43f4 b23c fd1f e73d
000001f0: 5916 f3bb ab05 c93d 80da cfbd 7b84 443e
00000200: b8e2 b4bd 0fd9 083d 1200 70bd 8201 24be
00000210: 4cb8 4a3c 8ddc 5dbd 3dc0 7abc 4218 c33c
00000220: 027b 493c da08 20be c8ce b33d 4db5 d43d
00000230: 31a0 d83d 2619 8f3d d7f2 c7bc e7bc e23d
00000240: b1bc 2d3d f0b8 33bd 60a6 2a3d 610c d43d
00000250: 03b0 503d 50f1 0dbd 6222 d4bc b795 88bd
00000260: d66e 263c fd5b 3bbd 8d99 efbd 0b34 1cbd
00000270: cd2f c6bd 1836 063e ce30 2a3c daf3 8e3d
00000280: 8bb3 3b3e 3317 d23d 6ad5 e0bb f972 01be
00000290: 0587 21be aee5 36bd 2723 19bd 4114 9ebc
000002a0: 2d12 0a3e 117a e4bd 7b9d 31bc 2921 b9bd
000002b0: 4a4a a03d bc9f cd3d 3b2d c9bd 7b6d 863a
000002c0: d5d2 e53d c4db eabd 6fe0 25bd e09d b5bb
000002d0: 2af7 d63d bf5d 0bbe ee4b ccbd e915 dd3c
000002e0: a329 88bd 31d8 d9bc 3e15 8a3d b060 c8bd
000002f0: b57e 483c bc91 03bd 6851 663d 7691 433c
00000300: 9666 1cbe 62ea 6bbd 023b 4dbd 3b74 773d
00000310: 846f cd3c f372 b7bd 96de 28bd 0eea 09be
00000320: 4301 b9bd c755 d63d 3a62 313e ffc7 d43d
00000330: b641 0abd 8b63 343d 2774 1dbe f9ca ad3d
00000340: 44a5 b3ba 888d 99bd fb0c 0e3d 3d85 443d
00000350: 784a 25bd 4341 3fbe c1e0 e63d 0c9a 233d
00000360: 5cba 68bd d140 283d 7551 81bd 73e1 e63d
00000370: deb6 23be 1958 cfbc 1f0b 153e 01ce 023e
00000380: d65f 2fbe 6e1c cabd e53e 033d 753c ffbd
00000390: c46c ce3d 0b6e 2f3c f2fb 8b3d f5a1 1b3d
000003a0: 0c54 ef3d adcb 7e3b e84c 193e 3a23 b33c
000003b0: 2f26 273e 114e 893d 20f0 89bd 0941 f7bd
000003c0: b5f7 35be f4ba c3bd d32d 9d39 c7f2 b4bd
000003d0: dc6d 8a3c 994a e73d c6a5 eebc 23ca 533d
000003e0: 729e 973d 59f7 c33d 742a b23c f5fc afba
000003f0: 122b ccbd 2d46 413e 2f3d 3fbd 60d1 f1bd
-0.02939941 -0.06368467 0.14937556 0.01939123 -0.0551751 -0.10310779 0.018711843 -0.028573738
0.06181519 -0.07793407 -0.21987669 -0.005459431 -0.004591465 0.07068107 0.13582844 0.19949271
-0.00024307774 -0.00466377 -0.050099194 0.1066721 0.08062265 0.008741664 0.06944467 -0.034971673
0.079643436 0.05677237 0.18121058 0.038048193 0.14722025 -0.04574504 0.11885484 -0.012242626
-0.050845947 0.10159808 0.12039277 0.08290101 -0.029634979 0.09714305 0.23848602 0.04155339
0.07722196 -0.067869656 -0.006043047 0.01153917 0.11564674 0.0059517003 0.10154472 -0.017820606
0.049686413 -0.059552845 -0.061340332 0.1433668 -0.11059965 0.07574857 -0.06363918 -0.021234317
-0.11685083 0.049243964 -0.10729673 -0.115334906 -0.059705332 -0.004475971 0.08665943 -0.121837914
-0.028819721 0.10141742 0.069318585 0.14850725 0.010552357 -0.042184208 -0.10633708 -0.02214846
-0.041010804 -0.16117911 0.0043077306 0.1412133 0.0200045 0.025383592 0.09992308 0.0014325388
-0.09919144 0.020443575 0.0006545242 -0.0055774217 -0.010787495 0.12467577 -0.0842318 0.05505591
-0.042047136 -0.16739143 0.10280431 0.10502494 0.05702793 0.03671216 0.025954524 0.1381173
-0.02490496 -0.0012416502 0.12404222 0.01982658 -0.015757786 0.09755041 0.003197204 0.08312142
0.19460197 -0.032252733 -0.085582666 0.18844755 -0.080794275 0.011684442 -0.1033012 0.027078627
0.06558019 -0.05563038 0.010563117 0.083904445 0.040851574 0.12938246 0.15413404 -0.1979957
-0.26919588 -0.029129678 0.021844989 0.11285398 -0.0074184355 0.09815534 -0.101490974 0.19191162
-0.08832306 0.03341013 -0.058593817 -0.160162 0.012373041 -0.05416541 -0.015304622 0.023815278
0.012297394 -0.15628377 0.08779675 0.10386143 0.10577429 0.069872186 -0.024407787 0.110711865
0.04241628 -0.043877542 0.041662574 0.103539236 0.050949108 -0.03465396 -0.025895301 -0.06669181
0.010158261 -0.045742024 -0.11699209 -0.03813557 -0.09677086 0.13106573 0.0103876125 0.06980105
0.18330209 0.10258331 -0.0068613784 -0.12641515 -0.15774162 -0.044652633 -0.03738704 -0.019296767
0.13483496 -0.11156095 -0.010840769 -0.09039528 0.078266695 0.100402325 -0.0982308 0.0010256016
0.11221854 -0.11467698 -0.04049724 -0.005542502 0.104963616 -0.1360998 -0.0997542 0.026987987
-0.066485666 -0.026592346 0.06742333 -0.09784067 0.012237241 -0.032121405 0.05622998 0.011936536
-0.15273508 -0.05759657 -0.050105102 0.06041358 0.025077589 -0.08957472 -0.0412279 -0.13468191
-0.09033444 0.104655795 0.17322627 0.10389709 -0.033754073 0.044040244 -0.1537634 0.084859796
-0.0013705869 -0.07497698 0.034680348 0.04797863 -0.040354222 -0.18677239 0.11273337 0.039941832
-0.05681835 0.04107744 -0.06314365 0.1127347 -0.15987727 -0.025310563 0.14555024 0.12773897
-0.17126402 -0.09868704 0.032042403 -0.12462703 0.10079339 0.010707389 0.06835164 0.03799625
0.116859525 0.0038878724 0.14970744 0.021867383 0.1632316 0.06704343 -0.06735253 -0.12072951
-0.17770274 -0.09557143 0.00029979515 -0.088353686 0.016898088 0.11293525 -0.029131781 0.051706444
0.07403268 0.09568662 0.021748759 -0.0013426827 -0.099691525 0.18874426 -0.04668921 -0.11807513

network_body._body_endoder.seq_layers.2.bias f4 [128]
00000000: 93ba 31bc df5f 8b3b 593f 533c a9fc dd39
00000010: 53f4 333c 9aec 143a 3da4 2bbc 7ad2 833b
00000020: 5cb1 12bc 2b11 12bc 8da7 0d3c 5d9f fdb9
00000030: ca36 eaba 1f06 56bb caf4 d03b 9388 fbbb
00000040: 6ac3 9f3c 4395 53bc f411 06ba 2404 8e3b
00000050: ef9f 8c3b 9002 dd3b 73ea 61bc 9bcc e33b
00000060: 7794 e33c fae1 a43b ac21 3abc ae3b 03bc
00000070: 2fdf 4fbc f744 b1bb b7d4 443a 1a39 31bb
00000080: 2ab3 fc3c 0d42 6f3c a452 f3bb fee9 a53b
00000090: e684 703c c1f6 ff3c 978d 65bc 6b5e 0d3c
000000a0: 62b0 0c3c f8cd 513b c5c1 87bb 32e7 1abb
000000b0: 1b34 ae3c 719d 393c e2d4 eb3c 9c90 06bc
000000c0: 02ef 92bb f565 3d3b 2d16 07bc 9850 d23b
000000d0: 1daf d33b f6d0 ac3c ac06 a13a 19b7 90ba
000000e0: c0e8 cb3c 8654 0bbc 1e84 273c 7171 35bb
000000f0: 7933 8f3c caf9 21bb b945 dd3c bcfd 71ba
00000100: 8d3d 02bc 69ef 16bc 10ab 103c 5263 b2bb
00000110: a65d f5bb da11 a1bb 958d 023d 20d2 303c
00000120: 1402 43bb cbb1 073c abd6 a1bc eece 973b
00000130: d315 ad3b a620 b23c c66a 31bc 9840 0d3b
00000140: ff21 a1b6 c91f c13c 5faf 4e3c 14a2 1e3b
00000150: dd9e 8b39 0b03 0e3c e12b 8a3c 7488 443c
00000160: 9821 943b 6d3e 9a3b 5144 813b 1c09 3e3b
00000170: 2034 3d3c b55b 68bc e38e 9dbb 40aa f33b
00000180: 15e2 d1bb 68ac 603c 4a78 973b 1aee 11bc
00000190: f2f6 f13c b8dd 63bc 8a80 92ba 6379 a33c
000001a0: a843 3abc 7c77 083c d086 9f3c 7c61 8e3c
000001b0: cc14 55bb 90d0 aa3c eaf9 e93c 3c36 89bb
000001c0: 8280 e53b decf 963c c464 9e3c 38e2 953c
000001d0: ebac 093c 61c6 913b 37e7 6fbc ce09 bd3b
000001e0: d2ea 4139 6fa6 2c3b 6b05 383c ed0c 5c3c
000001f0: 7a05 e3bb cfbc 7d3c c2ce d13b 654e 00bc
-0.010847705 0.004253372 0.012893521 0.0004234065 0.010983544 0.00056810083 -0.010476169 0.0040228935
-0.008953419 -0.008915226 0.008645904 -0.00048374655 -0.0017869112 -0.0032657457 0.0063768374 -0.007676193
0.01950236 -0.012914005 -0.00051143696 0.0043339897 0.0042915265 0.0067446902 -0.013788807 0.006951881
0.027780754 0.0050318213 -0.011360567 -0.008009834 -0.012687488 -0.0054098326 0.00075085036 -0.0027042092
0.03084715 0.01460315 -0.007425623 0.0050632944 0.014680123 0.031245591 -0.014010808 0.008628468
0.008586975 0.0032013636 -0.004142972 -0.0023636338 0.02126508 0.011329041 0.028788034 -0.0082131885
-0.0044840584 0.0028899882 -0.008245033 0.006418299 0.006460084 0.021095734 0.0012285314 -0.0011040895
0.024891257 -0.008504039 0.01022437 -0.0027686025 0.017480599 -0.0024715536 0.027010785 -0.000923123
-0.007949245 -0.009212353 0.008829847 -0.005443969 -0.0074879704 -0.004915458 0.031873304 0.010792285
-0.0029755877 0.008282135 -0.019755682 0.0046328222 0.0052821427 0.021744084 -0.010828679 0.0021553393
-4.8021316e-06 0.023574727 0.012615054 0.0024205493 0.00026630508 0.008667718 0.016866626 0.011995424
0.0045206062 0.0047071488 0.0039449115 0.0028997129 0.011548072 -0.014182021 -0.004808293 0.007436067
-0.006405125 0.01371298 0.004622494 -0.0089068655 0.029536698 -0.013907842 -0.0011177224 0.019955343
-0.01136867 0.008329269 0.019473463 0.017380469 -0.0032513617 0.020851403 0.028561551 -0.0041873734
0.0070038447 0.018409666 0.019335158 0.018296346 0.008403043 0.0044486974 -0.014642528 0.005768991
0.00018493392 0.002634432 0.0112317605 0.013430816 -0.006928143 0.01548691 0.0064028213 -0.007831191

action_model._discrete_distribution.branches.0.weight f4 [3, 128]
00000000: c205 08ba cd4d 16bc 19ad 92bc 018f a93c
00000010: 82b3 aebb e65b aabb bf1b f83b cc97 3c3c
00000020: 7b30 313c 1b54 1a3b a0aa 4a3c ecc1 733c
00000030: 74f5 523c 5f7d f5bb 19ab 47bc 86c6 8f3c
00000040: bd52 d1bb 40b5 2abc 0bf0 d0bc 70a9 a1bc
00000050: 1724 cc3c 352a cc3c af92 38bc e091 2b3c
00000060: ec80 263c 7da6 8bbc 9ac7 ebbb ef4f 38bc
00000070: f59d 703c 987d 803a 8c14 5b3c 713c e73c
00000080: 8fd9 a33c 0022 ca3c 1175 afbc 7ddd 35bb
00000090: 4beb a6bb 5a65 193d e1d1 b53b 53ad aebc
000000a0: 4f9e 66bc 66b3 db3c 50a3 edbc 31ca 3d3c
000000b0: 7af5 bdbc abab 083c 614c 80bc 4364 133c
000000c0: d178 f83c c55e e3bc b0b6 59bb ed06 b23c
000000d0: c099 14bb 0e53 10bd 1e87 b33b 1a3e 8d3b
000000e0: d569 a4bb e93b a83c e1c8 93bc 9b7e 75bc
000000f0: d9d4 583c 6482 debc 503b efbc 1d8d 003c
00000100: 2934 ba3c 2f95 acbb 7936 403c ba91 663b
00000110: 147f 793c 9141 3cbb 44e2 18bd 64e9 5a3c
00000120: 43f6 36bc 882f b5bc a3f7 cfbc 6ecc 8abc
00000130: 4232 063d 49d9 a1bc e7a8 123c 5c65 f03b
00000140: 3865 9e3c 1923 dd3c 3b5a ef3a 4784 5ebd
00000150: 7df0 2d3b 5985 263d cd9f 04bc e2be 873c
00000160: e052 f5ba 5bf8 073d c358 683c 1cce 33bd
00000170: f76b 003b ef91 c6bb 9a8a 42bb e9a3 0a3b
00000180: 4223 aabc 5e11 cebc 5ebd 5d3b f19d 903c
00000190: b4c9 343b 5bf9 4abb 3af7 aa3b 0b2d daba
000001a0: 6b69 06bc b807 753c fb15 84bc a86b eb3c
000001b0: 5ab5 393c 7be9 0b3d 207f 263b 7d6b fa3b
000001c0: cc61 2bbc a0ae 053b e591 91bc 8123 da3b
000001d0: f181 c43b 4f31 83bc 7ed4 55bb fced d83b
000001e0: 4c65 42bd cd72 d13c 3c56 d5bb b393 313d
000001f0: 7d6c 913c cf42 ee3c 5068 06bd fa8d d23b
00000200: 64a1 743b a429 8d3c 595e 1cbc 205d 06bc
00000210: 9a2b aabc c881 10bc 60c2 abba 9fd1 663c
00000220: c984 d6bb 750b e2bb 2c86 a0bc f23c d3bb
00000230: 8a9f dabb 26a1 e3bb 6f7a d73b 718b 81bc
00000240: 94c0 d83c 474d 123c 2cb7 173c 267e 113a
00000250: e4dd 1cbc 7294 703b faad 133b 9dc9 bfba
00000260: 0f36 083c 6cf1 5c3c 56ba 5c3c 74f6 013c
00000270: 0af1 58bc cc07 913c 70b0 613c b6b4 cebc
00000280: 5b15 10bd 89b6 a8bc 8b3b 8bbb 4df0 873c
00000290: a5ca 07bb edf4 1bbc de1c 163c e65b db3b
000002a0: ba28 46bb 5bb7 a6ba 3fcb 43bc ed21 da3b
000002b0: f5bf 903b 844f 0f3c 1445 433d fb59 7c3c
000002c0: 904d 0dbc 7257 673b 9625 543c 9d2e 003c
000002d0: b700 33bb 81ec 54bc 718f e0ba 3812 213c
000002e0: b05e a1bb dd0c e33b bb8a 5c3c 8112 273c
000002f0: e0dd cf39 8a15 32bc b288 52bc 450a a9bb
00000300: 94c6 2f3c 5ddb 9d3b faad 09bc 6cb0 1f3c
00000310: 0113 c33b 4e3e 403c 8d08 15bc d35e f93c
00000320: 7de2 93bb af7c b63c 92cb 75bc a65c 093b
00000330: 569b 07bc 5741 1a3b eef0 483c 69bd 013b
00000340: 2a2c a53b 35ea c1bc 4d75 97bc a388 a53b
00000350: 37dc 223b 141b 683c ad63 febb 5bac 75bc
00000360: a7fd 853b 71a9 7e3b ca09 f53b ac79 2cbc
00000370: 5bad 78bb 5f5e d13c 9c50 d7bb 10e3 8fbc
00000380: c65b 9abb 961e 7fbc f74d 12bc 19dd e8bc
00000390: ab63 923b 7293 2e3c abab 74bc 616a bd3b
000003a0: 2c32 b83b 42c8 0b3c 8bcb d23b 2fb2 953c
000003b0: 79bf 55bc 686e 303a 5751 413c 7955 35bb
000003c0: 087c a7bc 83f7 fa3c 74ab d1bc ab3a a1bc
000003d0: e8fb bdbb 83fe 633c 98fc 5dbb 9b76 be3c
000003e0: 9544 40bc dd43 4b3b ce6d b6ba 07ee 893a
000003f0: 2821 f8bb 9c8c 7f3c beaa 203b d981 48bc
-0.0005188846 -0.009173823 -0.017904805 0.020698072 -0.0053314576 -0.0051989434 0.007571667 0.011510801
0.010814781 0.0023548666 0.012369782 0.014877778 0.012875903 -0.007491752 -0.012186789 0.017550718
-0.006388037 -0.01041919 -0.025505086 -0.019734114 0.024919553 0.02492247 -0.011265441 0.010471791
0.010162573 -0.017047161 -0.007195425 -0.011249526 0.014686097 0.0009803055 0.013371598 0.028227063
0.020001201 0.024674416 -0.021418126 -0.0027750426 -0.005093967 0.037450172 0.005548701 -0.021322882
-0.01407583 0.026818942 -0.029008538 0.011583851 -0.023188341 0.00834171 -0.01566142 0.008996072
0.030331047 -0.02775515 -0.0033220463 0.021731818 -0.002267465 -0.035235457 0.0054787537 0.0043103816
-0.005017499 0.02053638 -0.018040122 -0.014983798 0.013234341 -0.027161784 -0.029203087 0.007846144
0.02272995 -0.0052668075 0.011731737 0.0035182075 0.015228052 -0.0028725604 -0.03732516 0.013361309
-0.011167112 -0.022117391 -0.025386637 -0.016943183 0.032762773 -0.01975693 0.008951402 0.0073363017
0.019335374 0.026994275 0.0018261144 -0.05432537 0.0026541047 0.040654514 -0.00809474 0.016570512
-0.0018716715 0.033195835 0.014181319 -0.043897733 0.0019595602 -0.006059877 -0.0029684664 0.0021154827
-0.020768765 -0.025154766 0.0033834795 0.017653437 0.0027586045 -0.0030971381 0.00521746 -0.0016645504
-0.008203845 0.014955454 -0.016123762 0.028737858 0.0113347415 0.03415821 0.0025405362 0.007642208
-0.010460328 0.0020398274 -0.017769763 0.0066570644 0.0059969355 -0.016014723 -0.0032627876 0.006620167
-0.047459885 0.025567437 -0.006510524 0.043353748 0.017751927 0.029084591 -0.032814324 0.0064256163
0.0037327642 0.01723177 -0.009543979 -0.008200914 -0.020772744 -0.008820005 -0.0013104193 0.0140880635
-0.006546591 -0.0068983384 -0.019595228 -0.006446474 -0.0066718506 -0.0069467006 0.0065758745 -0.015813561
0.026459016 0.008929557 0.00925998 0.00055501086 -0.009574387 0.0036709574 0.0022534118 -0.0014632229
0.00831367 0.013485294 0.01347216 0.007932294 -0.013241062 0.017703913 0.013774976 -0.025232654
-0.035176616 -0.020594852 -0.0042490414 0.016594077 -0.002072015 -0.009518844 0.009162156 0.0066943048
-0.0030236677 -0.0012719439 -0.011950313 0.0066568763 0.0044174143 0.008746985 0.0476733 0.015402312
-0.008624449 0.0035299924 0.012948414 0.0078236135 -0.0027313659 -0.01299584 -0.0017132593 0.009831004
-0.0049246177 0.0069290237 0.01346081 0.010197283 0.00039647426 -0.010869393 -0.0128499735 -0.005158695
0.010728497 0.00481741 -0.008403296 0.009746652 0.005953193 0.011733605 -0.009096277 0.030440724
-0.0045130835 0.02227625 -0.015002148 0.0020959764 -0.008276781 0.002353748 0.012264473 0.0019796735
0.005040665 -0.023671249 -0.01848855 0.0050516888 0.0024850497 0.014166612 -0.007763347 -0.014994706
0.0040890756 0.003885832 0.0074779736 -0.010527056 -0.0037945125 0.025557695 -0.0065708887 -0.017564327
-0.0047106473 -0.015571257 -0.008929721 -0.02842574 0.0044674478 0.010655271 -0.014933507 0.0057805036
0.0056212153 0.008531632 0.0064329556 0.018273441 -0.013046139 0.0006730319 0.011799178 -0.0027669354
-0.020444885 0.0306356 -0.02559445 -0.019681295 -0.005797852 0.013915661 -0.0033872481 0.023249915
-0.011735101 0.0031015791 -0.0013918222 0.0010523208 -0.007572312 0.015597489 0.0024515833 -0.012237989

action_model._discrete_distribution.branches.0.bias f4 [3]
00000000: 80d1 84ba d1d3 1dbb a434 b63b
-0.0010133237 -0.0024082551 0.0055604745

action_model._discrete_distribution.branches.1.weight f4 [2, 128]
00000000: bccb 21bb 1f87 02bd fe38 d83c 40e6 163c
00000010: 5bb2 c2bb 3233 ef3c fe91 1cbb d2f2 043d
00000020: 160d bf3b 12d9 953c 41ef 9bbb d90c cc3c
00000030: 302a 1a3d 9e13 fc3c efb0 5abc 0a8b e13c
00000040: f306 3f3d 7875 1f3c 2f90 5cba 9b84 47bc
00000050: 010b de3c ff9d 7bbb 78bc 6d3b 9285 2cbb
00000060: 78fc da3c 8a1c d9bb bbb8 1f3d 2639 89bb
00000070: 48f0 f7bb 6bfa 13bc 0468 9c3b 2123 793c
00000080: 30a3 7cbc 02c8 0a3d 5735 103b ea22 feba
00000090: 4590 cabc d0cd 00bc 9c9e 273b de8b 8ebc
000000a0: a01f dcbb 8212 72bb 08b3 933c 737c 13ba
000000b0: e89b 2dbc 1147 45bb 5ef0 503d 5938 803b
000000c0: 9cdd bd3c c18d 923c d0d4 cf3c c34d d33b
000000d0: cef0 3c3c e2d9 c2bc 680a 51bb c107 b1ba
000000e0: a1eb b9bc f0d6 343c ea7c a93a 06f9 7a3c
000000f0: 0080 3ebc ba7c a9bb 087c aabc b0cf 253d
00000100: 3011 853c 2139 f73a 68bf 833d c068 9eba
00000110: 404b ff3c 7c31 1dbc 2c80 57bc 4835 093d
00000120: 058c a83b 193e da3b 6981 233c 2fbf cdba
00000130: 9537 76bc 7740 823b 1571 0dbc e5fd 31bb
00000140: 8646 1d3d 7bc6 05bc 25df 3b3c dbe0 9b3c
00000150: ace3 f8b9 ea68 893b ec2a cbbc 3f99 c5bb
00000160: d931 353c 9078 cd3c 19df 963b 1869 bcba
00000170: 242d ccbc 1fec b6bc 4ccb c43b 92bd b03c
00000180: 75d4 023c d93e 3d3c e1c1 64bb b91b e33c
00000190: 3147 4bbd d01a 8a3c 4e28 0e3c 1843 bdbc
000001a0: e338 d8bb d059 d53c b83b 52bd 3345 78bc
000001b0: 10d7 3d3b 8b8b a3bb 2dfd 183d 40d5 c13b
000001c0: 598b 2d3d 4d58 9c3c 0035 b53b 64ec 973d
000001d0: a890 3c3c e919 a03a cc40 8137 3740 7bbc
000001e0: 0a66 a73c 3aeb 49bc be1f cabb 1b96 c239
000001f0: 59ae 083c 7fd5 103c 9986 c8bc effd b73b
00000200: 07a0 863a 53f5 47bc 1618 85bb 950b debb
00000210: f157 9e3c 1e32 9bbc 3a01 60ba 1982 21bd
00000220: 8b63 74bc a336 adbc 7bb3 06ba 41c2 4ebc
00000230: 612e 62bd 5c47 12bd 7190 c03b 5034 83bc
00000240: 27f1 0bbd d7d5 3bbb e419 053b 02c0 823c
00000250: 5dcb f2bc c101 a6bc b389 62bc 948d c93b
00000260: 749a 1bbd 9a1f 013c 49b7 84bc f98c 0bbc
00000270: 8043 6e3b 89ab 45bb b99e dfbc ac6e f9bc
00000280: 230a e73c bd85 d0bc a602 0ebc 509a 43ba
00000290: 7008 a73b c878 5a3c c819 2abc 903b 2b3b
000002a0: f93d 303c c805 ef3b 3236 a9bc 235c 8a38
000002b0: d3d5 9d3c e1f9 c53c 5780 29bd 372b 86bc
000002c0: 49ac b1ba 3da7 adbb 0a24 21bd eadf 8dbc
000002d0: ce6c cd3b 3d45 a23c 85c3 a03c cbc4 ef3b
000002e0: 48ba d43c 4876 a2bc c365 9d3c 0cc8 22bd
000002f0: ffed 2b3c 6dc2 09bb 5e0c 6d3c c2d7 80bd
00000300: fbcd 0bbc c6fd e53b 6097 31bd 0c9d f43b
00000310: dcfb 1abd 4f4b 4fbc 0cdb 013c 4499 bdbc
00000320: d878 6d3b fe8e 853c 7776 173c 9a5b 663c
00000330: 9f8d c8ba d8e1 e6b8 0dbf ce3b bdd8 0c3c
00000340: fc99 15bd 2582 2d3a 9811 8b3c 1571 e2bc
00000350: ac6f 4f3b e990 463c 8e5e 7a3c bdf9 283b
00000360: cb8b a9bc 3cf1 eebc 76da 79bb c06d 92bc
00000370: 7c2d 843c aed4 e4bb 7f0d d6bb b225 34bd
00000380: 5699 733b 0d00 31bc 4529 5bb9 1dc5 3bbd
00000390: f79a 973c 82dc 41bc b7e8 ed3b 8685 053d
000003a0: 8694 91bc 7fae f1ba 9846 b23c c078 003c
000003b0: 2a11 54bb 6f5b 153b 65da 1bbd 5554 1dbc
000003c0: 0348 00bd 42de 77bc 8a2e e43a b11c 81bd
000003d0: 50d2 db3c c4cc 823b 9304 8eb8 aeb3 783c
000003e0: 67d0 8abc 72d8 4bbc 468c 9c3c 31c5 b83c
000003f0: 96db 083b 5c73 7a3c 337f 553c a751 15bc
-0.0024688086 -0.031867143 0.026394363 0.009210169 -0.005941672 0.029199217 -0.002389073 0.032458134
0.0058304174 0.018291984 -0.004758746 0.02490847 0.03763789 0.030771073 -0.013347848 0.02753212
0.046637487 0.009732597 -0.0008413819 -0.012177612 0.027104856 -0.0038393734 0.0036275666 -0.0026324731
0.026731715 -0.0066257166 0.038994532 -0.004187721 -0.0075664856 -0.009031872 0.004773142 0.015206129
-0.015419766 0.03388215 0.002200445 -0.0019389067 -0.024726996 -0.0078615695 0.0025576716 -0.017400678
-0.006717637 -0.00369373 0.018029705 -0.00056261494 -0.010596253 -0.0030102173 0.051010482 0.003912967
0.02317696 0.01788986 0.025370032 0.006448479 0.011532022 -0.023785535 -0.0031897072 -0.0013506339
-0.022695364 0.011037573 0.0012930904 0.015318161 -0.011627197 -0.0051723393 -0.020811096 0.04048127
0.016243547 0.001886163 0.06432992 -0.0012085661 0.031163812 -0.0095943175 -0.013153117 0.03349808
0.0051436448 0.0066602346 0.009979584 -0.0015697236 -0.0150279 0.00397497 -0.008632918 -0.002715939
0.038397335 -0.008164997 0.011466776 0.019028118 -0.00047471875 0.004193415 -0.02480074 -0.0060302312
0.011059248 0.025081903 0.004604232 -0.0014374582 -0.024923868 -0.022329388 0.00600568 0.02157477
0.007985224 0.011550629 -0.00349056 0.02772318 -0.04962844 0.016858488 0.008676602 -0.023103282
-0.0065985783 0.026043802 -0.051326483 -0.015153217 0.0028967299 -0.004991 0.037350822 0.005915314
0.04236922 0.019085074 0.0055299997 0.07418135 0.011509098 0.0012214753 1.5408172e-05 -0.015335134
0.020434398 -0.012324149 -0.0061683347 0.000371144 0.008342349 0.008839964 -0.024478244 0.005614988
0.001027108 -0.012204486 -0.004061709 -0.006776283 0.019329043 -0.018944796 -0.00085451046 -0.03943071
-0.014916311 -0.021144217 -0.0005138439 -0.012619556 -0.05522001 -0.035712585 0.0058765938 -0.016016155
-0.034165528 -0.0028661394 0.0020309621 0.015960697 -0.029637987 -0.020264508 -0.013826775 0.0061509106
-0.037989095 0.00788107 -0.016200678 -0.008517497 0.003635615 -0.0030162057 -0.027297365 -0.03044828
0.028203076 -0.025454396 -0.008667624 -0.0007461654 0.0050974414 0.013334461 -0.010382123 0.0026128031
0.010756963 0.0072943904 -0.020655725 6.5975146e-05 0.019266998 0.024167003 -0.04138216 -0.016378028
-0.0013555373 -0.0052994774 -0.03934101 -0.017318685 0.006269074 0.019808406 0.019624481 0.0073171607
0.025967732 -0.019831792 0.019213563 -0.03974156 0.010493754 -0.0021020428 0.014468281 -0.062911525
-0.008532996 0.0070187775 -0.043357253 0.0074650105 -0.037837848 -0.012652232 0.00792576 -0.023144372
0.0036235359 0.016303536 0.009244553 0.014059925 -0.0015300995 -0.00011009321 0.006309396 0.008596596
-0.036523804 0.00066188193 0.016976163 -0.027641812 0.0031652255 0.01211951 0.015281333 0.0025783621
-0.020696541 -0.029167764 -0.0038124598 -0.017874599 0.01613497 -0.006983361 -0.0065323706 -0.04398126
0.0037170253 -0.010803235 -0.00020900842 -0.04584228 0.01850651 -0.011832358 0.007260408 0.03259804
-0.017771017 -0.0018438845 0.021762177 0.007841289 -0.0032358863 0.0022790094 -0.038050074 -0.009602626
-0.031318676 -0.015128674 0.0017408889 -0.063043006 0.026833683 0.003991695 -6.77194e-05 0.015179558
-0.016945077 -0.012441741 0.019109856 0.022554966 0.0020882837 0.015286293 0.013030815 -0.009113706

action_model._discrete_distribution.branches.1.bias f4 [2]
00000000: a934 3abc a634 3a3c
-0.011365094 0.011365091
