KartSCBIO/results/custom-track-1/ArcadeDriver/checkpoint.pt (torch, 574839 bytes, 40 tensors)

discrete_act_size_vector f4 [1, 2]
000000 00 00 40 40 00 00 40 40
       3.0 3.0

network_body._body_endoder.seq_layers.0.weight f4 [128, 48]
000000 ad 1e d4 bc 18 09 b1 bd ef 76 d8 bd 3e a0 ba 3d
       -0.025893534 -0.086443126 -0.1056956 0.09112595
000010 e3 38 af bd cb a1 63 be 95 55 90 3e c8 65 e9 bd
       -0.08555772 -0.22229688 0.28190294 -0.11396366
000020 18 5b 4f be 2d 9d 19 3e c2 74 55 3e 19 3a 7c 3e
       -0.20249593 0.15001364 0.20845321 0.24631537
000030 0b 2d a8 bb 78 f4 85 3d cb 79 58 3c 5b 8c 8f bd
       -0.0051323227 0.06540769 0.013212631 -0.070091926
000040 03 2e 11 3d e7 60 00 be 62 ae 3d 3e 52 a6 56 bd
       0.03544427 -0.12536965 0.18523553 -0.05240471
000050 b4 ab ed bc c6 9d 20 3d 73 01 27 bd 15 4b 8b 3e
       -0.029012538 0.039212964 -0.040772866 0.2720572
000060 65 d3 5d bd 18 53 0b 3e d1 dd ce 3c f4 ed 17 3d
       -0.05415668 0.13605917 0.025252255 0.037092164
000070 c6 95 72 be f2 44 79 bd ec 79 0a be 1f a7 bd be
       -0.23689947 -0.060856767 -0.13523072 -0.37041566
000080 a8 b0 6b bb e3 27 d3 3d 23 de 1e 3c 1c 4c 59 be
       -0.003596345 0.10310342 0.009696516 -0.2122044
000090 e9 62 34 3d 19 7e a9 bc d5 76 02 3e 05 09 83 bd
       0.04403964 -0.02069001 0.12740643 -0.06398205
0000a0 e6 80 0f 3e ad eb 9a 3d ff e7 86 3c 05 b2 e3 bc
       0.14014015 0.07564483 0.016468046 -0.027794847
0000b0 74 e6 d1 3d 0b 4a 8b 3d da b7 22 be 95 0a 74 3d
       0.102490336 0.06801232 -0.15890446 0.059580404
0000c0 73 cc 08 bb 5c d4 84 bd 0f d1 13 bd 89 46 69 bd
       -0.0020873814 -0.06485817 -0.036088046 -0.056952033
0000d0 5d 20 e9 bc 6d 32 7a bd 33 46 4b be 42 af a4 3c
       -0.028457815 -0.061083246 -0.19850998 0.0201031
0000e0 2f dc 54 be b8 c5 a3 bd a0 37 0b 3e 10 1a 1c be
       -0.20787118 -0.07996696 0.13595438 -0.15244317
0000f0 2e d1 ea 3d 49 bd c1 3d 0d 1d 20 3e 7b 3b 81 3d
       0.11465679 0.094599314 0.15636082 0.06310173
000100 8f 76 85 3d e4 de 8e 3e 7b 15 4f 3d 7d 85 5c be
       0.06516754 0.27904427 0.050557595 -0.21535297
000110 99 cb 50 3c f9 6e 1a bd d8 40 9b 3d 52 08 5e 3e
       0.012743854 -0.037703488 0.07580727 0.21682861
000120 3f 62 bb bd b7 4c 5b be 78 08 45 3e e3 0c 85 bd
       -0.09149598 -0.21415983 0.19241512 -0.064965986
000130 0d 06 e6 bd 39 fa 26 3e 2f dc 89 be 23 a4 70 3d
       -0.11231623 0.1630639 -0.269258 0.058750283
000140 cc 54 20 be 59 4e 1e be 69 c2 22 bd 56 78 8a 3d
       -0.15657347 -0.15459575 -0.039736185 0.067612335
000150 c5 33 c8 bd 5e 73 88 be 4a e9 b1 3e c0 bf 1e be
       -0.09775499 -0.26650518 0.34748298 -0.15502834
000160 f8 2d 82 be cd 0c 91 3e e2 fb 84 3d eb 9d 58 be
       -0.25425696 0.2833008 0.06493355 -0.21153991
000170 1e 9c 31 be 94 2e 76 3e e4 0f a4 3c f3 08 0e be
       -0.1734471 0.24041206 0.020027108 -0.13870601
000180 6a 24 0b 3e df 9b f7 3d ab be fd 3c d2 0e f9 3a
       0.1358811 0.12090277 0.030974707 0.0019001609
000190 60 f3 b0 3c 4c 0f f1 bd f5 30 05 3d b5 43 45 3e
       0.021600425 -0.11770496 0.032517392 0.1926411
0001a0 50 65 3c 3c 26 06 2b 3e 91 92 b7 bd 66 f5 53 be
       0.011498764 0.16701564 -0.08963502 -0.20699081
0001b0 59 91 00 be 12 36 b0 3d 41 0d fe 3d 78 ea cb bc
       -0.12555446 0.08604063 0.12404872 -0.024892077
0001c0 cc 6f 0a be 01 d3 06 3e 23 b2 90 3d b7 af 25 3e
       -0.1351921 0.13166429 0.07065227 0.16180311
0001d0 1d c0 bf 3c 6f 72 ee 3c 7d fc 85 bd af 28 98 3e
       0.023407036 0.0291073 -0.06542299 0.2971854
0001e0 6c 5e 23 3e 89 7f 16 3e 1f a2 e4 bd 88 6f 79 3a
       0.15953988 0.14697088 -0.11163735 0.00095152156
0001f0 ca ad e2 3c 09 b6 bb 3e 5f f6 88 bd 0e 89 cb be
       0.02767076 0.3666232 -0.066876166 -0.39753002
000200 60 09 c1 bd 8d f9 a8 3c e1 b1 68 3e 8f 1b d8 bd
       -0.09425616 0.020626808 0.22724105 -0.105521314
000210 e7 97 85 bd 0b ef ec bd 1a b5 cf bd f2 1f 85 3e
       -0.06523114 -0.11569031 -0.10141964 0.26000935
000220 bb c2 4f be 55 b9 0b be c7 f8 d9 3e b7 c4 7d bc
       -0.20289128 -0.13644917 0.42572615 -0.015488795
000230 b4 9c 20 bd ee 6b 9b 3e b3 61 ec 3d da ad 38 3d
       -0.039211944 0.3035578 0.11542072 0.045087673
000240 2e 7e 2f be 41 d7 bd bd 9a d4 a4 3e e8 5a 05 3d
       -0.17137977 -0.09269572 0.32193452 0.032557398
000250 96 04 a2 bc c6 ff 2a bd dc be 8f bd 19 e5 10 3e
       -0.019777577 -0.04174783 -0.070188254 0.14149894
000260 45 ce 54 be 2d d6 a0 3d 5c 47 56 be 59 70 84 3e
       -0.2078181 0.07853351 -0.20925659 0.25866964
000270 bf b4 80 3c 83 7d c2 3d f5 d2 a3 3e 5a ba 10 3b
       0.015711186 0.09496596 0.31996885 0.002208373
000280 95 fa c4 bb 23 3f 47 bd 39 88 73 3e 52 6a 82 bb
       -0.006011317 -0.048644196 0.23782434 -0.0039799595
000290 2b d2 3c be d7 87 eb bd 73 96 66 3e da 3f 5d 3d
       -0.18439548 -0.11500519 0.2251833 0.05401597
0002a0 65 34 40 3d 66 71 8d 3d f8 25 09 bd ce ad f7 3d
       0.046924967 0.06906395 -0.033483475 0.120936975
0002b0 d1 e2 47 be 04 62 0d 3e fe 74 2d be de a7 8f bd
       -0.19520117 0.13806921 -0.1693916 -0.0701444
0002c0 4b 66 01 be 35 dd 97 bd 71 0a 04 be 72 24 69 3e
       -0.12636678 -0.07415239 -0.12894608 0.22767809
0002d0 1b e0 48 be 0b b9 bc bd a4 39 d7 bd af 20 1e 3e
       -0.1961674 -0.09214982 -0.10509041 0.15442155
0002e0 47 c2 85 3d b8 7c 9c bd 16 f1 1f 3e 6a 7e 7f 3e
       0.06531196 -0.07640976 0.1561931 0.24950567
0002f0 99 8e e2 3d d8 c8 19 bd e1 4f 0e 3d 4f d2 88 3b
       0.110623546 -0.037545055 0.034744147 0.0041754614
000300 b8 91 0d 3d 6b 52 ee bb c1 fb eb 3d 8b ec 6f 3c
       0.034562796 -0.0072730086 0.115226276 0.014643799
000310 64 38 31 3e b7 1e 30 bd bf 21 a2 3d 75 ab 0c 3e
       0.17306668 -0.042998042 0.07916593 0.1373728
000320 50 b2 92 bc a1 a7 0d 3e 00 a4 f6 bd 84 e3 59 be
       -0.017907292 0.13833477 -0.12042999 -0.21278197
000330 cf 33 65 3d 49 a9 c2 bc ad 76 10 bd 21 8e 76 be
       0.05595761 -0.023762362 -0.035269428 -0.24077655
000340 33 92 ef bc cd cf 06 be 26 c1 18 bc c6 d2 8f 3d
       -0.029244518 -0.13165207 -0.009323394 0.07022624
000350 04 12 fb bd 62 d4 f9 3d f4 ed 53 be f7 78 12 be
       -0.122592956 0.12198712 -0.2069624 -0.14303957
000360 29 77 21 3c f9 2d dd bd a0 52 d3 bd 08 f2 2f 3d
       0.00985507 -0.10799784 -0.10318494 0.04295543
000370 f2 eb 9f 3e 8c 1c a0 3d 05 51 c6 3c 41 38 86 be
       0.312347 0.07817945 0.024208555 -0.26214793
000380 ce 2b 50 be 44 da fc 3d be 4f b5 bd 84 b2 af bd
       -0.2032921 0.12346318 -0.088531 -0.08578971
000390 99 3b a7 bc 8d 1c a3 bd c5 52 c2 3d 15 07 db bd
       -0.02041416 -0.0796443 0.09488443 -0.1069471
0003a0 30 66 10 be b0 d0 48 3e 36 33 cf 3d 56 4c 30 be
       -0.14101481 0.19610858 0.101171896 -0.1721662
0003b0 cf 92 8c 3e a0 89 36 3d 63 9b f9 bd 68 ad df 3d
       0.27455756 0.044564843 -0.12187841 0.109217465
0003c0 7f 88 31 3e 2a fc 72 be 64 b0 d5 3d 1f 40 56 3e
       0.17337225 -0.23729005 0.104340345 0.20922898
0003d0 f8 d1 6b be 53 02 c2 bd 5a e5 09 3d 9b 0a 29 bd
       -0.23029315 -0.094730996 0.033665992 -0.04126988
0003e0 a8 35 4f be d2 42 00 bd d7 ec 28 37 77 ff 95 3d
       -0.20235312 -0.031313725 1.0068724e-05 0.07324117
0003f0 d9 27 05 be 37 7e a5 be 74 7a 0d 3e 2f 3b 52 be
       -0.13003482 -0.32322857 0.13816243 -0.20530389

network_body._body_endoder.seq_layers.0.bias f4 [128]
000000 fd 35 9a ba 4e cf 03 bb d0 c7 22 b7 1c 59 98 38
       -0.0011765357 -0.0020112577 -9.702475e-06 7.264523e-05
000010 00 c9 39 3c 45 26 a1 3a 68 bd 1c bb 8a 05 48 3b
       0.011339426 0.001229473 -0.0023916606 0.003052088
000020 c0 6d 55 b9 7c fc 06 3b f1 20 7f bb bc f9 43 bb
       -0.00020354148 0.002059727 -0.0038929547 -0.0029903492
000030 f4 ca ec ba fd 61 60 3b db d5 fd ba 5f 61 8a ba
       -0.0018065856 0.0034238093 -0.0019366102 -0.0010557583
000040 a6 35 a9 bb 1c c5 3e ba 21 ac 05 bb 69 62 06 bb
       -0.005163866 -0.00072772964 -0.0020396786 -0.0020505434
000050 6f b4 38 bb 2e 3f 98 ba e3 28 3b bb 6d aa bc bb
       -0.0028183719 -0.0011615509 -0.0028558306 -0.005757621
000060 49 d7 20 ba c4 65 65 b9 6d 31 7c bb a7 18 17 ba
       -0.00061355956 -0.00021877052 -0.0038481608 -0.00057638664
000070 25 c1 10 ba 46 1e 40 3b 79 6a 8a 3b bc c8 23 bb
       -0.0005521945 0.002931492 0.0042241183 -0.0024991473
000080 a5 5f 1b bc d1 2e 59 3b bc 3c 66 3b c1 e9 90 3b
       -0.009483253 0.0033139477 0.0035131415 0.004422397
000090 3f a7 b3 3a d7 a5 24 bb 19 a9 50 bb 54 ea 68 ba
       0.001370646 -0.0025123262 -0.0031839071 -0.0008885015
0000a0 32 fd d2 3b 16 ae 3f bb 1b 58 9b ba 3a f6 be 3a
       0.0064388746 -0.002924805 -0.0011851819 0.0014569231
0000b0 37 f1 19 bb 58 04 ef ba db 9f 3f 3c 2a b1 54 bb
       -0.0023489723 -0.0018235547 0.011695827 -0.003245423
0000c0 39 f9 8f 3b cf a7 53 bb 94 56 57 bb 7f 09 4c b9
       0.0043937233 -0.0032296067 -0.0032858 -0.00019458494
0000d0 9c d1 af ba bd 09 26 3b 35 f7 2d 3b ef 20 dd 3a
       -0.0013413909 0.0025335394 0.0026545052 0.0016870777
0000e0 b5 f1 a4 b9 a8 94 9f 3b 8a 00 4d 3b 04 c1 fb b9
       -0.00031460603 0.004870016 0.003128084 -0.00048018259
0000f0 76 fe 24 3b 7f 50 c8 bb 76 07 48 3c 22 8c 17 3c
       0.0025176085 -0.0061131115 0.01220881 0.009249719
000100 fe 1c 71 3b 28 e2 44 3a dc 4d 8a 3a 84 e5 42 3c
       0.0036790962 0.00075105065 0.0010551768 0.011895541
000110 6b 6c db 3b ad 1f 12 bb c7 7d 0a bb c3 c2 06 3b
       0.006696274 -0.0022296712 -0.0021132098 0.0020562864
000120 f8 8a 52 3b d9 cc ac 3a 7a 04 32 bb ef ee df bb
       0.003212629 0.0013183608 -0.0027163313 -0.006833903
000130 a8 7d a9 3b 1b 47 c7 39 bd a6 f3 3a e6 91 49 3b
       0.00517245 0.00038009215 0.0018589121 0.0030757128
000140 ce 0f 9c 3b d2 55 cd bb b9 ed 0d bb e6 18 70 39
       0.0047626263 -0.006266334 -0.0021656586 0.00022897459
000150 b9 3a 53 3c 9a 1e f6 3b 60 5b 68 bb ba f6 e0 b8
       0.012892419 0.007510972 -0.0035454854 -0.00010727109
000160 a7 56 e4 bb d3 71 a9 ba 2d e9 09 bb 7d 14 34 3c
       -0.0069683376 -0.0012927599 -0.0021043525 0.010991213
000170 4d 1d f5 3b 4d 9e 8f 3b 85 87 b8 3b 02 79 99 3a
       0.0074802996 0.0043828846 0.0056313896 0.0011709037
000180 95 ab 7a 3a d5 bb 63 3b 48 13 ef 3a f5 89 89 b9
       0.0009562311 0.0034749408 0.0018239999 -0.00026233462
000190 4d b1 0e 3c 5a 59 aa b9 a9 44 da 3b c8 3e b2 b7
       0.008709264 -0.000324915 0.006661017 -2.1248488e-05
0001a0 c6 9d 76 3b cd cd a8 3b 3f 7e e8 bb ea c5 72 3a
       0.0037630661 0.0051514865 -0.007095128 0.0009261059
0001b0 cf c8 22 3b 5b 67 47 ba 5a c4 44 3b 22 c4 08 3b
       0.002483893 -0.0007606649 0.0030024261 0.0020868857
0001c0 c3 cf 2f ba 52 c0 76 3b 28 e7 cc 3b 3e 89 1e 38
       -0.0006706679 0.0037651253 0.006253142 3.7797952e-05
0001d0 0f 88 6a bb 6b 15 03 b9 0d dc 2a bb 7e 5c 26 ba
       -0.0035786664 -0.00012501112 -0.0026071102 -0.000634618
0001e0 b9 b6 b2 ba 22 ac e6 b9 3b 51 3a 3b 4b 84 09 bb
       -0.0013634778 -0.00043997267 0.0028429765 -0.0020983394
0001f0 71 92 c6 3b 9f 89 49 3a 2e 64 24 3c 1d 9e 0b bb
       0.0060599376 0.00076880486 0.01003365 -0.002130396

network_body._body_endoder.seq_layers.2.weight f4 [128, 128]
000000 34 18 a3 bd 78 25 8f 3d f8 e4 55 3d b7 32 31 3e
       -0.07963601 0.069895685 0.052220315 0.17304502
000010 16 33 3b be 6d 46 5d bd 10 dc d5 bd 7c 3f 01 be
       -0.18281206 -0.05402224 -0.10442364 -0.12621874
000020 46 60 28 3d bc 50 c7 3c b0 b7 c8 3c cc 88 4a 3d
       0.04110744 0.02433049 0.024501652 0.049446866
000030 e1 09 e2 3c 47 93 97 ba 77 7b 92 bd 3d 61 9f bd
       0.027592601 -0.0011564278 -0.07152455 -0.077822186
000040 63 53 3c 3b ff 28 c7 bd 25 58 dc bd e9 41 e2 3d
       0.0028736226 -0.09724616 -0.10759 0.110477276
000050 41 94 c9 bc 83 ef 73 3d 5c 89 e9 bd ea 7b 21 3e
       -0.024606826 0.059554588 -0.11403152 0.15769926
000060 2e 07 9e 3d 07 c6 27 bd ca fd 58 3c ea a0 39 be
       0.07716213 -0.040960338 0.013244102 -0.1812779
000070 21 15 77 3b 53 a3 09 3e 02 af e2 3c 7a 84 0f 3d
       0.0037701803 0.1344121 0.02767134 0.03503845
000080 e7 d2 8d 3d fd 47 fb bd b0 a4 5d 3c ed 28 b5 bc
       0.06924992 -0.1226959 0.013528034 -0.022114241
000090 07 34 01 3d 7b 30 54 bd 2a 1d 51 3d 6f a8 68 bd
       0.031543758 -0.051804047 0.051053204 -0.056801256
0000a0 f1 eb 11 be 7d 27 29 bd 3c b4 df bc d6 84 57 bd
       -0.14250161 -0.041297425 -0.027307622 -0.052616917
0000b0 99 f5 0f 3e 92 07 16 ba 8d 76 91 3d 4c b0 e5 3d
       0.14058532 -0.0005723174 0.0710269 0.112152666
0000c0 ef ad a4 bc 49 b1 59 3d 97 30 24 3c 29 2a dc 3d
       -0.02010247 0.053147588 0.01002135 0.10750229
0000d0 77 f7 bf 3d 33 80 b5 3d de f8 01 3e 17 fa 19 be
       0.09373372 0.08862343 0.12692592 -0.15036808
0000e0 a3 3a b1 3c 94 9e fe bd 60 72 b9 bd ac a0 a2 bd
       0.021634405 -0.1243259 -0.090550184 -0.07940802
0000f0 5c 96 4e 3d 5f 55 a6 3d f8 a9 79 3d 42 04 22 bd
       0.050436363 0.08121752 0.06095311 -0.03955484
000100 f8 85 99 3d 0d 85 11 3c d7 63 4b bd 51 6b ac 3d
       0.07496256 0.008881819 -0.04965576 0.084189065
000110 1c 20 05 be 00 57 f8 bd d1 94 c3 3d 9a 7f 3c bd
       -0.1300053 -0.12125969 0.09549869 -0.046020128
000120 1c c6 90 3d 9f 47 cb bc 02 b4 0e bd a0 24 14 be
       0.07069036 -0.024814425 -0.034839638 -0.14467096
000130 62 5c a3 bc 24 df 8e bd 06 e5 c0 bd bd 70 10 be
       -0.019941512 -0.069761544 -0.09418683 -0.14105506
000140 0e 54 e7 3d 8c 03 07 be 49 7e 7b bd 49 f8 bd bd
       0.11295329 -0.13184947 -0.06139973 -0.09275872
000150 e4 b3 87 bd 99 fc df bd 22 b0 bc bd 56 cf 4a 3d
       -0.06626108 -0.10936851 -0.09213282 0.049514137
000160 b9 02 0e 3a ee 9c 5a bd c8 14 30 3d a6 9f 86 bd
       0.0005417276 -0.053372316 0.04298857 -0.06573419
000170 8b 6f 72 3d 53 88 de 3d 52 af 8a bc fc 02 84 3c
       0.059188407 0.108658455 -0.016929302 0.016114704
000180 04 d9 44 be 02 bf 46 3d e7 b4 4c 3c 09 82 3e bc
       -0.1922341 0.048522003 0.012494302 -0.0116276825
000190 94 40 f4 bd 2a bc 49 be 96 04 2a bd 9d 1e 80 bc
       -0.1192638 -0.19700685 -0.04150828 -0.015639598
0001a0 c7 8d 05 be 50 1c 7b bd d4 ec 78 3e a3 8d 07 3e
       -0.13042365 -0.061306298 0.24309093 0.13237624
0001b0 be 12 65 be b2 3d 49 be b8 91 cd bd d0 7f 0e 3b
       -0.22370431 -0.19652441 -0.10037559 0.0021743663
0001c0 16 69 3f 3d 61 f3 8d bd f7 db 96 bd de 67 64 3d
       0.046731077 -0.069311865 -0.07366174 0.055763118
0001d0 0d 1d ab bd 6b 0c f8 3d 36 9f 35 be ff 99 c7 bd
       -0.0835515 0.121117435 -0.17736515 -0.09746169
0001e0 aa a9 34 3d bf f2 dd bc ee d6 9d bc 3d 8f 8a bd
       0.044107117 -0.02709329 -0.019267526 -0.06765602
0001f0 ee 55 b9 3d 79 ab 53 3d ea af 75 3d 2e 21 7e 3d
       0.09049593 0.0516772 0.059982218 0.06204336
000200 40 a3 24 3d ad 7a 75 3d 6b 9b b0 3c 9d 94 9f 3d
       0.04019475 0.059931446 0.021558484 0.077920176
000210 28 1f 06 be 95 33 ac 3c 0e 84 2b 3d 20 20 9d 3d
       -0.13097823 0.02102069 0.041873984 0.07672143
000220 33 32 92 bd ca 17 0e be c1 56 e3 3b 53 d3 d5 bd
       -0.07138481 -0.13876262 0.006937832 -0.104406975
000230 b0 00 49 bd 71 51 b0 bd c0 1d 74 3d d4 30 a9 bb
       -0.04907292 -0.08609284 0.059598684 -0.0051632915
000240 bb a3 c1 3d c7 d5 48 bd f3 37 1a bd 60 8e a2 bd
       0.09455057 -0.049032 -0.037651014 -0.07937312
000250 a5 c7 78 bd 0b e7 06 3e 67 01 02 be d3 6d 50 bc
       -0.06073727 0.13174073 -0.12695847 -0.012721497
000260 1b 89 36 3d f7 23 f8 3c 71 8b de 3d 17 b8 d0 bd
       0.044564348 0.030290587 0.1086644 -0.10191362
000270 02 fb a9 bc 08 2a 9b 3c d7 ee 3f 3d 0d 4d 84 3d
       -0.020749573 0.01894094 0.046858635 0.06460009
000280 65 17 2a be de 2e 68 3d c2 1e 8f 3c 32 df 63 bc
       -0.16610487 0.05668532 0.017470721 -0.013908194
000290 28 2b b3 bd 11 7b 7b bd 6d d6 94 3d b6 3d 67 3c
       -0.08748466 -0.061396662 0.07267461 0.014113834
0002a0 a1 24 de 3c 05 26 d4 3d 47 b1 a0 3d 30 17 11 3e
       0.027117075 0.10358814 0.07846313 0.14169002
0002b0 ff 16 c5 3d 26 28 07 bd 11 f0 2d 3d 56 5e 57 bc
       0.09623527 -0.032997273 0.042465273 -0.01314505
0002c0 f0 e8 dd bc ce 4c 49 bd 7d 63 44 bd fb c2 a4 bd
       -0.027088612 -0.049145512 -0.047946442 -0.08045002
0002d0 63 70 0e 3d 81 ae 49 3d d8 b0 95 bd c6 d7 ab bd
       0.03477515 0.049238686 -0.07309121 -0.08390765
0002e0 cc 59 ec 3c 89 9a ea 3d 44 7a a2 bd 57 37 02 3e
       0.028851412 0.114552565 -0.079334766 0.12716423
0002f0 8e 9d 23 3e 89 ac 21 3d 7b 00 a0 3d e2 fc 6c bd
       0.15978071 0.039471183 0.07812592 -0.057858355
000300 1d 18 41 bd 9e 42 9e bc bb f8 b8 bc fa 69 c5 bc
       -0.047142137 -0.019318875 -0.022579541 -0.024098385
000310 e7 89 98 3d b9 66 d9 bd 57 34 ae bd 3b 26 26 be
       0.07448178 -0.10615296 -0.08506077 -0.16225521
000320 68 6b d6 3d 58 50 88 3d 8c 64 27 bd d7 94 84 bd
       0.10469705 0.06655949 -0.040867373 -0.064737014
000330 90 cf 91 3d f1 ba 0b be d0 6a 00 bd 65 94 53 3d
       0.071196675 -0.13645531 -0.031351864 0.051655192
000340 ea ee 59 bd 35 f3 7b 3d 8c 1f bb b9 4e cf 47 bd
       -0.05320636 0.061511237 -0.00035690924 -0.048781686
000350 78 19 03 3c 05 3f 4e bd 5c 91 90 3d d3 60 b8 3d
       0.008001678 -0.05035307 0.07058975 0.09002843
000360 95 5f 95 bd 4f 6b e2 3c 7a 83 21 3d c2 85 07 3e
       -0.072936215 0.02763906 0.039432026 0.13234618
000370 ef 1e b7 bd 8d 79 6a be 56 41 be bd 06 a9 47 3e
       -0.08941447 -0.2289793 -0.092898056 0.19498071
000380 8f dd fb 3c 55 a2 94 3c fc 38 d5 3d 33 f3 d6 bd
       0.030745296 0.018143812 0.104112595 -0.10495605
000390 17 d9 c9 bd ca 33 a0 3d 56 ad 53 3c 3c 21 a3 3d
       -0.0985586 0.07822378 0.0129197445 0.07965323
0003a0 26 8b b8 3c 72 c5 1c be d7 e2 e4 3d 21 86 b9 3b
       0.022527289 -0.15309694 0.11176079 0.0056617414
0003b0 eb f5 63 3b 1e c4 64 bc 8c 07 6b ba 25 48 e7 bc
       0.003478403 -0.013962774 -0.0008965663 -0.028232643
0003c0 fa 4e 8e bd 2e c6 bd bd 38 a3 e1 3c 5b cf 65 3c
       -0.06948657 -0.092663154 0.02754365 0.014026488
0003d0 de 2a c1 3d 5b f0 0c 3c 9a 5b 01 bd 11 82 76 bd
       0.094320044 0.008602227 -0.0315815 -0.060182635
0003e0 bf f8 13 3e 73 47 af 3c 08 dc 45 3d 6b c1 07 be
       0.14450358 0.021396374 0.04830554 -0.13257377
0003f0 d0 67 04 bd 23 cb 14 3d e9 10 53 bd 6a 6b 0f 3d
       -0.032325566 0.03632654 -0.0515298 0.035014547

network_body._body_endoder.seq_layers.2.bias f4 [128]
000000 9e 05 82 ba 5c 5e ce 38 1c aa 74 3b cc f2 0b ba
       -0.0009919887 9.840421e-05 0.0037332838 -0.0005338609
000010 9e 78 3d b9 04 cf 94 bb 47 3a 39 3c 7b 4f 64 bb
       -0.00018069378 -0.0045412797 0.011305398 -0.0034837413
000020 f3 d6 c5 bb 61 ac 0f 3b b2 d5 6b bb 8c 36 f7 ba
       -0.006037587 0.0021922814 -0.0035985527 -0.0018860861
000030 61 a7 f4 b8 84 31 da 3a 8d 2f f8 3a 92 88 81 ba
       -0.000116660034 0.0016646837 0.001893507 -0.000988262
000040 27 86 b5 38 9f 5b 05 3b 0e 18 79 3a 13 ee 57 3b
       8.6557404e-05 0.00203488 0.00095021806 0.00329483
000050 df ab 45 3c 05 7c b1 3b 94 61 0d bc 8a 22 31 ba
       0.012064903 0.0054163956 -0.0086292215 -0.0006757161
000060 f4 c3 40 bb a2 60 1a bb 5a 4a 11 ba f4 3b 14 ba
       -0.0029413672 -0.0023556133 -0.000554239 -0.00056546857
000070 94 bf f1 3a c3 78 07 bb bb d2 8a 39 4b 1e 16 ba
       0.0018443936 -0.0020671345 0.00026478418 -0.000572656
000080 28 54 9e bb b3 21 42 bb 4f 0f 06 3c 0f df 4f ba
       -0.0048318096 -0.0029622137 0.008182361 -0.00079296617
000090 92 d3 c5 39 70 82 1a 3b b7 d1 05 3b 4c 36 92 39
       0.000377324 0.0023576282 0.002041919 0.00027887744
0000a0 02 d6 ff ba 12 58 5d 3a 70 e0 f7 3a 97 e1 82 bb
       -0.0019518735 0.00084436045 0.0018911492 -0.0039941776
0000b0 b6 8f ba bb 7b 54 f8 3a 2e e2 40 bb 80 8a f0 3b
       -0.005693401 0.0018946076 -0.0029431689 0.0073407292
0000c0 1f 40 83 bb 70 3e 31 38 a3 50 1b bb 2c a4 34 3c
       -0.0040054466 4.2258238e-05 -0.0023699186 0.01102547
0000d0 ba e9 a8 bb b8 ed a1 3b 89 5e d6 3a ec e9 9f ba
       -0.0051548155 0.0049416684 0.0016355078 -0.0012200451
0000e0 95 12 cc 39 c1 fb 0c ba 89 2a 00 bc 5d 7e a5 ba
       0.00038923757 -0.00053780904 -0.007822641 -0.001262616
0000f0 98 88 49 38 26 68 1a 3c d0 b6 e0 ba b7 24 ae 38
       4.8049347e-05 0.009424245 -0.0017144326 8.303805e-05
000100 6e 59 99 ba ec 49 85 3b 4c 5d 0c 3b 18 fe f9 3a
       -0.0011699626 0.00406765 0.0021417914 0.0019072918
000110 39 2b 34 3a d4 91 76 3a 6d 45 82 3b e3 3c af 3a
       0.0006872896 0.00094058854 0.0039755614 0.0013369586
000120 e5 0b 65 bb 78 0d eb 3b b4 3b 03 bb e6 d4 59 bb
       -0.0034949717 0.0071732365 -0.00200246 -0.003323847
000130 4c ad 0d 3c 7a a8 ee 3b 61 b8 72 3b 08 85 ac 3b
       0.008647274 0.0072832676 0.0037036168 0.005264882
000140 98 88 7c ba 84 3e fc 3b bd 81 96 bb e2 1e 03 ba
       -0.0009633391 0.007697882 -0.0045931027 -0.00050018553
000150 27 34 3c 3c fc 29 fc 39 6e 81 14 bb 96 7f 60 3b
       0.011487043 0.00048096466 -0.0022660154 0.0034255735
000160 1e ac bf 3a be 58 95 3b 63 4e 4a 3c 48 b9 9e ba
       0.0014623438 0.004557698 0.01234779 -0.0012109661
000170 ae 55 69 b8 67 59 c0 39 8e 93 0d bc 46 30 fa ba
       -5.5631324e-05 0.00036687704 -0.008641137 -0.0019087873
000180 e3 cc ec ba 80 fa 72 3a f6 4b 47 3c 31 b0 90 3b
       -0.0018066432 0.0009268895 0.012164107 0.004415535
000190 56 40 70 bb 20 35 31 bb 70 5f ce 39 74 10 a0 bb
       -0.003665944 -0.0027039722 0.00039362488 -0.004884774
0001a0 ef a9 bf 3a a3 dc 24 bb 80 b7 d7 ba f7 3a dd 39
       0.0014622788 -0.0025155924 -0.0016457886 0.00042196337
0001b0 3b 66 32 3a b5 11 87 3c cf 95 1e 3c 5c e5 32 3a
       0.00068053947 0.016487936 0.009679272 0.00068243383
0001c0 40 dc c2 ba a5 91 a8 b8 a8 65 27 ba 25 56 e1 bb
       -0.0014866665 -8.037993e-05 -0.00063856924 -0.0068767243
0001d0 17 32 de b7 6e 7e 07 3a c5 d4 3e 3a 28 91 71 bb
       -2.6487787e-05 0.0005168681 0.000727963 -0.0036860202
0001e0 e1 43 f8 ba 85 95 91 bb 04 03 f8 b9 bd 1d d5 3b
       -0.0018941128 -0.004442873 -0.00047304493 0.006503789
0001f0 46 16 35 39 af c4 d2 bb da d5 7b b9 06 88 28 bb
       0.00017269803 -0.006432138 -0.00024016891 -0.0025715842

action_model._discrete_distribution.branches.0.weight f4 [3, 128]
000000 5d cf 14 bc 5a 6e 7f 3c 1c b9 22 39 6d f1 07 bb
       -0.009082642 0.015590275 0.00015518483 -0.0020743266
000010 33 29 9d 3a ce 54 2c bb ca 1a 92 bb 0c fc 08 3b
       0.0011990428 -0.0026295665 -0.00445876 0.0020902185
000020 fc 76 39 bb 03 9d 10 3b 40 5a 18 3b 7c 46 48 bc
       -0.002829968 0.0022066243 0.0023247153 -0.012223836
000030 63 77 e8 39 3d 3d 0a bc 8b 8e d6 3b 1a ed 26 bc
       0.00044339438 -0.008437452 0.006547754 -0.010188365
000040 7a 80 a0 3b 1f 75 8e bc 00 45 bf 3b 63 da 6e 3c
       0.004898128 -0.017389832 0.005837083 0.014578435
000050 5e f0 7e bb be 82 f3 bb 2b be d1 b9 28 7f 17 bc
       -0.0038900594 -0.007431357 -0.00040005273 -0.009246625
000060 c2 37 af bb ea ee b1 ba 70 30 cf 3b 0b 01 15 3c
       -0.005347223 -0.001357523 0.006322913 0.009094487
000070 e6 16 0e bc c6 c0 8a bb c3 94 f2 ba 3d ca f7 bb
       -0.008672452 -0.004234406 -0.0018507469 -0.0075619505
000080 91 5a 39 3c c9 aa 88 3b b6 41 67 bc 49 2f 31 3c
       0.011313097 0.00417075 -0.014114788 0.010814496
000090 7d 28 2f 3b 01 d9 d7 3a fd 4d dc 3a 2b e1 ee 3a
       0.0026727014 0.001646787 0.001680791 0.0018225064
0000a0 0a e6 ec 3b d7 33 2f 3b cb 76 2f 3c 8a 06 24 3b
       0.007229571 0.002673378 0.010709475 0.0025028312
0000b0 42 57 05 3a fa 82 78 3a f4 01 af 3b a6 75 1a bc
       0.000508655 0.0009479966 0.005340809 -0.009427464
0000c0 7d 28 01 bc c9 e2 26 ba 2f 4a 29 3c f0 19 2c 39
       -0.007883188 -0.0006366191 0.010332628 0.0001641286
0000d0 bb 63 ad b8 98 e1 c1 ba 6d 1e fa bb 74 32 b8 bb
       -8.267859e-05 -0.0014791964 -0.0076330216 -0.005621249
0000e0 72 4b 09 bc d4 1c 31 bc 9c 37 30 bb 17 f6 6b 3c
       -0.008379804 -0.010810096 -0.0026888615 0.014401934
0000f0 44 c1 f0 3b 29 41 12 3b 87 a7 8c bc 11 61 58 3b
       0.007347258 0.002231667 -0.017169727 0.003301684
000100 58 91 78 3c f3 17 40 3c f2 fb 6d 3c c3 01 96 3c
       0.015171371 0.01172446 0.0145254005 0.018311387
000110 68 d2 29 3c f0 05 a1 3a 5d 2a 67 3a c3 18 c9 3b
       0.010365106 0.0012285095 0.00088182633 0.006136985
000120 ad bb c2 bb 10 70 9f 3b 60 41 5b 3c 11 db 32 bc
       -0.005942783 0.004865654 0.013382286 -0.010916487
000130 7a 01 06 bc f6 79 52 3b 8a c9 e6 ba a8 2f a2 bc
       -0.008179063 0.0032116151 -0.0017607671 -0.019798115
000140 a6 fe cf b8 c7 0d 58 bc f0 f0 80 bc 86 fe 48 3c
       -9.917961e-05 -0.0131868785 -0.015739888 0.012267714
000150 6c a4 16 bc 4c 0d a0 b9 6d 2b 5f bb c9 cd 86 3c
       -0.009194475 -0.00030527485 -0.0034052983 0.016455548
000160 7c 85 a0 3b f3 a0 13 bc c5 25 8d 3c dd f3 06 bb
       0.004898725 -0.009010541 0.017229924 -0.0020592131
000170 f6 d5 9e 3c 2d f1 67 bc af ba 5e 3c b6 30 a7 bb
       0.019389134 -0.014156622 0.0135943135 -0.0051022423
000180 a5 64 94 3a 68 00 38 bc e7 90 1c 3c da 09 fe b9
       0.0011321498 -0.011230566 0.009556032 -0.00048453995
000190 69 a1 17 3c 49 5c 99 b9 71 40 0f 3c 9d 8b 98 3c
       0.009254792 -0.00029251192 0.008743391 0.01862126
0001a0 ea df 27 bc 06 fc c7 39 e0 d2 ff bb bd 9a 46 3c
       -0.010246256 0.0003814401 -0.0078071207 0.012121853
0001b0 05 6a 89 3c ec b6 bd bb b6 d3 93 bc 8e 5b 3f bc
       0.016774187 -0.0057896283 -0.018045288 -0.011679543
0001c0 7c de ff bb 72 9b 64 bb ea de fc 3a ba 71 35 bc
       -0.0078085046 -0.0034882692 0.0019292508 -0.011074478
0001d0 90 a2 5f 3b 44 c4 a8 bb 4b 06 f8 3b f3 d1 72 bc
       0.0034123994 -0.00515035 0.0075691096 -0.014820564
0001e0 e2 9d 16 bc e7 77 bb ba bb c4 de 3b fc cb 71 3b
       -0.009192916 -0.0014302701 0.0067983544 0.0036895266
0001f0 b5 02 a6 3c 9b 78 e3 bb c0 41 55 bb 24 5c a6 3b
       0.020264963 -0.0069418675 -0.003254041 0.005076902
000200 f4 00 cb bb 06 26 59 bb af 0d 4e 3c 4e 3e 8c 3b
       -0.006195182 -0.0033134236 0.012576505 0.0042798882
000210 d0 c5 05 3c 6b 0b 96 3b fa 7e b3 ba 47 cc 17 3b
       0.008164838 0.004578998 -0.0013694458 0.002316253
000220 b1 47 f0 bb 07 74 bc bb 15 6b e0 3b 72 52 26 3b
       -0.007332765 -0.005751136 0.0068487027 0.002537873
000230 42 c4 a4 bc 88 e0 46 bb ac 6f 50 bb 59 c7 97 3b
       -0.020113114 -0.0030346233 -0.0031804843 0.0046319184
000240 04 07 1c bc b9 8c 15 3c b5 e7 b3 bb fa b9 0b 3c
       -0.009523157 0.009127789 -0.005490268 0.008528227
000250 1f c1 9d 3c f1 de 6f 3c e2 a1 49 bb 7e d7 01 3c
       0.019257126 0.014640556 -0.0030766656 0.0079249125
000260 25 9b 7d bc 9b 3e 8c bb 8a ac e4 3b fd 26 25 3b
       -0.015478884 -0.004279924 0.006978576 0.002520024
000270 f5 cd 8f 3c b0 e0 e6 ba ec 96 50 bc 80 80 9c 39
       0.017554263 -0.001761457 -0.012731295 0.0002985038
000280 d2 cb ac 3b 77 77 9f ba 6c f3 0f 3c 53 d0 84 bb
       0.0052733207 -0.0012166341 0.008786064 -0.0040531545
000290 78 6c 59 3b 6c bd 52 3b 36 aa 05 3b d3 d8 3a bc
       0.0033176225 0.0032156361 0.0020395643 -0.011404234
0002a0 3b 96 4a 3c f4 73 b9 bb 4d bb 80 3c 9d 1b f7 3b
       0.012364919 -0.0056595746 0.015714312 0.0075411336
0002b0 ea 2b fa 3a 6b 88 51 3c cd 12 de 3b 97 0d b6 bb
       0.0019086574 0.012788872 0.0067771436 -0.0055558193
0002c0 f1 15 ee bb 6d d0 f0 bb 6c 79 64 3c 1f da 93 bb
       -0.007265799 -0.007349065 0.013944965 -0.004512086
0002d0 85 3a 21 bb ef 5a cc bb 03 89 8c 3b a4 b1 c6 bb
       -0.002460153 -0.006236426 0.004288794 -0.006063657
0002e0 c4 d7 a2 3b b5 08 7c 3c 48 d2 73 3c ea f0 b4 3b
       0.004969569 0.015382935 0.014881678 0.0055218833
0002f0 10 fc 6e 3c 97 46 8b bc 02 54 87 3a a6 93 75 3b
       0.014586464 -0.017001433 0.0010324719 0.0037472039
000300 1a 31 2d bc aa d3 aa 3b 4f bf b0 ba 83 e4 9d bc
       -0.010570789 0.0052132206 -0.0013484749 -0.019274002
000310 ae 3a 3a bc 41 61 33 3c 1f f5 2c ba 89 2b 5f bc
       -0.011366529 0.01094848 -0.0006597805 -0.013621219
000320 28 31 49 3b dd 96 46 bc 93 98 c6 3a 53 e0 c8 3b
       0.0030699465 -0.01212093 0.0015151672 0.006130257
000330 89 1a c7 3b 2e 25 e0 3c 03 13 61 bc be ea a1 3b
       0.0060761613 0.027361479 -0.013737443 0.0049413135
000340 a1 5e 15 3c 42 09 7c 3c 8a c7 ef bb 29 ac 8c bc
       0.0091168 0.015383067 -0.007317488 -0.017171936
000350 79 38 96 bb 92 d4 47 3c ff 53 2e bb a5 a6 01 bc
       -0.004584369 0.012196677 -0.0026600359 -0.007913266
000360 08 2d ef 3b 45 8c 73 3c c5 46 61 3b d6 03 b0 39
       0.0072990693 0.014864986 0.0034374457 0.00033572194
000370 c2 72 8f 3b 99 e5 13 3b cf 11 28 bb ca 9b 6a 3c
       0.004377694 0.002256727 -0.002564538 0.01431937
000380 cc 12 e7 3b c3 e9 9b 3c 7d fa a0 3a a1 a9 ca bb
       0.0070518013 0.019032365 0.0012281683 -0.006184772
000390 03 61 e3 39 3c d2 ed ba 44 fc 25 3c 33 3e 31 ba
       0.00043369093 -0.001814432 0.010130946 -0.00067612826
0003a0 f6 ad 8c bc b3 6d bc ba b1 5e 1c ba 77 8b 11 bc
       -0.017172795 -0.0014375955 -0.0005965038 -0.008883349
0003b0 da 83 78 bc f5 65 49 bc 36 b7 01 bc 9e c1 41 3c
       -0.015168155 -0.012292375 -0.007917216 0.011825947
0003c0 ee 2c de bb f8 75 3e 3b 7c 24 0b bc f7 bc 21 bb
       -0.0067802584 0.0029062014 -0.008492585 -0.0024679282
0003d0 af 25 27 bc 9c f0 77 3c 38 27 90 3c ed b3 82 b9
       -0.010201856 0.015133049 0.017596826 -0.00024929587
0003e0 1c 06 6e 3c 5e ef bc bb 58 6f fa 3a ea b8 33 ba
       0.014527824 -0.0057658395 0.0019106669 -0.00068558624
0003f0 cc c2 b2 bb a6 bb cd bb 6f 3b c4 ba 2f 7f 97 bb
       -0.0054553505 -0.006278473 -0.0014971326 -0.0046233158

action_model._discrete_distribution.branches.0.bias f4 [3]
000000 a8 36 c8 3a 7f e4 bc 3a 3d 11 1f bb
       0.0015275078 0.0014411359 -0.002427175

action_model._discrete_distribution.branches.1.weight f4 [3, 128]
000000 e2 fe 88 3a 1d b1 88 bc 5b e2 3f 3c 9d 99 e4 bb
       0.0010451938 -0.016686017 0.011711682 -0.00697632
000010 8c 88 39 bc e8 3b d9 3b 1f dd f1 bc fe 59 07 3c
       -0.011324059 0.006629456 -0.029524384 0.008261202
000020 d4 e1 81 3b 78 d9 fc 3b ef 12 62 3b b5 e7 fe ba
       0.0039636884 0.007716354 0.0034496149 -0.0019447716
000030 b2 63 25 3c 17 0e 02 3c 04 e9 05 3c 96 20 a2 bb
       0.01009457 0.00793793 0.008173231 -0.004947732
000040 cb 6a 94 b9 60 dd 5a bb 40 ae c7 ba 6b 6e 55 bc
       -0.00028308327 -0.003339611 -0.0015234426 -0.013026814
000050 90 c6 10 3c b6 d4 f2 3b 0a 7d a5 3b 98 92 d7 3b
       0.0088364035 0.007410611 0.005050306 0.0065787546
000060 98 5b 2a 3c e8 4b d7 3b 7f 9c 90 3b 3e 30 cc 3a
       0.010397814 0.006570328 0.004413187 0.0015578342
000070 0f 45 12 3c b3 7a 07 3b bb 64 fe bb c4 8f c3 bb
       0.008927598 0.00206725 -0.007763473 -0.005968066
000080 b4 ff 9c 3b 89 ca 5e ba 9e ad 69 3c 74 ee b6 bb
       0.0047912244 -0.0008498808 0.014262585 -0.005582625
000090 2e 50 11 bc 37 da a4 bb c9 96 4e bc 7c 5f 19 bc
       -0.008869214 -0.005030896 -0.012609192 -0.009361144
0000a0 d5 e1 14 bc 22 31 2a 3c f4 62 46 bb 5e d3 21 bc
       -0.009087046 0.010387691 -0.0030271383 -0.009877054
0000b0 9a cf b8 bb 33 88 fb bb 90 6f 90 3c d6 08 37 bb
       -0.0056399824 -0.0076761483 0.017631322 -0.002792885
0000c0 6a 3b da bb 86 3a 97 3a cf 60 ac 3b b9 a8 13 bc
       -0.0066599147 0.0011537827 0.005260564 -0.009012395
0000d0 aa fe 94 bb 88 4a 0f bb 88 4c 00 bc e7 6c 4a 3b
       -0.00454696 -0.0021864492 -0.0078307465 0.0030887665
0000e0 e1 a2 82 bb 3b e1 92 ba 0e 71 08 bb 34 4b 7e 3c
       -0.003986702 -0.001120604 -0.002081934 0.0155208595
0000f0 4f 46 78 3a 1e 76 2f 3c b2 7b ac 3b 59 31 a2 bb
       0.0009470926 0.010709314 0.005263769 -0.0049497304
000100 81 b2 96 3b e5 9a 38 3c d3 e6 18 bc 04 a5 7a bc
       0.004598916 0.0112673985 -0.0093323765 -0.015298132
000110 4a e8 37 bb 0c 84 c3 3b d0 71 e6 3c d7 82 77 bb
       -0.002806204 0.005966669 0.028130442 -0.0037767196
000120 40 78 b6 bc 9e f5 52 3a 42 f4 41 3a f2 63 99 3b
       -0.022274137 0.0008047464 0.0007398763 0.004681104
000130 b0 ab 65 bb 3d a1 84 bc 5f 1a 8b 3b e5 d5 43 bc
       -0.003504496 -0.016190166 0.004245087 -0.011952852
000140 48 f3 74 bc 71 c5 79 3b bc eb d5 bb 3d 83 1b 3b
       -0.014950581 0.003811207 -0.006528346 0.0023729347
000150 89 19 b9 bc 50 48 e4 b9 ec 00 29 bc 9a e5 90 3c
       -0.022595184 -0.00043541426 -0.010315161 0.017687608
000160 63 db 71 3c eb 9c e5 bb dc 23 33 bc b5 dc 84 ba
       0.0147617785 -0.0070072315 -0.0109338425 -0.0010136577
000170 25 5e 29 bc 00 5d ae bb 2a 01 90 3b 0d 3c 72 3c
       -0.010337387 -0.005321145 0.00439467 0.014784825
000180 1b 50 2c 3c 5b 31 18 ba e2 63 30 3b b4 11 73 bc
       0.0105171455 -0.00058056944 0.0026915004 -0.014835764
000190 af 3e 5e 3b d2 71 93 bb c6 a0 f6 3a 8a 42 85 ba
       0.0033911874 -0.0044996524 0.0018816225 -0.0010166925
0001a0 5a 03 aa ba bd 21 6f ba fa 4c be bb 29 69 49 bb
       -0.001297097 -0.0009122154 -0.005807516 -0.0030732846
0001b0 9b 14 7b b9 31 e4 aa 3c 18 fa 69 bc f2 23 92 3c
       -0.00023944901 0.020860763 -0.014280818 0.017839406
0001c0 3c 99 07 3c 95 15 67 3c 54 24 7d bc 90 f1 64 3b
       0.00827628 0.014104267 -0.015450556 0.0034934022
0001d0 b5 3c 87 bb 80 c9 36 bc 53 29 4e 3c 3b b0 90 3b
       -0.00412711 -0.01115644 0.012583095 0.0044155396
0001e0 08 7b 9d 3a e4 b0 bd bb 0e 5b 64 bc 57 f3 c5 3b
       0.0012014816 -0.0057889093 -0.013937725 0.0060409713
0001f0 f8 55 15 bc ac 69 a1 3c b0 df cd bc 4d 5f 18 bb
       -0.009114735 0.019703709 -0.025131077 -0.0023250163
000200 73 f2 4b bb 19 d4 52 3c 64 ba 11 bc 64 9e 9d 3b
       -0.0031119853 0.012867951 -0.008894537 0.0048101414
000210 bc 48 ab 3b 0d 97 2a 3c 58 af 8d bb 6e c6 1e 3c
       0.0052271765 0.01041199 -0.004323881 0.009690864
000220 6d 9c 71 bb f2 3c 3d bc b6 e0 2a bc 0d 76 45 bb
       -0.0036866919 -0.011550175 -0.010429552 -0.0030130178
000230 5b ed e8 3b c8 d5 2b bb 78 2a 36 bc 81 21 8a 3b
       0.007108373 -0.0026219953 -0.011118524 0.0042154198
000240 f1 12 e0 ba 59 34 33 bc 9b fd f5 3b 1b bb 50 bc
       -0.0017095489 -0.010937774 0.007507039 -0.012739922
000250 82 eb f1 bc cf 98 38 bc 91 27 16 3c c9 45 42 bb
       -0.029531244 -0.011266901 0.009164707 -0.0029643646
000260 a4 e5 d6 ba a5 94 bb 3b eb 26 ad 39 42 6e 8f 3c
       -0.0016395343 0.005724507 0.00033026127 0.01750863
000270 3f bf bc bb 36 61 ab 3a e2 5f 62 3b 14 ca 36 3c
       -0.005760103 0.0013075236 0.0034542014 0.011156578
000280 29 5a 03 3b 00 be 06 bc a8 16 70 3c 52 5b 1d bc
       0.0020042753 -0.0082240105 0.014653839 -0.009604292
000290 18 24 89 3a 4b 8a 56 3c b0 65 ec 3b e8 b6 e3 3b
       0.0010463027 0.013094495 0.0072142705 0.0069492944
0002a0 cf b4 b2 bb 0b a5 44 bc af 03 17 3c 47 9c bc 3b
       -0.005453683 -0.01200224 0.009217187 0.0057559344
0002b0 9a be 45 b9 f1 f4 ef bb 8e 47 21 3b 63 ce 15 3c
       -0.00018858389 -0.0073229005 0.00246093 0.009143445
0002c0 d0 6f 82 3b 87 1b 29 3c 46 80 40 ba 9b c9 e1 bb
       0.0039806142 0.010321504 -0.0007343333 -0.0068904883
0002d0 32 b9 1b bc b5 38 ff 3c e2 39 69 3a e7 34 6f 3c
       -0.009504603 0.03115497 0.000889687 0.014600015
0002e0 23 3e a6 3c 16 7a 52 bb 48 2a 1b 3a d9 51 33 bc
       0.020293301 -0.0032116226 0.0005919081 -0.010944807
0002f0 b1 61 07 3c ab 7a 3d 3c c3 0d 36 3a e9 34 b9 3c
       0.008263038 0.011564891 0.00069447997 0.022608237
000300 ed 83 61 bb 0a 6c c8 bc 87 0a fb 3b e7 c1 4f 3c
       -0.003441091 -0.02446558 0.007661167 0.012680507
000310 45 35 3d bb 87 7c 81 bb 8d ac c4 bc f6 08 6b 3b
       -0.0028870862 -0.0039516124 -0.02400806 0.0035863495
000320 37 9f 28 bc ef e9 56 3b f2 bd cb 3a d4 c5 16 3c
       -0.010291866 0.0032793244 0.0015544279 0.009202439
000330 20 89 bc bb f4 07 79 3a c4 c1 80 bc 49 76 a6 3b
       -0.0057536513 0.00094997813 -0.015717395 0.0050800187
000340 a7 4a 31 bc f6 3b 9e bc 23 bd 2e 3c 80 1c 92 3b
       -0.010821021 -0.019315701 0.010665211 0.004458964
000350 7c b7 c4 3b 50 e3 c1 3a 66 0e 7c ba b6 ca 94 bb
       0.0060033184 0.0014792476 -0.00096151826 -0.0045407666
000360 ca ec b6 bc 1f c2 cf 38 a2 2b 23 3d 50 49 ad 3b
       -0.022329707 9.906687e-05 0.039836533 0.0052882805
000370 67 67 33 bc b8 f7 61 3b 7e 13 aa 3b 7a 22 dc bb
       -0.010949946 0.0034479927 0.005190312 -0.006717977
000380 91 6e a5 3a fb cb 10 ba 28 52 c0 3c 41 e4 49 bc
       0.0012621452 -0.00055235595 0.023476675 -0.012322486
000390 55 60 30 bc 7e d9 10 bc aa 85 aa bb ed ca 41 3a
       -0.010765155 -0.008840917 -0.0052039223 0.0007392604
0003a0 94 5d 04 3c e6 ec ab 3c b0 4e 85 3c df 87 ee 39
       0.008078951 0.020986985 0.016272873 0.0004549613
0003b0 5f af 76 3c 67 79 c8 bc d9 d8 e4 3c 21 cf e4 3a
       0.01505646 -0.024471952 0.027935432 0.0017456749
0003c0 dd cc 8b 3c 6f 33 de 3b 75 28 08 bc 80 5f 81 b9
       0.01706546 0.0067810337 -0.008310427 -0.0002467595
0003d0 10 b4 26 ba 1a 0d ff 39 33 23 5d bb b2 9c ad b8
       -0.0006359229 0.00048647152 -0.0033742904 -8.2784696e-05
0003e0 93 de 79 3c db fd 75 bb 88 82 62 3b 2a f4 96 bb
       0.01525082 -0.0037535343 0.0034562666 -0.0046067433
0003f0 a6 ff bd 3a c2 1e 2d 3c 5a 13 b3 bb 7a 32 af bb
       0.0014495745 0.010566415 -0.0054649534 -0.0053465934

action_model._discrete_distribution.branches.1.bias f4 [3]
000000 3c ca 0b 37 d6 f5 2b ba cf f5 2c 3a
       8.332132e-06 -0.0006559765 0.00065979076

exp_avg f4 [128, 48]
000000 4a 27 59 37 0c 8a 60 36 18 3f a1 b9 25 d2 66 b9
       1.2943356e-05 3.3458955e-06 -0.00030755321 -0.00022012794
000010 4a 3a 0c b9 ee b7 4a b8 93 fa 3b b9 da dd b0 b8
       -0.00013373155 -4.833185e-05 -0.00017927056 -8.433657e-05
000020 48 7a 1b b8 72 7a 82 b9 5e 1a bc b8 f2 4d a0 36
       -3.7068763e-05 -0.0002488676 -8.96945e-05 4.7774456e-06
000030 fe 87 75 37 43 fa a0 b7 0c 3d 7a b9 02 23 46 b9
       1.4634801e-05 -1.9190024e-05 -0.000238646 -0.00018895793
000040 b8 29 83 b8 94 8c 01 b8 4c f2 a2 b8 74 ea 9d b8
       -6.2543375e-05 -3.088692e-05 -7.769893e-05 -7.530014e-05
000050 bc b0 f4 b7 20 37 d1 b8 a4 c9 30 b8 3f 13 0f b7
       -2.9169365e-05 -9.9761644e-05 -4.2149462e-05 -8.527945e-06
000060 a8 5b 80 37 98 ec c1 b7 d6 25 98 b9 92 6e fc b8
       1.530147e-05 -2.3117565e-05 -0.0002901989 -0.00012036892
000070 cc 27 9a b8 04 fc a8 b7 ce 8f 14 b9 86 4a ed b8
       -7.350705e-05 -2.0144515e-05 -0.00014167951 -0.00011314922
000080 a8 3d 01 b8 62 e9 99 b8 e6 3e be b8 a2 ae c7 b6
       -3.081342e-05 -7.3390795e-05 -9.071622e-05 -5.950992e-06
000090 62 84 62 37 30 92 57 b5 8e c5 b9 b9 54 04 74 b9
       1.35014725e-05 -8.030647e-07 -0.0003543314 -0.00023271266
0000a0 8f 03 1a b9 a6 8d 07 b8 76 91 d5 b8 88 1f e6 b8
       -0.0001468791 -3.231843e-05 -0.00010183726 -0.00010973128
0000b0 8e 6f 4a b8 2b c2 4b b9 c8 f3 5c b8 f0 9f 3a b5
       -4.8264446e-05 -0.00019431922 -5.2679126e-05 -6.952314e-07
0000c0 77 74 10 b7 b7 08 a8 36 58 a3 95 3a b9 df 23 3a
       -8.610185e-06 5.0078047e-06 0.0011416478 0.0006251294
0000d0 61 e1 bb 39 e6 c8 52 39 44 9e 1f 3a d3 54 c8 39
       0.0003583534 0.00020102001 0.0006088952 0.00038210172
0000e0 8c b5 4f 39 32 3f 0b 3a d2 ea f7 39 e2 4d c6 37
       0.0001980869 0.0005311846 0.00047286466 2.3639706e-05
0000f0 7c 39 c7 b6 72 a0 29 37 81 be ac 3a a2 dc 2b 3a
       -5.937354e-06 1.0110542e-05 0.0013179333 0.0006556009
000100 a0 a5 b4 39 d8 8a 49 39 c3 ba 15 3a 70 e9 d1 39
       0.00034455676 0.00019220577 0.00057117286 0.0004003751
000110 74 98 50 39 82 2a 11 3a 2c e1 ec 39 41 3d 04 38
       0.00019893219 0.0005537645 0.00045181194 3.15283e-05
000120 d5 10 8c b6 d4 15 ba 37 42 44 a1 3a fa d7 0d 3a
       -4.1742846e-06 2.2183092e-05 0.0012303668 0.0005410906
000130 d3 92 c4 39 00 a3 5e 39 fd 19 1f 3a 66 19 d1 39
       0.00037493426 0.00021232292 0.0006069241 0.0003988251
000140 93 76 63 39 e2 33 08 3a ff 3f f5 39 c2 1b 25 38
       0.0002169258 0.00051957194 0.00046777722 3.9364917e-05
000150 36 fb fe b6 4c 08 fe 37 16 a3 8b 3a 0b 80 1e 3a
       -7.5990347e-06 3.0283023e-05 0.0010653462 0.00060463016
000160 2c 3d d1 39 e3 57 6c 39 20 e7 02 3a 63 8e cc 39
       0.00039909163 0.00022539454 0.0004993547 0.00039015998
000170 d5 5f 5a 39 c8 6e 12 3a 24 de db 39 94 a0 80 38
       0.000208258 0.00055859657 0.00041936443 6.1334256e-05
000180 d9 b8 8d 37 b0 34 b7 b7 ae 66 b2 ba 2e 7f 2a ba
       1.6894586e-05 -2.1839835e-05 -0.0013610923 -0.00065039366
000190 ca be df b9 9b 4e 7d b9 96 ad 29 ba 8a 1a db b9
       -0.00042676023 -0.00024157243 -0.00064727047 -0.00041790708
0001a0 9b c3 70 b9 e4 f3 19 ba 37 3b fe b9 f8 63 14 b8
       -0.00022961052 -0.00058728294 -0.00048490774 -3.5379053e-05
0001b0 6d 85 f1 35 cb 35 7c b7 4a 6c 9d ba ea 54 16 ba
       1.7994731e-06 -1.5032895e-05 -0.0012010422 -0.0005734699
0001c0 56 1b c9 b9 4b 0f 61 b9 3e d0 11 ba 9c 39 aa b9
       -0.00038358074 -0.00021463369 -0.00055623415 -0.0003246785
0001d0 e6 07 58 b9 27 67 ff b9 a6 76 d8 b9 4d 81 48 b8
       -0.00020602308 -0.00048714245 -0.0004128713 -4.7804137e-05
0001e0 79 b3 f3 36 d3 27 03 b8 12 2e a0 ba 2d 96 04 ba
       7.2628577e-06 -3.1269923e-05 -0.0012220761 -0.00050577783
0001f0 e6 a1 e7 b9 10 ba 7a b9 0e 8d 20 ba 70 b3 bd b9
       -0.00044180377 -0.00023911172 -0.00061245344 -0.0003618258
000200 56 c7 52 b9 1c 75 13 ba 55 62 f9 b9 13 13 22 b8
       -0.00020101419 -0.00056250556 -0.00047566244 -3.8641574e-05
000210 d0 03 74 37 3e 01 29 b8 85 e7 92 ba 6b 60 17 ba
       1.4544421e-05 -4.0293897e-05 -0.0011207914 -0.000577456
000220 ca 9b ab b9 c0 bd 52 b9 9e 01 fa b9 f2 34 9e b9
       -0.00032731734 -0.00020097848 -0.0004768492 -0.00030175556
000230 6a 56 38 b9 e2 0c 08 ba 6a 18 c7 b9 b4 0a 57 b8
       -0.00017579799 -0.0005189908 -0.00037974428 -5.1269963e-05
000240 e0 4e 88 37 16 f1 c9 b7 f0 42 99 b7 a0 f5 85 38
       1.6249192e-05 -2.4073332e-05 -1.8270192e-05 6.3876854e-05
000250 c2 64 cd 38 d1 7a 82 38 2e a1 13 39 1f 60 17 39
       9.793929e-05 6.2217594e-05 0.00014079057 0.0001443629
000260 ef 4b 9d 38 b4 56 28 38 c7 27 1e 39 70 ba 90 b6
       7.500487e-05 4.013507e-05 0.00015082872 -4.3132386e-06
000270 e4 e1 70 b6 db f7 25 b7 18 e1 67 b8 70 c4 cc 37
       -3.5894273e-06 -9.892475e-06 -5.5284327e-05 2.4410168e-05
000280 c5 e5 1f 39 f3 c6 8f 38 e5 c7 32 39 c0 42 3d 39
       0.00015249017 6.8558285e-05 0.0001704987 0.00018049311
000290 6f 94 ad 38 3b 63 01 39 db db 21 39 65 24 29 37
       8.276931e-05 0.00012339365 0.00015436059 1.0081659e-05
0002a0 a6 28 5b 37 62 55 d1 b7 a3 43 1c 39 7e 9c a0 39
       1.3062881e-05 -2.4954501e-05 0.00014902516 0.00030634174
0002b0 20 46 4d 38 c4 5c 5a 38 b3 fb 28 39 92 6d 41 39
       4.8941118e-05 5.2061645e-05 0.00016115494 0.00018446732
0002c0 05 73 f3 38 c3 f5 4f 39 a5 d4 0f 39 b2 f5 ae 37
       0.00011608567 0.00019832612 0.00013716759 2.0856827e-05
0002d0 80 d2 89 37 f2 04 01 b8 3d 4a 6c 39 ce 6f 2c 39
       1.6429694e-05 -3.0760602e-05 0.0002253437 0.00016444849
0002e0 3c 61 67 39 c5 8f 03 39 fc bf 01 39 1d f8 34 39
       0.000220661 0.00012546692 0.00012373918 0.00017258567
0002f0 fb f8 c5 38 c5 78 5a 39 91 41 20 39 48 df a9 37
       9.440068e-05 0.0002083509 0.00015283214 2.0250343e-05
000300 ae 76 7a b7 10 0e 46 35 80 5c 6a 39 b8 55 37 38
       -1.49287935e-05 7.378121e-07 0.00022350438 4.371043e-05
000310 36 35 8d b8 d4 14 9f b7 fe 37 94 39 40 d8 9e 38
       -6.733315e-05 -1.8963976e-05 0.00028270477 7.574307e-05
000320 18 27 21 b7 88 2f cc 37 9e 6c e6 38 dc 5d e2 35
       -9.60545e-06 2.4340829e-05 0.00010987486 1.6865629e-06
000330 40 cd 53 b7 9b 65 c7 37 7e 35 9b 39 84 18 ea 38
       -1.26243685e-05 2.3769962e-05 0.0002960376 0.00011162556
000340 7c 61 6a b8 78 0c 64 b7 73 0a 97 39 02 6e 02 39
       -5.5880737e-05 -1.3592762e-05 0.0002880875 0.00012438747
000350 b0 04 34 37 7e d4 88 38 07 87 15 39 28 a6 58 36
       1.0729927e-05 6.524565e-05 0.00014260049 3.2283224e-06
000360 db fd 8a b7 0e 02 e9 37 08 52 ef 38 10 db 9a b7
       -1.6569093e-05 2.7776721e-05 0.000114116876 -1.846024e-05
000370 4c 83 06 b8 d8 1b 40 b7 d1 a3 a0 39 66 07 10 39
       -3.207037e-05 -1.1450575e-05 0.0003063963 0.00013735666
000380 b8 97 19 37 a0 86 f7 b6 f7 31 21 39 c0 8a 15 36
       9.154835e-06 -7.376846e-06 0.0001537277 2.2283493e-06
000390 e3 6a ae b7 c4 ba 26 37 90 ce 20 b8 e8 6f 49 38
       -2.079219e-05 9.937856e-06 -3.833935e-05 4.8026355e-05
0003a0 30 4f 9f 37 20 a1 8f b7 a0 f6 12 39 f0 fe e7 38
       1.8991152e-05 -1.7121958e-05 0.0001401552 0.00011062424
0003b0 d8 42 ee 37 00 18 fd b4 ac 71 d5 38 0e 33 21 b7
       2.8402937e-05 -4.7142385e-07 0.000101778045 -9.608235e-06
0003c0 02 19 4c 36 b0 f2 05 b6 00 fd 96 b7 4c a0 db b7
       3.0412925e-06 -1.9959807e-06 -1.7999206e-05 -2.6181478e-05
0003d0 f6 1a 45 37 e0 44 0d b6 00 14 75 b3 24 0e c9 36
       1.1748392e-05 -2.1050728e-06 -5.7061698e-08 5.991913e-06
0003e0 90 d4 ed 35 50 f9 40 b6 8c b8 03 37 02 4d 22 b6
       1.771974e-06 -2.8755348e-06 7.851177e-06 -2.4184706e-06
0003f0 7d 22 d3 36 58 24 e5 b5 0a 1f 41 b8 ac 5d 22 b7
       6.292305e-06 -1.7072407e-06 -4.6043693e-05 -9.677762e-06
