KartSCBIO/Assets/Karting/Prefabs/AI/ArcadeDriver 2.onnx (onnx, 100590 bytes, 9 tensors)

discrete_action_output_shape f4 [1, 2]
3.0 2.0
00000000: 0000 4040 0000 0040

network_body._body_endoder.seq_layers.0.weight f4 [128, 56]
-0.18550248 0.19444546 -0.034846056 0.006484071 0.13121371 -0.03872161 -0.14882599 0.06953729
-0.061317623 0.20277913 -0.027566696 0.3256372 0.23439352 -0.0406622 0.019177672 0.01670437
-0.27064976 -0.13184042 0.052148834 -0.065460935 0.18329772 0.15532126 0.029277816 0.045919057
-0.19529368 0.042839766 -0.04167307 -0.10928963 -0.06672126 -0.10272847 -0.13475603 0.008771893
-0.07507501 -0.21991004 0.06263968 0.017560711 -0.046997823 0.20046994 -0.033401053 -0.3582652
-0.07414128 -0.057616077 0.017651528 0.10721752 0.015561382 0.038910277 0.19229577 -0.1664079
0.12240222 0.07228871 0.11857174 -0.038379144 0.081894346 0.021453124 -0.016631663 -0.033529297
0.30472392 0.025596466 -0.13229373 -0.09768093 0.0071263947 -0.09030407 0.036384106 0.05407593
0.13113293 0.032559704 0.13214552 -0.09794239 -0.32655594 -0.08174797 0.108422995 -0.09594862
0.24198441 0.12980619 -0.094580464 -0.044043295 0.16826867 -0.02772635 0.085714154 -0.08625155
-0.09887024 0.048441354 0.047369473 0.04651741 0.16298346 -0.0045855935 0.116522476 -0.09977304
0.055652544 0.007913027 0.14180359 0.13539599 -0.042090766 -0.16177483 0.1240583 0.05467811
-0.007980698 -0.008623684 -0.09802208 0.21238862 0.032083597 -0.0066731935 -0.0041810963 -0.027117457
0.12292208 0.103063814 -0.26049817 0.09009837 -0.19027397 -0.000707189 0.18079808 0.164166
0.085010424 -0.08764928 0.09372462 0.09232594 -0.09200553 0.025293136 0.1577744 -0.14324503
0.15456755 0.020161161 0.008695578 0.15862837 -0.055387963 -0.03452171 -0.071980774 0.008406708
0.01307611 0.006743688 0.046043847 -0.06328354 -0.009245106 -0.07726223 -0.11895363 -0.021968795
-0.104621746 0.11228365 -0.116281964 0.023835618 0.27569693 -0.011685052 0.047550928 -0.026485661
-0.103230886 0.057660714 0.24191982 0.14721203 0.1309676 0.072118275 0.24314356 -0.19409256
0.0063552526 0.18064459 0.033712473 0.09175486 -0.05972056 -0.063703686 -0.0145820705 0.05785307
0.068270095 0.030402848 0.01749459 -0.0039173122 0.05461477 0.019823682 0.1735941 -0.060311064
-0.113906726 -0.074868426 0.15498918 0.27696604 0.03146491 -0.01190841 0.06080127 0.032689076
0.112612 -0.25953057 0.08748876 -0.043665823 0.14905939 -0.034815237 -0.06111852 -0.03222702
0.18385746 0.04115543 0.09913235 -0.20028631 -0.11751109 -0.031910866 0.051457003 0.094929874
0.050206758 0.21895492 -0.112358674 -0.062885106 -0.12912603 -0.19011524 0.08842779 0.13176183
0.1262326 -0.0037034687 -0.25125933 -0.0663729 -0.021205457 -0.010112745 -0.040182415 -0.1568011
0.20815316 -0.06341397 -0.11094044 0.0415202 0.031186376 -0.033579223 -0.028905023 -0.09829024
-0.034264147 0.13422038 0.26201183 0.20320341 -0.007399905 0.022868592 -0.03123707 0.121498324
0.08071458 0.16072792 -0.11140455 -0.025594328 -0.25716218 -0.0036873866 0.013267143 0.30187827
0.03265634 -0.056794297 -0.0903287 0.031683125 -0.14597395 -0.26410103 0.015635943 -0.16693918
-0.2856488 0.039699715 -0.11762379 -0.38349563 -0.011164188 -0.07826012 0.028604502 0.22765562
0.20976593 -0.09117726 -0.22897796 0.15925665 0.22944559 -0.24175762 0.052171946 -0.2766396
00000000: 5df4 3dbe b61c 473e bdba 0ebd 5478 d43b
00000010: e35c 063e 8d9a 1ebd d765 18be 9169 8e3d
00000020: 3028 7bbd 55a5 4f3e 8dd3 e1bc ebb9 a63e
00000030: db04 703e 688d 26bd 7e1a 9d3c 9ad7 883c
00000040: 9b92 8abe 2d01 07be 049a 553d 6210 86bd
00000050: 66b2 3b3e 890c 1f3e 08d8 ef3c 9f15 3c3d
00000060: 11fb 47be c078 2f3d 62b1 2abd 3ed3 dfbd
00000070: 28a5 88bd 4e63 d2bd 7cfd 09be fcb7 0f3c
00000080: edc0 99bd 1930 61be 3c49 803d 7bdb 8f3c
00000090: ca80 40bd fe47 4d3e 8bcf 08bd 896e b7be
000000a0: 62d7 97bd d6fe 6bbd f099 903c dc94 db3d
000000b0: 2bf5 7e3c 6260 1f3d 2fe9 443e d566 2abe
000000c0: 04ae fa3d 1a0c 943d bed5 f23d 7333 1dbd
000000d0: 39b8 a73d 76be af3c 203f 88bc 0456 09bd
000000e0: c604 9c3e aeaf d13c 0278 07be f00c c8bd
000000f0: 8884 e93b 57f1 b8bd 8007 153d b97e 5d3d
00000100: b647 063e 535d 053d 2851 073e 0596 c8bd
00000110: 5732 a7be 7b6b a7bd e00c de3d b680 c4bd
00000120: c3ca 773e eaeb 043e 67b3 c1bd be66 34bd
00000130: 9f4e 2c3e 5f22 e3bc e78a af3d a7a4 b0bd
00000140: 7b7c cabd 716a 463d 7e06 423d 0a89 3e3d
00000150: 23e5 263e bf42 96bb 56a3 ee3d cf55 ccbd
00000160: ecf3 633d a4a5 013c f634 113e 3fa5 0a3e
00000170: 5e67 2cbd 4da8 25be 4712 fe3d 27f6 5f3d
00000180: 79c1 02bc 5a4a 0dbc cdbf c8bd 677c 593e
00000190: 176a 033d ceaa dabb 9401 89bb 6e25 debc
000001a0: 92be fb3d 1f13 d33d 0460 85be 7f85 b83d
000001b0: 2ed7 42be a762 39ba 2223 393e 221b 283e
000001c0: f219 ae3d 7781 b3bd b2f2 bf3d 6215 bd3d
000001d0: 656d bcbd 8d33 cf3c 9d8f 213e d3ae 12be
000001e0: f546 1e3e 0529 a53c e677 0e3c 7a6f 223e
000001f0: 7dde 62bd a366 0dbd a86a 93bd 4abc 093c
00000200: 2e3d 563c 28fa dc3b 7998 3c3d cd9a 81bd
00000210: c978 17bc a93b 9ebd f69d f3bd e7f7 b3bc
00000220: ed43 d6bd f8f4 e53d 3d25 eebd ea42 c33c
00000230: 2628 8d3e a972 3fbc c3c4 423d 75f8 d8bc
00000240: b76a d3bd a42d 6c3d d4b9 773e c0be 163e
00000250: 5f1c 063e bfb2 933d a0fa 783e 33c0 46be
00000260: b93f d03b e5fa 383e 1716 0a3d f9e9 bb3d
00000270: 8c9d 74bd 1477 82bd a3e9 6ebc 57f7 6c3d
00000280: 31d1 8b3d 650f f93c d050 8f3c cc5c 80bb
00000290: bdb3 5f3d 4665 a23c a7c2 313e bc08 77bd
000002a0: ee47 e9bd 9e54 99bd 7cb5 1e3e 7ece 8d3e
000002b0: 59e1 003d 7e1b 43bc c10a 793d fbe4 053d
000002c0: 1fa1 e63d 31e1 84be 4f2d b33d efda 32bd
000002d0: 06a3 183e 6c9a 0ebd 6a57 7abd 7b00 04bd
000002e0: 2145 3c3e 9992 283d e705 cb3d db17 4dbe
000002f0: a8a9 f0bd f8b4 02bd 94c4 523d 986a c23d
00000300: 9aa5 4d3d b835 603e 4e1c e6bd e8c9 80bd
00000310: 9d39 04be 92ad 42be a119 b53d 93ec 063e
00000320: 1e43 013e e5b5 72bb 10a5 80be 84ee 87bd
00000330: 11b7 adbc edaf 25bc 5196 24bd 7890 20be
00000340: 1a26 553e 2fdf 81bd be34 e3bd 1611 2a3d
00000350: 927a ff3c 5e8a 09bd 3aca ecbc 654c c9bd
00000360: 9058 0cbd 1171 093e 6a26 863e 8e14 503e
00000370: e77a f2bb ea56 bb3c e2e4 ffbc 1dd4 f83d
00000380: b04d a53d dc95 243e 1228 e4bd 32ab d1bc
00000390: c3aa 83be 15a8 71bb 6e5e 593c ca8f 9a3e
000003a0: a8c2 053d 23a1 68bd 41fe b8bd 2ac6 013d
000003b0: 327a 15be 4038 87be f316 803c 1bf2 2abe
000003c0: 8f40 92be 2b9c 223d bee4 f0bd 8a59 c4be
000003d0: 00ea 36bc d746 a0bd fd53 ea3c 8e1e 693e
000003e0: e1cc 563e 25bb babd 3379 6abe 2d14 233e
000003f0: c9f3 6a3e 4f8f 77be 40b2 553d b5a3 8dbe

network_body._body_endoder.seq_layers.0.bias f4 [128]
0.027771186 0.01449845 -0.00020386941 0.021023843 0.0147786755 0.0018805179 -0.017567778 0.0078452695
-0.0013271717 0.0007652711 0.007877735 -0.00083197135 -0.0026082657 -0.0059790662 0.011025173 -0.0038593884
0.020209564 0.039436214 0.0034862938 0.0032085294 0.0150197875 0.019836726 -0.0042563523 -0.0063734716
0.018444162 0.0004412064 -0.005792506 -0.02210515 0.005929256 0.0042013596 0.0030860784 0.02125747
0.0150415795 0.01988948 0.004477647 0.002671104 0.014361585 0.024708178 0.015015464 -0.014885362
-0.007826849 0.01090983 0.013266252 0.015517195 0.02120237 0.018567849 0.01737225 0.008144485
0.011599492 0.012562903 -0.014206817 -0.004708295 0.020960707 -0.014228643 0.006274838 -0.010159218
0.02494146 0.0052687074 0.0028422985 0.00038649995 -0.0072216075 0.018361235 0.023374174 -0.00527663
-0.009457214 0.012903758 0.0344911 1.5783513e-05 -0.00085373403 -0.008222224 -0.0021156168 0.01105227
-0.01208997 0.01372769 0.013653814 -0.022804054 0.01874552 0.023744462 -0.00485052 0.029160887
0.010827393 -0.0023238012 -7.3349336e-05 0.018672941 0.019541267 0.0013838424 -0.016651716 -0.0007788517
-0.00022957246 -0.006231912 0.019803012 -0.0018893012 -0.009654792 0.014850843 0.039995484 0.0148621965
0.019241674 0.019271545 -0.014227842 -1.1302214e-05 0.0042878333 0.03339336 -0.0077870544 0.010207039
0.01216348 0.0245775 0.021332985 0.014443017 -0.0082832165 -0.015277119 -0.003612242 0.021782188
0.030344458 0.0048121624 -0.003531048 0.019880766 0.0047902893 0.012048205 -0.007772177 0.019143805
-0.0024109492 0.001462873 0.005313556 0.016586361 -0.0049118786 -0.010455349 0.013579275 0.0025748182
00000000: 6680 e33c e88a 6d3c c7c5 55b9 323a ac3c
00000010: 4222 723c b67b f63a 4dea 8fbc 7289 003c
00000020: 7ef4 adba 799c 483a 9e11 013c a718 5aba
00000030: 70ef 2abb 0bec c3bb eda2 343c cbed 7cbb
00000040: 878e a53c de87 213d 4e7a 643b 3146 523b
00000050: 8e15 763c a180 a23c df78 8bbb 8ed8 d0bb
00000060: 3618 973c b851 e739 10cf bdbb dc15 b5bc
00000070: 344a c23b 8fab 893b ce3f 4a3b 2524 ae3c
00000080: f570 763c 43ef a23c 3ab9 923b b00d 2f3b
00000090: da4c 6b3c ce68 ca3c 6c03 763c bce1 73bc
000000a0: 2f3c 00bc 25bf 323c b25a 593c d53b 7e3c
000000b0: 98b0 ad3c 9a1b 983c 4050 8e3c 7270 053c
000000c0: cc0b 3e3c a2d4 4d3c b6c3 68bc 0b48 9abb
000000d0: cab5 ab3c 411f 69bc 289d cd3b d972 26bc
000000e0: 0852 cc3c 1fa5 ac3b db45 3a3b 25a3 ca39
000000f0: 3ca3 ecbb 4d6a 963c 327b bf3c 95e7 acbb
00000100: 6ef2 1abc 496a 533c 8a46 0d3d d666 8437
00000110: 1fcd 5fba 82b6 06bc 29a6 0abb 9514 353c
00000120: 0215 46bc 1bea 603c 3fb4 5f3c 91cf babc
00000130: 3490 993c bf83 c23c 1cf1 9ebb d0e2 ee3c
00000140: 6165 313c ea4a 18bb 20d3 99b8 fff7 983c
00000150: 0215 a03c 0c62 b53a 2e69 88bc da2b 4cba
00000160: 63b9 70b9 1135 ccbb ed39 a23c 6ea2 f7ba
00000170: 222f 1ebc f350 733c 4ed2 233d 9280 733c
00000180: b7a0 9d3c 5cdf 9d3c e51b 69bc a49e 3db7
00000190: f480 8c3b 7ac7 083d 8c2a ffbb 6d3b 273c
000001a0: 5549 473c c156 c93c 83c2 ae3c 67a2 6c3c
000001b0: 54b6 07bc e24c 7abc 5dbb 6cbb 8f70 b23c
000001c0: f194 f83c 58af 9d3b 2869 67bb fddc a23c
000001d0: dcf7 9c3b d665 453c bfad febb 78d3 9c3c
000001e0: 0401 1ebb dfbd bf3a 571d ae3b 1fe0 873c
000001f0: d3f3 a0bb ea4c 2bbc 9c7b 5e3c 48be 283b

network_body._body_endoder.seq_layers.2.weight f4 [128, 128]
0.100112006 -0.063921385 0.18036921 0.025918284 0.039550897 0.01838963 0.016208757 0.0017163367
0.08054548 -0.04172663 -0.053037383 0.08595866 -0.08382248 0.08775949 -0.05012146 0.05711347
0.13459255 0.22558632 0.12080747 0.14382747 -0.09692962 -0.1391056 -0.0029366307 0.06606278
0.06953251 -0.11299256 -0.0017704503 0.024874987 -0.07097769 0.13099062 -0.05216302 0.009795768
-0.034491085 -0.054728005 0.03620718 0.07435501 -0.08247454 -0.03722561 0.07438648 -0.09821046
0.1472246 0.061582014 -0.044681154 0.008243733 -0.0005504815 -0.082701825 -0.057359662 -0.15742858
0.08956344 -0.010677324 -0.15095437 -0.04809556 0.055867087 -0.15264224 0.05298703 -0.067675844
-0.099186935 0.020829186 -0.08929604 -0.021032535 -0.08577986 0.2552736 -0.2540921 -0.19945085
-0.009727679 0.050156765 0.03620461 0.054273576 0.11366893 0.036921855 -0.036968958 0.23730007
-0.037189916 -0.055704296 -0.046162356 -0.07757218 0.14707188 -0.042541455 -0.07579981 -0.05705504
-0.043923385 -0.10319222 0.024493244 0.022376223 -0.0077701453 0.04853995 0.03519769 -0.055997003
-0.021069434 0.0017877801 0.28169104 0.075994425 -0.026282998 -0.015938263 -0.16533819 0.0036266826
0.08179508 0.0028834476 0.24962299 -0.056551073 -0.075578526 0.103905104 -0.06150854 -0.10187602
0.06314322 0.005383108 -0.10905505 -0.08591432 0.02059103 -0.03887606 0.03527561 0.023135278
0.06908074 -0.08610469 0.029001374 -0.059324212 0.05030551 -0.07253822 -0.12149363 -0.05194582
-0.051422194 -0.042098016 0.037653938 0.13040124 0.055667832 0.063076 0.06937752 -0.1582534
0.042007305 0.07353083 0.038986042 0.16735412 -0.12519006 -0.10372874 0.06479245 -0.07333354
-0.053285196 -0.093005225 0.0025867072 0.1020319 -0.050947152 0.03899121 -0.08798197 -0.0013084743
0.06484621 0.054826405 0.065498985 0.011595477 0.011368118 0.04285829 0.13956057 -0.034963127
0.20625702 -0.054815605 0.048817992 0.016323317 0.09055132 0.12870733 0.092592515 -0.10183404
-0.0120523535 0.12330349 0.046895996 0.15982145 0.026482461 -0.09490164 -0.062317424 0.06919173
0.008452872 -0.1428803 -0.056704763 0.1667142 0.07997764 -0.030131701 -0.010806289 0.037230324
0.044323083 0.115245774 -0.028561104 0.049834527 0.14643346 0.04084377 -0.20080951 -0.06839396
-0.102579474 0.09479249 -0.04786559 -0.12328827 0.025484836 -0.030473461 -0.13051388 0.19136198
-0.0117285 0.029334346 -0.02353953 0.13748081 -0.23486437 0.10092488 -0.006569878 -0.036377326
-0.11130984 -0.12970476 0.05242608 -0.052480448 -0.093356654 -0.035730038 -0.017298458 0.1567248
0.10354373 -0.06438733 0.09959788 0.028066717 -0.17562042 -0.024975555 0.04695655 0.07802774
-0.079998806 0.0066207964 -0.083867796 0.025411058 -0.07078214 0.057257734 -0.08747372 0.012815234
0.095584415 -0.0012433989 -0.04559628 -0.052406985 -0.08993412 -0.0393273 0.07835799 0.18684319
-0.0585652 -0.068862855 -0.059686784 0.056737695 -0.03770019 0.009646489 0.06512028 -0.002455269
0.025113642 0.06924186 -0.051618155 0.010139096 -0.14164895 -0.13926743 0.08907992 -0.029394973
-0.08369157 -0.051073477 -0.24380001 -0.02446486 0.01116819 -0.10743454 0.010835437 -0.0036277315
00000000: 8607 cd3d 37e9 82bd b5b2 383e 9552 d43c
00000010: 1f00 223d d9a5 963c 3ac8 843c b4f6 e03a
00000020: 07f5 a43d 8be9 2abd ba3d 59bd 180b b03d
00000030: 1fab abbd 3fbb b33d 294c 4dbd d0ef 693d
00000040: a1d2 093e 1a00 673e e869 f73d 8247 133e
00000050: 0983 c6bd b371 0ebe 7d74 40bb ec4b 873d
00000060: 1067 8e3d a568 e7bd 740e e8ba a1c6 cb3c
00000070: c05c 91bd 6822 063e e4a8 55bd 6e7e 203c
00000080: 8646 0dbd 792a 60bd fb4d 143d 7147 983d
00000090: 69e8 a8bd e279 18bd f057 983d 9122 c9bd
000000a0: 0cc2 163e 6c3d 7c3d 9603 37bd b910 073c
000000b0: 304e 10ba 935f a9bd f7f1 6abd f534 21be
000000c0: 096d b73d f1ef 2ebc c893 1abe daff 44bd
000000d0: e3d4 643d 3f4e 1cbe ee08 593d a299 8abd
000000e0: 8522 cbbd f8a1 aa3c d8e0 b6bd 6c4c acbc
000000f0: 5aad afbd 39b3 823e 5c18 82be d83c 4cbe
00000100: d860 1fbc 2e71 4d3d 494b 143d f84d 5e3d
00000110: 42cb e83d 5f3b 173d c36c 17bd cafe 723e
00000120: 7454 18bd 302a 64bd bd14 3dbd 2ade 9ebd
00000130: 039a 163e f33f 2ebd ee3c 9bbd 8cb2 69bd
00000140: 02e9 33bd 7156 d3bd 0ea6 c83c 574e b73c
00000150: b49c febb d4d1 463d 742b 103d 1d5d 65bd
00000160: ce99 acbc f253 ea3a cf39 903e f7a2 9b3d
00000170: 714f d7bc f690 82bc 6a4e 29be a3ad 6d3b
00000180: 2e84 a73d 39f8 3c3b 2b9d 7f3e 19a2 67bd
00000190: eac8 9abd 33cc d43d 61f0 7bbd 60a4 d0bd
000001a0: 3c51 813d c864 b03b 4158 dfbd d9f3 afbd
000001b0: 85ae a83c 813c 1fbd 287d 103d 3286 bd3c
000001c0: 347a 8d3d a857 b0bd 4a94 ed3c f2fd 72bd
000001d0: 270d 4e3d eb8e 94bd a7d1 f8bd 24c5 54bd
000001e0: 14a0 52bd f86e 2cbd 043b 1a3d e787 053e
000001f0: f403 643d fd2d 813d cd15 8e3d 2e0d 22be
00000200: da0f 2c3d 5597 963d d4af 1f3d e15e 2b3e
00000210: d331 00be bc6f d4bd e7b1 843d e52f 96bd
00000220: 9441 5abd 8679 bebd bf85 293b 1af6 d03d
00000230: f6ad 50bd 3fb5 1f3d e42f b4bd 1d81 abba
00000240: 17ce 843d a791 603d 5524 863d f5fa 3d3c
00000250: 5841 3a3c 2d8c 2f3d f7e8 0e3e 7f35 0fbd
00000260: 0a35 533e 5486 60bd 60f5 473d 7ab8 853c
00000270: f872 b93d dbcb 033e 25a1 bd3d 5d8e d0bd
00000280: 3c77 45bc 8a86 fc3d 0416 403d 3ca8 233e
00000290: bff1 d83c cb5b c2bd 8e40 7fbd 65b4 8d3d
000002a0: ea7d 0a3c 374f 12be 4143 68bd 21b7 2a3e
000002b0: 51cb a33d c2d6 f6bc dc0c 31bc d37e 183d
000002c0: 1f8c 353d fa05 ec3d faf8 e9bc 4a1f 4c3d
000002d0: a7f2 153e cc4b 273d 02a1 4dbe 2212 8cbd
000002e0: 3015 d2bd 9122 c23d b50e 44bd 8f7e fcbd
000002f0: 93c5 d03c 7ba3 f9bc 6ea5 05be 65f4 433e
00000300: e528 40bc 954e f03c f9d5 c0bc c5c7 0c3e
00000310: 4980 70be b4b1 ce3d 2248 d7bb 6400 15bd
00000320: 6af6 e3bd 53d1 04be bbbc 563d bdf5 56bd
00000330: c631 bfbd a959 12bd 7fb5 8dbc 777c 203e
00000340: bc0e d43d 81dd 83bd f9f9 cb3d 2cec e53c
00000350: d7d5 33be 8999 ccbc 8355 403d 02cd 9f3d
00000360: 6ad6 a3bd 44f3 d83b e1c2 abbd da2a d03c
00000370: 3af6 90bd 1687 6a3d 6c25 b3bd fdf6 513c
00000380: c3c1 c33d 8bf9 a2ba 2ac3 3abd b5a8 56bd
00000390: 612f b8bd aa15 21bd 277a a03d d253 3f3e
000003a0: 10e2 6fbd f807 8dbd 217a 74bd c965 683d
000003b0: 846b 1abd 4f0c 1e3c c85d 853d 94e8 20bb
000003c0: 20bb cd3c adce 8d3d 8f6d 53bd 731e 263c
000003d0: 6c0c 11be 1f9c 0ebe 886f b63d bacd f0bc
000003e0: 7c66 abbd 6c32 51bd b6a6 79be 886a c8bc
000003f0: c9fa 363c a406 dcbd 1e87 313c 3cbf 6dbb

network_body._body_endoder.seq_layers.2.bias f4 [128]
0.016740989 0.0002966879 -0.00018538533 -0.017270055 0.01486279 -0.01395069 -0.0033727528 0.0054028127
0.02322477 0.00037038577 0.0020895638 0.0039323806 0.023062382 0.0020976528 0.0032130152 -0.0056350776
0.0346212 0.015233361 0.032947212 0.0036327066 0.010350024 0.035018556 -0.0020299417 0.038753394
0.0015670375 0.013658778 -0.0039326916 0.0047479384 0.01479239 -0.008105141 0.0109337745 -0.003936499
0.0115457475 0.008691709 0.009219601 -0.015212973 -0.0092221275 -0.003278791 0.007197882 0.0161645
0.012130497 0.012493169 0.016964164 0.023453021 0.0119987605 0.036696907 0.02004474 -0.010053918
0.008374505 0.0016390829 -0.0072519835 -0.007523748 0.0038743243 0.0058549456 -0.012816172 -0.01658469
0.017873878 0.0075743794 -0.010103151 0.013327813 -0.0026476244 0.01683157 0.011977734 0.0060127713
-0.0011467942 0.0152908405 6.451357e-05 -0.00038312603 0.0047197766 0.024722701 0.019929176 -0.030015912
-0.013260142 -0.010011069 0.0029177773 -0.006229812 -0.012490216 -0.011159527 0.014079825 -5.2361655e-05
-0.0029845496 0.025194341 -0.0020948183 -0.002665094 0.025010807 -0.006768995 0.015682971 0.009770361
0.030149113 -0.0025904546 0.012084246 0.00980807 -0.00755376 0.004717883 0.008874001 -0.0005703881
-0.004152816 -0.007691578 -0.0009970106 0.006619581 0.013894997 -0.006933624 0.004645908 0.030126227
0.01043663 0.007819056 0.0014413573 -0.0016563298 0.0240518 0.022429368 0.01900149 0.001107302
0.016414853 0.010522986 0.0026820751 -0.010374763 0.02055946 0.013406971 -0.009044616 -0.0071537727
-0.018823437 -0.0073963255 -0.004261902 -0.0068020667 0.0033970429 0.012933617 -0.008469753 0.009218863
00000000: 6624 893c c78c 9b39 ff63 42b9 ee79 8dbc
00000010: 0f83 733c 6f91 64bc 6709 5dbb 140a b13b
00000020: df41 be3c 5630 c239 10f1 083b 33db 803b
00000030: 52ed bc3c c678 093b 7391 523b 75a6 b8bb
00000040: f6ce 0d3d 5995 793c a8f3 063d b412 6e3b
00000050: 2693 293c 9e6f 0f3d c508 05bb e1bb 1e3d
00000060: 0e65 cd3a 11c9 5f3c cfdd 80bb 9894 9b3b
00000070: c85b 723c 6dcb 04bc 9323 333c bffd 80bb
00000080: 602a 3d3c ab67 0e3c cf0d 173c d53f 79bc
00000090: 6818 17bc fce0 56bb 36dc eb3b 6a6b 843c
000000a0: febe 463c 26b0 4c3c 6ef8 8a3c 8d20 c03c
000000b0: 7396 443c 7f4f 163d de34 a43c 30b9 24bc
000000c0: 3835 093c 7fd6 d63a 0ca2 edbb c689 f6bb
000000d0: 60e8 7d3b d8da bf3b ecfa 51bc 9edc 87bc
000000e0: 3d6c 923c 8032 f83b b087 25bc e65c 5a3c
000000f0: c483 2dbb 5ce2 893c 423e 443c c806 c53b
00000100: 0750 96ba 6f86 7a3c 764b 8738 4ede c8b9
00000110: 5ba8 9a3b 4387 ca3c 8342 a33c eee3 f5bc
00000120: 1141 59bc 7705 24bc 2e38 3f3b 7323 ccbb
00000130: c3a3 4cbc 73d6 36bc 11af 663c e69e 5bb8
00000140: 6f98 43bb 5d64 ce3c 3849 09bb dca8 2ebb
00000150: 77e3 cc3c 72ce ddbb 9379 803c dd13 203c
00000160: 46fb f63c 9ec4 29bb 00fd 453c 07b2 203c
00000170: 8885 f7bb 7998 9a3b 4264 113c 1986 15ba
00000180: 5814 88bb a209 fcbb 20ae 82ba 12e9 d83b
00000190: d7a7 633c 7433 e3bb b33c 983b 47cb f63c
000001a0: 66fe 2a3c 7f1b 003c edeb bc3a 3519 d9ba
000001b0: 4808 c53c cbbd b73c 03a9 9b3c e422 913a
000001c0: 7178 863c 9a68 2c3c c1c5 2f3b e9fa 29bc
000001d0: 506c a83c e9a8 5b3c de2f 14bc 326a eabb
000001e0: 9c33 9abc e05c f2bb 6da7 8bbb dfe3 debb
000001f0: eca0 5e3b 86e7 533c b8c4 0abc b70a 173c

action_model._discrete_distribution.branches.0.weight f4 [3, 128]
0.01995224 0.01453339 0.0076467246 -0.00918236 0.01372712 -0.0069953697 -0.02163646 0.017138673
-0.002331817 -0.06569013 -0.024854422 -0.01892519 -0.008494852 -0.023518533 0.009792281 -0.0071075307
0.016304038 0.04232899 0.028484864 0.028930439 0.015527004 -0.0750455 -0.008400619 0.031290967
0.0038352485 -0.04312064 -0.036180504 -0.011151772 -0.002011506 -0.012323395 -0.030537529 -0.016024478
-0.02460787 -0.018854631 -0.031672318 -0.019666288 -0.046594553 -0.049307123 0.02992034 -0.0014706742
0.0249141 0.036918808 -0.071719594 0.01872789 -0.027107576 -0.066509835 0.0095315995 0.021868458
-0.010486431 0.012185556 -0.02831025 0.006930713 0.05614961 0.027148042 -0.034832276 -0.015241041
0.03341905 0.017604606 0.004424035 -0.0052575166 0.010909818 -0.0748352 -0.03699835 0.005107982
-0.014006313 0.050798465 0.016860677 0.0036827147 -0.004616481 0.030209552 0.021501806 0.014727426
-0.0120015945 -0.0066385246 -0.010423343 -0.021370348 -0.012582102 -0.013917975 -0.007831743 -0.028501496
-0.0076627946 -0.037875593 0.0062703565 0.010506694 -0.009118326 -0.020983998 0.019998167 -0.0075257933
0.020849349 -0.0068053002 -0.0478637 -0.004863255 -0.013217226 0.008682617 0.015537502 0.008937843
-0.02541073 0.007516994 -0.01502323 0.017397907 0.00298079 -0.022533558 -0.0055474904 -0.043786667
0.038294513 -0.019287365 0.0064159962 0.0083581805 0.00029678107 0.04172458 0.02588415 0.033513382
0.007733946 -0.019133782 -0.0051481687 -0.017155912 0.020253018 -0.066767134 0.014717276 -0.04817866
-0.006280329 -0.011983804 -0.017081711 -0.02745005 -0.0025401223 0.013003856 0.010396308 0.006218736
0.019858161 -0.003290891 -0.0034821094 -0.002527539 0.020309165 -0.010386839 0.016547417 -0.017792845
0.026751937 -0.0026495522 -0.009055573 0.010001376 0.019951764 -0.009273577 0.005813834 -0.00044456476
0.00843505 -0.018059874 -0.00010432505 0.0060373647 0.0024824967 0.0088285925 -0.021603182 0.0059323665
-0.003958189 -0.01320587 0.020886134 -0.020896245 0.0099916365 -0.0023292082 0.00020112553 0.0007470828
0.00069066696 -0.018525353 -0.001599103 -0.0061838687 -0.010601114 -0.017456315 -0.04085871 0.011772892
-0.002923334 -0.0014439094 -0.0037334706 -0.0027288417 0.01764863 -0.010076523 0.0040269378 -0.006176223
0.007925847 -0.024307301 0.002343094 -0.00072874373 -0.026356474 -0.02462463 0.009260115 -0.008334824
0.010064602 0.0017438285 -0.013232491 -0.011930733 -0.0135123115 -0.026946194 0.02710991 0.01103034
0.00047820978 0.022689315 0.005774809 0.007302251 0.008279715 0.005246551 0.013419615 -0.023900034
0.0047578267 -0.0028832338 0.000522085 -0.0030652874 0.0030859462 -0.0027758768 0.02215012 -0.003564644
-0.008498945 0.013214349 -0.019434292 -0.024515228 0.009005109 -0.019573245 0.020960288 -0.010166739
-0.00039533753 0.017282808 0.004505443 0.00078510033 0.007682838 0.014507913 -0.009683887 -0.030171486
0.0059030075 -0.01734499 0.0013549321 -0.022369346 0.0060661826 -0.0066169063 -0.010851699 0.004396746
-0.0011786731 0.002016925 0.011607682 -0.01319511 0.0120398775 -0.017257081 -0.00845758 0.0025243964
-0.0021957643 0.009349838 0.026839294 -0.008417704 -0.007222764 0.010849466 -0.0008329021 -0.013285644
-0.009313191 0.007505621 0.010826982 -0.017168697 0.0042425278 0.0073376494 -0.009271882 0.027009077
00000000: e172 a33c 751d 6e3c 6091 fa3b 9c71 16bc
00000010: b7e7 603c 6a39 e5bb f23e b1bc 6766 8c3c
00000020: 66d1 18bb 8c88 86bd 809b cbbc 0009 9bbc
00000030: fe2d 0bbc f0a9 c0bc ce6f 203c 4ae6 e8bb
00000040: 0c90 853c 2a61 2d3d 1759 e93c 87ff ec3c
00000050: fa64 7e3c 75b1 99bd c0a2 09bc f52a 003d
00000060: cb58 7b3b 459f 30bd 0232 14bd ecb5 36bc
00000070: 78d3 03bb 11e8 49bc d729 fabc c445 83bc
00000080: 7296 c9bc 0775 9abc d5ba 01bd 321b a1bc
00000090: eed9 3ebd 44f6 49bd 801b f53c a3c3 c0ba
000000a0: a818 cc3c 2d38 173d b9e1 92bd 3b6b 993c
000000b0: b510 debc 4f36 88bd 6d2a 1c3c 7b25 b33c
000000c0: 48cf 2bbc eda5 473c e6ea e7bc 091b e33b
000000d0: 22fd 653d 9265 de3c 4aac 0ebd 8fb5 79bc
000000e0: 6ae2 083d 8937 903c 7ff7 903b 3f47 acbb
000000f0: 18bf 323c 3343 99bd 958b 17bd dc60 a73b
00000100: bc7a 65bc 0d12 503d 671f 8a3c b359 713b
00000110: d945 97bb 067a f73c 8e24 b03c 4d4b 713c
00000120: 56a2 44bc fb87 d9bb abc6 2abc de10 afbc
00000130: 2925 4ebc 3808 64bc b650 00bc f87b e9bc
00000140: 2e18 fbbb 7023 1bbd 9077 cd3b 4524 2c3c
00000150: 0865 15bc a2e6 abbc 32d3 a33c ee9a f6bb
00000160: 41cc aa3c fffe debb ba0c 44bd f15b 9fbb
00000170: 108d 58bc 8941 0e3c 0291 7e3c 0870 123c
00000180: 2a2a d0bc 1e51 f63b fe23 76bc 0e86 8e3c
00000190: 5c59 433b 4c98 b8bc b9c7 b5bb a659 33bd
000001a0: b5da 1c3d 8900 9ebc 473d d23b c0f0 083c
000001b0: 4899 9b39 65e7 2a3d ff0a d43c 5445 093d
000001c0: 0b6d fd3b 73be 9cbc f8b1 a8bb 8e8a 8cbc
000001d0: a8e9 a53c 35bd 88bd bb20 713c fd56 45bd
000001e0: 38cb cdbb b857 44bc f2ee 8bbc edde e0bc
000001f0: 2e78 26bb 200e 553c 4755 2a3c 8ac6 cb3b
00000200: 95ad a23c fdab 57bb 1a34 64bb 11a5 25bb
00000210: 685f a63c 8f2d 2abc 738e 873c 4dc2 91bc
00000220: e126 db3c 1ca4 2dbb d35d 14bc d0dc 233c
00000230: e271 a33c 33f0 17bc f981 be3b 7914 e9b9
00000240: 2a33 0a3c 4df2 93bc 16c9 dab8 16d5 c53b
00000250: 62b1 223b cda5 103c 28f9 b0bc 4c64 c23b
00000260: b2b3 81bb 6f5d 58bc 6619 ab3c 9a2e abbc
00000270: f6b3 233c a1a5 18bb 39e5 5239 e1d7 433a
00000280: e00d 353a 7bc2 97bc fe98 d1ba 0da2 cabb
00000290: 4bb0 2dbc 8c00 8fbc 765b 27bd 17e3 403c
000002a0: 6895 3fbb 8f41 bdba 3ead 74bb 5ed6 32bb
000002b0: dc93 903c 0018 25bc 67f4 833b ea61 cabb
000002c0: 69db 013c 1b20 c7bc 988e 193b 2a09 3fba
000002d0: 88e9 d7bc 98b9 c9bc bdb7 173c c98e 08bc
000002e0: 00e6 243c 2d91 e43a 17cd 58bc 1f79 43bc
000002f0: be62 5dbc 44be dcbc 9a15 de3c 99b8 343c
00000300: 3bb8 fa39 f1de b93c 9c3a bd3b b947 ef3b
00000310: a4a7 073c 42eb ab3b f2dd 5b3c 01ca c3bc
00000320: 8be7 9b3b a3f4 3cbb 88dc 083a fde2 48bb
00000330: 963d 4a3b 7ceb 35bb 2b74 b53c cd9c 69bb
00000340: 293f 0bbc ff80 583c aa34 9fbc 29d4 c8bc
00000350: 2a8a 133c 1258 a0bc e9b4 ab3c 6592 26bc
00000360: 4e45 cfb9 ad94 8d3c 65a2 933b 31cf 4d3a
00000370: 51c0 fb3b 99b2 6d3c 2aa9 1ebc 312a f7bc
00000380: 046e c13b 1517 8ebc fa97 b13a eb3f b7bc
00000390: d4c6 c63b a2d2 d8bb 53cb 31bc 9412 903b
000003a0: b57d 9aba 632e 043b 262e 3e3c 4d30 58bc
000003b0: e842 453c b95e 8dbc a991 0abc 5870 253b
000003c0: d0e6 0fbb 1030 193c 14de db3c 69ea 09bc
000003d0: f0ac ecbb f5c1 313c 1d57 5aba 08ac 59bc
000003e0: 5b96 18bc b6f1 f53b a763 313c 5ea5 8cbc
000003f0: e704 8b3b aa70 f03b 17e9 17bc 2442 dd3c

action_model._discrete_distribution.branches.0.bias f4 [3]
0.0040922905 0.008023204 -0.011999807
00000000: 9f18 863b c273 033c d79a 44bc

action_model._discrete_distribution.branches.1.weight f4 [2, 128]
-0.0012246501 -0.02004354 0.00012187521 -2.9857649e-05 -0.014268519 0.0027887428 -0.0059154625 -0.00085796235
0.006564878 0.039695412 -0.016451703 0.0117751155 -0.0046948087 0.00022936941 0.031071462 0.00262065
-0.014530459 0.02189897 -0.03047548 0.017507844 0.017926589 0.001485516 0.018999502 0.00086909666
0.010337755 0.011375482 -0.016369704 -0.020682758 -0.02706401 0.0015106801 -0.0012069079 -0.018936433
0.015831733 0.04685117 -0.02168241 0.008539483 0.020300185 0.038885802 0.029787775 -0.019185854
0.008982155 0.04231335 -0.011071771 0.017329011 0.0012302034 0.059784062 -0.0022073928 -0.013469085
-0.033381972 0.0035362989 0.01788856 0.0016056505 -0.002135763 0.0014890301 0.022440918 -0.0128078265
0.011057017 -0.008162821 -0.0014976602 -0.014378046 0.035398316 0.006031522 0.019340316 -0.0012210082
-0.017112777 0.021344582 -0.017336326 0.0037881134 -0.02340903 -0.002182199 0.0026389265 0.030272847
0.011383112 -0.005371773 0.020173108 0.012597655 -0.013232878 0.0052892845 -0.028924309 0.015621914
-0.018328607 0.0013320528 -0.0049931393 0.01385605 -0.01465348 0.015697688 0.00033260928 0.023492815
-0.021051858 -0.007521679 -0.0051150545 -0.010549802 0.009805826 -0.013775188 0.0025079746 -0.01614979
0.00317213 -0.00944888 0.0056506605 0.029036831 -0.018731585 0.0024531463 -0.011616692 -0.014645081
0.0064808503 -0.005572653 0.0036613462 0.008129256 -0.028787557 0.014478394 0.006639304 -0.007796339
-0.0063002184 -0.017709767 0.0029168553 0.008290992 0.07360109 0.017973723 0.020945657 0.009426614
0.018497454 -0.0030736842 -0.004169808 0.03138082 -0.007890927 -0.0067185676 0.012452002 0.01600154
-0.0030751885 0.007951979 0.0068999357 -0.009830501 0.003940369 -0.00065024104 0.005993115 0.018982619
0.007223983 -0.034148857 0.020957205 -0.014247273 0.004298272 0.010075895 -0.042039953 -0.02139957
0.036283467 -0.019337185 0.0047531207 -0.023663335 -0.013758894 0.00913152 -0.0042823893 0.010692798
0.011150213 -0.0062505584 0.009983298 0.009129528 0.021823986 0.008190764 -0.0007039448 0.0013708195
-0.019433336 -0.057861928 0.0003100598 -4.656248e-05 -0.010831781 -0.03425912 -0.04160629 0.017639287
0.0016845196 -0.047254242 0.009886466 0.0038387207 -0.008534298 -0.038545884 0.013534058 0.014509757
0.0353174 -0.002850199 -0.011908236 0.005197559 -0.004215052 -0.0070669474 -0.020234836 -0.0069636423
-0.021362849 -0.026321512 -0.003520641 0.029979983 -0.030009495 -0.0058979117 -0.0008415285 -0.005067132
0.0047262316 -0.009237959 -0.00824481 -0.014827891 0.01006888 -0.016381264 0.012918282 -0.017561136
-0.007249428 0.0014924785 -0.021609936 -0.011545069 -0.011037073 -0.0035322676 0.008213024 -0.009875897
-0.00038573946 0.0069485423 0.009953963 -0.007301473 0.017899567 -0.009263231 -0.0035106086 -0.032707855
0.019500077 0.026245639 0.014308598 0.016643234 -0.01608615 0.005802125 -0.013010101 -0.0043410766
-0.0013242891 0.0077443626 -0.01231496 -0.01055807 0.012249899 -0.008429078 0.0022243136 0.015032201
-0.009669769 0.020096768 -0.022206757 -0.008190624 0.04423272 -0.0062366184 -0.006282872 0.008332139
0.00631959 0.029880717 -0.004106501 -0.0020755525 -0.07538598 -0.028359441 -0.009693361 -0.0014424626
0.0070267683 0.00057576847 0.0046678553 -0.015185493 0.015558287 0.0020082972 -0.0043660463 -0.014196681
00000000: 7084 a0ba 5a32 a4bc 4197 ff38 d076 fab7
00000010: 82c6 69bc 57c3 363b 7fd6 c1bb e1e8 60ba
00000020: 301e d73b a897 223d b9c5 86bc 6aec 403c
00000030: e9d6 99bb e282 7039 9489 fe3c 36bf 2b3b
00000040: 2a11 6ebc 7865 b33c b7a7 f9bc 9c6c 8f3c
00000050: c8da 923c a5b5 c23a d8a4 9b3c 17d4 633a
00000060: b05f 293c 3b60 3a3c c219 86bc e36e a9bc
00000070: 58b5 ddbc 0302 c63a 1c31 9eba 9420 9bbc
00000080: 8db1 813c 03e7 3f3d 4f9f b1bc 30e9 0b3c
00000090: 934c a63c b846 1f3d 7e05 f43c a72b 9dbc
000000a0: e329 133c c350 2d3d 6066 35bc 92f5 8d3c
000000b0: c73e a13a 22e0 743d e8a9 10bb 70ad 5cbc
000000c0: 89bb 08bd 40c1 673b 088b 923c b174 d23a
000000d0: 28f8 0bbb 8f2b c33a 04d6 b73c ebd7 51bc
000000e0: 7e28 353c 5abd 05bc 234d c4ba e591 6bbc
000000f0: d3fd 103d 13a4 c53b 956f 9e3c 3d0a a0ba
00000100: 1830 8cbc d5da ae3c e904 8ebc ff41 783b
00000110: 4bc4 bfbc 3903 0fbb d7f1 2c3b c3fe f73c
00000120: 3b80 3a3c b305 b0bb 1342 a53c 6566 4e3c
00000130: b7ce 58bc bc51 ad3b acf2 ecbc 0ef3 7f3c
00000140: e025 96bc 4698 ae3a 7d9d a3bb 7c04 633c
00000150: 2615 70bc 7098 803c 1062 ae39 0174 c03c
00000160: f274 acbc 6b78 f6bb 309c a7bb 14d9 2cbc
00000170: 9da8 203c 53b1 61bc d55c 243b 904c 84bc
00000180: 83e3 4f3b 7acf 1abc 2d29 b93b a6de ed3c
00000190: fb72 99bc f7c4 203b f053 3ebc ecf1 6fbc
000001a0: 505d d43b cd9a b6bb 32f3 6f3b 9230 053c
000001b0: e2d3 ebbc c936 6d3c 858e d93b 6f78 ffbb
000001c0: 1072 cebb 1314 91bc b628 3f3b f1d6 073c
000001d0: 2bbc 963d a13d 933c 3a96 ab3c 1672 1a3c
000001e0: f987 973c dd6f 49bb e2a2 88bb 2d89 003d
000001f0: f248 01bc 6e27 dcbb 7b03 4c3c a915 833c
00000200: 1a89 49bb 0449 023c db18 e23b 1c10 21bc
00000210: 361e 813b f074 2aba e461 c43b 7081 9b3c
00000220: 29b7 ec3b acdf 0bbd 72ae ab3c 656d 69bc
00000230: 85d8 8c3b 5e15 253c 1632 2cbd 274e afbc
00000240: f99d 143d 0469 9ebc 11c0 9b3b 9cd9 c1bc
00000250: fc6c 61bc 5f9c 153c 4953 8cbb d830 2f3c
00000260: 62af 363c 7cd1 ccbb fd90 233c 0494 153c
00000270: 37c8 b23c 8e32 063c f088 38ba 12ad b33a
00000280: a932 9fbc a100 6dbd 868f a239 154c 43b8
00000290: c877 31bc 4a53 0cbd 5b6b 2abd 4480 903c
000002a0: 19cb dc3a aa8d 41bd d8fa 213c 0c93 7b3b
000002b0: 71d3 0bbc 4ae2 1dbd f4bd 5d3c 55ba 6d3c
000002c0: faa8 103d 67ca 3abb c31a 43bc 4950 aa3b
000002d0: 6b1e 8abb da91 e7bb 87c3 a5bc 442f e4bb
000002e0: 2401 afbc 36a0 d7bc 8eba 66bb 9598 f53c
000002f0: 79d6 f5bc 4543 c1bb 069a 5cba 2f0a a6bb
00000300: 81de 9a3b cf5a 17bc 3d15 07bc aff0 72bc
00000310: f2f7 243c 0032 86bc 34a7 533c 5fdc 8fbc
00000320: 9c8c edbb 459f c33a 5207 b1bc 8727 3dbc
00000330: d7d4 34bc 9e7d 67bb eb8f 063c 84ce 21bc
00000340: 133d cab9 99b0 e33b f215 233c 3241 efbb
00000350: 1da2 923c cfc4 17bc 3d12 66bb acf8 05bd
00000360: a0be 9f3c 1801 d73c 9c6e 6a3c 6457 883c
00000370: 1ac7 83bc c11f be3b 5228 55bc 973f 8ebb
00000380: c593 adba 6cc4 fd3b b0c4 49bc c1fb 2cbc
00000390: cdb3 483c 1e1a 0abc cac5 113b 9f49 763c
000003a0: f36d 1ebc faa1 a43c f2ea b5bc f831 06bc
000003b0: 5e2d 353d 8c5c ccbb 8de0 cdbb 8683 083c
000003c0: 9014 cf3b 68c8 f43c d48f 86bb fe05 08bb
000003d0: f763 9abd 0f52 e8bc e7d0 1ebc 0311 bdba
000003e0: ce40 e63b 2bef 163a cff4 983b 93cc 78bc
000003f0: 2fe8 7e3c a39d 033b 0d11 8fbb 3299 68bc

action_model._discrete_distribution.branches.1.bias f4 [2]
-0.009222331 0.009222332
00000000: 4319 17bc 4419 173c
