KartSCBIO/results/circutioA-10/ArcadeDriver/ArcadeDriver-419986.onnx (onnx, 100590 bytes, 9 tensors)

discrete_action_output_shape f4 [1, 2]
000000 00 00 40 40 00 00 00 40
       3.0 2.0

network_body._body_endoder.seq_layers.0.weight f4 [128, 56]
000000 72 cf 24 be f8 c4 ed bc 21 f1 a3 bd 71 f5 1f 3e
       -0.16094759 -0.029024586 -0.08004976 0.15620972
000010 0b 62 9b 3e 71 8f 51 3e e3 80 0f be c6 38 d3 3d
       0.30348238 0.20464875 -0.1401401 0.10313563
000020 ee b4 b0 bd 21 88 32 3e fc 7e 2f 3e ea c6 7a 3e
       -0.086282596 0.17434742 0.17138284 0.24489942
000030 79 56 27 be 07 51 28 3d 38 f2 af bd 2c a8 34 3e
       -0.1634158 0.0410929 -0.085911214 0.17642277
000040 71 81 8d be de 00 48 bd b7 c9 79 3c 44 ce 80 bc
       -0.27637818 -0.048828952 0.0152458465 -0.015723355
000050 36 78 ff 3d 73 c9 1f 3e b0 1e 76 3e b2 1c 48 3e
       0.124741 0.1560419 0.24035144 0.19542196
000060 78 98 11 3d 7d a6 39 bd 08 02 02 be 8c 73 f8 be
       0.035545796 -0.04532479 -0.12696087 -0.48525655
000070 f3 ac 9b bb 3c 1a b0 bd 96 50 6a 3d 44 3e ba 3c
       -0.0047508418 -0.08598754 0.05720576 0.022734769
000080 21 2f ee bc 2b 2e 4e be 97 84 bb bd 12 95 81 bb
       -0.029075207 -0.20134799 -0.09156149 -0.003954538
000090 8e 25 6d bd 8b 25 e3 bd 51 6d 5f be 60 df 43 3e
       -0.057897143 -0.11091145 -0.21819045 0.1912818
0000a0 0c e3 ff 3c e8 54 59 3e 61 db 5b 3d 0d 51 1c be
       0.031236194 0.21223795 0.053676013 -0.15265293
0000b0 f2 c5 6a bd f8 7d 89 3e e8 d8 04 3e 1d f3 1c be
       -0.05731768 0.2685392 0.12973368 -0.15327115
0000c0 19 d2 28 3d 8d af 28 bc cd ce ad 3e 04 7e 19 be
       0.04121599 -0.010295761 0.3394684 -0.14989477
0000d0 47 da 25 3e 22 2f 8b bd 8c 13 1c 3e bc 30 98 bd
       0.16196547 -0.06796099 0.15241832 -0.0743117
0000e0 6e ac 87 3b 83 42 6d 3e 04 65 58 bd f7 c4 8d 3d
       0.0041404283 0.23169903 -0.05283071 0.06922334
0000f0 56 55 3c 3d b0 61 57 be b5 85 15 bd f8 17 dd bd
       0.04597982 -0.21033359 -0.036504466 -0.10795587
000100 58 64 29 3e fa a9 3f be d4 46 e6 3b 27 9a 92 bd
       0.16542184 -0.18717185 0.0070274863 -0.071583085
000110 3b 1d d8 3d 3d 99 20 3e 5b e4 30 3e a2 5b 30 be
       0.1055245 0.15683456 0.1727461 -0.17222455
000120 b1 81 c1 bc 48 c1 31 3e f6 1c 1e 3d 86 ff 9b 3d
       -0.023621412 0.17358887 0.038601838 0.076170966
000130 95 60 2d 3d 7f e4 2f 3e 81 b1 cf 3d f8 a5 69 bd
       0.042328436 0.17177008 0.10141278 -0.057043046
000140 94 c1 8b 3d ee c9 f7 bd fa 32 81 3d 02 a2 80 bd
       0.068240315 -0.12099062 0.06308551 -0.062809005
000150 5b cc ae 3d d1 13 36 bd d1 1e 10 be 18 ce 9b be
       0.085350715 -0.044452492 -0.14074256 -0.30430675
000160 f8 8f d4 bc 82 cf 81 be ea 95 92 3e 2d 5c e6 bd
       -0.025947556 -0.25353628 0.2863 -0.1124805
000170 62 c4 b9 bd 67 99 9e 3e de 13 77 bd 9d db df bd
       -0.0907066 0.30976412 -0.06032168 -0.1093056
000180 df f0 64 3e 53 b7 7b bc 19 54 5d be 6d f1 e2 bd
       0.2235751 -0.015363532 -0.21614112 -0.110812046
000190 f5 81 ed bd 90 6c 3c 3e 77 2c 3f 3e 04 c8 1e 3e
       -0.11597053 0.18400788 0.18669306 0.15505987
0001a0 bd 8b 0c 3d 2a fd e1 bd 45 da 35 be b7 63 83 bc
       0.034312952 -0.11034615 -0.17759044 -0.016038759
0001b0 f0 96 08 3e e9 71 80 bc a3 ad e0 3d 43 e0 36 3d
       0.13338828 -0.015679317 0.109706186 0.044647466
0001c0 77 72 fe bd 5e 19 95 bd 52 b7 73 3e 76 cb db bc
       -0.12424176 -0.07280229 0.238004 -0.026830416
0001d0 f5 37 09 3d 9c e2 94 be 5d 0d 2a 3d af ae 13 bd
       0.03350063 -0.2907914 0.04151665 -0.036055263
0001e0 b9 44 36 be d2 2d 9c bc 08 31 22 3e ae fd 15 be
       -0.17799653 -0.019064818 0.15839016 -0.14647552
0001f0 1b b3 8f be ff 74 f2 bd 59 32 a3 3e 9c e7 bc 3d
       -0.28066334 -0.118387215 0.3187435 0.092238635
000200 c4 03 83 3d ae eb 8b bc b5 6f 5a be 8b 7a 68 bd
       0.063972026 -0.017080154 -0.21331675 -0.05675749
000210 24 ab 45 3d 2d 80 9c 3e 4b 5c 93 be 5a 89 68 3d
       0.048258916 0.3056654 -0.2878135 0.056771614
000220 b5 65 41 be 8d a6 ee bd 3b a3 3f 3c ea 8a 15 be
       -0.18886454 -0.11652861 0.011696632 -0.14603773
000230 7c 4f a9 bd f3 65 e7 bd c0 a3 92 3d 41 f6 35 be
       -0.082671136 -0.11298742 0.07160139 -0.1776972
000240 35 54 99 be bc 01 61 bd e4 83 bc 3c ba 79 a6 bd
       -0.29947057 -0.054933295 0.02301211 -0.08128686
000250 c9 90 9e bd f5 4d 30 bd e7 2f de bc b8 ab 46 bb
       -0.07742459 -0.043043096 -0.027122451 -0.0030314755
000260 dd aa a1 3d 9d 00 e7 3d 71 3d ad 3c 86 74 d7 bc
       0.07893918 0.11279414 0.021147462 -0.02630068
000270 40 f9 c8 3d b8 03 ac bd f2 5e 77 3e c2 9e 00 bd
       0.09813166 -0.08399147 0.24157313 -0.031401403
000280 22 b4 7b be ba ae d3 3c f3 4d 3d be 19 61 2b be
       -0.24580434 0.025840152 -0.18486767 -0.16736259
000290 47 f0 c4 3d 91 09 2e be 71 b2 90 bb db 2f fb 3b
       0.09616142 -0.16995837 -0.004415803 0.007665617
0002a0 01 21 a8 3e d6 52 0b 3d 53 73 3c bd a8 44 12 be
       0.3283768 0.034014545 -0.04600842 -0.14284003
0002b0 95 4c 08 3e 5f 04 0a be 00 0b 42 3d 56 12 78 3e
       0.13310464 -0.1347823 0.04737377 0.24225745
0002c0 5f de 3b 3e 44 01 9f 3b 93 15 84 be ff fd 8e 3e
       0.18346547 0.004852446 -0.2579771 0.2792816
0002d0 2e 72 b4 bd 9c 30 a2 bd 80 76 af bc 21 fb f5 3d
       -0.088108405 -0.07919428 -0.02141881 0.1201079
0002e0 45 24 56 3c c7 81 25 3e 71 0e 4a 3e 98 46 3a 3e
       0.013070171 0.16162787 0.19732071 0.18190992
0002f0 f8 ca 9b 3d ca 3d 6d 3d c1 03 0a 3e a1 f3 9c 3e
       0.076070726 0.057920255 0.13477995 0.30654624
000300 28 8a 0e 3e d8 95 1f 3e bf e8 ed 3d 39 84 28 3d
       0.1391989 0.15584505 0.116166584 0.041141722
000310 7d 35 0a bc d9 1a a8 be 4f b9 c2 3d 68 3d a5 bd
       -0.008435604 -0.32832983 0.09508001 -0.08068353
000320 92 d8 85 3e 08 33 85 bd 0c 6a 86 bd 98 ea 1e bc
       0.26141793 -0.06503874 -0.065631956 -0.009699486
000330 b0 0d 40 be 73 cb fc bc eb 74 61 bd 23 27 b6 3d
       -0.18755221 -0.03085873 -0.055043142 0.088941835
000340 c9 2d 73 3d 2b 43 87 3d a2 1b e1 bd 2b 4d 90 3d
       0.059369836 0.06604608 -0.10991599 0.070459686
000350 a4 4b 23 3c c0 09 2e 3e 11 70 cf 3d 46 d1 05 bd
       0.009966765 0.16995907 0.10128797 -0.03267028
000360 81 20 c3 bc fd e7 44 3e c5 8d ea 3b 86 9a 06 3e
       -0.02381921 0.19229122 0.0071580135 0.13144884
000370 0f e9 13 3c 21 21 ab bc e4 6c fb 3d b1 31 57 be
       0.0090277335 -0.02088982 0.122766286 -0.2101505
000380 fb 06 d4 3e b0 13 de 3d 48 96 aa 3d 31 71 d5 bd
       0.41411576 0.10843599 0.08329445 -0.1042198
000390 a8 df 8e 3d 84 a0 7f 3c a3 b1 2c 3e 87 1b d8 bd
       0.06976253 0.015602235 0.16864638 -0.105521254
0003a0 08 49 70 3e b8 6b ec 3c 8c af 49 bb f1 92 25 be
       0.23465359 0.028859958 -0.00307748 -0.16169335
0003b0 a0 90 13 3e 85 a7 22 3e 44 d7 d9 3d 2a ae 7a 3d
       0.14410639 0.15884216 0.10636762 0.061201252
0003c0 90 f9 d2 3d 7d 2e 85 bc 1f 97 5a 3e 76 5e 08 be
       0.103015065 -0.016257519 0.2134671 -0.13317284
0003d0 c8 c9 ea bd f0 81 b7 bd 63 7b 13 be 22 5a cb 3c
       -0.11464268 -0.089603305 -0.14402537 0.024823252
0003e0 6a 99 43 3e 97 0f a8 3e 1b 77 76 bd 88 81 ac 3d
       0.19101492 0.32824394 -0.06017218 0.084231436
0003f0 3e 47 61 3d 20 23 d2 bd d4 fc 38 be 83 c4 28 be
       0.054999582 -0.10260606 -0.18065196 -0.16481213

network_body._body_endoder.seq_layers.0.bias f4 [128]
000000 da 7f 2b 3c 31 56 b8 3b 8f 14 b3 bc c4 f2 4a bb
       0.010467494 0.005625509 -0.021860389 -0.0030967453
000010 83 0d 10 bb df 2a 5c bc de 09 5c ba 2c 6d e9 bb
       -0.002198071 -0.013437956 -0.00083938043 -0.00712361
000020 86 c1 53 bc 31 77 81 bc 43 59 82 bc ed ec 94 3c
       -0.012924558 -0.015803905 -0.015911704 0.018179381
000030 49 50 dc bb 4c b5 40 3d 0e 78 b2 bb c6 8a 19 3d
       -0.006723438 0.0470479 -0.0054464405 0.03748586
000040 57 c0 c3 3b 55 4a d6 3c 33 80 a0 bc df af 3b bc
       0.0059738564 0.026158491 -0.01959238 -0.011455505
000050 ea 6c 54 3c 7c 8c dc 3c 08 d6 ba bb 2e 15 0e bc
       0.01296542 0.026922457 -0.005701784 -0.008672042
000060 52 f1 e6 bb 4e 41 76 ba fc b4 13 3d 88 07 36 3c
       -0.0070478106 -0.00093938864 0.036061272 0.011110194
000070 8d 78 8b bb 80 57 17 3d 7a bd db 3b 8d af 06 bc
       -0.004256314 0.03694868 0.006705937 -0.0082205655
000080 de 55 ea 3c 3b 63 44 3c df 4b d4 bb e3 b4 95 3b
       0.028605398 0.011986549 -0.006478771 0.0045686825
000090 4a 1d 8e bc 2d 1c 29 3d 0f c0 c1 3c 61 5a 43 bb
       -0.01734795 0.041286636 0.023651151 -0.0029808509
0000a0 09 a8 85 3c 9e 77 03 bb 10 db 92 3c b8 37 ea ba
       0.016315477 -0.002006031 0.017926723 -0.0017869389
0000b0 58 d9 62 bc 61 d8 bd 3c 53 e6 2f 3c 38 59 16 3a
       -0.013845764 0.023174467 0.010736066 0.00057353405
0000c0 be a0 09 3c b3 09 de 3c ee cc 60 39 29 36 2e 3c
       0.00840014 0.027104234 0.00021438647 0.01063303
0000d0 3e b2 8f 3b 03 b6 47 3c c6 d6 1f 3c fd 55 18 3c
       0.004385262 0.012189391 0.009755796 0.009297845
0000e0 7b fc af 3c 84 b0 eb bb 11 46 a9 38 20 63 ab 3b
       0.021482697 -0.007192673 8.071599e-05 0.0052303225
0000f0 30 00 a2 3c 37 28 de 3c 5f 91 40 3b f8 3e 97 3a
       0.01977548 0.027118785 0.0029383523 0.0011539152
000100 eb 21 85 3c 26 7f 45 3c ad e7 4c bc 83 92 e6 3a
       0.016251525 0.01205424 -0.012506408 0.0017591271
000110 59 1e 91 bc 2b a1 c2 3c ff b4 8c 3c 84 e5 b9 bb
       -0.017714666 0.023758492 0.01717615 -0.0056731123
000120 60 51 d1 ba b3 4f 8a bc 47 6d f6 3c d3 e5 3b 3c
       -0.0015969686 -0.016883707 0.030081404 0.011468369
000130 c3 af f0 3b 45 f7 9e bb 23 a6 80 bc b7 77 c4 bc
       0.007345171 -0.004851254 -0.01570422 -0.023982866
000140 9b e9 99 3c 39 36 8b bb bc 23 30 3c fc 7c a0 3c
       0.01878815 -0.004248407 0.010750707 0.019590847
000150 20 bb 96 3c 17 da da 3b 8b 0a af 3c 1a 2c 55 bc
       0.018399775 0.0066788304 0.021367332 -0.013011003
000160 d8 29 97 3c b7 83 b0 bc d2 93 e5 3b 42 0d 3b 3c
       0.01845257 -0.021547182 0.007006147 0.011416735
000170 20 6e 55 3c 0c 9c 3f ba 1a d7 d0 3c ac f2 70 bb
       0.013026744 -0.00073093246 0.025493193 -0.0036765737
000180 1c f4 25 bc 73 88 4b 3b e7 1a e0 bc f7 ee eb ba
       -0.010129001 0.0031056672 -0.027356578 -0.0018000294
000190 67 c4 43 3c 9e ca d9 3b 85 78 90 3c 1b 5d 6b bc
       0.011948681 0.0066464683 0.017635593 -0.01436546
0001a0 7c 8d 0f 3c 32 68 2e 3c d5 62 c7 3c 68 03 99 3c
       0.00876176 0.010644959 0.024339119 0.018678382
0001b0 9d 55 48 3c ff 30 16 3b 3d 43 67 3a 6e 20 c9 3c
       0.012227443 0.0022917388 0.000882197 0.024551596
0001c0 d3 11 4f 3c 90 e9 17 3c e6 87 47 3c 9b 59 21 bc
       0.012638527 0.009271994 0.012178397 -0.009848024
0001d0 67 fc 8f bc 98 cb 41 bc 48 80 a8 3b b2 9e 3e bc
       -0.01757641 -0.011828326 0.0051422454 -0.011634516
0001e0 2e 63 71 bc ea 29 37 bc 84 6a 47 bc a1 8c e2 bc
       -0.014733119 -0.011179427 -0.012171391 -0.027654948
0001f0 0a 36 25 bb 0e 32 8f 3c a6 3b c1 3b c4 51 99 3a
       -0.0025209212 0.017479923 0.005897003 0.0011697342

network_body._body_endoder.seq_layers.2.weight f4 [128, 128]
000000 4e 55 8d 3c 32 22 0d 3e 9f 1d 9a bc 91 06 30 3e
       0.01725259 0.13782576 -0.018812953 0.17190005
000010 db db 8b 3d 64 14 77 bd 34 91 7c bd 8b d0 47 be
       0.068290435 -0.06032218 -0.061661914 -0.19513147
000020 39 9b 23 3b 54 ce 87 3d a5 d4 41 bd eb f9 fd bc
       0.0024964346 0.06631151 -0.047321934 -0.03100296
000030 09 4a 30 3d cc 8f 1b be 86 0c a6 bd d5 00 0e 39
       0.043039355 -0.15191573 -0.081078574 0.00013542485
000040 49 90 f2 3d 8d 38 12 3e 82 28 e6 bd f9 ad e1 3c
       0.118439265 0.14279385 -0.11238195 0.027548777
000050 9e ea fd 3b 70 bd f7 bd 87 ac 89 bc b9 9d a3 3a
       0.007748916 -0.12096679 -0.0168059 0.0012482918
000060 f6 d8 bb bc f0 fd 09 be 39 4a 27 be 53 a3 97 3c
       -0.022930603 -0.13475776 -0.16336907 0.018510496
000070 53 e8 08 3e 49 9a e3 3c 59 0b 8b bd ae da 61 be
       0.13369875 0.02778353 -0.06789274 -0.22056076
000080 9e 5b be bd 51 b6 30 3d 91 fc 9b 3b 23 28 60 3d
       -0.09294818 0.04314262 0.004760333 0.054725777
000090 5e d3 d8 3d 25 a4 02 bd df d2 c6 3d 7e c4 42 bc
       0.1058719 -0.03189482 0.09708189 -0.011887668
0000a0 e2 7d ea 3d f7 fd 44 bd 8f 99 c4 bd ad 2b 14 bd
       0.114497915 -0.048093762 -0.095996015 -0.036174465
0000b0 c3 ff 2a be 22 b3 8e bd 35 80 19 3d 70 d8 11 3e
       -0.16699128 -0.069677606 0.037475783 0.1424272
0000c0 13 85 90 bd ee 61 dc bc 7f 70 e5 bb dd 04 28 3c
       -0.07056632 -0.026902165 -0.007001936 0.010255066
0000d0 28 ff e2 3c 35 5c b8 bd b5 52 47 3e d1 b4 99 bd
       0.027709559 -0.09001962 0.19465144 -0.07505191
0000e0 79 68 89 3d b3 e1 0f be fc fc 1b bd a2 63 9c 3c
       0.0670938 -0.14050941 -0.03808306 0.019090477
0000f0 38 f1 0e bd 6e 91 9b bd c2 64 e3 3d df e4 3a bd
       -0.034898013 -0.07596098 0.111032024 -0.045628425
000100 4b 17 5d 3d 44 70 3b 3e c0 f3 85 3d 4c 17 0f 3d
       0.053977292 0.18304545 0.06540632 0.034934327
000110 1c 22 f6 bc cf 6a 63 3c 61 6a 8f 3d e9 9d 46 bd
       -0.030045561 0.013880446 0.07002712 -0.04849044
000120 e9 71 87 3d 58 a3 95 bd 34 27 47 bd 35 46 cc bd
       0.066135235 -0.07306546 -0.04862137 -0.099743284
000130 1f 18 f1 bd 06 9d 59 be 1d f8 51 bd 41 06 24 be
       -0.11772179 -0.21251306 -0.05126201 -0.1601801
000140 f9 66 8b 3d e5 75 39 bd 61 ce 01 be 06 45 99 bc
       0.0680675 -0.04527845 -0.12676384 -0.01870967
000150 03 15 72 3d f4 14 80 3d 12 2d df 3d fb 31 ce 3d
       0.05910207 0.062539965 0.10897268 0.10068127
000160 7a 99 3a be 0e cf 9e 3c d4 d1 8b 3d 1a 8e eb 3c
       -0.18222609 0.01938584 0.06827131 0.028754283
000170 52 4c ef 3d 16 15 2f bd 24 e4 41 3e af 6c 6c bb
       0.11684479 -0.04274472 0.18934685 -0.0036075523
000180 69 9c 8a bc e0 3d 87 3d c7 a7 37 bd 7d af 0b be
       -0.016920285 0.066035986 -0.04483774 -0.13641162
000190 39 cc a3 b9 aa 9f a7 3c 23 e3 44 3d 88 47 7e bd
       -0.0003124194 0.020461876 0.048068177 -0.062079936
0001a0 10 c4 19 3e 34 84 8b 3e 40 be b4 3c 71 86 a6 3d
       0.15016198 0.272493 0.022063375 0.081311114
0001b0 d0 b6 53 be 9c 7e ee bd 63 f9 70 3d c5 57 1c bd
       -0.20675206 -0.116452426 0.058831584 -0.03816964
0001c0 b2 de 34 bd 48 85 a1 3d 1a 76 0b 3e a0 b6 79 bc
       -0.04415769 0.078867495 0.13619271 -0.015241295
0001d0 cf 11 5c bd 63 ec 39 be 51 92 e5 bd c0 b4 5b 3d
       -0.05372792 -0.1815658 -0.11209548 0.053639174
0001e0 69 8a 0b be 5f c0 a2 bc 10 24 8b 3d 2c 2a e4 3d
       -0.13627018 -0.01986712 0.06793988 0.11140856
0001f0 24 7e f1 bc fa 3f 1f be 1d 77 33 bb 58 38 4e bc
       -0.029479094 -0.15551749 -0.002738423 -0.012586676
000200 38 46 a2 bd 22 7d 11 3e 36 64 0d 3d a9 91 0a 3e
       -0.079235494 0.1420789 0.034519397 0.13532127
000210 c3 70 ad 3c 5b 0b 1e bd 24 63 7d bc df 68 95 3b
       0.021171933 -0.03858505 -0.0154655315 0.0045596207
000220 5c 87 44 be 50 a3 c5 bc 3b 30 22 3c af 7f 9d bd
       -0.1919226 -0.024125725 0.009899194 -0.07690369
000230 38 a8 d9 bd 7e 87 3f 3d 8b 4e 8b 3d 95 ab 87 bd
       -0.10627788 0.046760075 0.0680209 -0.066245236
000240 d1 dc 46 3d 2b 21 e6 bd cd f1 8d bd bd 38 a9 3d
       0.04855043 -0.11236795 -0.069308855 0.08262775
000250 ce c4 00 3d f0 f1 fd bd 16 f4 12 be 8a 21 0e be
       0.031437688 -0.123996615 -0.14350924 -0.13879982
000260 7e 7a 44 bd 2a f9 af 3c b9 48 ed 3d 58 0a 33 bc
       -0.04796838 0.021481115 0.11586136 -0.010927759
000270 b6 cb 30 3e 51 1c 03 bd fa aa 1d be cf f2 8e bd
       0.1726521 -0.032009427 -0.15397254 -0.06979906
000280 78 66 ff bb e0 15 cb bc d0 ab f7 bd 0c 1f 93 3c
       -0.0077941976 -0.024790704 -0.120933175 0.01795914
000290 b5 6b 1b be 32 b7 5e 3c 28 37 b1 3c 3a 06 64 3c
       -0.15177806 0.013593482 0.021632746 0.0139175
0002a0 b2 94 9e bd 63 67 27 be f1 e8 99 bd 3a ac ad bc
       -0.07743205 -0.16348033 -0.07515133 -0.021200288
0002b0 06 67 94 bb be 98 1c 3d 91 84 ac ba 60 2b fb bc
       -0.004528883 0.038231604 -0.0013162066 -0.030660331
0002c0 c2 0e 29 be 8b 69 85 3d 37 49 bf bc 03 77 a8 bd
       -0.16509536 0.06514271 -0.023350341 -0.08225825
0002d0 7b f8 41 bd 1f 01 16 3e bd e6 0a bd 8e 36 6c bd
       -0.04735611 0.14648865 -0.033911455 -0.057669215
0002e0 66 4f 44 3d 51 da ca 3c 44 af 03 be b9 f0 8a 3b
       0.047927283 0.024762304 -0.12859827 0.004240122
0002f0 a0 2e 06 be ac b9 9d 3d 68 b2 b5 bd f5 24 8b bd
       -0.13103724 0.0770143 -0.08871919 -0.06794158
000300 50 24 8a 3d 2f e0 78 bd e2 81 b7 bc 2c 92 b6 bc
       0.06745207 -0.060760673 -0.0224008 -0.022286497
000310 66 66 79 3d cd a8 95 bd eb 88 f5 3d 18 0a 1e 3e
       0.06088867 -0.07307587 0.11989006 0.15433538
000320 0c b6 4e 3e 76 b3 54 bc 4a 2e 65 bd 89 95 21 3e
       0.20186633 -0.01298224 -0.055952348 0.157797
000330 7a 0e a0 3d 30 72 0a be bb 94 fc ba 6b e3 d4 3d
       0.07815261 -0.13520122 -0.0019270399 0.10394939
000340 fe 73 e0 bc 27 82 07 be 74 fc 77 bd b8 ae 12 be
       -0.02739906 -0.13233243 -0.060543492 -0.14324462
000350 ad 2a 8a 3d 15 61 d1 bb 9c 91 c4 bd 28 06 50 bd
       0.06746421 -0.006389747 -0.09598085 -0.05078712
000360 de e9 86 bd f3 43 52 bd c1 60 a6 bd a2 fc 6b bc
       -0.065875754 -0.051334333 -0.08123923 -0.014403494
000370 c6 92 8c bd eb 17 d5 3d 3e 6c 5a bc 44 65 8e 3d
       -0.06863932 0.104049526 -0.013331471 0.06952909
000380 e2 c5 54 bd 02 7a 1e be f0 54 ab 3d d7 e5 82 3d
       -0.05194653 -0.1547623 0.0836581 0.06391495
000390 44 bb fc 3d ea 60 86 bc 34 e1 dc bc a8 fa 29 bd
       0.123404056 -0.016403634 -0.026962854 -0.04149881
0003a0 95 38 55 bd 2a 67 b0 3c 79 2a bb bc 67 71 85 bd
       -0.052055914 0.021533567 -0.022847401 -0.065157704
0003b0 84 1c ff 3c 78 53 2d 3d f3 a0 66 bd 85 dc e7 3d
       0.031141527 0.04231593 -0.056305837 0.11321358
0003c0 47 dd 97 bd 0d d8 48 3d cc 2c a6 bd 50 20 bc bd
       -0.07415252 0.049034167 -0.08114013 -0.091858506
0003d0 ce 7b a4 3d 23 1d c9 bd 12 3f 56 bd d0 e6 44 bd
       0.08031426 -0.098200105 -0.052306242 -0.048071682
0003e0 05 6b 19 3e cd e1 15 bd 89 73 f6 3d 28 76 83 be
       0.14982231 -0.036592294 0.12033755 -0.25676084
0003f0 5d c8 7f bd 00 88 a7 bb 50 a1 1e be e8 a9 8d bc
       -0.06244694 -0.005112648 -0.15491223 -0.017292932

network_body._body_endoder.seq_layers.2.bias f4 [128]
000000 29 2a d9 3b e9 66 de bb fb da b9 3a 83 ac 10 bc
       0.0066273403 -0.00678717 0.0014179641 -0.0088301925
000010 8a 2b 96 3b 8d 8f 37 bc e8 68 5f 3c cd 65 06 3b
       0.004582827 -0.011203659 0.013635851 0.0020507455
000020 63 b0 4a 3b 66 a4 02 bb d6 06 ed ba b9 87 f7 bb
       0.0030927889 -0.0019934415 -0.0018083702 -0.007554021
000030 74 71 85 3b 2a 9a ce ba ba 48 03 bb e1 f9 0f bc
       0.0040723626 -0.0015762497 -0.0020032362 -0.008787603
000040 3d e8 6a 39 20 95 b8 3b b8 66 5b bb 27 23 e9 3a
       0.00022402495 0.0056330115 -0.0033477973 0.0017786965
000050 18 ed 9c 3c 03 f5 3b bc d1 df 87 bc 1b 8f 48 ba
       0.019156024 -0.01147199 -0.016586216 -0.0007650719
000060 2b 7d cd 3a 0b 1f 88 3c fe ee 82 bc e7 e1 d2 3b
       0.0015677562 0.016616365 -0.015983101 0.006435621
000070 c1 d3 05 3c d1 be 5e 3c 14 c7 88 3c e9 82 72 bb
       0.008168162 0.013595299 0.01669649 -0.0037004298
000080 84 86 af 3a 59 8e e7 39 20 45 e4 3a fa 71 25 ba
       0.0013391529 0.0004416581 0.001741562 -0.00063112343
000090 14 65 90 3c a8 35 17 3c 86 78 2e 3d 7f f5 4d 39
       0.017626323 0.009229101 0.04259541 0.00019641778
0000a0 10 09 cd 3c 5a 6b 03 3c c7 63 8a 3c 2d 5b 54 3c
       0.025028735 0.0080212 0.01689328 0.012961191
0000b0 cc a5 d5 ba 6a 23 f6 3a 9d dc 0f 3c e8 a0 cc 3c
       -0.0016300022 0.0018778865 0.008780626 0.02497907
0000c0 80 69 89 3c 3d 09 b9 3b ac d5 19 bc af a7 23 3c
       0.01677394 0.0056468532 -0.009389322 0.009988709
0000d0 ab 9c 3f 3b db b7 86 3c de 89 58 3b 5e 29 62 ba
       0.0029237668 0.016445091 0.003304116 -0.000862738
0000e0 5b de 1e bc 52 6c 5f bb 23 0c 66 3b 00 da 4f 3c
       -0.009696568 -0.0034091664 0.003510245 0.012686253
0000f0 ea 2f 84 bc fd ae 78 3c a6 2b a6 3b 2e f9 8b 3b
       -0.016136128 0.015178439 0.0050711213 0.004271648
000100 19 4f cd 3c 25 53 e6 3c 8a 8b 6b 3c ab 43 48 3c
       0.02506213 0.028115818 0.01437653 0.012223165
000110 17 62 4a bc 5e bc bb 3c 9d ac de 3b ec 1b 91 3a
       -0.012352488 0.022916969 0.0067954795 0.0011070943
000120 08 0b 7f bb 7e 45 d1 3b ed b1 8f 3c 71 fc 98 bc
       -0.0038916487 0.006386458 0.017540896 -0.018675061
000130 7f 2f 4e bc b7 a8 08 bc 41 ce d6 3c 5c d3 5d 3c
       -0.012584566 -0.008341006 0.026221396 0.0135391615
000140 16 7c bb bb ba 4d 1e bc 5e e2 36 bb 31 88 b0 3c
       -0.0057215793 -0.009662086 -0.0027905921 0.021549316
000150 d1 91 7f bc 70 ee 47 3c e1 75 97 b9 2e 2a 82 3c
       -0.01559873 0.012202844 -0.0002888879 0.015889253
000160 0a ed 5b bc f7 a9 a8 bb 85 08 27 3c 8b 61 14 3c
       -0.013423214 -0.0051472145 0.010194902 0.009056459
000170 c1 a9 a0 bb b3 1b 30 3c bc 0e 5e 3b 4e 3b d6 bb
       -0.0049030487 0.0107487915 0.0033883294 -0.0065378314
000180 88 f6 01 bc 72 8d 20 3d 9c 8a c9 3c f1 a5 6e bb
       -0.007932313 0.039197393 0.024602227 -0.0036414827
000190 9b a0 f5 3c 8f 55 ee 3a f1 cf c1 b9 e2 df 54 bb
       0.02998381 0.0018183457 -0.00036966757 -0.0032482077
0001a0 53 4a d5 3c 94 b2 ca 3c bd a3 d4 3b 7d 4d 7d 3c
       0.026036417 0.024743356 0.0064892457 0.015460369
0001b0 25 50 a9 3c 14 12 8e 3c 9b b1 99 bc 6d 82 4f 3c
       0.020668099 0.017342605 -0.018761447 0.012665373
0001c0 38 71 f2 3b b0 5f f1 3a d7 02 13 3d 9f 24 27 3b
       0.0073987506 0.0018415358 0.03589138 0.0025504006
0001d0 2e 7a 1e bc 6f 90 0a bc 6a fd ae 3b 97 e1 c5 3c
       -0.009672685 -0.008457287 0.005340268 0.024155421
0001e0 7e 37 15 ba 19 65 8f 3b ea cf e1 3c 1f 28 32 3b
       -0.0005692168 0.0043760655 0.027564961 0.0027184559
0001f0 7d 46 04 3c 7b 0e 72 3c 16 87 7d 39 b4 a7 63 bb
       0.008073446 0.01477396 0.00024178284 -0.003473741

action_model._discrete_distribution.branches.0.weight f4 [3, 128]
000000 58 03 aa bc b6 2c 7c 3c b0 5b 24 bc 77 a6 ca 3b
       -0.020753548 0.015391519 -0.010031626 0.006184395
000010 2b dc 57 bc 59 de 40 bd c0 e3 9b 3c 5e a9 f1 bc
       -0.013175051 -0.047087047 0.019029498 -0.029499706
000020 1d 5f a7 3c a3 b2 28 bc 81 8f ac bb 28 b5 86 3b
       0.020431096 -0.010296497 -0.0052661304 0.004110951
000030 0a f5 0c bd b4 b3 aa bb 73 2c 56 3c b9 fd 68 bd
       -0.034413375 -0.0052094106 0.013072121 -0.056882594
000040 2b 7c 2c bd 12 dc d3 bc ce ed 98 3c 51 ce 5d 3a
       -0.042110603 -0.025861774 0.018668082 0.00084612245
000050 5c 43 ae bc 24 d1 13 3b c5 45 66 bb 12 73 d2 bb
       -0.021272354 0.0022555077 -0.00351368 -0.006422409
000060 3c 01 b3 3c e9 28 77 bd 31 be 8a 3d ab af 52 bd
       0.021851175 -0.06034175 0.067745574 -0.05143706
000070 03 1c 84 b9 e6 a0 7d bb 59 1e 13 3c bf fc 21 bc
       -0.00025197872 -0.003870064 0.008979403 -0.0098869195
000080 46 1a d3 bb 2e cd 55 bc 80 f5 d5 3a 77 d0 58 bb
       -0.006442341 -0.013049407 0.0016323775 -0.003308324
000090 79 06 13 3d 8b 78 a1 bc fc fd 33 3d b7 56 23 3c
       0.035894845 -0.0197108 0.04394339 0.009969405
0000a0 48 3f 6d bc d1 46 84 bd 53 89 7a bc 16 32 94 bb
       -0.014480419 -0.0645882 -0.01529153 -0.0045225723
0000b0 02 20 85 bc 21 d2 c6 3b 24 da e7 3b d6 bc 39 bd
       -0.016250614 0.00606753 0.007075565 -0.045346104
0000c0 85 8d c0 bc 6d 85 c1 39 7b 79 4e bb 04 8e 64 3d
       -0.023504982 0.0003691124 -0.0031505513 0.0557995
0000d0 9b 9a fb 3c a3 89 20 bd c5 20 ce 3c 5c 41 0c 3d
       0.03071337 -0.03919376 0.02516211 0.03424202
0000e0 b3 81 5b 3c d3 ff 8f 3d 54 30 c7 bc f4 ef 09 bd
       0.013397622 0.070312165 -0.024315037 -0.033676103
0000f0 7b 21 54 bb 31 a2 5a 3d 42 6e 48 3d c1 37 1b 3d
       -0.0032368589 0.053377334 0.048933275 0.037894968
000100 3e d8 eb b9 78 61 39 bd a4 02 cc 3c d8 49 8c bc
       -0.00044983806 -0.04525897 0.024903603 -0.017125055
000110 ad 78 83 b8 f2 07 6e bd 19 8d 24 bc 9c fd a5 3c
       -6.2690444e-05 -0.058113046 -0.010043406 0.020262532
000120 99 58 5d 3c 10 f8 0a 3d a8 4d d5 3b 38 98 aa bb
       0.013509893 0.033927977 0.0065095015 -0.005206134
000130 71 80 c8 bc f8 e4 f9 bc dd a4 23 bd 73 1c 19 3d
       -0.024475308 -0.030504689 -0.039952148 0.037380647
000140 97 2f 41 3b 9c 9a 94 3c 92 16 af 3c 33 67 20 3d
       0.0029477829 0.01814013 0.021373067 0.03916092
000150 fd 99 00 3b 31 ff d0 3c 7d a6 37 bc 66 19 63 3d
       0.0019623034 0.02551231 -0.0112091275 0.055444144
000160 61 73 cf 3a cd d3 88 3c 1e 6e ae 3c c7 a8 d8 3c
       0.0015827232 0.016702557 0.021292742 0.026447667
000170 08 0e 58 3c 19 df 57 bd a5 fe 12 bd 89 ad bf bc
       0.013186939 -0.052702997 -0.03588738 -0.023398178
000180 14 c5 22 bc b4 99 2c bd 8f b5 59 3d 6a 73 07 bd
       -0.009934682 -0.04213877 0.053151663 -0.03306905
000190 45 cd 86 bd cc 0a 81 3c fb fc 00 3b 54 9b 9f 3c
       -0.06582121 0.015752219 0.0019682038 0.019483246
0001a0 ba 16 ee bc 1f 5f 0e 3d 86 3f 67 bb 8b bc bf 3b
       -0.029063571 0.034758683 -0.0035285666 0.0058513335
0001b0 3a a4 18 bd a2 e6 60 ba 95 90 88 3b 01 93 90 bd
       -0.037265994 -0.0008579289 0.004167626 -0.07059289
0001c0 fb 30 cf bb 4e 16 3a 3d ce 9a 83 bc ee 04 24 bc
       -0.0063229776 0.045431428 -0.016065028 -0.010010941
0001d0 d7 90 5d bc 8c 15 0a 3c b4 b7 ff 3c 2e 4c 49 3c
       -0.013523302 0.008427989 0.031215526 0.012286229
0001e0 f2 0c 2d 3c 26 b5 01 3b 5a 00 5f bd c7 d1 3a bd
       0.010562168 0.001979181 -0.054443695 -0.045610216
0001f0 a2 6e 56 bb dc b2 39 bd 20 97 ff 3c ca 37 89 3a
       -0.003271975 -0.04533659 0.031199992 0.0010468897
000200 e5 3c 47 3c ea 1c b4 39 a2 01 70 3c 87 8f b7 3c
       0.0121605145 0.00034353818 0.014648827 0.022407306
000210 eb e2 7a bb 2a c8 bd 3b 9f a4 d9 3b ee 26 92 bc
       -0.0038282226 0.0057916837 0.006641939 -0.017840829
000220 ac f9 09 3c 1a 52 0c 3c d5 bb ab bc be ea 1c 3c
       0.008421343 0.008564496 -0.020963589 0.009577451
000230 a9 69 07 bd e6 52 8a bc b0 3d 18 bb 92 f0 0d 3c
       -0.03305975 -0.016885232 -0.0023230128 0.008663313
000240 26 c7 97 bc 41 e6 e1 bb 74 8d bd 3a ac 60 bf bb
       -0.018527579 -0.0068939035 0.0014461712 -0.0058403816
000250 22 cf 8b bb 06 19 4d 3a f1 75 40 bc df 5d ed bb
       -0.0042666355 0.0007823858 -0.011746869 -0.0072438563
000260 fe 6b c2 bb 20 41 40 bc 6b b5 e6 bb d9 50 8f 3c
       -0.005933284 -0.011734277 -0.0070406697 0.017494606
000270 70 a8 a0 3b 3c bc 42 3c 82 26 bb bc 5a b9 4a 3c
       0.004902892 0.011885699 -0.02284551 0.012373293
000280 57 cb 84 3c 96 ff 37 3c 31 20 2e ba 8b 8c 44 3c
       0.016210241 0.01123037 -0.000664237 0.011996399
000290 40 95 73 3b 0b ce b8 3b 63 b4 1f bd 2a dc 81 3c
       0.0037167817 0.0056397966 -0.03899039 0.015852053
0002a0 3b d3 9c bc 22 2b a7 bb fe 26 00 3c 69 b5 f6 3c
       -0.019143691 -0.0051015774 0.007821796 0.0301158
0002b0 f1 02 0f bb b3 c5 c0 bb 8f b8 47 bc 17 f1 00 3a
       -0.0021821822 -0.0058829426 -0.012189998 0.00049187377
0002c0 84 79 bc 3b a1 97 42 3c e7 4b 76 3b fe 5f 29 bc
       0.0057517905 0.011876971 0.0037581862 -0.010337828
0002d0 b4 44 46 bb 76 11 88 3c c1 87 45 3b 7d e8 bf bc
       -0.0030253353 0.016609889 0.003014073 -0.023426289
0002e0 51 86 70 3b 50 2c 42 3a f7 b0 dc 3b 33 31 1f bc
       0.0036701153 0.0007407116 0.006734963 -0.00971632
0002f0 03 b6 fa 3a 8e 0b f6 3a 2f f4 92 bc e5 b8 20 bc
       0.001912773 0.0018771754 -0.017938701 -0.009809707
000300 f3 ca 4c bc 9c b3 ff 3b 0c ee 72 bc 5b 7d 56 3c
       -0.012499559 0.0078033935 -0.014827263 0.0130914105
000310 79 71 13 bc 5a 11 49 bb 2a 01 31 bc 49 75 c2 bb
       -0.008999222 -0.0030680508 -0.0108035 -0.0059343916
000320 b4 50 87 3b c0 5d 06 3b b4 6d ef 3b 69 27 98 bb
       0.0041294936 0.0020502657 0.007306779 -0.00464337
000330 ff 2a 38 bb e2 9a ab 3b 7a b8 38 bc 96 0a e7 bb
       -0.00281018 0.0052369693 -0.011274451 -0.0070508225
000340 97 04 96 bb ea 11 9f bb bc 06 eb bb c6 45 84 3b
       -0.004578184 -0.0048544304 -0.0071724337 0.004036638
000350 14 d7 d3 bb 20 8e 63 3b af 59 8d 3c 7d 7e be bc
       -0.0064648483 0.0034722164 0.017254679 -0.023253674
000360 11 d7 b3 39 08 36 4f 3a f2 d4 6c ba 63 9f 01 bd
       0.00034301777 0.00079044746 -0.0009034417 -0.031646144
000370 37 b7 ec bb de c2 ad bc a2 cc 87 bc 08 54 ed ba
       -0.0072239893 -0.021211084 -0.016577069 -0.0018106708
000380 1d 6e 43 3b 40 9f 5d bb f5 b7 3f 3c 64 4b 33 bb
       0.0029820271 -0.0033816844 0.011701574 -0.0027358169
000390 99 8c c5 3b ca e3 f7 3b fa e7 80 bc 50 33 3d 3c
       0.0060287234 0.0075649964 -0.015735615 0.011547878
0003a0 d7 69 90 3c a4 55 a1 3c ed 7c c7 3b c9 02 7a 3c
       0.017628593 0.019694157 0.0060878904 0.015259453
0003b0 cd d3 00 bb 59 89 eb 3b 8e 35 16 bc 20 b6 73 3c
       -0.0019657493 0.007188004 -0.009168042 0.014874965
0003c0 72 a7 47 3c 8e b9 e6 bb 4b 77 19 bd 01 ea 7e ba
       0.012185918 -0.007041163 -0.037467282 -0.00097242004
0003d0 36 b2 06 bc 27 67 c3 bb 32 0d e9 bc 29 1d 53 bb
       -0.0082212 -0.0059632245 -0.028448675 -0.0032213426
0003e0 dd bd 14 3b ee 51 da bb 7d 45 3a 3b 78 68 59 bc
       0.0022696175 -0.006662599 0.0028422766 -0.013269536
0003f0 95 44 2a bc 71 80 b0 3b f2 62 89 bb 09 a9 22 bc
       -0.010392328 0.005386405 -0.0041927034 -0.009927996

action_model._discrete_distribution.branches.0.bias f4 [3]
000000 8b 3b d3 b9 84 a9 c2 3b 35 64 b9 bb
       -0.0004028942 0.005940618 -0.0056576976

action_model._discrete_distribution.branches.1.weight f4 [2, 128]
000000 75 76 7d bc 3c d0 ba 3c 96 69 0a bc ce 3d 7e 3c
       -0.015470137 0.022804372 -0.008448025 0.015517665
000010 85 a2 b8 bb 92 ee 59 3c 5b 7b 0f bc 65 e9 1e 3c
       -0.005634608 0.0133015085 -0.008757438 0.0096992
000020 da 4b 70 38 e0 da d2 3c 15 24 2d 3c e4 5c 29 bc
       5.72911e-05 0.025739133 0.010567685 -0.010337088
000030 aa ee 51 3d 93 e6 d5 bb be b6 24 3d 79 65 09 3d
       0.051253 -0.0065277307 0.04021334 0.033544037
000040 c7 f6 39 3d 69 96 ca 3b f2 9e 57 bc 4d 78 66 3c
       0.04540136 0.006182481 -0.013160454 0.014066768
000050 d1 24 8a bb ee 0d e2 3c ac 57 33 3d 64 c8 30 3d
       -0.0042158146 0.027594533 0.043784782 0.043159857
000060 36 b8 45 bc 37 ea 41 bc 58 de 68 3d a0 0a 3b 3d
       -0.012067845 -0.011835626 0.05685267 0.04566443
000070 34 f0 36 bc 0c ec 53 bc a2 75 a1 3d 36 8e b7 bb
       -0.011165667 -0.012934696 0.07883765 -0.0056016697
000080 46 66 ce bb 3d 53 66 bb 60 60 01 3d 50 85 3e bc
       -0.006298813 -0.0035144829 0.03158605 -0.011628464
000090 f1 a7 4f bc 2a 90 9d bb 19 0f e6 bb 0b 4d 2e 3c
       -0.012674318 -0.0048084455 -0.0070208427 0.010638486
0000a0 b1 14 a9 3d 1e e1 56 3c 27 cf 67 3d 62 ec a1 bc
       0.082559 0.013115196 0.05659404 -0.019766036
0000b0 38 5a e2 3a 00 05 fe bc 9b 1d dc bb ea 57 02 bd
       0.0017269319 -0.031008244 -0.0067173964 -0.031822123
0000c0 54 36 0a bc e9 62 05 bb f3 c3 18 bc 9a 85 a1 3d
       -0.008435804 -0.0020353145 -0.009324062 0.078868106
0000d0 fd 76 8e bb 30 71 15 3d 8c 10 5d 3c 5f 2a 83 3c
       -0.0043476806 0.036484897 0.013492715 0.016011415
0000e0 e9 a3 f6 3c 5d 1d 14 bc 52 d0 9c 3a 80 36 c2 bc
       0.030107455 -0.009040204 0.001196394 -0.023707628
0000f0 59 42 92 bb 4a f6 e0 ba 09 c8 1d 3d 45 d1 90 3c
       -0.0044634757 -0.0017163244 0.038520847 0.017677912
000100 18 0b 2d bb 5a 77 8e bc ec 48 55 3d 83 a8 64 bb
       -0.0026404317 -0.017390896 0.052071497 -0.003489048
000110 71 b5 8b 3c 7a 7c ea bc 7f a8 af 3c 78 43 d2 3c
       0.017054291 -0.028623808 0.02144265 0.025666937
000120 c5 c4 49 39 9e 22 ce bc d1 64 b9 3a cd 73 2d 3c
       0.00019242156 -0.025162991 0.0014144426 0.010586691
000130 3b 55 30 3d 56 66 4f 3d 7d 71 24 3b 82 59 3e bb
       0.043050032 0.050634705 0.0025092058 -0.002904505
000140 ba c8 3a 3b 78 72 03 3d ff a8 43 3a 05 a6 f6 bc
       0.002850099 0.032091588 0.0007463842 -0.030108461
000150 52 cb 30 3c 19 06 46 bb 2c a4 d6 3c b2 9b 2b 3d
       0.010790663 -0.0030216037 0.02620133 0.04189653
000160 23 ef a7 bb 81 b1 f1 3c 97 2e 8e ba dd 60 7b 3c
       -0.005124943 0.029503586 -0.0010847625 0.015342918
000170 06 06 fe 3b e6 3b 0c bc 21 10 88 bb fc 1d dd 3b
       0.007752183 -0.008559203 -0.0041523133 0.006747959
000180 17 58 5a 3c 6d ac f0 bc 9a 2d 4b 3d 58 f4 8d 3c
       0.013326666 -0.029379094 0.049604036 0.017328426
000190 e0 6d b8 3a 99 ca 4d bc 44 2d 84 bc 1c 58 d4 3c
       0.0014070831 -0.01256051 -0.016134866 0.02592092
0001a0 54 45 20 bc c3 32 97 bc f2 72 69 3d 51 5a 2f bc
       -0.009782154 -0.018456822 0.056994386 -0.010702685
0001b0 4d b0 0a 3c 4c 72 6b bc d4 c0 31 3b 18 3c 47 3b
       0.008464885 -0.014370512 0.002712299 0.003040081
0001c0 da 61 f5 3a ae aa 8a 3c f8 50 83 3c 18 7b bd 38
       0.0018721179 0.01692709 0.01602982 9.03515e-05
0001d0 84 62 a0 3c 10 d1 43 3d 4f f7 a0 bb 2d a1 d8 3c
       0.019578226 0.0478068 -0.004912294 0.026444042
0001e0 ac 91 d5 3c f0 1f 78 bc 68 77 cd bc a2 92 98 3c
       0.026070438 -0.015144333 -0.025081351 0.018624607
0001f0 62 78 c0 3a f3 62 13 3b 63 61 03 3d 79 43 c8 3c
       0.0014684314 0.0022489398 0.032075297 0.024446236
000200 f0 57 1f 3b eb f5 b8 bc bf 89 e1 3b 0c 40 85 3b
       0.002431389 -0.0225782 0.0068828757 0.004066473
000210 64 08 86 bc d5 71 52 bc 7c 40 85 3c f1 b2 b5 bc
       -0.016361423 -0.0128445225 0.0162661 -0.022180052
000220 c6 0e 1a 3b 64 b0 e2 3b bc e1 54 3b d0 28 a1 bb
       0.002350734 0.006918 0.003248318 -0.0049181953
000230 f1 2e 1e bd 5f 8e b4 bb 81 17 13 bd 20 99 e5 bc
       -0.038618986 -0.005510136 -0.035911087 -0.028027117
000240 ba fd 69 bc 2c ac 8b 3c 5f f9 5c bc f7 f8 b2 bc
       -0.0142816845 0.017049871 -0.013487189 -0.021847231
000250 2c 92 27 3b 00 90 a6 bb a4 ec 07 bd 2d 6d 08 bd
       0.0025569303 -0.005083084 -0.033184662 -0.033307243
000260 92 51 b7 ba ae 74 9e bb 0d ba 49 bd 2e bc f9 bc
       -0.0013986102 -0.0048356866 -0.049249697 -0.030485239
000270 60 df 32 3c 78 f1 29 3c c5 b4 7b bd e0 e2 b1 3b
       0.010917515 0.010372512 -0.061451692 0.005428657
000280 9f 1d 4b bc 32 cb 7a bc 0c 19 56 bd 02 e3 cb bb
       -0.012397199 -0.015307235 -0.05226998 -0.00622213
000290 c0 b2 06 bb 79 12 e5 3b ed 73 47 bb 53 d9 3f bc
       -0.002055332 0.0069907275 -0.0030434087 -0.011709529
0002a0 d4 d1 cd bd d9 60 b0 bb 86 1c 53 bd 82 b2 1a 3c
       -0.10049787 -0.005382639 -0.051540874 0.009441974
0002b0 e4 e0 c9 bb 12 f3 6d 3c 7e 4c a5 3c 69 3b 12 3d
       -0.0061608423 0.0145232845 0.020178076 0.03570119
0002c0 2d 94 9a 3c 6a 79 1f 3c 2e e5 4c 3c 1f 51 73 bd
       0.018869484 0.009733537 0.012505813 -0.059403535
0002d0 b4 c3 42 bb b7 55 39 bd 97 cd 24 bc cf a9 bf bc
       -0.00297187 -0.04524776 -0.010058782 -0.0233964
0002e0 80 88 9d bc 21 bf 28 3c 35 d3 d6 3b 86 46 72 3c
       -0.019230127 0.010299475 0.0065559396 0.014787322
0002f0 53 3f 98 bc 65 bf 2e bb 93 10 9d bc a4 1e 6f bc
       -0.018584883 -0.0026664373 -0.019172942 -0.014594708
000300 ef c7 42 3c e5 81 29 3c a5 6b 04 bd 37 ed 33 3c
       0.011888488 0.010345911 -0.03232922 0.010981849
000310 b7 87 ed 3a 97 d9 10 3c cd 23 75 bb 21 95 6d bc
       0.0018122111 0.00884094 -0.0037405372 -0.014500887
000320 df 78 8b bb 3c 72 66 bb b6 c3 d5 3c 1e a5 6f bc
       -0.0042563523 -0.0035163304 0.026094299 -0.014626769
000330 d6 9a 40 bd 63 23 91 bd 3b f6 5a 3c 86 9b ad 3c
       -0.047022663 -0.070868276 0.01336437 0.021192323
000340 0c c2 87 ba 1d 82 89 bc c4 f9 8f bc 55 9e e4 3c
       -0.0010357513 -0.016785676 -0.017575152 0.02790753
000350 01 fc 11 3b c6 47 82 3b d3 9c c6 bc 98 83 2c bd
       0.002227545 0.003975841 -0.024244701 -0.042117685
000360 1a a8 ab 3a 8e fd 00 bd 4d ca 9c 39 fc c3 76 bb
       0.0013096363 -0.03149181 0.00029905364 -0.0037653437
000370 41 da 90 39 61 ba e8 bc ca 86 4b 3b af 5b 62 bc
       0.00027628432 -0.028409185 0.0031055682 -0.013815804
000380 59 b1 58 bc 51 c0 cd 3c fe 10 2b bd 0c 35 d8 bb
       -0.013225877 0.025116118 -0.041764252 -0.0065981206
000390 b7 a9 29 3c 4e 7a 09 bc 03 67 69 bb a8 78 f0 bc
       0.010355405 -0.008390976 -0.0035614378 -0.029354408
0003a0 bc 2e cb 3c 23 2c ab 3c f6 14 2a bd 79 57 15 3c
       0.024802558 0.02089507 -0.041523896 0.009115093
0003b0 70 c7 a9 3b 82 2d ec 3c bd ef 03 bc 82 ab f0 bb
       0.0051812455 0.028830294 -0.0080527635 -0.007344664
0003c0 1a 34 26 3c 78 18 e6 bc 72 40 5f bc 1c e3 8f ba
       0.010144258 -0.02808784 -0.013626205 -0.0010977718
0003d0 9a 9f 88 bb 7f 53 3b bd 5c d4 ba bc d4 c9 3c bc
       -0.0041694166 -0.045733925 -0.022806339 -0.011522729
0003e0 26 ad 32 bd f2 be 89 3c ed f4 24 3d 48 0f e3 bc
       -0.04362216 0.016814683 0.040272642 -0.027717248
0003f0 51 90 4d 3c 60 92 3d bc 44 69 ac bc 7b 9d 38 bc
       0.012546615 -0.011570543 -0.021046288 -0.011268015

action_model._discrete_distribution.branches.1.bias f4 [2]
000000 5a 79 8d bc 59 79 8d 3c
       -0.017269779 0.017269777
