KartSCBIO/results/circutioA-13/ArcadeDriver/ArcadeDriver-499990.pt (torch, 597879 bytes, 40 tensors)

discrete_act_size_vector f4 [1, 2]
00000000: 0000 4040 0000 0040
3.0 2.0

network_body._body_endoder.seq_layers.0.weight f4 [128, 56]
00000000: 8c96 333e ddca 8c3e 235d 3cbd c5d4 e83d
00000010: 63ab b2be fa13 a7bd f87f 383e d69c d93d
00000020: 42f5 f13d cf23 80be a6c0 fabd b09c 383c
00000030: 3de9 9e3d 7dfa a53d 3de5 77bd 5aff d5bd
00000040: 7c05 46bd 538c b43e 1969 30be 02a7 e2bc
00000050: dcec 123c acb8 13be 15b1 863e 538a 2f3e
00000060: d494 673d 4d04 37bd 70f6 3bbe 366a 48be
00000070: f4f6 ca3d 76bd f6bd 26cc c2bc 20e4 9fbd
00000080: 2fa6 923d 1405 e53e 8eaa 5ebd 8dec 08be
00000090: 4472 0bbe 8328 493e 4f55 023e 62cb c23e
000000a0: 7935 41bc e42a 633e 9484 e63d d394 0dbd
000000b0: ac8e 693e a6bc 123e 857b 9d3d effe 1cbd
000000c0: e42f 56bb 84af adbe 021e aa3e 7425 3ebe
000000d0: dbbe 803b 0049 e4bc d726 1e3e e43e 36be
000000e0: 4966 37be 48b2 e1bc 3d0d 0b3e 6c55 7a3d
000000f0: 7ec4 82bc 5631 683d 7a1b 993d 2687 0d3d
00000100: f015 16bd 1c22 f23d c204 6c3d 41f6 cebc
00000110: 8cec a83d c83a 0d3e 0ba2 133d d1fd 4abd
00000120: 3e6f a5bd 3ac3 3fbe 7f45 e5bc 721b 8f3d
00000130: f69b 293e 6bf3 833e fd42 a9bd 9624 663c
00000140: 063a c8bd ae52 28be 6c8c 9bbd a54d 863b
00000150: 6bf4 883d 5a43 4c3d 117c d4bd e060 463d
00000160: c938 1d3e e7a2 333e 9ae3 023e 9caa 793d
00000170: ce0d d4bd 17ae a2be 420c 833d 52a4 7e3e
00000180: 709e ef3d 9ef8 383e d7b6 9f3e f9b1 6e3d
00000190: 1cfc 24be fb1f 413d 2c71 fd3d ff88 833d
000001a0: 47e5 05be fcf6 babd 4752 cd3d de16 abbd
000001b0: 9186 943c bc04 b2bc 22a5 69be a9ee 24bd
000001c0: f8fe f83d d75b 38bc 61db 633d 7487 2a3e
000001d0: 6f1d dbbc e38a b73d 5471 093e 721a b33d
000001e0: e4ec 3fbe 99a7 3dbd c6de c13d 9a6b a7bd
000001f0: e934 f6bc 9179 19bd 9c4b f13d 12cd 2d3c
00000200: bfd8 de3c 6f62 e13c f296 a3be 5c6e 073d
00000210: 79d4 393e c9c0 a8bd 28d6 b7bd ac69 8fbe
00000220: 7c40 c739 4595 703e 39b7 a13d 86ec 1a3e
00000230: 260e ecbd 73bb dd3b 8eb0 113d 546c de3b
00000240: 7058 32be 9640 31be 91a7 e73b 1abd 0d3d
00000250: 2d9a 5b3d 917c f63c 5a68 e33d 959f 8a3d
00000260: fdb8 813b 443b 573c 75a0 a4bd 5670 07be
00000270: 5087 613e b168 1a3d 36b8 1dbd 08b1 e83b
00000280: a119 0c3d f4bd df3d 876b 023e 00a0 70bd
00000290: b202 90bc 4e38 bcbc a04b d8bd 882e 713d
000002a0: 81f3 653d a59d 4d3c 5f3c 773e d238 b3bd
000002b0: b553 8dbe 255b dabc fd73 993d 0c21 e73d
000002c0: 385a 47be 43c5 8b3c 0c96 f6bd e621 a2bc
000002d0: 5be0 2abd dfc7 66be fcb0 c5bd debc 823c
000002e0: e178 6dbd e118 e13d 84c4 573e 94a4 803e
000002f0: 8866 babd d400 943e 4032 27bd 57e7 7c3e
00000300: 243f 123d 6088 d43d 2a1a c63d 9ca5 59be
00000310: c628 f7bd d2c6 ccbe cd7e 2abe 21cf 0e3d
00000320: 0768 d93d a7a2 cbbd 7773 6ebe 15f7 41bb
00000330: 4123 b9bd 2c18 563e b172 34be 12ac 93bc
00000340: 0ab9 fabc 0c0d 153e e9da bfbd dece 11bd
00000350: 8c85 b0be a1eb 32be 60a7 1d3e 9fd5 40bd
00000360: 4402 edbd 35cc 1d3e bf13 6b3e b8a2 883d
00000370: 7033 aa3d 2432 493d 690c 2b3e a23a 943d
00000380: f0a5 35bb fb0f fb3c 374e f73c 9dd8 fd3d
00000390: 2d48 3abd fdb8 263e c9fe 0b3e c298 733c
000003a0: afc6 b0bd f5e2 b03c 61ff 1bbe 431d f03b
000003b0: 0c3c d7bc 1355 143e 05c2 143e 087e c43d
000003c0: d709 e1bd 093a f23d 294c 563c 9218 18be
000003d0: 72b7 86be 4aab 633b ad59 c73d 54c3 12be
000003e0: 9ce3 bf3d d282 6dbe 4287 873c 35d6 e3bd
000003f0: 128d e3bd aec9 f8bd 6ef7 0c3d 6ede 6abd
0.17537898 0.27498522 -0.04598726 0.113687076 -0.34896383 -0.08158107 0.18017566 0.10625617
0.11814357 -0.2502732 -0.12243776 0.011267826 0.077593304 0.081044175 -0.060521353 -0.10449095
-0.048345074 0.3526331 -0.17227592 -0.027667526 0.0089676045 -0.14425915 0.26306978 0.1714261
0.056538418 -0.044681836 -0.18355727 -0.19571766 0.09910384 -0.120478556 -0.023778986 -0.07807183
0.07160603 0.44730437 -0.054361872 -0.13371487 -0.13617808 0.1964436 0.12727855 0.38045794
-0.011792534 0.2218433 0.11255756 -0.034565758 0.22808331 0.14329776 0.07689575 -0.03832906
-0.0032682354 -0.3392297 0.3322602 -0.18568975 0.0039290017 -0.02786684 0.15444504 -0.17797428
-0.17910112 -0.027550831 0.13579269 0.06111662 -0.015962835 0.056687675 0.07475944 0.034552716
-0.036642015 0.11822912 0.057621725 -0.025263907 0.08248243 0.13791955 0.036043208 -0.049558464
-0.080778584 -0.18726817 -0.02798724 0.06987657 0.165634 0.2577165 -0.0826473 0.014046809
-0.09776692 -0.1643779 -0.07595143 0.0040986114 0.06687244 0.04986892 -0.10375226 0.04843223
0.15353693 0.17542611 0.12782136 0.06095372 -0.103541955 -0.31773445 0.06398822 0.2486737
0.117001414 0.1806359 0.31194183 0.058275197 -0.16111797 0.04714964 0.123751014 0.06422614
-0.13075744 -0.0912914 0.10025459 -0.08353971 0.018130573 -0.021730773 -0.228169 -0.040266667
0.121580064 -0.011252365 0.055629138 0.16653234 -0.026747433 0.089620374 0.13422137 0.087452784
-0.1874271 -0.04630241 0.09466319 -0.0817482 -0.030054526 -0.03746945 0.117819995 0.010607975
0.027202962 0.027512757 -0.319511 0.03306423 0.18147458 -0.08239896 -0.08976394 -0.2801031
0.00038004282 0.23494442 0.07896275 0.15129289 -0.11526136 0.0067667305 0.035568766 0.006787816
-0.17416549 -0.17309794 0.007069536 0.03460417 0.05361383 0.030088695 0.11103888 0.06768719
0.00395882 0.013136689 -0.08038417 -0.13226447 0.22024274 0.037697498 -0.038505755 0.007101182
0.03420413 0.109249026 0.12736331 -0.058746338 -0.01757941 -0.022976067 -0.10561299 0.058882266
0.056140427 0.012549792 0.24144123 -0.08751072 -0.27602926 -0.02665479 0.07492826 0.112856
-0.1946801 0.017061835 -0.12040338 -0.019791555 -0.04171787 -0.22537182 -0.09652898 0.0159592
-0.057976607 0.109910734 0.21071059 0.25125563 -0.091015875 0.28906882 -0.040819407 0.24697624
0.035704747 0.10377574 0.09672959 -0.21254581 -0.12068324 -0.39995438 -0.16649933 0.034865502
0.10615545 -0.09943133 -0.23286234 -0.0029596735 -0.09039927 0.20907658 -0.17621876 -0.018026385
-0.030605812 0.14555758 -0.09367926 -0.035597675 -0.34476888 -0.17472698 0.1539588 -0.047078725
-0.11572698 0.1540993 0.22956751 0.06671661 0.08310592 0.049120083 0.16703953 0.07237746
-0.0027717315 0.030647269 0.030188663 0.12394831 -0.04547899 0.16281505 0.13671412 0.014867963
-0.08631646 0.021592597 -0.15234138 0.007327707 -0.02627375 0.14485578 0.14527138 0.09594351
-0.10988205 0.118274756 0.013079681 -0.14853123 -0.26311833 0.0034739547 0.09733901 -0.14332324
0.09369585 -0.23194435 0.016543988 -0.11124841 -0.111108914 -0.12147842 0.034415655 -0.05734103

network_body._body_endoder.seq_layers.0.bias f4 [128]
00000000: da38 3ebb 3967 a3ba 9437 643c a3fc b73c
00000010: 71fe acbc c56e a6ba 0057 fe3c 968e 17bc
00000020: a717 933c 3f81 bc3b 7e83 6abc bdcb bd3c
00000030: dc58 363d 68b9 903c 51c5 463c d0e5 69bc
00000040: 8ea1 f33c d99a 9dbc 7043 203c 037d 3a3c
00000050: b0e0 37bc fe5e 143d ea47 f33c d13d 9fbc
00000060: ec70 d23c fe18 25bc 6653 973b c51e ebbc
00000070: b3d2 58bb 2fc1 4a3c 7ee6 b9bc 6ed9 a13c
00000080: bb42 0a3c 5368 053a 8526 113c 5dec a93b
00000090: 349a af3b 32d2 1fbc d8ea 3cbc ca86 8c3c
000000a0: 3880 af38 6a26 043d 9792 543c 1213 b73b
000000b0: 85df 24bc f728 243b 1e91 843b 60fd 7cb9
000000c0: c409 203c 8c8c 91bb caf2 c3b9 da37 253a
000000d0: 5672 16bc 3e94 12bc 7e27 653c 1334 24bb
000000e0: e017 6b3c 8283 ed3c cc3c a83c 02d2 f0bb
000000f0: 6e95 14bc 3428 d03c e136 703b 7bff 0a3c
00000100: 5185 833c 0d51 1a3c 7dcc 473b 59bb fab9
00000110: 44b3 ca3b 5bc6 afbc 00f5 873c b569 b53c
00000120: c991 8d3b 4003 3a3c 0e4d 3b3c eb08 913c
00000130: a65f 90bc e07c 8b3c 232b ba3b 344b 473c
00000140: d79b 8b3b 103e f43c f083 253b b211 663d
00000150: 9ef6 8b3c 53b9 033c e10d 6c3c 6c27 253c
00000160: ad9d 94bc 85b0 0ebc 188d 19bc 4964 ba3b
00000170: 411d b3bb b437 f5ba dabf a73c 05c8 ac3b
00000180: 2429 aebb 12e0 5e3b 9bb3 06bd b80c 103b
00000190: 3fb2 533c e0d2 23bb e2bb 373d 64f9 32bc
000001a0: 5ed4 873c 8903 9f3c d86a a23a 64c1 98bc
000001b0: c9d2 ad3c 44c7 843b a208 2a3c 1598 893c
000001c0: c98c bc39 60d5 893c 4603 d13c 5a60 c7bc
000001d0: 1870 cb3b dc3a d83b eea9 81ba 98d2 abbc
000001e0: 3c2e e1ba b43a 8bba 8355 0ebb 5b66 6cbc
000001f0: 326d 953c 2b83 5bbc 4dab cabb cf7a 483c
-0.0029025585 -0.0012466676 0.0139292665 0.022459334 -0.02111742 -0.0012697807 0.031047344 -0.009250304
0.017955614 0.005752712 -0.014313577 0.023168439 0.044518337 0.017666534 0.012132005 -0.014275983
0.029740121 -0.019238876 0.009781703 0.011382344 -0.011223003 0.036223404 0.029697377 -0.019438656
0.025688611 -0.010076759 0.004618096 -0.028701195 -0.003308457 0.01237516 -0.022692915 0.019756999
0.008438761 0.0005089093 0.008859281 0.0051856474 0.0053589586 -0.009754704 -0.0115306005 0.017154116
8.368533e-05 0.032263197 0.012974403 0.00558699 -0.010063057 0.002504883 0.0040456196 -0.00024126982
0.009767953 -0.0044418033 -0.0003737419 0.0006302573 -0.009182533 -0.0089464765 0.013986466 -0.0025055453
0.014348954 0.028993372 0.020536803 -0.0073492536 -0.00906883 0.025409795 0.0036653804 0.008483763
0.016054781 0.009418738 0.0030486875 -0.000478233 0.006185921 -0.021456888 0.016596317 0.022145132
0.0043203575 0.011353314 0.0114319455 0.017704448 -0.017623734 0.017027318 0.005681412 0.012163926
0.004260521 0.02981475 0.0025255643 0.05616922 0.01708537 0.00803979 0.014407606 0.0100802
-0.018141592 -0.008709078 -0.009372018 0.0056882245 -0.005466134 -0.0018708617 0.020477224 0.0052728676
-0.005314963 0.0034008068 -0.03288613 0.0021980237 0.012920915 -0.0024997517 0.044856913 -0.010923717
0.016580757 0.019410865 0.0012391461 -0.018646903 0.021218674 0.0040520746 0.010378035 0.016796151
0.00035963047 0.016825378 0.025514256 -0.024337936 0.006208431 0.0065988135 -0.0009892562 -0.020974442
-0.0017179917 -0.0010622353 -0.002171845 -0.0144287 0.018240545 -0.013397972 -0.0061849714 0.012236311

network_body._body_endoder.seq_layers.2.weight f4 [128, 128]
00000000: e75a 6d3a a2a4 043c f36b a6bd ca4e 6f3d
00000010: dbe4 86bd 6789 d53c 491f 20be 40fe 88bd
00000020: 69c8 55be 0c13 1abe dc2b 97bc 0523 0ebe
00000030: 4d21 193d 5fe1 e4bd f689 dabd 5390 3dbe
00000040: 3d50 f03d 151a cd3d a742 353d 0221 d2bb
00000050: 9b20 9abd a035 e1bd 04f5 ecbd ee7b c4bc
00000060: 8cd5 9f3d 10bd 13be 7007 43bb b11a 163c
00000070: e055 ab3d 86b5 23be 88fb dabd 2485 c2bd
00000080: 78b6 b83c 584d 893d ac1b 1abd c8d6 83bd
00000090: d3e5 5cbd ba77 c93d b412 5f3d d105 863d
000000a0: 6cd4 d13c 8c10 05bd 19c9 4b3d 7098 55be
000000b0: ce91 5abc d1a2 a1bd 4aee b73d cb96 17bd
000000c0: d1aa 413d cdba be3c fa57 2d3e 0fcd a7bd
000000d0: 66b4 21be efd4 29bd 0f95 c6bd 5e2b bcbd
000000e0: 9afe bd3c 5831 a23d 8e47 353b 97a3 df3d
000000f0: 150d f23c e59c f33d 313b 57be de83 063e
00000100: 2971 363d b7d0 613d 1389 eb3d 93c9 a33d
00000110: 5034 533d c5f8 173c 327e 68be 5ce0 b33d
00000120: 7bb3 263d dfd2 44bd 5354 57bd 508b 25bd
00000130: 0166 a8bd e93e cdbd 3b3a 723d 3ffd 44bc
00000140: 3ba0 ce3d 1e8c 60be a09e 6ebe f859 e0bd
00000150: e719 b63d 23a3 0cbd 17cb 613d 9bea 203d
00000160: beed 883d a463 593e bd70 a1bc 718f cabc
00000170: 4c8a 573e 5b35 853d 4cfc a6bd 69da e03d
00000180: aebc f9bb 594c 15be f980 ea3d b055 073e
00000190: df63 f73c dcfe 513d b45b d73d 14be ff3d
000001a0: d277 743d d9c0 f23c cf43 94bd 6c70 6bbc
000001b0: 08a5 963d 720c ecbc a8fb 5f3d 8315 973c
000001c0: dc43 963c 2ed8 b13d 85e4 1ebd 9f37 023d
000001d0: fb0d 5dbd e48a 47be 8916 15bd cafd 653d
000001e0: 8852 7abd 198d e5bd 143f 2fbd c358 993d
000001f0: 778a f3bd 4187 f83c 45e0 513e 737b 333d
00000200: 80c8 5b3c ca2a a6bc 116c 163e b351 1cbe
00000210: bbb7 643d 8931 363c 1198 76bd 2c13 87bd
00000220: 1396 b13d 9504 89bd 1c11 c3bc 2574 1c3d
00000230: bf9c f6bd a9f8 003d b84b 353d 82ff 3cbc
00000240: 0394 cd3d 60ab 7ebd 304c ee3d 5e23 bebb
00000250: 70f1 af3c 850d 2bbe 2f10 09be a41f 34bd
00000260: ea22 893d d7c0 5f3e 4277 443c f670 07bd
00000270: 711f f2bc acb8 7f3d b9cd 4b3d 39b7 163d
00000280: c743 ea3c 7e37 1b3e 0f8d 633d c5c3 7bbd
00000290: 42a0 a53c 6245 033d f5aa 5f3d e55e 363d
000002a0: f17e 1ebd ab13 44bc 85b0 fc3d f7c7 6c3c
000002b0: f2dd 043d 7274 283e e992 973d c3bd 373d
000002c0: 323e 4a3c ffb1 1f3e 4dde 9dbd bc65 e2bd
000002d0: 439a d63c bed0 993d b561 163d a4f7 0d3c
000002e0: cd57 823d 6516 793d b3d5 8fbd c132 223c
000002f0: 05bf 1bbe 49a5 3d3e 6f59 8f3d f31f 78bd
00000300: 7c35 9bbd 9e8c 65bd 7623 903d 5f2c aebb
00000310: 5ede 24be ae67 843d 8087 9b3c b05b 19bd
00000320: a5ff 003e bbfa 5b3d bcf4 bebd 5e39 3abd
00000330: 40b8 d83d 844e 92bd b0bc f4bd 3bb2 3fbd
00000340: 4de7 fabd 070b 62be e0dd 16be 04dd ec3c
00000350: 1ba0 19bd 71d9 7a3d f2fc 44be 0e61 2c3d
00000360: 319d 3e3d a4dc ff3d 5192 a63c 6c1b 913c
00000370: ffeb bdbb 6516 d0bd b551 81bd 20a8 db3d
00000380: c1e4 0c3d f002 bbbd 4d0f 423e c027 62bc
00000390: 2447 24bd 0787 9e3d faa1 bfbd 4df5 213d
000003a0: 3b79 3ebb 7122 123e 08c0 2cbd e8c5 653d
000003b0: 4385 bebc 23d0 dbbd bb76 fcbd 652a 21bd
000003c0: fcea 53bd ad77 d53c 129b 9c3c bbca c83d
000003d0: fed6 b53d 7162 6bbd 74ec 19bd c382 fabc
000003e0: 4b18 073e 689c f13d 5f0c 0c3e ee4b 1e3e
000003f0: d40b 653d cbd4 67bd 10d2 08bd 1ad6 3ebd
0.0009054378 0.008095892 -0.081260584 0.05842475 -0.065866195 0.026066495 -0.15636934 -0.06689119
-0.20877232 -0.15046328 -0.018453531 -0.13880546 0.037385274 -0.111757986 -0.10670845 -0.18512087
0.11734054 0.100147404 0.044253018 -0.0064126262 -0.0752575 -0.10996556 -0.115701705 -0.023984876
0.07804403 -0.1442759 -0.0029759072 0.009161637 0.08365989 -0.15987214 -0.10692507 -0.09498051
0.022547945 0.06704205 -0.037624046 -0.06437451 -0.053930115 0.09837289 0.054461196 0.06544078
0.025613986 -0.032486483 0.04975233 -0.20858932 -0.013340427 -0.07892383 0.08980997 -0.03700904
0.047282044 0.023282433 0.16928092 -0.08193409 -0.15791473 -0.041462835 -0.096963994 -0.09187959
0.023192693 0.07919568 0.0027661058 0.10919874 0.029547254 0.1189516 -0.21018673 0.13136241
0.04454151 0.055130687 0.11500754 0.079974316 0.05156356 0.00927562 -0.2270439 0.087830275
0.04069851 -0.048052665 -0.052570652 -0.040416062 -0.08222581 -0.10021765 0.059137564 -0.012023269
0.10089155 -0.2192845 -0.23302698 -0.1095466 0.08891659 -0.034335267 0.055125322 0.039286237
0.06685971 0.21229416 -0.019707078 -0.024726601 0.2104885 0.065043174 -0.081535906 0.109791584
-0.0076213693 -0.14579906 0.11450381 0.13216281 0.03019899 0.051268443 0.10515538 0.124874264
0.059684582 0.029632973 -0.07239496 -0.014370065 0.07355696 -0.028814528 0.054683357 0.018442875
0.018342905 0.08683811 -0.038792152 0.031791326 -0.05396841 -0.19486576 -0.036398444 0.056150235
-0.061113864 -0.11208553 -0.042784765 0.07487633 -0.118916444 0.030337932 0.20495708 0.043818902
0.013414502 -0.020284075 0.14689662 -0.15265541 0.05583928 0.011120209 -0.060203616 -0.065954536
0.086712025 -0.06690327 -0.02381187 0.0381967 -0.12041616 0.03148714 0.044261664 -0.011535527
0.100379966 -0.062175155 0.11635625 -0.005802556 0.021477431 -0.16704376 -0.1338508 -0.043975487
0.066961125 0.21850906 0.011991324 -0.033066712 -0.029556008 0.062431976 0.04975674 0.03679583
0.028596772 0.15157887 0.055554446 -0.061465997 0.020218018 0.03204859 0.054606397 0.044524092
-0.03869528 -0.01196758 0.12338356 0.014451972 0.032438226 0.1645067 0.07401068 0.044858705
0.01234393 0.15595244 -0.07708416 -0.110545605 0.026196605 0.075105175 0.036714274 0.008664999
0.06364403 0.060812373 -0.07023182 0.009899796 -0.15209587 0.18520083 0.0699948 -0.060577344
-0.07578561 -0.056042306 0.07038014 -0.005315348 -0.16100451 0.06465088 0.01898551 -0.037440956
0.1259752 0.053705912 -0.09324023 -0.045464866 0.10582018 -0.07143882 -0.11950052 -0.046800833
-0.122511484 -0.22074519 -0.14733076 0.028913982 -0.037506204 0.061242525 -0.19237116 0.042084746
0.04653663 0.12493256 0.020333441 0.017713271 -0.005795955 -0.101605214 -0.063144125 0.10725427
0.034397844 -0.0913142 0.1895115 -0.013803422 -0.040106907 0.07740598 -0.093570665 0.039540578
-0.0029063958 0.14270951 -0.042175323 0.05609694 -0.023256904 -0.10733058 -0.123273335 -0.03934707
-0.05173777 0.026058042 0.019116912 0.09804293 0.08878897 -0.057466928 -0.037579015 -0.03057993
0.13192861 0.1179741 0.13676594 0.15458652 0.055919483 -0.05659942 -0.033403456 -0.046590902

network_body._body_endoder.seq_layers.2.bias f4 [128]
00000000: 81bd 4bbc a454 6b3b 62c2 263c 1f80 fe39
00000010: 6f06 d2bb e1e1 5abc fbba bf3b b2e5 3bbc
00000020: 5012 c8bc 86e1 853b 3d96 97bc f955 c3bc
00000030: 0dec 493c 8002 f23c be20 acbc cc67 2a3c
00000040: 19b7 1d3b 2554 b93c 116c ed3a d709 6abc
00000050: 1c2e 893c 4916 4abc 6622 723c 049e 5d3a
00000060: fffc 8d3c 467a 733c 05a9 ebbb 836f 9e3c
00000070: 2be8 31bc ef39 7438 2e02 e2bb 772c df3c
00000080: 8afc 99bc 00c2 04bc 3907 f43b 9777 cd3c
00000090: ced8 3e3c eca7 f93c 764e 4abb 5ba9 0dbb
000000a0: 5a61 19b9 66d3 2a3c 27f2 a2bc 9cba 913c
000000b0: 2caa a1bb 4762 aebc 2238 eb3b 7f79 38ba
000000c0: d390 b93c 356f 49bc 1954 a0bb 735e d6bb
000000d0: 5afc 843c 7ea7 30bc 4833 33bc 4251 94ba
000000e0: a124 8c3c 7b57 86bb ed0f 4dbb dfd8 5e3c
000000f0: b5c1 2d3b 5892 033c 6d6f a3bc 0239 3239
00000100: 5c7b f03c f765 31bc dee9 183c f44d 84bb
00000110: 17e1 5c3c 3d42 c7bc 9610 953b 4e42 8c3c
00000120: 0a92 b53c 526f d9bb 078a 693b ee48 8e3c
00000130: 22fe 003c 40fb 393b 1144 b8bb 906b 2f3b
00000140: 2a3e 843c 8a31 233d 2566 1a3c 5bc8 8b3c
00000150: 91be 353b 80b6 edba ab7d 953b 3510 14bc
00000160: 101a 063d 20b6 a43b 5e07 a93c 05f1 543c
00000170: 38aa 0abc f59a 6f3b 76b8 acbc 7598 053c
00000180: 6c0b 3cbc 3142 66bc 7d94 973c 9e81 4a3c
00000190: 6e90 1d3b 427a 9e3c 4d1f adbc db4a bb3c
000001a0: 450b 0e3b 4f4e 5d3b 775f f2bb 6cb4 3fbb
000001b0: 7408 b33c 6050 a6bb eac8 ad3a 4d88 9e3b
000001c0: dfb9 6fbc c9dd 0bbc d8a0 6b3c 157d 763c
000001d0: 8fde ac3b 618f 913a e47f 8abc 328b 00bb
000001e0: 02f1 c1bc fcd0 183b 399b dbbb 2c80 cdbb
000001f0: ceaf 893c 7ad6 1abc aad9 e53c 6367 4d3c
-0.012435318 0.0035908604 0.01017818 0.00048542113 -0.0064094584 -0.013359518 0.005851147 -0.011468338
-0.024422795 0.0040857224 -0.018504256 -0.023844706 0.012324345 0.029542208 -0.021011706 0.010400724
0.0024065434 0.022623131 0.0018113871 -0.014284573 0.01674562 -0.012334415 0.014778709 0.0008454027
0.017332552 0.014860695 -0.0071917796 0.019340282 -0.010858576 5.8228088e-05 -0.0068972325 0.027242882
-0.018797178 -0.008102894 0.00744715 0.025081439 0.01164837 0.03047558 -0.003086952 -0.0021615836
-0.00014627483 0.010426378 -0.019890858 0.017789178 -0.004933616 -0.021287097 0.0071783224 -0.00070371473
0.022652065 -0.01229458 -0.0048928377 -0.006542021 0.016233612 -0.010782121 -0.010937519 -0.0011315721
0.01710731 -0.004099784 -0.003129001 0.013601511 0.0026513163 0.008030497 -0.019950593 0.0001699664
0.029355697 -0.010827533 0.009333102 -0.004037613 0.0134814 -0.024323577 0.0045490963 0.01712146
0.022164363 -0.006635585 0.003563525 0.01736876 0.00787309 0.0028378516 -0.0056233485 0.0026766993
0.016142923 0.039842166 0.009423767 0.01706331 0.0027731995 -0.0018136054 0.0045621 -0.009037067
0.0327397 0.005026594 0.020633396 0.012996917 -0.008463435 0.0036560867 -0.021084052 0.008154024
-0.011477333 -0.014053867 0.018503422 0.012360005 0.0024042386 0.019345406 -0.02113309 0.022862842
0.0021674198 0.00337686 -0.007396634 -0.0029251827 0.021854617 -0.0050754994 0.001325873 0.0048380257
-0.0146317175 -0.008536764 0.01438161 0.01504447 0.0052755545 0.0011105352 -0.016906686 -0.0019614217
-0.023674492 0.0023317924 -0.0067018536 -0.006271383 0.016807463 -0.009450549 0.028057892 0.012536856

action_model._discrete_distribution.branches.0.weight f4 [3, 128]
00000000: 180d d8ba e1fe 15bc 03a7 12bd c707 353b
00000010: 5718 dbbc dffa abbb a056 f03a 5110 28bc
00000020: e4cf 53bc 43f1 333c c158 153c e71a 123c
00000030: 9a0b c4bc 7817 97bb 8125 a2ba bb15 c93c
00000040: 7d80 30bd c61c 21bd 4f90 8bbb 81cc 85bc
00000050: de53 893d fec8 d83a 4928 b73c c444 093a
00000060: a4c3 1c3c 5df5 163d d25f f9bc 2557 77bd
00000070: 91cb 3abd 6367 e43b bbf1 043d a61f f5bc
00000080: ef10 99ba 8eb4 f0bb 7861 80bc 94e0 19bd
00000090: e303 69bc 008d a1bc c9b3 f53c 57a0 08bc
000000a0: 21d4 303c 98e2 4f3a 7ffd 803b 5d2c 493c
000000b0: c1b5 06bc 2ef7 6b3c f7e8 d0bb b3f5 c8bc
000000c0: 70e6 f2bc 6dc4 813c ebd0 b53c 63dd 733c
000000d0: 8fd7 b53c 6e94 9ebb d84b 1b3c 5c2e f0bc
000000e0: 8767 b9bc 460e d4ba b72c c8bc 1810 0bbd
000000f0: ff85 0b3c 5716 4bbc cf0c b7bb 0e54 913d
00000100: a5cf 1d3d 59f1 033c 975e 1e3c 4150 a2bd
00000110: 5959 533c 9226 65bc 05ef 00bd ccac 5fbd
00000120: 7ee1 6b3d c203 373d fec9 123c 47d6 10bd
00000130: 2aec 91ba 3fb0 8abc c883 c13b 46ec 4a3c
00000140: 376f 94bc aa91 aabb 0523 88bb 61f2 76bd
00000150: 1fad aebc 26f2 d1bc 9c7b a0bc 90f9 94bc
00000160: 29e4 383d bb4b 0abd 7bcc b9bc 3873 b6ba
00000170: 789e 593b 1d66 313c 637e 21bc d584 abbd
00000180: d993 993c 35b4 a23c 2145 0abd a6e3 3a3d
00000190: 5326 09bd 3f4b 2c3d 4848 8b3c b93a 513d
000001a0: d8dd bbbc 17ab 003d 887c 0a3d 9234 55bc
000001b0: f526 41bd 7405 223c a3c3 c0bb 15e1 aa3b
000001c0: 8eb6 423b 3f76 c83c 7b03 783d 6acc 9a3c
000001d0: affb b53c 2ead 313a 9a62 e3bc 136b c438
000001e0: 8875 a43b 3c07 2e3d e45c 923b 54b9 b8bc
000001f0: fab6 b73c 4fa3 c93b 847d 03bd 2978 b0ba
00000200: ce0a cf3c 6a4f a43c 9546 993c 840c 4d3a
00000210: 720a 91bc 37e5 513c 34e8 1dbc 8535 fabc
00000220: 5732 c63c 1b54 97bc 754d f33b ec1f 3c3c
00000230: 9bd6 453c 7adf d5bb 08b0 033c 086a 0cbc
00000240: bf44 2a3d 26bc 00bd 25d2 c1bc 6ffd 1fba
00000250: 81bf 07bc 96fd f73b 512c 903c bfcf 5bbb
00000260: 1d0a c8bc 67b3 663c 9fb1 103c c83b a23b
00000270: a0ee c3bb ac2f 213c ea93 113b 98a3 3b3c
00000280: 66ca f53b ec6c 033d 37ac 4339 532d 6abc
00000290: 30d8 9b3c f6a7 24bc bb95 2cb9 b743 7f3b
000002a0: 65bb dd3c e629 a83c 2e4a ad3c 5960 4d3c
000002b0: bf19 31bc b7e4 7c3c c001 243c de48 b43b
000002c0: 7926 7d3c 669b 343b 465e 0b3b b69f 953c
000002d0: 0a0f ad3c aafc 853c 7871 723c 79fc e23b
000002e0: 2330 13bd f2e9 cd3c b31d e83b af14 163c
000002f0: 96ea d9ba 9b7e 4d3b b8c5 843b 8fa0 2abc
00000300: d824 633b 03ac 663c 9537 8fbc 168b 78bb
00000310: 751c 363c 1b3b 19bc d1a6 efbb c767 8bbc
00000320: 4723 0abd 00a6 26bd 826c 4b3c 200e 0eba
00000330: 4cad 0c3d 49fa 853c 18ab 2a3c cf4c b1bb
00000340: 9231 073c 1576 34bc 1213 b63c d1d5 b03c
00000350: b975 003d e545 0a3d 6cdd 873c 9592 be3c
00000360: a7e5 aa3b 760a 6b3c cb3c db3b be8b 9c3a
00000370: f6f1 a53b dbd8 cf3b 3b93 393c 8c41 8d3a
00000380: fa1e 003c c1f7 863b 7332 b83c 8605 803b
00000390: be2e 26bd d1eb 80bb 287d c3ba a500 20bc
000003a0: 476e 6f3c d446 dd3c 3333 5fbc 52f3 af3a
000003b0: 09c8 203c 0b9c d23c 4946 863c b9b7 d5bb
000003c0: 53d0 0fbc 1156 df3b 498a 13bc 991a 6cbc
000003d0: f8e7 493d 2419 f33b c287 643b cc8b a03c
000003e0: d838 a8bb 490b 8f3c d7f3 043c 6b12 60bc
000003f0: 5155 80bc e260 6bbc f067 b0bc 9c53 253c
-0.0016483394 -0.009155006 -0.035803806 0.0027623044 -0.026745005 -0.005248412 0.0018336363 -0.010257796
-0.012927983 0.010982814 0.009115399 0.008917547 -0.023931313 -0.004610952 -0.0012370796 0.024546495
-0.043091286 -0.03933408 -0.0042591463 -0.016332867 0.067054495 0.0016539393 0.022358077 0.0005236382
0.009568129 0.03685509 -0.030441198 -0.060385842 -0.045604292 0.0069703325 0.032457095 -0.029922318
-0.001167802 -0.0073457425 -0.015671477 -0.03756769 -0.014222118 -0.019720554 0.029992955 -0.008339009
0.010792763 0.00079301884 0.003936469 0.012278643 -0.008222044 0.014402194 -0.006375428 -0.024531221
-0.029650897 0.015840733 0.022194346 0.014884326 0.022197513 -0.0048394715 0.009478532 -0.02931898
-0.022632373 -0.001617857 -0.024435384 -0.033950895 0.008515834 -0.012395463 -0.0055862437 0.0709611
0.038528103 0.008053147 0.009666107 -0.079254635 0.01289972 -0.013986247 -0.031477947 -0.05460815
0.057588093 0.044681318 0.0089592915 -0.0353606 -0.0011133004 -0.016929744 0.005905602 0.012385434
-0.018119438 -0.005205353 -0.0041545653 -0.060289744 -0.021322785 -0.02562816 -0.019590192 -0.018185407
0.045139465 -0.03376363 -0.022680512 -0.0013919836 0.0033206027 0.010827568 -0.009856793 -0.08374945
0.018747257 0.01986132 -0.033757333 0.04562726 -0.033483814 0.042063948 0.01700224 0.051081393
-0.022932932 0.031413164 0.03381017 -0.013013022 -0.047156293 0.009888995 -0.0058826967 0.00521482
0.0029710862 0.024470447 0.060550194 0.0188963 0.022214739 0.000677782 -0.027756978 9.3659524e-05
0.0050188936 0.042487368 0.00446664 -0.022549309 0.022426117 0.006153501 -0.032102123 -0.0013463545
0.025273707 0.020057399 0.018710414 0.00078219944 -0.017705176 0.012810997 -0.009637881 -0.030543098
0.024193926 -0.018472722 0.007425005 0.01148222 0.012075092 -0.0065268846 0.008037575 -0.008570202
0.041569468 -0.031429432 -0.023659775 -0.0006103133 -0.008285404 0.0075680716 0.017599257 -0.0033540574
-0.024418885 0.014080859 0.008831411 0.004950974 -0.005979374 0.009838026 0.0022213408 0.011452578
0.0075009344 0.032086298 0.00018660804 -0.014293033 0.019023985 -0.010049811 -0.00016458977 0.0038950273
0.027066896 0.020527791 0.021153536 0.012535178 -0.010809361 0.015435389 0.010010183 0.0055018505
0.015451067 0.0027558445 0.0021265908 0.018264633 0.021125335 0.016355831 0.014797561 0.0069270697
-0.03593458 0.025135968 0.0070836185 0.009160205 -0.0016625698 0.003135598 0.00405189 -0.010414257
0.0034659412 0.014079097 -0.017482558 -0.0037924699 0.011115183 -0.009352471 -0.0073135872 -0.017017258
-0.03372505 -0.040685654 0.012416007 -0.0005418975 0.034344956 0.016354697 0.0104167685 -0.0054107676
0.008251565 -0.011014481 0.02222589 0.02158633 0.03136227 0.033758063 0.016585074 0.023263255
0.005215365 0.014345756 0.0066905967 0.0011943502 0.0050642444 0.00634299 0.011326606 0.0010776981
0.007819885 0.00411889 0.022484994 0.0039069084 -0.04057192 -0.0039343615 -0.0014914619 -0.009765779
0.0146136945 0.027011313 -0.013623047 0.0013423956 0.009813317 0.025709173 0.016390936 -0.0065221456
-0.008777696 0.00681568 -0.009005138 -0.014410638 0.04929349 0.0074187685 0.0034870957 0.01959791
-0.0051337294 0.017461436 0.008114777 -0.013676266 -0.015665682 -0.01436636 -0.021533936 0.010090735

action_model._discrete_distribution.branches.0.bias f4 [3]
00000000: 04a4 a13b 876c 16bc 8890 dc3b
0.0049328823 -0.009181148 0.0067310967

action_model._discrete_distribution.branches.1.weight f4 [2, 128]
00000000: 9e45 bcba 33d8 1fbb 5321 af3b 3f8e b83c
00000010: ea81 143d 13ae a7bc d8bb b4bc 1d80 213d
00000020: b64c 603c d566 073d 3896 8a3b 9379 d23b
00000030: 5284 16bc 921e 60bc 928e 2c3c e944 223c
00000040: 61d5 323a a23c c03c 2f9c 17bc ac33 c63b
00000050: d343 023a 9184 50bb 78a9 81bc 07f9 f0bc
00000060: 6958 003d 7274 b83b 8c06 9e3c b6e2 6fbb
00000070: c6ce 403b 1785 70bc 2796 0bbd 7614 71bc
00000080: ba09 553b 26f4 d7b9 9128 dbbb ffab 353d
00000090: dd22 0b3d f1e2 893d 4a99 153c a6fc f93b
000000a0: 35e0 c83b cae2 a5bc 1d52 aeba 714a 06bd
000000b0: 1128 6f3c 3f65 923b d611 b5ba 0d3b 66bc
000000c0: d581 7bbc fd7c 8e3c 0183 04bc 643c 6e3c
000000d0: 4b15 5dbc a138 ffbb b26f c1bb 439f 053c
000000e0: 6148 833b 2bef 78bc 0664 01bb a872 34bc
000000f0: 6572 7fbc 3e3b 89bc 5f84 963c 6caf 5a3d
00000100: b425 74bc da5f 9c3c 2619 54bc c0e9 983c
00000110: 15fa bfbc fad1 563c 6dd5 84ba 45e4 47bc
00000120: 6572 913d d3f9 8e3d 8f77 1f3d ebec cf3c
00000130: 3ddf 47bc eca0 43bc 6323 3739 ed60 47bc
00000140: e2c0 aabc ba9c 62bd fbc8 9cbc e297 00bc
00000150: 35bd a2bc 9234 f93c 8623 70bc 1f9b 1fbc
00000160: beee 9dbc 5e94 b93b f327 a1bc afb5 08bc
00000170: f2c2 da3b 86df 9ebb ffe4 653c e381 373d
00000180: c7be 003d e3cd a33c 7a37 0bbd 2bea 06bc
00000190: eb9b 343d c750 1fbc c356 853c e176 503c
000001a0: a1b7 f9bb 7dd5 483d 35cb e53c 7e51 fa3b
000001b0: ffb9 68bc 058f 953b 2447 963c 93ec 7fbc
000001c0: b0ee c23c 30c8 cf3b eb79 b83c b2eb 4c3c
000001d0: f9e0 983c 48d7 1abd c1b0 6a3c a8b0 1cbc
000001e0: 28c2 213b 530b f53b 64e2 c73b 472d 8f3c
000001f0: bb32 c13c 89cc 453c cfe6 a53c 0919 bebc
00000200: ab92 49bc 1d45 563c 3e3b 46bc f86a 98bc
00000210: c6f6 10bd 192a d53b fd1a 4abc 7c33 06bd
00000220: bc2b 81ba 16c2 eabc 7a5a 65bb d675 afbc
00000230: 29d2 cc3c 79f2 c83c 387c ffbb 78bd 803c
00000240: b96d c6bc 7305 cebc d9dc af3a 0276 b4bb
00000250: 4a10 49bc 896a 93bb 1e4e 0d3d af4f ff3b
00000260: d4b1 cabc 6559 e53c c3c8 86bc e12b 443c
00000270: 8c33 17bc 5540 1e3c ee98 a33c 09f5 ae3c
00000280: 8072 16bc c53e 1ebb 9477 ab3c 4593 87bc
00000290: dcd6 fabc 3c7e 82bd 1a8a d23b 624c 53bc
000002a0: aabc 5d3c 7d6f e93c 51bf 13bc ebbe f83c
000002b0: 3a54 51bc 5d5d 1cbc a882 6f3c 6841 af3a
000002c0: 4eb0 4d3c 2405 2e3a 88b8 50bc ec43 e2bb
000002d0: df72 aa3b 67be 49ba b6f4 c3bb f596 6bbc
000002e0: f959 9fbc d0ac 2d3c 58c1 49bc aa88 283b
000002f0: 08ce 4fbc b97c f53b 2c13 9d3a 8088 44bd
00000300: 15e3 5a3c f9b8 31bd 7679 9e3c 63c8 1ebd
00000310: c064 303c 3094 1d3c fcbe e5bb b998 553c
00000320: 2d9b 75bd 8189 90bd 5509 0fbd da1d 7ebc
00000330: cc98 913c a5ca 733c 6104 053b 04b4 3dbb
00000340: 4542 8d3c 01db 583d 49c3 3c3c daf7 9b3b
00000350: d222 883c 6ef4 b8bc 9947 483c 233c 153c
00000360: 6ba9 103c 2ff6 303b e769 bc3c d26b 703c
00000370: 0569 f23b f6dc 5f3c 392f ad3b 3ccc 90bd
00000380: 480e debc f972 b0bc 27ce e83c 28c0 6e36
00000390: 49a1 96bc c3ec cb3c 154b afbb fc59 a3bc
000003a0: 35cc 1a3c c26e febc bd00 69bc ba7a 82bc
000003b0: d642 703c cfcf 5f3c 7019 7bbc 4fe0 7fbb
000003c0: 8daa 25bc a48a 58bb 0769 1abc b1ff 30bd
000003d0: 4444 c6bc 0ba3 0f3d a5e9 64bb e6bb 723c
000003e0: f4b4 d93b 2e2e 62bc 7030 8eb9 7476 5a3c
000003f0: 8366 a4bc de74 4abc a98a f9bc d803 ae3c
-0.0014364009 -0.002439034 0.0053445487 0.022528766 0.03625671 -0.020468747 -0.022062227 0.03942882
0.013690164 0.033057053 0.0042293333 0.006423184 -0.009186821 -0.0136791635 0.010532038 0.009904125
0.0006821957 0.023466412 -0.009253546 0.0060486402 0.0004969213 -0.0031817297 -0.01582788 -0.02941562
0.031334314 0.0056291157 0.019290231 -0.0036603636 0.0029420122 -0.014680169 -0.034078743 -0.014714351
0.0032507018 -0.000411899 -0.0066881855 0.04435348 0.033968795 0.06732739 0.009130785 0.007628995
0.006130243 -0.020249743 -0.0013299618 -0.032785837 0.014596955 0.004467636 -0.001381452 -0.014052165
-0.015350779 0.017393583 -0.008087874 0.014540765 -0.013493846 -0.007788733 -0.0059032077 0.008155647
0.004006431 -0.015193741 -0.0019743457 -0.011013664 -0.015591239 -0.016751882 0.018373666 0.05338995
-0.014901567 0.019088674 -0.012945449 0.018666148 -0.023434678 0.013111586 -0.0010134407 -0.01220042
0.07101897 0.06981244 0.03893238 0.025381526 -0.01219922 -0.011940222 0.00017465423 -0.012169105
-0.020843927 -0.055325247 -0.019138804 -0.007848712 -0.019865612 0.030420575 -0.014656907 -0.009741574
-0.01927888 0.0056634387 -0.01967237 -0.008344098 0.0066760713 -0.0048484234 0.014031648 0.044801604
0.03143194 0.019995635 -0.033988453 -0.008234541 0.044094007 -0.009723849 0.016276723 0.012723655
-0.007620767 0.049031723 0.028050998 0.007639109 -0.014204501 0.0045641684 0.01834447 -0.0156203685
0.023795456 0.006341003 0.022519073 0.012507366 0.018661963 -0.037802964 0.014324368 -0.0095636025
0.0024682377 0.0074781566 0.006099986 0.017477645 0.02358376 0.012072691 0.02025166 -0.023205297
-0.012303035 0.013078001 -0.012099085 -0.018605694 -0.03539159 0.0065052626 -0.012335536 -0.032763943
-0.0009854953 -0.028657 -0.0034996555 -0.021418493 0.025002556 0.024529682 -0.0077967905 0.015715346
-0.024222242 -0.025149083 0.0013417258 -0.0055072317 -0.01227195 -0.004498784 0.034498326 0.0077914814
-0.024742998 0.027996728 -0.016453153 0.011973352 -0.009228598 0.009658893 0.019970383 0.021357076
-0.009182572 -0.00241463 0.020931043 -0.016549716 -0.030620031 -0.063717335 0.0064251544 -0.012896629
0.013533751 0.028495545 -0.009017781 0.030364474 -0.012776429 -0.009543744 0.014618553 0.0013370933
0.012554241 0.0006638339 -0.012739308 -0.0069050696 0.005201682 -0.00076959137 -0.0059800996 -0.014379253
-0.019452082 0.010600284 -0.012314163 0.0025716224 -0.012683399 0.0074916747 0.0011983863 -0.04798174
0.013359805 -0.043389294 0.019345026 -0.038765322 0.010766208 0.00961785 -0.0070112925 0.0130369
-0.05996244 -0.07057477 -0.03492101 -0.015510047 0.017773055 0.014879857 0.00202968 -0.002894641
0.017243514 0.052943233 0.011521169 0.004759771 0.016618166 -0.02257749 0.012224101 0.009108576
0.008829455 0.0027002206 0.022999717 0.014674144 0.007397773 0.013663521 0.0052851704 -0.070702046
-0.02710642 -0.021539198 0.028418614 3.5576613e-06 -0.018387454 0.02489317 -0.0053495266 -0.019940369
0.009448101 -0.031058673 -0.014221367 -0.015927661 0.014664372 0.013660385 -0.015325889 -0.003904361
-0.010111463 -0.003304162 -0.0094244545 -0.043212596 -0.024202473 0.0350676 -0.0034929302 0.014815306
0.0066438857 -0.013804955 -0.0002712044 0.0133339055 -0.020068413 -0.012356965 -0.030461626 0.021242067

action_model._discrete_distribution.branches.1.bias f4 [2]
00000000: b7fc 8fbc b8fc 8f3c
-0.017576559 0.01757656

exp_avg f4 [128, 56]
00000000: b3a3 6d38 57ad 9138 8050 a738 faf5 043a
00000010: 3ed0 c73a b5ce 853a ec1d 0f3a b022 d139
00000020: 1276 6c3a d5f0 fe39 ded4 c039 38c1 623a
00000030: 070a 253a 68d2 ae38 d632 2b38 c0de 3838
00000040: 6258 6b38 088b 413a 26e6 9d3a 4c60 593a
00000050: ee58 de39 3689 8a39 a1c1 0b3a 7488 9c39
00000060: 1328 9c39 530a 273a f854 b239 60c7 9f38
00000070: 981c 3638 b791 f137 10d9 5638 d97e 2f3a
00000080: 2a21 3a3a a4f2 3a3a 5431 ad39 7751 8039
00000090: d5a2 203a 387e a639 d2c6 9439 e12d 1e3a
000000a0: c8f9 f239 28ce 7238 ce3c 8138 c6d0 1638
000000b0: bad1 8c38 0ed3 ff39 86ef 793a 5d7c 493a
000000c0: 9237 ef39 fea0 ae39 80d2 2a3a 7eee d939
000000d0: a78b a339 ba34 3d3a ca5a 1f3a 212e 8738
000000e0: dd74 8a38 ff43 bf38 c012 ef38 4835 253a
000000f0: 48a0 a43a 089a 0b39 ea13 723a abe8 153a
00000100: 7e7e 763a d8eb 013a 1375 b139 8daf 2c3a
00000110: d1e3 f639 d437 ed37 b263 2e38 f339 a538
00000120: 00a5 9938 6047 e6b8 10aa 4339 cc43 71b9
00000130: 5098 fc39 d061 e939 aa29 4f3a 0c87 2939
00000140: a4b2 e438 18e2 e538 f67b 6639 c0dc ba37
00000150: 9017 4f38 b717 b538 be4b df38 bad3 b839
00000160: 4423 703a 9051 9938 42f8 3a3a 5aba 113a
00000170: e258 913a 6bec ef39 c438 9039 482d 9239
00000180: da5e 813a 9874 dc37 bbb3 2438 e74f ca38
00000190: deae ce38 65fe 993a b065 7439 b87c db39
000001a0: 6957 c939 de26 f539 0e44 363a 64c0 163a
000001b0: 739d a939 100d 4938 18f7 343a 4ffa 9538
000001c0: 26b0 e836 2251 8337 2070 b037 e06d e537
000001d0: 7cef 2039 9834 3c38 a28b 5c39 2c06 f738
000001e0: 615f c538 02f8 0338 2730 5638 0f16 1f39
000001f0: 8423 3c38 261f 1b37 f2a2 8a37 9370 d137
00000200: 1651 ea37 80d4 91b6 5432 f738 4c11 6039
00000210: 8ad7 7d39 041d 2739 e9ad 0739 dbb9 aa38
00000220: 0a75 ac38 b979 6539 c34f 0239 7b2f c937
00000230: 967c db37 3450 0c38 a441 2c38 40cd c339
00000240: 0066 2339 142e 9e39 b65b 9b39 9ef8 6739
00000250: fae5 6039 8c30 3339 6420 2339 09cf 9e39
00000260: 5643 4c39 74be e537 a63b 3c38 7d7a 5538
00000270: ff84 7e38 06a9 493a 55c9 ba39 36f2 e539
00000280: aa9f a339 4040 9539 1c9e 8839 9bcc c039
00000290: a52c 8c39 bc28 cb39 4f85 ca39 aac1 6a38
000002a0: d0ca 8d37 e015 c736 a08b 30b6 3a7d f039
000002b0: 0229 0d3a e8b0 9a3a 760d 3ab9 e2cd 90b8
000002c0: a0ff bf37 b335 0139 36c7 4939 4002 c439
000002d0: 3a25 7839 de75 ab38 ec55 8438 586b 3038
000002e0: 4111 7f38 2040 ed3a 4379 f63a f05e d33a
000002f0: 42fa e239 0042 2f39 bdc0 b539 b816 153a
00000300: 2402 0d3a 6074 823a ca24 293a 5242 df38
00000310: 3a77 9a38 ccf2 3d38 2b3c 7338 02eb d33a
00000320: da93 163a b195 ba3a bcbf c939 82e0 6f39
00000330: 3abb 1139 a926 c339 34ba eb39 3436 943a
00000340: d70c 0239 1a55 c938 f546 d838 c647 7d38
00000350: 57d2 c238 7c28 5d3a dafb e43a 9baa d13a
00000360: d86f 753a 5ad7 f139 7822 cd39 99ee a839
00000370: 272c 023a d8bf da3a ba66 aa39 0e36 c938
00000380: 7551 0c36 42ab 9e35 7e33 0536 fe23 1238
00000390: d47a 8335 c8ea 0537 ca09 1537 a4d3 0437
000003a0: 5b09 3837 0fe0 8f37 85fb 0c37 0e14 2a37
000003b0: 31fc a437 20ab 0f36 ff77 1c36 3afe de35
000003c0: a430 2036 5df5 1a38 f6d2 b736 3e02 2337
000003d0: 4b7a 1a37 593e 0c37 1c54 8937 29f7 b537
000003e0: a849 3a37 ce6b 2637 5e56 ef37 6259 1536
000003f0: 3b27 1e36 0ffa f735 cb76 3436 910e 1a38
5.665766e-05 6.946426e-05 7.978175e-05 0.0005072054 0.0015244556 0.0010208698 0.0005459476 0.0003988943
0.00090202794 0.0004862609 0.00036779692 0.00086500077 0.00062957447 8.336158e-05 4.081692e-05 4.407647e-05
5.611068e-05 0.0007383083 0.0012046739 0.00082922424 0.00042409397 0.0002642364 0.0005331282 0.00029856304
0.00029784496 0.0006372083 0.00034014112 7.618847e-05 4.341881e-05 2.8797293e-05 5.122373e-05 0.0006694622
0.0007100279 0.0007131493 0.00033033884 0.00024474759 0.00061277795 0.00031756028 0.00028376892 0.0006034058
0.00046343938 5.7889294e-05 6.162525e-05 3.5957222e-05 6.714785e-05 0.00048794638 0.0009534288 0.0007686073
0.00045627035 0.00033307815 0.00065163523 0.00041567156 0.00031193832 0.00072176347 0.0006078897 6.445894e-05
6.60212e-05 9.120255e-05 0.000113999005 0.000630219 0.0012559975 0.00013313454 0.0009234535 0.0005718569
0.0009403004 0.0004956103 0.00033847298 0.00065874384 0.00047090513 2.8278599e-05 4.157768e-05 7.878607e-05
7.326342e-05 -0.00010980549 0.00018660002 -0.00023008807 0.00048178667 0.000445141 0.0007902632 0.00016167405
0.000109051616 0.00010961684 0.00021980688 2.2275723e-05 4.937459e-05 8.63517e-05 0.00010647577 0.00035252963
0.00091605284 7.310801e-05 0.000713233 0.00055590796 0.0011089111 0.00045761777 0.00027508114 0.00027881027
0.0009870187 2.6280337e-05 3.9268034e-05 9.6469936e-05 9.855417e-05 0.0011748789 0.00023307535 0.00041863858
0.00038402833 0.00046759 0.000695289 0.00057507143 0.000323515 4.79343e-05 0.0006903275 7.151497e-05
6.934645e-06 1.5654197e-05 2.1033047e-05 2.7350092e-05 0.00015348004 4.4871675e-05 0.00021032852 0.000117790274
9.411458e-05 3.146381e-05 5.106642e-05 0.00015171639 4.485577e-05 9.245972e-06 1.652676e-05 2.4967163e-05
2.7932732e-05 -4.346075e-06 0.00011787252 0.00021368748 0.00024208255 0.0001593717 0.0001293939 8.14085e-05
8.223399e-05 0.00021884487 0.0001242748 2.3983177e-05 2.616485e-05 3.3453296e-05 4.106913e-05 0.00037346222
0.0001558289 0.0003017044 0.00029632234 0.00022122494 0.00021447978 0.00017088855 0.00015556958 0.00030290362
0.0001948004 2.7387614e-05 4.4878245e-05 5.0897233e-05 6.068218e-05 0.0007692728 0.0003562669 0.00043858745
0.00031208742 0.00028467365 0.00026057742 0.00036773537 0.00026736144 0.00038749527 0.00038627765 5.597031e-05
1.6902952e-05 5.9332087e-06 -2.6307316e-06 0.00045869668 0.0005384834 0.001180199 -0.00017743357 -6.904804e-05
2.2888009e-05 0.00012322403 0.00019243066 0.0003738571 0.00023664991 8.17587e-05 6.310255e-05 4.206164e-05
6.0812807e-05 0.0018100776 0.0018804449 0.0016126316 0.00043292536 0.00016713887 0.00034666611 0.0005687284
0.0005379042 0.0009952895 0.00064523204 0.00010645822 7.3655e-05 4.5287234e-05 5.799175e-05 0.001616806
0.00057440775 0.0014235285 0.0003848056 0.00022876452 0.00013898025 0.00037222102 0.00044961425 0.0011307658
0.0001240255 9.600278e-05 0.000103128994 6.0386745e-05 9.28982e-05 0.00084365136 0.0017470077 0.0015996279
0.00093626743 0.00046127551 0.00039126328 0.00032221226 0.00049656857 0.0016689254 0.00032501464 9.594495e-05
2.090904e-06 1.182176e-06 1.9848517e-06 3.4842633e-05 9.796008e-07 7.982082e-06 8.883371e-06 7.9170895e-06
1.0969433e-05 1.7151264e-05 8.403212e-06 1.0137459e-05 1.966776e-05 2.1408268e-06 2.3315658e-06 1.6614279e-06
2.387017e-06 3.6944974e-05 5.478384e-06 9.716079e-06 9.207589e-06 8.359167e-06 1.637084e-05 2.1691974e-05
1.1103613e-05 9.919471e-06 2.8531238e-05 2.2254758e-06 2.356667e-06 1.8475711e-06 2.6891237e-06 3.6730027e-05

exp_avg_sq f4 [128, 56]
00000000: 72a1 3f33 4b8e 8e33 978d be33 7361 9f37
00000010: 0d15 9737 aef6 2437 34ce 8236 ada1 0036
00000020: aa4d c536 3be8 3136 2f26 e035 7132 cf36
00000030: 7498 8136 e350 9933 32d5 4833 ea2f 9133
00000040: c221 c633 316c 9e37 753c 8937 0234 2737
00000050: a1f5 8836 586e 0436 4593 c336 d253 3636
00000060: 5c9c e535 ad7e d736 80a8 8036 09f6 9e33
00000070: 4f5e 4d33 cde0 9133 2b31 cb33 9658 9937
00000080: 9300 8837 0f0e 2837 064f 9036 2dee 0736
00000090: b45c bb36 6795 3736 ccd5 e535 98c2 e236
000000a0: aebb 8136 41bd a233 216d 5333 b50e 9433
000000b0: 056b d033 f00c 9b37 d160 7637 18cc 2537
000000c0: afaa 9b36 caab 0a36 0d31 b436 e366 3c36
000000d0: 46b2 e635 7567 ee36 7efe 8236 ffad a633
000000e0: 812f b034 7a10 1435 c558 3d35 11c2 e138
000000f0: ff19 0839 1d5a 8d38 4841 f537 16ae 7d37
00000100: a6d6 4b38 fe6c ae37 ec0d 6437 1131 3c38
00000110: 7897 0038 50f0 1835 8c73 b234 fca3 1335
00000120: 3bb4 3f35 e2d4 dc38 7b1b 0239 90ac 8b38
00000130: 7272 fb37 de3d 8137 87c1 4238 75b8 a737
00000140: 24fb 6137 0903 4038 c69a f437 6d47 1735
00000150: 8760 b534 0e84 1235 02c8 4335 1808 dd38
00000160: 1183 0039 bb79 8938 944f 0238 20f5 8437
00000170: 5831 3c38 497a a237 cf4d 6137 1372 4238
00000180: c857 ec37 b0f5 1935 2751 b834 3717 1235
00000190: 5f58 4635 25ff df38 beeb 0039 0edf 8538
000001a0: 7902 0738 f0bb 8737 0b27 3438 a9d6 9f37
000001b0: df95 5f37 df90 4138 dcac e837 da45 1c35
000001c0: 13b1 ed33 2ec0 a232 96a3 db32 1c2d c33c
000001d0: d34c ce35 787a f935 cca5 a635 ab7b 1a35
000001e0: 3c0a 6535 798c 2935 e7d5 0135 693a df35
000001f0: f2fe 4535 3abb a632 af81 ee33 d21d a032
00000200: 2e8c de32 e8c7 c43c 1e8b a335 2399 e335
00000210: 6daa a635 9fa2 1c35 243c 5435 b0c8 2235
00000220: cdde fe34 4817 d435 3dff 3a35 acf5 a932
00000230: 0db4 ee33 fd8b 9a32 60d9 e032 8164 c63c
00000240: d634 a035 3335 ce35 4cbc a135 1ee2 1c35
00000250: a145 5635 5fbd 2235 ee80 f934 8886 c235
00000260: f47e 3b35 e7ed a432 3038 f133 586d a932
00000270: 59e5 ed32 9506 c83c 56c2 d635 b867 cf35
00000280: d13d a335 e9d6 2335 37bb 7535 22a5 2e35
00000290: 8360 fc34 3d0c bf35 af6c 4e35 223f c232
000002a0: e6fd c534 ea6c 1e35 a2e3 4935 b687 e538
000002b0: f99e 1839 ca71 b238 53f2 0838 e5e6 8637
000002c0: 0467 4838 4ea1 b237 a6b1 7137 f502 6138
000002d0: b217 ff37 59f9 2035 36e1 c834 ef4c 1e35
000002e0: c397 4d35 4c6a e338 37af 1439 87e4 b538
000002f0: e9c5 0f38 e730 8a37 ad7d 3c38 f375 ac37
00000300: d713 7237 b20a 6e38 d208 f137 a4b2 2235
00000310: 2257 cb34 d9eb 1a35 c6dd 4f35 7734 e238
00000320: 3879 0f39 8499 b338 062f 1638 381e 8d37
00000330: 171f 2f38 0bb8 a337 0904 6f37 e51f 7638
00000340: 1a62 e137 5e16 2635 0f15 d234 3844 1c35
00000350: e8d7 5435 531e e538 60cc 0f39 7255 b038
00000360: b37f 2138 8536 9237 3d64 2638 8df8 9f37
00000370: 912d 6f37 a32d 7e38 bbbc db37 5857 2a35
00000380: 26f9 e431 7885 fb2e 9dd9 252f 763f c83a
00000390: ad62 2833 9781 3932 4c18 9831 10ea 4031
000003a0: 812e bf32 fcae 2c32 3494 8531 b6fb e231
000003b0: ccc0 8532 9429 212f 1fdc e531 a666 f72e
000003c0: 8ca5 292f 67e8 c93a 2e5e 3633 7518 eb31
000003d0: 831e 7e31 3b9d 2f31 e99e ca32 0578 3032
000003e0: ca45 8a31 4f45 a531 d528 8a32 bcf7 0a2f
000003f0: 66ae e631 e593 ff2e 0408 2c2f 7c94 cb3a
4.4617487e-08 6.638273e-08 8.8733195e-08 1.8999655e-05 1.8010405e-05 9.832596e-06 3.898307e-06 1.9167594e-06
5.880099e-06 2.6510231e-06 1.6700413e-06 6.174953e-06 3.8622475e-06 7.139331e-08 4.676003e-08 6.760804e-08
9.226234e-08 1.8885448e-05 1.6359825e-05 9.966085e-06 4.081711e-06 1.9733761e-06 5.8285973e-06 2.7168903e-06
1.7107336e-06 6.4222463e-06 3.8343132e-06 7.402202e-08 4.7816055e-08 6.79298e-08 9.461868e-08 1.8280272e-05
1.621273e-05 1.0016854e-05 4.300734e-06 2.0255204e-06 5.5838264e-06 2.7356089e-06 1.7124053e-06 6.7579786e-06
3.8663484e-06 7.578138e-08 4.9226518e-08 6.894462e-08 9.7052215e-08 1.8483464e-05 1.4685284e-05 9.882286e-06
4.63923e-06 2.0663597e-06 5.3701283e-06 2.807407e-06 1.718822e-06 7.1049967e-06 3.9039287e-06 7.761627e-08
3.2817118e-07 5.5158273e-07 7.0537163e-07 0.00010764984 0.00012979655 6.740189e-05 2.9236675e-05 1.5120508e-05
4.859888e-05 2.079317e-05 1.35931e-05 4.486839e-05 3.0658644e-05 5.6974113e-07 3.3239155e-07 5.5000396e-07
7.1415315e-07 0.0001053007 0.00012408003 6.660179e-05 2.9974824e-05 1.5406808e-05 4.643344e-05 1.9993846e-05
1.3469518e-05 4.5779194e-05 2.9159139e-05 5.635582e-07 3.378411e-07 5.4581403e-07 7.293421e-07 0.00010539609
0.00012255857 6.555343e-05 3.106853e-05 1.5849771e-05 4.4868648e-05 1.9368848e-05 1.3429161e-05 4.6359444e-05
2.8174269e-05 5.7354464e-07 3.4331717e-07 5.442302e-07 7.3889345e-07 0.00010680993 0.00012294852 6.3834814e-05
3.218881e-05 1.618077e-05 4.2951706e-05 1.9054236e-05 1.332673e-05 4.6149707e-05 2.773705e-05 5.8216176e-07
1.1068382e-07 1.8946675e-08 2.5569346e-08 0.02382522 1.5370555e-06 1.8587589e-06 1.2416217e-06 5.754943e-07
8.532404e-07 6.316182e-07 4.8367514e-07 1.6631794e-06 7.3759213e-07 1.9410084e-08 1.1106328e-07 1.8640012e-08
2.5907948e-08 0.024021104 1.2184935e-06 1.6957387e-06 1.2417564e-06 5.8351173e-07 7.906367e-07 6.064174e-07
4.7473296e-07 1.5802007e-06 6.966182e-07 1.9785908e-08 1.111549e-07 1.7991619e-08 2.6175883e-08 0.024217846
1.1936306e-06 1.5363679e-06 1.2050236e-06 5.844357e-07 7.9822536e-07 6.0625274e-07 4.6473673e-07 1.449328e-06
6.984767e-07 1.9200298e-08 1.12326575e-07 1.9723913e-08 2.7694727e-08 0.024417201 1.6000802e-06 1.5452888e-06
1.2162437e-06 6.103497e-07 9.1542046e-07 6.506035e-07 4.700888e-07 1.4234171e-06 7.6899136e-07 2.2613282e-08
3.6878845e-07 5.901808e-07 7.5209584e-07 0.00010944849 0.00014555072 8.508896e-05 3.265061e-05 1.6081563e-05
4.7779657e-05 2.1294367e-05 1.4406081e-05 5.3646934e-05 3.0409403e-05 5.9967493e-07 3.7416766e-07 5.897154e-07
7.6589293e-07 0.00010844003 0.00014179652 8.673319e-05 3.4278175e-05 1.6473654e-05 4.4939738e-05 2.0558922e-05
1.4428943e-05 5.6753583e-05 2.8733546e-05 6.060966e-07 3.7875094e-07 5.7712674e-07 7.743623e-07 0.00010786292
0.000136827 8.56398e-05 3.580658e-05 1.6822582e-05 4.1752206e-05 1.9516816e-05 1.424645e-05 5.8680675e-05
2.6867772e-05 6.187237e-07 3.913087e-07 5.82138e-07 7.929034e-07 0.00010925219 0.00013713678 8.4082494e-05
3.850432e-05 1.7429944e-05 3.967084e-05 1.9070018e-05 1.4256119e-05 6.060082e-05 2.6194719e-05 6.3457037e-07
6.6639982e-09 1.1437867e-10 1.5083974e-10 0.0015277702 3.9205293e-08 1.0797883e-08 4.4265445e-09 2.8072726e-09
2.2256474e-08 1.00515045e-08 3.887658e-09 6.606082e-09 1.5570912e-08 1.4657636e-10 6.689802e-09 1.12504936e-10
1.5429275e-10 0.0015404344 4.2460833e-08 6.8421806e-09 3.6979209e-09 2.5555227e-09 2.3588159e-08 1.0271838e-08
4.0242627e-09 4.8100115e-09 1.6083883e-08 1.263904e-10 6.713708e-09 1.1622329e-10 1.5646157e-10 0.0015531923

exp_avg f4 [128]
00000000: b6d1 8c38 e0ae ce38 fc84 7e38 61d2 c238
00000010: 956c 1137 9ebc bdb8 d45c f238 2704 0838
00000020: 48b4 2e39 38ab ff38 d357 86b6 601a a338
00000030: 04ff 8db8 93aa 1738 7ef5 beb7 0660 5538
00000040: 0e14 ed37 0ba1 b1b6 0db8 0eb9 4b61 35b8
00000050: 501e 94b6 7c0c dfb8 0e2a 88b9 63f7 cbb8
00000060: d080 b938 7433 1c38 3087 bdb7 7d9b 3437
00000070: 1e12 9fb7 dcf8 a338 dc08 8038 8c70 0737
00000080: f024 c838 546a 1e39 5e94 4bb9 aaaf 7c37
00000090: 4a86 5e39 2ec3 1bb7 0207 0037 ce7f 4b38
000000a0: f8f4 7e35 c661 d238 56dc 09b9 08c1 f937
000000b0: aa7f be37 d85f 4238 fec5 b3b7 e3c8 adb6
000000c0: 18ee 2ab5 ad21 dc38 8dd1 cf38 085e 9837
000000d0: 4bed 0cb9 a486 28b8 86f3 1439 2f26 b0b7
000000e0: 2324 1cb9 e022 f7b6 0158 9838 5688 feb5
000000f0: 5686 c5b8 7cb6 d436 34ee d938 1826 d737
00000100: 92c3 5037 2d29 68b7 5061 bab7 7d08 c5b8
00000110: f8f3 b937 7e15 8d36 7829 7538 fd63 4bb8
00000120: cb6d 48b7 c4f7 0039 3065 0538 3084 5fb8
00000130: e3e0 3438 4f68 7ab8 def3 c1b9 4caf 5db8
00000140: 151a b138 e0bb 6239 83ca d637 654f 43b9
00000150: 1220 5f39 0af9 a0b7 febe 8437 75a2 2837
00000160: 0723 68b7 508c eeb6 64da edb8 90de 79b7
00000170: 2922 5db6 88a3 f0b7 7019 3b38 d8e2 1f39
00000180: 8a55 5cb8 5e07 0b37 71fb e8b8 376f 0d38
00000190: e0fe cb38 6f19 8537 d919 1238 83eb d7b8
000001a0: 06a9 2737 cadf b538 f809 f538 dca3 2e39
000001b0: c296 14b9 92ab 04b9 64cc bc38 ee8a 22b9
000001c0: 9038 f8b8 1025 6a37 7bf6 4739 fbe8 5137
000001d0: 480a c0b7 4064 e7b5 e168 e5b8 dec6 d6b8
000001e0: f05b d336 14ec 6938 ccc0 a3b8 32e6 3fb8
000001f0: a56c 6038 58a5 1db8 1451 60b5 03c8 14b9
6.714782e-05 9.8554185e-05 6.068217e-05 9.289827e-05 8.667955e-06 -9.047355e-05 0.0001155675 3.2428794e-05
0.00016661093 0.000121912395 -4.0037353e-06 7.7773584e-05 -6.770904e-05 3.6160065e-05 -2.2764081e-05 5.0872586e-05
2.826194e-05 -5.293759e-06 -0.0001361074 -4.3244374e-05 -4.4142726e-06 -0.00010635794 -0.00025971275 -9.725874e-05
8.8454806e-05 3.7241218e-05 -2.2593507e-05 1.07650385e-05 -1.8962714e-05 7.818799e-05 6.105166e-05 8.072831e-06
9.543623e-05 0.00015107665 -0.0001941486 1.50612705e-05 0.00021221596 -9.284164e-06 7.631026e-06 4.8518e-05
9.497885e-07 0.00010031792 -0.0001314742 2.9773e-05 2.2709213e-05 4.6342466e-05 -2.143066e-05 -5.179188e-06
-6.3676407e-07 0.0001049669 9.909561e-05 1.8163599e-05 -0.00013439839 -4.0179715e-05 0.000142051 -2.0998616e-05
-0.00014890781 -7.3652336e-06 7.264317e-05 -1.8964154e-06 -9.418714e-05 6.3393363e-06 0.00010391735 2.5647736e-05
1.2443301e-05 -1.3837865e-05 -2.2218243e-05 -9.395273e-05 2.2167325e-05 4.2046295e-06 5.8451173e-05 -4.8492093e-05
-1.1946492e-05 0.00012299331 3.180391e-05 -5.3290452e-05 4.3124786e-05 -5.970179e-05 -0.00036993524 -5.2853764e-05
8.444876e-05 0.00021623028 2.560509e-05 -0.00018626226 0.00021278884 -1.9189454e-05 1.5824564e-05 1.0051405e-05
-1.3836433e-05 -7.1092873e-06 -0.00011341719 -1.4893376e-05 -3.295145e-06 -2.868638e-05 4.4607965e-05 0.00015247928
-5.2531752e-05 8.286761e-06 -0.00011109457 3.3720597e-05 9.7272685e-05 1.5866679e-05 3.4833185e-05 -0.000102958664
9.9933295e-06 8.6724365e-05 0.00011684367 0.00016654975 -0.00014170542 -0.00012652416 9.002609e-05 -0.00015501279
-0.00011836097 1.3956116e-05 0.0001906994 1.2511616e-05 -2.2892971e-05 -1.7240018e-06 -0.00010939106 -0.00010241357
6.298993e-06 5.5771394e-05 -7.808357e-05 -4.5752335e-05 5.3506945e-05 -3.7585705e-05 -8.3564487e-07 -0.0001418889
