KartSCBIO/results/circutioA-13/ArcadeDriver/checkpoint.pt (torch, 597879 bytes, 40 tensors)

discrete_act_size_vector f4 [1, 2]
3.0 2.0
00000000: 0000 4040 0000 0040

network_body._body_endoder.seq_layers.0.weight f4 [128, 56]
0.1703155 0.27095887 -0.04844581 0.10869657 -0.35100612 -0.08428916 0.17623161 0.101081446
0.11997961 -0.24901196 -0.124315985 0.0067811375 0.07890451 0.07661097 -0.06672105 -0.1082322
-0.050687294 0.34674817 -0.17459479 -0.029474968 0.00663216 -0.14910236 0.2647954 0.17201677
0.054469332 -0.045954 -0.18196511 -0.20126896 0.091385126 -0.12267091 -0.027550695 -0.08384057
0.069973595 0.44716272 -0.056965314 -0.13989577 -0.13492602 0.19555642 0.12386444 0.379102
-0.011050558 0.21437667 0.10343788 -0.03477367 0.22326241 0.13731329 0.07865197 -0.038276836
-0.0068145823 -0.345752 0.33355483 -0.18916084 -0.00039370533 -0.030564537 0.154225 -0.18395242
-0.1757339 -0.027353648 0.13525017 0.06270015 -0.01640162 0.05658977 0.07240292 0.034868777
-0.037229642 0.11482034 0.057987213 -0.025173014 0.07913213 0.1383684 0.039204434 -0.048338525
-0.08108337 -0.18308873 -0.028437687 0.06998689 0.16454786 0.2580597 -0.081463546 0.011074543
-0.09804849 -0.16535114 -0.077832535 0.0057716924 0.070500985 0.053102735 -0.10362199 0.051510945
0.15393172 0.17600715 0.127743 0.061719906 -0.10308868 -0.32188314 0.06300379 0.2487905
0.11639481 0.1837396 0.31498277 0.062717 -0.16062565 0.049543947 0.12356468 0.065820456
-0.12748641 -0.08965147 0.098809056 -0.08948722 0.015560804 -0.017169565 -0.23114352 -0.042058453
0.12160358 -0.012845839 0.055634793 0.1664698 -0.028109647 0.08846674 0.13229217 0.08728812
-0.18904339 -0.04747907 0.09687413 -0.083436176 -0.031992447 -0.038197443 0.117678314 0.012781365
0.027957376 0.027497979 -0.32043236 0.03264388 0.18203394 -0.08175331 -0.08977466 -0.28155613
0.0022104091 0.23407136 0.07839272 0.1508893 -0.11520571 0.010982324 0.03740251 0.0067442292
-0.17697297 -0.17298253 0.009670228 0.03671351 0.051531468 0.027626842 0.111789934 0.069520004
0.004019617 0.014543816 -0.08083686 -0.12605397 0.22348496 0.037686627 -0.042340636 0.008365085
0.041102614 0.11385915 0.12112304 -0.06501577 -0.018144852 -0.017173696 -0.1096826 0.055780023
0.051787112 0.012346287 0.24183372 -0.08958566 -0.2776772 -0.027904237 0.076126106 0.11238436
-0.19580571 0.020185702 -0.12114851 -0.021586714 -0.03957156 -0.22490935 -0.10133525 0.014078983
-0.0585066 0.10493042 0.21032083 0.25022143 -0.09105788 0.28792772 -0.04304243 0.2489903
0.034804557 0.10347476 0.09748148 -0.2161389 -0.12575234 -0.40321803 -0.1669135 0.03144541
0.10447709 -0.09986891 -0.2332627 -0.0041198605 -0.0915721 0.21251172 -0.17599322 -0.018207353
-0.030449623 0.14262061 -0.09875259 -0.040031664 -0.3468182 -0.1767623 0.1538482 -0.04909231
-0.11979876 0.15070808 0.22997585 0.07032276 0.083262995 0.043851227 0.16835186 0.072302155
-0.003134243 0.02992191 0.030082038 0.12395199 -0.042945962 0.16399173 0.13686155 0.014060369
-0.085884966 0.023174152 -0.15225701 0.007827598 -0.024683736 0.1467638 0.14489582 0.09460877
-0.110191725 0.11827779 0.014324405 -0.14821458 -0.26315042 0.0031686842 0.09538851 -0.14316447
0.093334176 -0.2322338 0.015945949 -0.11327171 -0.111415535 -0.12512033 0.034607228 -0.057335272
00000000: 3067 2e3e 1fbb 8a3e 1d6f 46bd 4f9c de3d
00000010: 13b7 b3be cc9f acbd 0f76 343e ca03 cf3d
00000020: dfb7 f53d fefc 7ebe 6199 febd 4e34 de3b
00000030: b098 a13d 36e6 9c3d 0ca5 88bd d8a8 ddbd
00000040: 7b9d 4fbd fa88 b13e fac8 32be 7d75 f1bc
00000050: 9752 d93b 4aae 18be 4393 873e 2a25 303e
00000060: 3c1b 5f3d 433a 3cbd 1055 3abe 7319 4ebe
00000070: 2028 bb3d e33a fbbd ffb1 e1bc 9bb4 abbd
00000080: 514e 8f3d 83f2 e43e 7654 69bd d640 0fbe
00000090: 0c2a 0abe f13f 483e a4ac fd3d a819 c23e
000000a0: 660d 35bc 8f85 5b3e 3dd7 d33d d66e 0ebd
000000b0: e79e 643e db9b 0c3e 4914 a13d 2cc8 1cbd
000000c0: dc4c dfbb 6806 b1be b3c7 aa3e 61b3 41be
000000d0: 3c6a ceb9 7b62 fabc 29ed 1d3e 065e 3cbe
000000e0: 96f3 33be c214 e0bc 057f 0a3e f068 803d
000000f0: b15c 86bc adca 673d fb47 943d 90d2 0e3d
00000100: 1c7e 18bd ed26 eb3d 0084 6d3d a337 cebc
00000110: 0710 a23d 72b0 0d3e d494 203d 9efe 45bd
00000120: 0a0f a6bd 9d7b 3bbe 27f6 e8bc 4955 8f3d
00000130: 3c7f 283e 6720 843e 5cd6 a6bd 0072 353c
00000140: a6cd c8bd cf51 29be aa66 9fbd 7720 bd3b
00000150: d262 903d 4182 593d c437 d4bd 24fd 523d
00000160: 47a0 1d3e 383b 343e 10cf 023e 03ce 7c3d
00000170: 2820 d3bd decd a4be 2208 813d f0c2 7e3e
00000180: 6760 ee3d 3c26 3c3e 6c45 a13e c571 803d
00000190: 0d7b 24be 98ee 4a3d 7b0f fd3d e0cc 863d
000001a0: cc8b 02be 319b b7bd 675c ca3d 1345 b7bd
000001b0: bef2 7e3c 30a7 8cbc e3b0 6cbe 7c45 2cbd
000001c0: 4c0b f93d 5b77 52bc 4fe1 633d 0f77 2a3e
000001d0: 3446 e6bc 0d2e b53d 9977 073e 1dc4 b23d
000001e0: 9794 41be 6a79 42bd f265 c63d 96e0 aabd
000001f0: 830a 03bd ec74 1cbd 5401 f13d ee68 513c
00000200: de06 e53c 7143 e13c b60f a4be 97b5 053d
00000210: 1b67 3a3e 486e a7bd c7db b7bd 2028 90be
00000220: 83dc 103b 67b0 6f3e 5d8c a03d ba82 1a3e
00000230: f9f0 ebbd 35ef 333c 6033 193d b2fe dc3b
00000240: 6738 35be 5522 31be e06f 1e3c e860 163d
00000250: a912 533d b051 e23c 1ff2 e43d 8160 8e3d
00000260: feb6 833b 3049 6e3c cc8d a5bd 4b14 01be
00000270: 3ed9 643e 4b5d 1a3d 606d 2dbd b60d 093c
00000280: 375b 283d fc2e e93d 5b0f f83d fd26 85bd
00000290: 83a4 94bc daaf 8cbc 45a1 e0bd 9879 643d
000002a0: b91e 543d 1548 4a3c 42a3 773e b078 b7bd
000002b0: b52b 8ebe 6d97 e4bc 01e8 9b3d c529 e63d
000002c0: 4b81 48be 7c5c a53c b61c f8bd 9fd6 b0bc
000002d0: ca15 22bd a34e 66be db88 cfbd 89ab 663c
000002e0: 9ea4 6fbd c3e5 d63d 585e 573e 061d 803e
000002f0: 8e7c babd 436b 933e 424d 30bd 50f7 7e3e
00000300: 398f 0e3d 93ea d33d 5fa4 c73d 8453 5dbe
00000310: 39c5 00be 9872 cebe 5feb 2abe e7cc 003d
00000320: 16f8 d53d 1288 ccbd 6bdc 6ebe e5ff 86bb
00000330: 278a bbbd ac9c 593e 9137 34be 9627 95bc
00000340: 7d71 f9bc 230b 123e cc3e cabd 3ef8 23bd
00000350: 2892 b1be 2d01 35be 628a 1d3e 0515 49bd
00000360: 0d59 f5bd 3853 1a3e ca7e 6b3e 6105 903d
00000370: ca85 aa3d 589d 333d 6e64 2c3e 2713 943d
00000380: df67 4dbb cb1e f53c 9b6e f63c 8ada fd3d
00000390: 1be8 2fbd 73ed 273e 6f25 0c3e 765d 663c
000003a0: 75e4 afbd b8d7 bd3c 43e9 1bbe 533f 003c
000003b0: 8c35 cabc 4049 163e 925f 143e 3ec2 c13d
000003c0: 33ac e1bd a03b f23d e9b0 6a3c 90c5 17be
000003d0: a7bb 86be b3a9 4f3b 0d5b c33d b599 12be
000003e0: fd25 bf3d b3ce 6dbe 14a1 823c 00fb e7bd
000003f0: d42d e4bd 8b1f 00be 4fc0 0d3d 64d8 6abd

network_body._body_endoder.seq_layers.0.bias f4 [128]
-0.007784743 -0.00076781475 0.017151082 0.020427935 -0.01191342 -0.0030695847 0.03008712 0.0021203817
0.019964814 0.006223979 -0.0152357165 0.0232921 0.032299686 0.018481739 0.013422724 -0.009636058
0.024812408 -0.022907753 0.009353227 0.011651604 -0.008539567 0.036933366 0.028399637 -0.017854506
0.024914348 -0.011404934 0.00355858 -0.032518327 -0.0021506578 0.01154596 -0.028714664 0.013477572
0.006212981 0.0023817224 0.010090547 0.0005807539 0.0041636284 -0.01401194 -0.0062841936 0.017603464
-0.0023959088 0.03566867 0.010965578 0.0058326707 -0.010171225 -0.0011213894 0.0057250755 0.0021885738
0.0097939 -0.005288084 -0.0016805935 -0.007841261 -0.010431479 -0.007239045 0.013308705 -0.0026717158
0.013950566 0.020053543 0.019396162 -0.01566167 -0.012560157 0.022905659 -0.0006363923 0.0062347436
0.022754656 0.016197465 -0.00031216693 -0.0064362506 -0.005880108 -0.026007185 0.014958753 0.025013356
-0.0018191948 0.009719683 0.0118745 0.012763871 -0.020824663 0.016408391 0.008603247 0.0015574255
0.005227017 0.031212775 0.0028392898 0.057090722 0.01746839 0.007846618 0.013562738 0.011346425
-0.019878743 -0.016117666 -0.007560613 0.007425991 -0.008478637 -0.007935696 0.018597238 0.0028710954
-0.0075137787 0.0022190516 -0.03351624 -0.005684147 0.012643093 0.009016236 0.046339683 -0.010117695
0.021594513 0.020863539 0.0006406624 -0.018848257 0.022829013 0.0043775993 0.00655462 0.015865747
-0.0035076507 0.019619223 0.02487321 -0.023838475 0.005247153 0.009292823 -0.01137174 -0.026771404
0.0027916399 0.0009088392 -0.00026889928 -0.014130751 0.028958086 -0.0103927 4.6580197e-05 0.01492578
00000000: 2817 ffbb 2d47 49ba 6d80 8c3c 7c58 a73c
00000010: 8130 43bc 162b 49bb 4479 f63c 1af6 0a3b
00000020: 408d a33c 85f2 cb3b 3a9f 79bc 13cf be3c
00000030: ad4c 043d 0467 973c fcea 5b3c 8ee0 1dbc
00000040: 6443 cb3c 0aa9 bbbc 473e 193c 5fe6 3e3c
00000050: 8ae9 0bbc 7147 173d 5ba6 e83c 9d43 92bc
00000060: 2d19 cc3c c3db 3abc 1137 693b f031 05bd
00000070: 0df2 0cbb 442b 3d3c 043b ebbc 09d1 5c3c
00000080: 4396 cb3b ac16 1c3b d252 253c bc3d 183a
00000090: 0c6f 883b 5692 65bc a3eb cdbb 2435 903c
000000a0: ae04 1dbb 5019 123d f8a8 333c fd1f bf3b
000000b0: 36a5 26bc 96fb 92ba 6a99 bb3b 2d6e 0f3b
000000c0: 9876 203c aa47 adbb 5c47 dcba a278 00bc
000000d0: cbe8 2abc 8335 edbb c10c 5a3c f417 2fbb
000000e0: ea90 643c 5447 a43c b3e4 9e3c e74c 80bc
000000f0: 1ec9 4dbc a6a4 bb3c 90d3 26ba d24c cc3b
00000100: f967 ba3c 8cb0 843c 56aa a3b9 2fe7 d2bb
00000110: ecad c0bb 050d d5bc 8f15 753c cfe8 cc3c
00000120: 0c72 eeba 4e3f 1f3c 438d 423c 8e1f 513c
00000130: 7c98 aabc e46a 863c a2f4 0c3c 8722 cc3a
00000140: 6647 ab3b efb1 ff3c 6113 3a3b f6d7 693d
00000150: de19 8f3c 1a8f 003c 3f36 5e3c 5be6 393c
00000160: bfd8 a2bc 3209 84bc 05bf f7bb ba55 f33b
00000170: fbe9 0abc b904 02bc 3c59 983c fd28 3c3b
00000180: 2536 f6bb 826d 113b 5348 09bd 1542 babb
00000190: fa24 4f3c d6b8 133c aece 3d3d b0c4 25bc
000001a0: fae6 b03c 03ea aa3c 20f2 273a a967 9abc
000001b0: e903 bb3c f771 8f3b 23c8 d63b e2f8 813c
000001c0: 9de0 65bb 7eb8 a03c e7c2 cb3c e848 c3bc
000001d0: 4ff0 ab3b ed40 183c 8950 3abc b44f dbbc
000001e0: f2f3 363b 2b3f 6e3a 0dfb 8cb9 aa84 67bc
000001f0: 8239 ed3c 2546 2abc 1b5f 4338 428b 743c

network_body._body_endoder.seq_layers.2.weight f4 [128, 128]
-0.00052470487 0.0052143177 -0.075673856 0.060165286 -0.064778686 0.024682248 -0.17297068 -0.078291796
-0.21345517 -0.14619803 -0.021646148 -0.13994947 0.04078997 -0.11228667 -0.11153269 -0.17904748
0.11084973 0.0906471 0.043872796 -0.0076932632 -0.072432876 -0.10165577 -0.11434283 -0.005414073
0.074450836 -0.14432967 -0.0040517407 0.0032303114 0.08031603 -0.15670334 -0.107866935 -0.098589346
0.016676439 0.064559944 -0.028016878 -0.06536459 -0.054268934 0.09590329 0.053449932 0.06720161
0.032360166 -0.04842777 0.05515556 -0.21065243 -0.011893449 -0.09014707 0.08390346 -0.035954785
0.0427729 0.01836869 0.17149071 -0.08458036 -0.15775156 -0.033255707 -0.10097811 -0.098277576
0.027983965 0.06977753 -0.00011489909 0.10188637 0.03384241 0.12024003 -0.20925412 0.13193873
0.044505022 0.076060094 0.1131196 0.07643113 0.047762334 0.006743567 -0.22542368 0.08553857
0.04522579 -0.04746405 -0.05546119 -0.041176222 -0.08600175 -0.097397484 0.063719854 -0.014651072
0.09970943 -0.22139604 -0.22195652 -0.10393122 0.08519091 -0.04136207 0.05594057 0.04379084
0.06559112 0.21332304 -0.017485544 -0.024901085 0.21643816 0.062509 -0.07760099 0.112125434
-0.0059415307 -0.1455837 0.111926526 0.12400183 0.036321145 0.04339058 0.10024783 0.13385534
0.0625492 0.026190769 -0.070836425 -0.014513342 0.08742812 -0.030841468 0.054020125 0.01768996
0.0076979385 0.0784074 -0.03977683 0.030084303 -0.061147198 -0.19127853 -0.036835242 0.050435863
-0.08161153 -0.11721553 -0.03542687 0.06912191 -0.13319279 0.028758457 0.2053644 0.046529345
0.012868547 -0.022686122 0.14545621 -0.15691857 0.056665696 0.010870924 -0.06171034 -0.06882497
0.085126765 -0.066989966 -0.023911761 0.037289236 -0.11163589 0.030962711 0.04640715 -0.009497427
0.10433969 -0.06226367 0.11158911 -0.0044829287 0.02109054 -0.16931106 -0.13766763 -0.048121747
0.06952134 0.21769816 0.011016137 -0.034036938 -0.031150248 0.059089206 0.048137616 0.03658211
0.027388353 0.15089671 0.050989673 -0.062087983 0.021005556 0.03632346 0.054316737 0.045043133
-0.037831377 -0.00683623 0.12039185 0.012490473 0.0304512 0.16404407 0.06996831 0.044891004
0.015995966 0.15824685 -0.07721785 -0.10970833 0.023954015 0.07420378 0.038484342 0.018875567
0.06169152 0.06227732 -0.06686552 0.011613732 -0.15494083 0.18223679 0.067064606 -0.062122185
-0.079530634 -0.046021637 0.07234904 -0.0065542674 -0.15951255 0.0633543 0.019470464 -0.039805174
0.12489377 0.05179415 -0.088501185 -0.049606636 0.103321195 -0.07425859 -0.12589136 -0.04683531
-0.121237695 -0.22497436 -0.14805557 0.024922654 -0.037434552 0.072436094 -0.19107786 0.044139817
0.04509401 0.12427477 0.019043814 0.016245466 -0.0054185875 -0.095564395 -0.06515302 0.10432509
0.033893473 -0.092049375 0.18671057 -0.0048371525 -0.04234807 0.08082809 -0.08533688 0.035256207
-0.0015588682 0.1416269 -0.046079222 0.054399036 -0.026992049 -0.108086914 -0.12487994 -0.04587026
-0.05518185 0.027685197 0.018436829 0.0964712 0.086649425 -0.059734482 -0.042157024 -0.03112353
0.13676824 0.11986612 0.13165085 0.15246154 0.052240487 -0.054576296 -0.0330944 -0.04997721
00000000: 598c 09ba dedc aa3b e5fa 9abd e06f 763d
00000010: b0aa 84bd 6d32 ca3c 3a1f 31be 7357 a0bd
00000020: fe93 5abe f0b4 15be 4353 b1bc ea4e 0fbe
00000030: 6213 273d 8ef6 e5bd 406b e4bd 3958 37be
00000040: 2f05 e33d 30a5 b93d f6b3 333d c517 fcbb
00000050: b057 94bd e630 d0bd 932c eabd 8968 b1bb
00000060: ae79 983d 28cb 13be 77c4 84bb a2b3 533b
00000070: bb7c a43d d776 20be 57e9 dcbd 36e9 c9bd
00000080: 079d 883c 0138 843d a783 e5bc dfdd 85bd
00000090: 1a49 5ebd f268 c43d 51ee 5a3d ffa0 893d
000000a0: 188c 043d 335c 46bd ccea 613d 45b5 57be
000000b0: bedc 42bc 079f b8bd 94d5 ab3d 5345 13bd
000000c0: a332 2f3d ef79 963c 439b 2f3e 7838 adbd
000000d0: a089 21be 2337 08bd 9dcd cebd c145 c9bd
000000e0: a13e e53c 86e7 8e3d fbf5 f0b8 cda9 d03d
000000f0: 579e 0a3d 6840 f63d b646 56be f21a 073e
00000100: e64a 363d 65c5 9b3d 40ab e73d ed87 9c3d
00000110: 70a2 433d 24f9 dc3b 77d5 66be d92e af3d
00000120: ae3e 393d aa69 42bd 462b 63bd 66a8 28bd
00000130: af21 b0bd 5578 c7bd 8e7f 823d 0d0b 70bc
00000140: 7534 cc3d a5b5 62be 9248 63be e4d9 d4bd
00000150: 9278 ae3d 466b 29bd f021 653d 065e 333d
00000160: a354 863d 5b71 5a3e d83d 8fbc 5cfd cbbc
00000170: f7a1 5d3e b804 803d 45ed 9ebd 05a2 e53d
00000180: 2cb1 c2bb e513 15be bc39 e53d acf4 fd3d
00000190: 7bc5 143d 52ba 313d bc4e cd3d 6011 093e
000001a0: cc19 803d 068e d63c b012 91bd 5ec9 6dbc
000001b0: 840d b33d 3fa7 fcbc 3544 5d3d 89ea 903c
000001c0: fd3e fc3b 0f94 a03d 07ed 22bd 5b73 f63c
000001d0: 7c75 7abd 85de 43be 8de0 16bd d695 4e3d
000001e0: f223 a7bd b20e f0bd c41b 11bd ca8f 8d3d
000001f0: b163 08be db96 eb3c 0c4b 523e 8e95 3e3d
00000200: 99d6 523c 3fd8 b9bc 79f2 143e 43af 20be
00000210: 4a1a 683d f61b 323c fbc3 7cbd 1bf4 8cbd
00000220: f156 ae3d 0932 89bd 99e2 c3bc 99bc 183d
00000230: 5ca1 e4bd 83a5 fd3c 6c15 3e3d 199b 1bbc
00000240: 0cb0 d53d 3108 7fbd d588 e43d 88e5 92bb
00000250: 11c6 ac3c e15f 2dbe bef8 0cbe 4f1b 45bd
00000260: 3461 8e3d 44ec 5e3e 077d 343c 516a 0bbd
00000270: ce2e ffbc 8607 723d f32b 453d 1fd7 153d
00000280: 8a5d e03c ab84 1a3e 8cda 503d f84f 7ebd
00000290: d813 ac3c e9c7 143d 3a7b 5e3d 267f 383d
000002a0: 13f5 1abd 7402 e0bb 0190 f63d d7a4 4c3c
000002b0: cc74 f93c 2bfb 273e 8c4b 8f3d a1df 373d
000002c0: f909 833c 760b 223e 6424 9ebd c3ae e0bd
000002d0: 363b c43c 27f8 973d c2a1 1d3d efa0 9a3c
000002e0: 3fb0 7c3d 8116 7f3d caf0 88bd 8647 3e3c
000002f0: cfa8 1ebe 489c 3a3e 2b59 893d d573 7ebd
00000300: f5e0 a2bd 2f81 3cbd bc2b 943d 2ec5 d6bb
00000310: 4257 23be e6bf 813d 8680 9f3c c00a 23bd
00000320: 4ec8 ff3d 1a26 543d 1c40 b5bd 5430 4bbd
00000330: 109a d33d e314 98bd aae9 00be 62d6 3fbd
00000340: 784b f8bd ae5f 66be e19b 17be 982a cc3c
00000350: f954 19bd 6059 943d eaa9 43be f4cb 343d
00000360: 7fb4 383d c583 fe3d c601 9c3c 3615 853c
00000370: 688e b1bb 44b7 c3bd f26e 85bd 65a8 d53d
00000380: e2d3 0a3d 6284 bcbd 0e31 3f3e fa80 9ebb
00000390: 2b75 2dbd 3389 a53d 1ac5 aebd d068 103d
000003a0: f052 ccba a406 113e 91bd 3cbd 86d1 5e3d
000003b0: 6e1e ddbc ac5c ddbd 0ec1 ffbd 74e2 3bbd
000003c0: 5d06 62bd 11cc e23c d508 973c b192 c53d
000003d0: 4175 b13d 25ac 74bd d8ac 2cbd c6f6 febc
000003e0: f90c 0c3e 5e7c f53d 7bcf 063e e11e 1c3e
000003f0: 1ffa 553d 658b 5fbd fe8d 07bd e7b4 4cbd

network_body._body_endoder.seq_layers.2.bias f4 [128]
-0.010256197 0.0021813102 0.011303155 0.0034233604 -0.0053660725 -0.015341137 0.009079344 -0.009333002
-0.026665535 0.006040646 -0.02408849 -0.025696488 0.01298202 0.027668655 -0.020753182 0.008440158
0.00860059 0.024409408 -0.0006555526 -0.01475468 0.017451834 -0.014228826 0.01199656 -0.001254611
0.018514201 0.014087826 -0.0047243317 0.02141127 -0.009745221 -0.0041821697 0.0020122442 0.029472155
-0.01598862 -0.009396399 0.012298278 0.030775482 0.013514377 0.036892552 -0.0040935706 0.0025832288
-0.0019424456 0.008199519 -0.018817576 0.019105708 -0.008103076 -0.021093741 0.005620504 -0.00045124162
0.024446616 -0.014052754 -0.007630616 -0.016234346 0.01580792 -0.009272457 -0.01363808 0.0015293242
0.018985389 -0.0059342775 0.008855788 0.014085645 -0.002137451 0.00706728 -0.020179251 -0.00049215846
0.029399946 -0.0113902725 0.010104465 -0.0001456141 0.011380994 -0.017381437 4.3137323e-05 0.018631043
0.021784045 -0.0042510405 0.005106115 0.022601975 0.005724159 0.00019764008 -0.0047734356 0.00066834985
0.013501558 0.039814066 0.008031813 0.017362291 0.0010987482 0.00089205644 0.0022423826 -0.011200849
0.031776752 0.011661652 0.019468356 0.011161953 -0.009013797 -0.0019129297 -0.026567126 0.008230761
-0.011579785 -0.013037703 0.018066823 0.00975266 0.0047085197 0.01930244 -0.020818006 0.023999257
0.0008490165 -0.0003678184 -0.0090799695 0.0016875358 0.023794105 -0.007493155 0.0017333631 0.00070326304
-0.01767682 -0.009095022 0.015233381 0.019274108 -0.00020161575 -9.7454424e-05 -0.01619649 -0.004104076
-0.028298892 0.0011586463 -0.0054718223 -0.005119906 0.016736861 -0.012031784 0.031967703 0.009981425
00000000: 9c09 28bc 50f4 0e3b de30 393c 755a 603b
00000010: e1d5 afbb 6459 7bbc 87c1 143c 73e9 18bc
00000020: ae71 dabc 9df0 c53b 3a55 c5bc 7181 d2bc
00000030: 8ab2 543c 60a9 e23c 9402 aabc 9748 0a3c
00000040: 7de9 0c3c 3df6 c73c 64d9 2bba 9dbd 71bc
00000050: 26f7 8e3c 0620 69bc 388d 443c c271 a4ba
00000060: 18ab 973c a0d0 663c 91ce 9abb b066 af3c
00000070: 6baa 1fbc 950a 89bb dbdf 033b 976f f13c
00000080: 91fa 82bc 5bf3 19bc b77e 493c dd1c fc3c
00000090: 686b 5d3c a51c 173d 5c23 86bb 634b 293b
000000a0: a999 feba 4657 063c 5127 9abc 9383 9c3c
000000b0: c4c2 04bc c8cc acbc 342c b83b a094 ecb9
000000c0: 4544 c83c 863d 66bc 3f0a fabb e4fd 84bc
000000d0: 9c7f 813c 81eb 17bc 4172 5fbc 9b73 c83a
000000e0: 3f87 9b3c 5474 c2bb de17 113c 7ac7 663c
000000f0: 7a14 0cbb a494 e73b f54e a5bc 3204 01ba
00000100: 28d8 f03c 449e 3abc 338d 253c fdaf 18b9
00000110: 5977 3a3c 8463 8ebc 59ee 3438 21a0 983c
00000120: 7474 b23c 504c 8bbb 3251 a73b c727 b93c
00000130: ba91 bb3b 9b3d 4f39 7b6a 9cbb 3334 2f3a
00000140: a435 5d3c 1314 233d de97 033c 5d3b 8e3c
00000150: df03 903a e5d8 693a f0f4 123b c483 37bc
00000160: 5728 023d 8310 3f3c 1a7c 9f3c a0e0 363c
00000170: 9bae 13bc 45bb faba 4da3 d9bc 50da 063c
00000180: 23b9 3dbc 179c 55bc e000 943c 9fc9 1f3c
00000190: ed49 9a3b 2720 9e3c 868a aabc 179a c43c
000001a0: 8890 5e3a c0d7 c0b9 27c4 14bc 4e30 dd3a
000001b0: dbeb c23c 2489 f5bb 0432 e33a 2f5b 383a
000001c0: face 90bc 4a03 15bc 6e95 793c bce4 9d3c
000001d0: d168 53b9 7260 ccb8 80ae 84bc 7c7b 86bb
000001e0: 14d3 e7bc b8dd 973a f94c b3bb e2c4 a7bb
000001f0: be1b 893c f620 45bc 91f0 023d 2189 233c

action_model._discrete_distribution.branches.0.weight f4 [3, 128]
0.00057498144 -0.009890401 -0.04017456 0.004963009 -0.024918765 -0.0039579743 0.0029967674 -0.010017884
-0.013332105 0.010810902 0.01042019 0.010311601 -0.025297584 -0.0056652687 -0.0016409914 0.027590528
-0.046724733 -0.039664388 -0.005867494 -0.017451389 0.07592002 0.005984781 0.026089214 0.002375573
0.011826394 0.04276506 -0.040936057 -0.0666956 -0.048427865 0.0076517533 0.03733553 -0.033207268
-0.0043309797 -0.010240592 -0.01642773 -0.045536444 -0.007968841 -0.033964258 0.034675755 -0.007820701
0.0013505301 0.0015090645 0.005440558 0.0211264 -0.0059223003 0.017700965 -0.0060685077 -0.024862122
-0.03178211 0.018805321 0.02435405 0.018524507 0.025210109 -0.0010740148 0.013099147 -0.031384695
-0.034650933 -0.00378645 -0.031446595 -0.034743298 0.012569365 -0.01195092 -0.006415768 0.07589398
0.04452676 0.0089377 0.009017572 -0.09124308 0.014281118 -0.019275269 -0.029799594 -0.06166005
0.05801749 0.050864242 0.021009622 -0.037681237 -0.0016976552 -0.014340275 0.0059039993 0.014385871
-0.017630728 -0.009873821 -0.0051692408 -0.06345589 -0.022390667 -0.017016804 -0.019452771 -0.018681604
0.048937384 -0.03765762 -0.026263533 0.00071879046 0.0032760603 0.0088112345 -0.006684096 -0.08615612
0.022213995 0.02433719 -0.03227805 0.04973191 -0.04084382 0.04578961 0.019973615 0.058132518
-0.023337942 0.040814526 0.03432811 -0.013143124 -0.05341346 0.012362058 -0.0045956518 0.0068617114
0.0024310867 0.027978627 0.06585382 0.02312679 0.025867213 0.015827993 -0.028978612 -0.0001410064
0.003819689 0.048311513 0.003709159 -0.028253231 0.02359576 0.002339293 -0.045118317 0.0002887256
0.024839427 0.019955562 0.018531503 0.0005137146 -0.025577843 0.01276705 -0.010047087 -0.033936903
0.024020499 -0.016438536 0.007307628 0.011276151 0.011988236 -0.006876124 0.007903612 -0.008551044
0.054813877 -0.031884197 -0.023593932 -0.00084651815 -0.012247893 0.007894131 0.017373256 -0.0065624565
-0.031817235 0.009390574 0.009056669 0.004901937 -0.0030478642 0.009743007 0.00013500675 0.011252781
0.008357593 0.032092378 -0.0018011848 -0.014383455 0.014848441 -0.010563652 -0.0024744407 0.0038502344
0.030968014 0.020184739 0.019758774 0.010469215 -0.008400332 0.015291796 0.009887041 0.005323935
0.015377801 0.0037905693 0.0017778702 0.015393002 0.019779373 0.014408664 0.014583456 0.006902485
-0.036903318 0.025139429 0.012831766 0.008995201 -0.0069344947 0.0031265824 0.0039284443 -0.014245449
0.0020510042 0.0073396484 -0.021062141 -0.003864448 0.0107192695 -0.0055175233 -0.008500963 -0.016891167
-0.033805687 -0.044853874 -0.0021611399 -0.0005507012 0.03397725 0.015487116 0.014023687 -0.005519786
0.00813614 -0.007542203 0.022081109 0.02148373 0.03129787 0.03130809 0.016366675 0.02325684
0.004986001 0.01433137 0.0063860775 0.0010696485 0.005059015 0.008293886 0.008034922 0.0010238058
0.02186832 0.003165308 0.022036457 0.0035568525 -0.041512586 -0.0041206693 -0.0017525728 -0.014204198
0.01430375 0.03704428 -0.009768456 0.0012420755 0.009739301 0.02554946 0.016374703 -0.005578483
-0.008289971 0.0066302326 -0.010699789 -0.014507409 0.04950241 0.009651727 0.0034095782 0.019476777
-0.003119163 0.015579546 0.007645764 -0.013782294 -0.015714467 -0.01580443 -0.020847179 0.009839617
00000000: 5aba 163a 590b 22bc 148e 24bd bda0 a23b
00000010: 7022 ccbc e5b1 81bb 6a65 443b 0d22 24bc
00000020: e76e 5abc 3620 313c 72b9 2a3c fdf1 283c
00000030: e13c cfbc b8a3 b9bb 8916 d7ba 8805 e23c
00000040: 6f62 3fbd 2077 22bd 1b44 c0bb 37f6 8ebc
00000050: f57b 9b3d fb1b c43b 0cb9 d53c 80af 1b3b
00000060: 7ec3 413c 6a2a 2f3d 91ac 27bd b497 88bd
00000070: 4c5c 46bd 8fbb fa3b 24ed 183d 5804 08bd
00000080: e4ea 8dbb 28c8 27bc 7293 86bc 6c84 3abd
00000090: be8f 02bc 1b1e 0bbd 2a08 0e3d 6622 00bc
000000a0: 4504 b13a cdcb c53a b546 b23b 4611 ad3c
000000b0: db0f c2bb 9d01 913c 55da c6bb a6ab cbbc
000000c0: f52d 02bd 9e0d 9a3c 2582 c73c b5c0 973c
000000d0: 6e85 ce3c f5c5 8cba ce9d 563c 3d8d 00bd
000000e0: 23ee 0dbd 1726 78bb 25ce 00bd fd4e 0ebd
000000f0: bdef 4d3c cbcd 43bc 5d3b d2bb 4e6e 9b3d
00000100: b161 363d 6e6f 123c 70be 133c a7dd babd
00000110: 5afb 693c 2be7 9dbc 471e f4bc 408f 7cbd
00000120: bfa3 6d3d 0657 503d 5f1c ac3c a457 1abd
00000130: db83 deba 79f3 6abc 5676 c13b b7b2 6b3c
00000140: 516e 90bc cfc5 21bc bc62 a9bb 29f5 81bd
00000150: a26c b7bc d366 8bbc 6b5b 9fbc 2a0a 99bc
00000160: 9172 483d e03e 1abd 9f26 d7bc 366d 3c3a
00000170: 2cb3 563b ff5c 103c 4306 dbbb 9f72 b0bd
00000180: 20fa b53c c95e c73c fd35 04bd b0b3 4b3d
00000190: d94b 27bd e38d 3b3d b59f a33c 5d1c 6e3d
000001a0: 362f bfbc 222d 273d a29b 0c3d 4256 57bc
000001b0: 12c8 5abd 3b8a 4a3c 1f97 96bb 35d8 e03b
000001c0: de52 1f3b 6f33 e53c 5ede 863d 6574 bd3c
000001d0: 7ae7 d33c b5a9 813c 8e64 edbc 1edb 13b9
000001e0: bf53 7a3b 4be2 453d 5d15 733b 5273 e7bc
000001f0: e54b c13c d34e 193b fccd 38bd 1860 9739
00000200: 0e7c cb3c d979 a33c 61cf 973c ceaa 063a
00000210: a088 d1bc e42c 513c 8a9c 24bc 6c01 0bbd
00000220: a3c6 c43c 1caa 86bc d474 ef3b 9bbf 383c
00000230: 4e6a 443c 1c51 e1bb 277e 013c ae19 0cbc
00000240: 8484 603d 0199 02bd 1048 c1bc dfe8 5dba
00000250: 63ab 48bc 6356 013c 5c52 8e3c e009 d7bb
00000260: ca52 02bd ecda 193c 6c62 143c 6ea0 a03b
00000270: adbe 47bb 22a1 1f3c 9990 0d39 965d 383c
00000280: 49ee 083c 4c73 033d bc15 ecba 95a8 6bbc
00000290: e046 733c 2b13 2dbc 3a2a 22bb 3754 7c3b
000002a0: a2b0 fd3c 775a a53c 27dd a13c 1287 2b3c
000002b0: 8ca1 09bc 718a 7a3c 41fd 213c 6774 ae3b
000002c0: 2cf3 7b3c 336b 783b 6d07 e93a ee32 7c3c
000002d0: 5a08 a23c 5112 6c3c 73ef 6e3c 3e2e e23b
000002e0: ef27 17bd 34f1 cd3c 543c 523c 9c60 133c
000002f0: c23a e3bb 59e7 4c3b 2eba 803b be65 69bc
00000300: 246a 063b 6f81 f03b 838a acbc ae42 7dbb
00000310: e09f 2f3c 57cc b4bb a047 0bbc 585f 8abc
00000320: d577 0abd b2b8 37bd e9a1 0dbb ef5c 10ba
00000330: bb2b 0b3d acbd 7d3c 9bc3 653c 52df b4bb
00000340: 724d 053c 9624 f7bb 71e3 b43c a6fe af3c
00000350: 3232 003d e93c 003d 6813 863c 2185 be3c
00000360: 9c61 a33b 1fce 6a3c 4d42 d13b 7333 8c3a
00000370: 18c6 a53b 14e3 073c e8a4 033c 3931 863a
00000380: 3125 b33c 0e71 4f3b cd85 b43c 151a 693b
00000390: 1a09 2abd ae06 87bb 96b6 e5ba b9b8 68bc
000003a0: 475a 6a3c bebb 173d e00b 20bc 23cd a23a
000003b0: 9791 1f3c 1a4d d13c 3e24 863c b5cb b6bb
000003c0: a9d2 07bc 6c42 d93b 2b4e 2fbc 7cb0 6dbc
000003d0: 0ac3 4a3d 4722 1e3c 3b73 5f3b c38d 9f3c
000003e0: df6a 4cbb 5a41 7f3c 5189 fa3b 21cf 61bc
000003f0: a0bb 80bc 4b78 81bc b4c7 aabc 5836 213c

action_model._discrete_distribution.branches.0.bias f4 [3]
0.00428128 -0.0109178 0.009316752
00000000: fb49 8c3b 92e0 32bc 4aa5 183c

action_model._discrete_distribution.branches.1.weight f4 [2, 128]
0.0022775424 -0.0016925214 0.003913615 0.02412954 0.036836706 -0.0205221 -0.024746744 0.041108735
0.014789054 0.037539676 0.006559062 0.0054588416 -0.011011057 -0.015244113 0.011402741 0.009719108
-0.0068943333 0.026669933 -0.007378681 0.0075554196 -0.0010474616 -0.0042649764 -0.01761073 -0.028156037
0.03475104 0.005595354 0.019355044 -0.003759454 0.004714441 -0.014277694 -0.038483772 -0.016244803
0.0016438381 0.0008233432 -0.009467926 0.045721456 0.036858305 0.06905576 0.0081303185 0.008460669
0.0054190746 -0.021998456 -0.0016791197 -0.036319252 0.015738469 0.004625202 -0.00031446136 -0.0150392875
-0.013940755 0.015258479 -0.0068619233 0.007852005 -0.014491978 -0.009529766 -0.0072391164 0.012604728
0.006704602 -0.01708973 -0.005180052 -0.011299042 -0.013824091 -0.016849093 0.01951225 0.05655288
-0.014136864 0.015999813 -0.014966653 0.021125395 -0.022968788 0.015962457 -0.004203227 -0.013318867
0.06875479 0.07146293 0.050823484 0.026927723 -0.010781695 -0.012261341 -0.004671488 -0.01170104
-0.021310093 -0.057468254 -0.01950807 -0.009383952 -0.019136377 0.028771577 -0.015401506 -0.008423765
-0.021426972 0.00782546 -0.020932764 -0.010967787 0.0076091317 -0.0037023243 0.013685462 0.047202203
0.022267407 0.020343708 -0.033694938 -0.0068059685 0.045079432 -0.0088525545 0.016657928 0.0140189845
-0.0060474775 0.041344628 0.029518493 0.012273283 -0.014494005 0.0057554697 0.020606598 -0.017882794
0.023320291 0.008184365 0.022630336 0.012131177 0.01788839 -0.044662666 0.014567018 -0.010107281
0.0021783328 0.0080314325 0.006459585 0.01782053 0.025701473 0.009739609 0.023613537 -0.02652182
-0.01601697 0.012331492 -0.0106681585 -0.020206472 -0.03597159 0.006558621 -0.009651018 -0.034443863
-0.0020843837 -0.033139642 -0.0058293818 -0.020454163 0.026826816 0.026094655 -0.008667495 0.015900362
-0.01664568 -0.028352601 -0.0005331419 -0.00701401 -0.010727569 -0.0034155305 0.03628111 0.0065319017
-0.028159693 0.028030477 -0.016517976 0.0120724365 -0.0110010225 0.00925642 0.024375381 0.022887515
-0.0075757084 -0.0036498725 0.023710784 -0.01791769 -0.033509556 -0.06544571 0.0074256323 -0.0137283
0.014244909 0.030244261 -0.008668622 0.033897895 -0.013917965 -0.009701317 0.01355156 0.0023242065
0.011144235 0.0027989529 -0.013965254 -0.00021630182 0.0061998153 0.00097143685 -0.004644193 -0.018828338
-0.022150261 0.012496304 -0.009108455 0.0028570099 -0.014450548 0.0075889067 5.9780683e-05 -0.051144667
0.012595101 -0.040300466 0.021366231 -0.041224595 0.010300333 0.006766981 -0.0038215062 0.014155351
-0.0576983 -0.072225265 -0.0468121 -0.017056247 0.016355557 0.015200974 0.006875819 -0.0033627134
0.017709678 0.055086244 0.0118904365 0.0062950053 0.015888933 -0.020928489 0.012968701 0.007790766
0.0109775085 0.00053819636 0.024260119 0.017297821 0.006464713 0.012517422 0.005631377 -0.07310267
-0.017941842 -0.02188727 0.028125051 -0.0014250138 -0.01937286 0.024021883 -0.0057307193 -0.021235682
0.007874819 -0.023371547 -0.015688865 -0.020561857 0.014953876 0.012469084 -0.017588 -0.0016419286
-0.009636311 -0.0051475256 -0.009535719 -0.042836417 -0.0234289 0.04192729 -0.0037355823 0.015358996
0.006933794 -0.014358237 -0.0006308033 0.012991015 -0.022186123 -0.010023884 -0.033823542 0.024558594
00000000: d242 153b 98d7 ddba c83d 803b 50ab c53c
00000010: 16e2 163d f71d a8bc afb9 cabc a261 283d
00000020: ca4d 723c 34c3 193d 66ed d63b 15e0 b23b
00000030: b867 34bc 72c2 79bc 90d2 3a3c e53c 1f3c
00000040: dce9 e1bb e77a da3c ddc8 f1bb 7493 f73b
00000050: fb4a 89ba 37c1 8bbb 6144 90bc 7da7 e6bc
00000060: 1b57 0e3d 3b59 b73b 788e 9e3c 2c61 76bb
00000070: 997b 9a3b fdec 69bc 29a1 1dbd d213 85bc
00000080: 0e76 d73a a0d5 573a 5c1f 1bbc 6c46 3b3d
00000090: bcf8 163d 1b6d 8d3d 0735 053c 9e9e 0a3c
000000a0: 7e92 b13b 1b36 b4bc e815 dcba 7fc3 14bd
000000b0: f6ed 803c 028f 973b 4ade a4b9 5867 76bc
000000c0: c467 64bc b3fe 793c fcd9 e0bb b2a5 003c
000000d0: c36f 6dbc bc22 1cbc 1c36 edbb 1084 4e3c
000000e0: 47b2 db3b c3ff 8bbc 6dbd a9bb 9e1f 39bc
000000f0: 717e 62bc 1c07 8abc 27d8 9f3c fea3 673d
00000100: 4e9e 67bc 0a12 833c b136 75bc 2a0f ad3c
00000110: 0a29 bcbc b3c3 823c 39bb 89bb 6137 5abc
00000120: 50cf 8c3d 285b 923d 492c 503d 8797 dc3c
00000130: b5a5 30bc cbe3 48bc 4813 99bb b8b5 3fbc
00000140: 8192 aebc d563 6bbd 63cf 9fbc 26bf 19bc
00000150: e4c3 9cbc 5fb2 eb3c 9956 7cbc d503 0abc
00000160: 9e87 afbc 5c36 003c 307b abbc 3cb2 33bc
00000170: 0656 f93b b2a2 72bb fd38 603c 1957 413d
00000180: 236a b63c d9a7 a63c b403 0abd 9a04 dfbb
00000190: 36a5 383d 4e0a 11bc 3576 883c e2af 653c
000001a0: eb29 c6bb fc58 293d c4d0 f13c e115 493c
000001b0: 4378 6dbc 6198 bc3b 2bcf a83c f07e 92bc
000001c0: 320a bf3c b717 063c 4163 b93c d8c1 463c
000001d0: ac8a 923c 33f0 36bd 80aa 6e3c 0299 25bc
000001e0: 5cc2 0e3b 4596 033c edaa d33b 5cfc 913c
000001f0: e58b d23c e292 1f3c 2d71 c13c 4a44 d9bc
00000200: 0536 83bc 070a 4a3c 80c9 2ebc 0b88 a5bc
00000210: f256 13bd b3e9 d63b 4e1f 1ebc 0215 0dbd
00000220: 289a 08bb 6fbd 07bd 6604 bfbb 7d8f a7bc
00000230: e9c3 db3c 75c4 d53c 1c02 0ebc 7a41 823c
00000240: 855c 88bc b743 e8bc 8cc2 0bba c8d5 e5bb
00000250: b0c2 2fbc 18d7 5fbb 809b 143d 9009 d63b
00000260: 28af e6bc 2ca0 e53c b550 87bc 78cb 453c
00000270: a23d 34bc 3da8 173c e1ae c73c 997e bb3c
00000280: a63d f8bb b332 6fbb 1e3d c23c 1fc8 92bc
00000290: 5141 09bd 6708 86bd b852 f33b aaec 60bc
000002a0: 7b63 693c d0c2 f73c d606 0ebc 85d8 0a3d
000002b0: 2d08 64bc 46f2 1ebc 5d07 5e3c b751 183b
000002c0: 4f96 363c a36e 373b 85ce 64bc 14cf 62b9
000002d0: d227 cb3b 06a8 7e3a 512e 98bb e33d 9abc
000002e0: 7774 b5bc 4cbd 4c3c a13b 15bc ac3c 3b3b
000002f0: fec1 6cbc 5dac f83b 05bd 7a38 127d 51bd
00000300: af5b 4e3c 1a12 25bd 3c08 af3c 1fdb 28bd
00000310: bac2 283c 8dbd dd3b 3c72 7abb d8eb 673c
00000320: 0d55 6cbd d7ea 93bd 0bbe 3fbd 8bb9 8bbc
00000330: 17fc 853c 820d 793c 8d4e e13b f860 5cbb
00000340: e313 913c 1da2 613d 1bd0 423c 5546 ce3b
00000350: 8229 823c 3972 abbc ad7a 543c af49 ff3b
00000360: 02db 333c bf15 0d3a 28bd c63c 29b4 8d3c
00000370: f1d5 d33b e015 4d3c 6a87 b83b dab6 95bd
00000380: c5fa 92bc ef4c b3bc 8266 e63c 87c7 baba
00000390: d5b3 9ebc 8ac9 c43c c2c8 bbbb 74f6 adbc
000003a0: 6305 013c b075 bfbc ef85 80bc 5771 a8bc
000003b0: 1a01 753c 214b 4c3c b614 90bc fb35 d7ba
000003c0: 9ee1 1dbc 93ac a8bb b43b 1cbc 3d75 2fbd
000003d0: f7ed bfbc f3bb 2b3d acd0 74bb 4ca4 7b3c
000003e0: e134 e33b d03e 6bbc 7e5c 25ba 44d8 543c
000003f0: acbf b5bc 373b 24bc 8e8a 0abd 1b2f c93c

action_model._discrete_distribution.branches.1.bias f4 [2]
-0.016714957 0.01671496
00000000: ceed 88bc d0ed 883c

exp_avg f4 [128, 56]
8.0498285e-07 -5.6299396e-06 6.637856e-06 -8.629868e-07 4.9360096e-07 -5.1459414e-05 0.00025483122 6.733235e-05
0.00028003415 4.7828245e-05 3.477768e-05 0.0002498937 0.00023130665 -1.4502439e-07 1.5134501e-06 -1.3490207e-06
7.643568e-06 -2.3166882e-05 -0.00010470371 -9.2192786e-05 0.00021685829 9.212125e-05 0.00030426786 0.00012258679
-7.8533776e-07 0.00014884211 0.0002044625 -8.70652e-06 8.93668e-06 -3.6927668e-07 2.2105334e-05 -0.00078223436
0.0004292276 8.458504e-06 0.00025506364 0.00016456738 0.00040352362 0.00012312864 4.3198233e-05 0.00018851849
0.00021691254 1.9834122e-05 -1.3063691e-06 -1.0328244e-05 5.0796807e-06 -0.00045756088 -2.9713614e-05 -0.00012520049
0.00014247 9.388459e-05 0.00015332503 3.1291973e-05 -6.5397995e-05 0.0001223312 5.4828124e-05 1.2130666e-05
9.16276e-05 0.0001276567 0.00015340318 0.003982735 0.003004969 0.0011595449 0.0004810728 0.0006908918
0.0018332222 0.0010100619 0.00058303616 0.000524714 0.001315919 0.0001853022 9.482949e-05 0.00014046658
0.00015767931 0.0036571072 0.0031208326 0.0012039558 0.00064431195 0.0007218631 0.0015411897 0.0008930244
0.0006005219 0.00073793926 0.0011355146 0.00012446387 8.8681736e-05 0.00012500654 0.00012883387 0.0024092365
0.0035008565 0.0011262218 0.0005679074 0.00066369725 0.0014104766 0.000804115 0.00057278504 0.00056201365
0.0008839499 0.00019458332 9.255249e-05 0.000102646714 0.00014541896 0.0021020507 0.0043742573 0.0011885753
0.0004052641 0.0007093377 0.0018181278 0.00096537406 0.00079152256 0.00028559036 0.0011641129 0.00010006201
-2.4714258e-05 -1.7651473e-05 -1.8594445e-05 0.00011330686 -0.00018880708 -0.00033027944 -0.0003000228 -8.307064e-05
-8.861268e-05 -6.505064e-05 -0.00010243042 -0.0003593595 -8.521305e-05 7.798335e-07 -2.5654952e-05 -1.4241394e-05
-2.0674604e-05 5.1852257e-05 -0.00015413223 -0.00034930903 -0.000305401 -0.0001066447 -0.0001257201 -6.702168e-05
-9.8756864e-05 -0.00034355788 -0.00010189286 -2.3030387e-05 -2.528972e-05 -1.8217897e-05 -2.3796152e-05 0.000101784855
-0.00010941265 -0.00034392692 -0.00030762138 -0.00012292738 -0.00010414598 -6.311567e-05 -7.8466284e-05 -0.00035259555
-0.000113531816 -7.630588e-06 -2.2669446e-05 -1.7304365e-05 -1.544521e-05 8.6894666e-05 4.9897557e-05 -0.00022976438
-0.00027789734 -0.000101501835 -6.777991e-07 1.2978548e-05 -4.106987e-07 -0.00032130914 -3.1553587e-05 -2.444732e-05
-7.778941e-05 -0.00011425597 -0.00013062744 -0.0034246584 -0.0022765703 -0.0005596556 -0.00037127003 -0.0006191762
-0.0012887977 -0.00079235627 -0.0004672853 -0.00020520744 -0.0009536484 -0.00016008341 -8.631903e-05 -0.00012793724
-0.00013541328 -0.0033971125 -0.0027453003 -0.0009075693 -0.00042279132 -0.00062185 -0.0011828279 -0.0008131402
-0.00054483383 -0.0004329438 -0.00095782435 -0.0001319942 -7.931854e-05 -0.00011438415 -0.00010973541 -0.0021687003
-0.0029822048 -0.00078561745 -0.00040580414 -0.0005326031 -0.0011468416 -0.00073589827 -0.0005290536 -0.00041765405
-0.00074967503 -0.00016373635 -0.00010189932 -0.00012301576 -0.00014190239 -0.001976498 -0.0042389426 -0.0010376901
-0.00036400085 -0.0006808229 -0.0017370488 -0.0009644233 -0.000820636 -0.00021026621 -0.0011312035 -0.00014213943
-8.553397e-07 -1.18323e-06 -1.5106269e-06 -2.6923166e-05 -3.0979765e-05 -1.7017934e-05 -8.291524e-06 -6.656692e-06
-1.981833e-05 -1.1405862e-05 -6.47395e-06 -1.047817e-05 -1.2985005e-05 -1.2945437e-06 -9.38293e-07 -1.3441893e-06
-1.5678472e-06 -2.6165722e-05 -3.1410626e-05 -1.3846819e-05 -7.2211924e-06 -6.6494513e-06 -2.0150923e-05 -1.0000453e-05
-7.231083e-06 -9.011239e-06 -1.4777233e-05 -1.5665228e-06 -9.0119005e-07 -1.3694558e-06 -1.4387941e-06 -2.3285147e-05
00000000: 0016 5835 d0e8 bcb6 c0ba de36 00a8 67b5
00000010: 0080 0435 20d6 57b8 de9a 8539 c834 8d38
00000020: 8cd1 9239 309b 4838 40de 1138 2a04 8339
00000030: e88a 7239 00b8 1bb4 c021 cb35 0010 b5b5
00000040: e03c 0037 8056 c2b7 6094 dbb8 a057 c1b8
00000050: 7464 6339 3831 c138 2486 9f39 a48a 0039
00000060: 00d0 52b5 8012 1c39 fc64 5639 3812 12b7
00000070: c0ee 1537 0041 c6b4 d86e b937 dc0e 4dba
00000080: f409 e139 00e9 0d37 10ba 8539 b88f 2c39
00000090: 0690 d339 181c 0139 c02f 3538 0cad 4539
000000a0: 0473 6339 7461 a637 8056 afb5 7847 2db7
000000b0: 2072 aa36 c8e4 efb9 8041 f9b7 4048 03b9
000000c0: 0064 1539 e8e3 c438 e0c5 2039 803f 0338
000000d0: 4826 89b8 0846 0039 40f7 6538 d084 4b37
000000e0: 3128 c038 96db 0539 dada 2039 9a81 823b
000000f0: 04ef 443b dffb 973a 8038 fc39 f71c 353a
00000100: bb48 f03a 0e64 843a e5d6 183a f68c 093a
00000110: ea7a ac3a ae4d 4239 32df c638 364a 1339
00000120: b856 2539 14ac 6f3b e286 4c3b 0ece 9d3a
00000130: 0be7 283a 6a3b 3d3a bf01 ca3a da19 6a3a
00000140: 586c 1d3a 4472 413a 8cd5 943a 8482 0239
00000150: a5fa b938 3014 0339 9417 0739 48e4 1d3b
00000160: a06e 653b bc9d 933a 9fdf 143a f8fb 2d3a
00000170: bedf b83a 3fcb 523a f426 163a 1954 133a
00000180: e0b8 673a 1009 4c39 bd18 c238 0944 d738
00000190: 9b7b 1839 8fc2 093b ee55 8f3b f8c9 9b3a
000001a0: a079 d439 d9f2 393a 3f4e ee3a 2811 7d3a
000001b0: 2e7e 4f3a 4abb 9539 2695 983a 62d8 d138
000001c0: 7751 cfb7 4012 94b7 44fb 9bb7 289f ed38
000001d0: 84fa 45b9 5b29 adb9 614c 9db9 3636 aeb8
000001e0: 92d5 b9b8 cc6b 88b8 eacf d6b8 6a68 bcb9
000001f0: 68b4 b2b8 c055 5135 9735 d7b7 52ee 6eb7
00000200: 606e adb7 f07b 5938 8e9e 21b9 7723 b7b9
00000210: 3a1e a0b9 70a6 dfb8 bbd3 03b9 fe8d 8cb8
00000220: b01b cfb8 8f1f b4b9 50af d5b8 6131 c1b7
00000230: 4325 d4b7 a3d2 98b7 d99d c7b7 5475 d538
00000240: 7874 e5b8 1751 b4b9 3e48 a1b9 11e6 00b9
00000250: f268 dab8 f85c 84b8 448e a4b8 93dc b8b9
00000260: ee17 eeb8 2005 00b7 442a beb7 d728 91b7
00000270: 5690 81b7 383b b638 1849 5138 e8ec 70b9
00000280: c0b2 91b9 62dd d4b8 00f2 35b5 70be 5937
00000290: 007e dcb4 6275 a8b9 6858 04b8 3814 cdb7
000002a0: df22 a3b8 b59c efb8 09f9 08b9 3c70 60bb
000002b0: 8332 15bb dab5 12ba 05a7 c2b9 3650 22ba
000002c0: e0ec a8ba 21b6 4fba f9fd f4b9 f42c 57b9
000002d0: 43fe 79ba 10dc 27b9 2d06 b5b8 e426 06b9
000002e0: bafd 0db9 17a2 5ebb 7fea 33bb f2e9 6dba
000002f0: 17aa ddb9 a603 23ba 1e09 9bba ea28 55ba
00000300: 2ed3 0eba bcfc e2b9 8116 7bba ec67 0ab9
00000310: d157 a6b8 86e1 efb8 c021 e6b8 c120 0ebb
00000320: 1871 43bb e5f1 4dba 1cc2 d4b9 649e 0bba
00000330: 9e51 96ba 4ce9 40ba 30b0 0aba 94f8 dab9
00000340: d785 44ba a4b0 2bb9 c8b2 d5b8 cbfd 00b9
00000350: a2cb 14b9 2288 01bb d4e6 8abb 1a03 88ba
00000360: 5ed7 beb9 4079 32ba b0ad e3ba 5ad1 7cba
00000370: f31f 57ba e87a 5cb9 e444 94ba 430b 15b9
00000380: 7f9a 65b5 79cf 9eb5 bfc0 cab5 0fd9 e1b7
00000390: 45f0 01b8 bcc1 8eb7 d31b 0bb7 8d5c dfb6
000003a0: 8a3f a6b7 ce5b 3fb7 cf3a d9b6 66cb 2fb7
000003b0: 2cda 59b7 2fc0 adb5 01df 7bb5 fe69 b4b5
000003c0: d26e d2b5 767e dbb7 e7be 03b8 a24f 68b7
000003d0: 924d f2b6 5a1e dfb6 c709 a9b7 9ec7 27b7
000003e0: 88a2 f2b6 fa2e 17b7 bceb 77b7 5041 d2b5
000003f0: 4fe9 71b5 25ce b7b5 971c c1b5 7954 c3b7

exp_avg_sq f4 [128, 56]
6.665214e-08 9.0406175e-08 1.1780413e-07 2.0803162e-05 2.1969505e-05 1.2158962e-05 4.9517344e-06 2.580468e-06
7.673683e-06 3.4212137e-06 2.2061743e-06 7.970447e-06 5.0049066e-06 9.700718e-08 6.82258e-08 9.221576e-08
1.2216412e-07 2.0246387e-05 2.01636e-05 1.2056354e-05 5.280083e-06 2.6616199e-06 7.5066173e-06 3.4759826e-06
2.2640377e-06 8.017737e-06 4.92396e-06 9.8347456e-08 7.0110424e-08 9.2485195e-08 1.2649572e-07 1.9777493e-05
2.035184e-05 1.2169042e-05 5.512037e-06 2.7568935e-06 7.2572752e-06 3.5275382e-06 2.295628e-06 8.395993e-06
5.023063e-06 1.01851754e-07 7.147182e-08 9.4154345e-08 1.3165851e-07 2.0020463e-05 1.8275698e-05 1.1899277e-05
5.9080076e-06 2.8637508e-06 6.954102e-06 3.666819e-06 2.3389387e-06 8.739387e-06 5.0844415e-06 1.0161804e-07
3.881153e-07 5.7796615e-07 7.315878e-07 0.00011194215 0.00013037506 6.7706256e-05 3.0856416e-05 1.587864e-05
5.0196006e-05 2.1140058e-05 1.3866468e-05 4.6788937e-05 3.1471238e-05 5.969593e-07 3.9018684e-07 5.8230916e-07
7.37782e-07 0.00010618995 0.00012427793 6.6153676e-05 3.210913e-05 1.6159114e-05 4.702285e-05 2.015134e-05
1.3683212e-05 4.656899e-05 2.9517982e-05 5.852653e-07 3.960839e-07 5.7802544e-07 7.5459235e-07 0.00010645966
0.0001247116 6.591602e-05 3.2742548e-05 1.669424e-05 4.5416127e-05 1.9608546e-05 1.3709549e-05 4.6527377e-05
2.8745586e-05 6.027849e-07 3.9516857e-07 5.682515e-07 7.6548235e-07 0.00010241848 0.00012461736 6.3881336e-05
3.2912874e-05 1.6979007e-05 4.2980002e-05 1.9275576e-05 1.3633762e-05 4.658663e-05 2.8014196e-05 5.895755e-07
6.5823855e-08 2.3498238e-08 3.212505e-08 0.012312747 1.7024437e-06 2.194101e-06 1.489076e-06 7.1847865e-07
1.0492693e-06 7.890347e-07 6.006084e-07 2.0191308e-06 9.614536e-07 2.5189141e-08 6.613193e-08 2.394803e-08
3.2763204e-08 0.01241376 1.2969917e-06 1.9319232e-06 1.5324238e-06 7.4090485e-07 9.266838e-07 7.681944e-07
5.9687204e-07 1.8809261e-06 8.7442027e-07 2.5252938e-08 6.583067e-08 2.3067097e-08 3.3011418e-08 0.012515167
1.2321563e-06 1.7125296e-06 1.4777513e-06 7.469596e-07 9.082738e-07 7.5964374e-07 5.9087637e-07 1.6921067e-06
8.28145e-07 2.368618e-08 6.603577e-08 2.378877e-08 3.4448245e-08 0.012618061 1.6954211e-06 1.7213675e-06
1.4453838e-06 7.72744e-07 1.0288421e-06 8.2997724e-07 6.097223e-07 1.653034e-06 9.102358e-07 2.397099e-08
4.5319652e-07 6.552697e-07 8.244264e-07 0.00011659993 0.0001518858 8.78328e-05 3.535126e-05 1.7907061e-05
5.3403168e-05 2.3281798e-05 1.5579428e-05 5.7219815e-05 3.3900837e-05 6.6343927e-07 4.586134e-07 6.67866e-07
8.380246e-07 0.000112123074 0.0001517646 8.894607e-05 3.7742313e-05 1.8299777e-05 4.9513295e-05 2.2452363e-05
1.561667e-05 5.9337508e-05 3.1836502e-05 6.696513e-07 4.6378938e-07 6.5184724e-07 8.485392e-07 0.000110974266
0.00014765639 8.957508e-05 3.8678205e-05 1.8679531e-05 4.5869867e-05 2.1489717e-05 1.5532867e-05 6.107525e-05
3.0039804e-05 6.8943547e-07 4.6934255e-07 6.4625146e-07 8.7861855e-07 0.00010783671 0.00015003451 8.782191e-05
4.083758e-05 1.949455e-05 4.32278e-05 2.1222731e-05 1.5845555e-05 6.331231e-05 2.9007402e-05 6.8076656e-07
3.4548395e-09 7.368968e-11 9.8065944e-11 0.0007893785 2.6095638e-08 6.73266e-09 2.9692404e-09 1.8746809e-09
1.3554268e-08 6.0160317e-09 2.3970832e-09 4.259328e-09 9.383559e-09 9.326104e-11 3.4681449e-09 7.232953e-11
1.002096e-10 0.0007959225 2.7817006e-08 4.297034e-09 2.4585025e-09 1.7233608e-09 1.4562959e-08 6.2412364e-09
2.498827e-09 3.0454481e-09 9.783613e-09 8.215202e-11 3.4806444e-09 7.419968e-11 1.01669374e-10 0.00080251327
00000000: 6722 8f33 5225 c233 81fb fc33 7382 ae37
00000010: 274b b837 58fe 4b37 1327 a636 1a2c 2d36
00000020: 38be 0037 0198 6536 c90d 1436 cfb8 0537
00000030: d2ef a736 4352 d033 8883 9233 2608 c633
00000040: 382c 0334 c9d6 a937 0025 a937 a545 4a37
00000050: 912b b136 489e 3236 5ae1 fb36 ed44 6936
00000060: dfef 1736 eb83 0637 7f38 a536 1633 d333
00000070: 9d8f 9633 469c c633 e1d2 0734 d8e7 a537
00000080: 3eb9 aa37 a329 4c37 0af4 b836 1203 3936
00000090: 8583 f336 a5ba 6c36 970e 1a36 84dc 0c37
000000a0: c88b a836 98b9 da33 0c7c 9933 e631 ca33
000000b0: 045e 0d34 9ef1 a737 c34e 9937 01a3 4737
000000c0: 663d c636 dd2e 4036 4857 e936 7913 7636
000000d0: a9f6 1c36 629f 1237 059b aa36 1c39 da33
000000e0: 295e d034 8825 1b35 5562 4435 7cc2 ea38
000000f0: 4ab5 0839 85fd 8d38 d36b 0138 1f33 8537
00000100: 8d89 5238 ee55 b137 07a4 6837 3d3f 4438
00000110: fcff 0338 bb3e 2035 df7a d134 fb4f 1c35
00000120: fe0b 4635 4cb2 de38 9a50 0239 fcbb 8a38
00000130: eaac 0638 6f8d 8737 673a 4538 ac0a a937
00000140: f390 6537 1253 4338 629d f737 201b 1d35
00000150: 5ba5 d434 9b29 1b35 318f 4a35 1843 df38
00000160: 04c5 0239 653c 8a38 0b55 0938 9b0a 8c37
00000170: 327d 3e38 087d a437 1102 6637 6426 4338
00000180: ad22 f137 10cf 2135 8e27 d434 f289 1835
00000190: 8c7b 4d35 81c9 d638 b8ab 0239 08f8 8538
000001a0: ee0b 0a38 246e 8e37 6d45 3438 fcb1 a137
000001b0: 90bc 6437 0366 4338 0700 eb37 5243 1e35
000001c0: 0c5b 8d33 2cd9 c932 def9 0933 67bb 493c
000001d0: 857f e435 5e3e 1336 43dc c735 7add 4035
000001e0: 9ed4 8c35 0dce 5335 7f39 2135 6780 0736
000001f0: 4b0b 8135 825f d832 6a04 8e33 46b6 cd32
00000200: 86b7 0c33 1563 4b3c 4c14 ae35 30a6 0136
00000210: aead cd35 98e2 4635 3ac1 7835 eb35 4e35
00000220: bc38 2035 2174 fc35 b4b9 6a35 cceb d832
00000230: cb5e 8d33 1525 c632 70c8 0d33 6a0c 4d3c
00000240: 9160 a535 12da e535 2657 c635 ac82 4835
00000250: 1ad0 7335 52ea 4b35 b79c 1e35 581c e335
00000260: b14d 5e35 7676 cb32 8ccf 8d33 0f58 cc32
00000270: 3ff4 1333 fcbb 4e3c 3a8e e335 bd09 e735
00000280: 02ff c135 906e 4f35 bf16 8a35 9acb 5e35
00000290: ccab 2335 d1dd dd35 ee56 7435 c4e8 cd32
000002a0: db4e f334 cae5 2f35 274e 5d35 1c87 f438
000002b0: 8943 1f39 e032 b838 2046 1438 1f37 9637
000002c0: 37fd 5f38 484d c337 91b0 8237 4fff 6f38
000002d0: bf30 0e38 3317 3235 5937 f634 6747 3335
000002e0: 9df4 6035 9e23 eb38 0023 1f39 8f88 ba38
000002f0: 804d 1e38 7982 9937 7fac 4f38 1558 bc37
00000300: 8b00 8337 2ae1 7838 2f88 0538 16c2 3335
00000310: bafe f834 9afa 2e35 2bc7 6335 dbba e838
00000320: 36d4 1a39 41da bb38 683a 2238 fdb1 9c37
00000330: 6564 4038 d144 b437 944c 8237 8615 8038
00000340: fdfd fb37 a511 3935 f3f9 fb34 107a 2d35
00000350: 35da 6b35 6526 e238 9552 1d39 072d b838
00000360: 0549 2b38 3a88 a337 7f4f 3538 7807 b237
00000370: 12ec 8437 8ac6 8438 ec54 f337 ecbd 3635
00000380: 2e6a 6d31 9a0b a22e 38a6 d72e 4bee 4e3a
00000390: ea28 e032 1b55 e731 6e0b 4c31 bcd3 0031
000003a0: 4ddc 6832 93b5 ce31 efb9 2431 7259 9231
000003b0: 5435 2132 4c15 cd2e 4054 6e31 e80d 9f2e
000003c0: fd5c dc2e 74a5 503a 3ef2 ee32 1ca5 9331
000003d0: 6ff2 2831 5edb ec30 9230 7a32 7f72 d631
000003e0: d4b7 2b31 1748 5131 c914 2832 7aa7 b42e
000003f0: 2530 6f31 b52a a32e c592 df2e c15f 523a

exp_avg f4 [128]
5.0797244e-06 0.00014541893 -1.5445225e-05 -0.00014190238 -8.888006e-07 -5.9810365e-05 -2.2157168e-05 -0.00021799403
0.00026468 0.00032606354 -1.1261609e-06 4.7865055e-05 5.0636563e-06 4.1199986e-05 -5.5045795e-05 1.6396854e-05
-1.0212574e-05 -9.256512e-07 -3.3901233e-05 -6.136084e-05 -4.8697304e-05 3.1838077e-05 -0.00019474675 -0.00016758358
9.349041e-05 -5.9094513e-05 -5.833439e-05 7.939803e-06 -7.2853054e-06 0.000112890186 6.233527e-05 1.5421836e-05
9.727107e-05 0.00022657971 -0.0001614718 -6.5403183e-06 0.00021353738 3.7324586e-05 7.2735435e-05 0.00012898215
-2.5819336e-06 0.00011740983 -0.000115117386 0.00011534807 -3.0570158e-05 -2.649473e-05 -9.189329e-05 3.9895235e-06
1.1197999e-05 8.774431e-05 0.00014883881 1.9315064e-06 -0.00014884479 -8.663307e-05 9.1068854e-05 0.0001021054
-0.0001569695 6.8399454e-06 6.373512e-05 7.971492e-06 -0.00010550688 -0.00010186466 3.6153695e-05 3.202247e-05
-4.581325e-07 -3.964434e-06 -3.4817596e-05 2.528033e-05 2.1199394e-05 -1.1773828e-06 8.72832e-05 -8.853702e-06
-3.6205765e-06 3.9173217e-05 1.4856811e-05 1.4747366e-05 3.9946328e-05 -4.739056e-05 -0.00038466154 -2.2762382e-05
0.0001635548 1.6944396e-06 2.2319728e-05 -0.00033175517 0.00023395232 3.6245438e-05 -7.3958734e-05 8.504381e-05
1.887196e-05 -2.9483206e-05 -0.00011157895 -6.0454135e-05 -1.0647999e-05 -1.2014017e-05 1.1691074e-05 4.6762652e-05
-3.5987727e-05 2.1810294e-05 -6.428035e-05 4.136488e-06 2.9299568e-05 -6.6046905e-06 4.7926856e-06 -0.00012597945
-1.2522194e-06 0.00013039216 0.000100664955 0.00013355457 -7.9321195e-05 -0.00012277564 6.918145e-05 -0.00021676361
-4.8692862e-05 0.000107205546 0.00017607043 -1.1718032e-05 6.8107147e-06 2.4409317e-05 6.7436886e-06 -5.060978e-05
8.419304e-05 0.000115085066 -0.00027162823 -3.204419e-05 7.37985e-06 8.14706e-05 -2.6027465e-06 -0.00019245938
00000000: 8072 aa36 997b 1839 5e90 81b7 a1cb 14b9
00000010: ea95 6eb5 e4dc 7ab8 28de b9b7 5495 64b9
00000020: c0c4 8a39 82f3 aa39 9826 97b5 b6c2 4838
00000030: 7ae8 a936 26ce 2c38 f9e0 66b8 fa8b 8937
00000040: ac56 2bb7 447a 78b5 2c31 0eb8 daae 80b8
00000050: 5540 4cb8 e089 0538 ef34 4cb9 60b9 2fb9
00000060: 4810 c438 40dc 77b8 13ac 74b8 3235 0537
00000070: 4c74 f4b6 75bf ec38 feb9 8238 245e 8137
00000080: 02fe cb38 0796 6d39 c250 29b9 e874 dbb6
00000090: 01e9 5f39 f88c 1c38 8a89 9838 623f 0739
000000a0: 4845 2db6 ec39 f638 2d6b f1b8 06e7 f138
000000b0: 7538 00b8 0041 deb7 d6b6 c0b8 bfdd 8536
000000c0: 0adf 3b37 5e03 b838 9d11 1c39 079f 0136
000000d0: 3813 1cb9 c6ae b5b8 38fc be38 6b21 d638
000000e0: 2e98 24b9 af82 e536 88a9 8538 4cbd 0537
000000f0: 9343 ddb8 2ca0 d5b8 bca3 1738 de4f 0638
00000100: 40f5 f5b4 3b06 85b6 1c09 12b8 1811 d437
00000110: 5ad5 b137 9106 9eb5 d00b b738 5c8a 14b7
00000120: 08f9 72b6 ec4d 2438 8441 7937 746b 7737
00000130: 0b8c 2738 3ac5 46b8 66ac c9b9 d8f1 beb7
00000140: e87f 2b39 806c e335 403b bb37 6def adb9
00000150: 1951 7539 3e06 1838 4b1a 9bb8 8c59 b238
00000160: 3a4f 9e37 b452 f7b7 7eff e9b8 2290 7db8
00000170: cfa4 32b7 cf8f 49b7 c824 4437 0423 4438
00000180: 87f1 16b8 40f5 b637 40ce 86b8 29cc 8a36
00000190: 58c8 f537 dc9d ddb6 dbd0 a036 5a19 04b9
000001a0: ee11 a8b5 e1b9 0839 161c d338 c80a 0c39
000001b0: 3e59 a6b8 56bd 00b9 8215 9138 0a4b 63b9
000001c0: 903b 4cb8 8ad3 e038 8c9f 3839 9098 44b7
000001d0: 9887 e436 9cc2 cc37 d847 e236 d645 54b8
000001e0: cb90 b038 d359 f138 5369 8eb9 3067 06b8
000001f0: 6ea0 f736 32db aa38 d8aa 2eb6 ecce 49b9
